Bestdecoder_params3.pth (torch, 102535 bytes, 9 tensors)

decoder_lin.0.weight f4 [64, 3]
000000 a1 e2 2c bd 44 f9 d2 be 95 20 df bd b4 07 a0 3e
       -0.042208318 -0.412058 -0.108948864 0.31255877
000010 8a 33 36 bc b0 ac fd 3e 6b 0f dd 3e 41 b4 b7 be
       -0.011120686 0.49545813 0.43175825 -0.3587971
000020 bd af 10 3e 62 18 19 be 4d 6d 96 3d fc ee b3 3e
       0.14129539 -0.14950708 0.07345066 0.35143268
000030 d7 92 4c 3f 25 3f 7d 3e 3e 4b 10 be 77 82 0e 3e
       0.7991156 0.24731119 -0.14091203 0.13916956
000040 c8 bb 82 be 27 72 81 3e 66 3e 90 3e 82 fa 04 3f
       -0.2553389 0.25282404 0.28172606 0.51944745
000050 07 7c 29 3e a7 7e 5a 3e 9f cb f8 3d 9a 50 4d bf
       0.16551219 0.21337377 0.12148213 -0.80201113
000060 63 c8 72 3e 03 f4 88 be dd ba 11 3f f7 0c b4 3d
       0.23709254 -0.26748666 0.56925756 0.08791535
000070 e4 d8 13 be 1f 1a 59 3e 35 b6 04 bf e8 42 c0 be
       -0.14438206 0.2120137 -0.51840526 -0.37551045
000080 64 01 2b bf 5d cd 02 3e 04 c7 d4 be 91 0e 8c be
       -0.66798997 0.12773652 -0.41558087 -0.27354863
000090 2d f9 03 be 89 5a b9 3d 5a 1c f9 bd 2d b5 0a bc
       -0.12888022 0.09050471 -0.12163611 -0.008466047
0000a0 d3 86 f3 bc 86 b8 98 3e 8b f2 ea bc 99 a8 24 3e
       -0.029727375 0.2982828 -0.028680107 0.1607994
0000b0 c5 8f c8 3e 58 35 ea bb a7 82 ca 3e 9f 96 77 3e
       0.39172187 -0.0071474724 0.39552805 0.24178551
0000c0 c8 c0 1a 3e 1e 2e ac be 03 1e a0 3e df 97 d7 be
       0.15112603 -0.33628935 0.31272897 -0.42108056
0000d0 da c2 c3 bc 7f d5 0a 3e 34 72 e3 be c1 fc 56 3c
       -0.023896623 0.13558005 -0.44423068 0.013121785
0000e0 46 56 f7 be 28 c3 b8 be ae de 1f bc ea 77 ca be
       -0.4830801 -0.36086392 -0.009757681 -0.39544612
0000f0 d4 6c 2f be d9 3e fc bd 6f 0c d6 3e ad f7 0c 3f
       -0.17131358 -0.12316675 0.4180636 0.55065423
000100 e4 30 1a 3f a2 16 74 bd 1d 61 8f be ac b2 72 bd
       0.6023085 -0.059591897 -0.2800378 -0.059252426
000110 d4 05 a0 be fc de f5 be 0d 74 90 be 3b 35 73 bc
       -0.31254447 -0.48021686 -0.2821354 -0.014844234
000120 4c 98 98 3d d1 99 30 be cb e2 41 bd cc 4a c2 be
       0.07450923 -0.17246176 -0.047335427 -0.3794769
000130 72 4f 15 3e 6e 00 60 3e ad d1 61 bd 9a 19 3f 3e
       0.14581087 0.21875164 -0.055131603 0.1866211
000140 67 7d 58 3e a7 41 99 bc 43 83 03 3f 84 fa 2c bf
       0.21141587 -0.018708063 0.51372164 -0.67569757
000150 e8 34 90 be ba 8b 86 3e 6a 64 0c 3f cd 70 bf be
       -0.28165364 0.26278478 0.5484072 -0.37390748
000160 1a dd 29 3e 20 31 ad 3e d3 f0 46 be 39 70 3f be
       0.1658825 0.33826542 -0.19427805 -0.18695153
000170 81 6e b8 bd 4d a1 8c be a5 43 cb be f7 f9 65 bf
       -0.09005452 -0.27466813 -0.39700046 -0.8983454
000180 0a 7b d1 be de 6a a6 3e 5c 13 cd 3d 5e 8d 38 3f
       -0.40914184 0.32503408 0.10013458 0.7209071
000190 3e b9 f4 bb 48 72 68 be 58 a2 b1 be 7b 33 88 bd
       -0.0074683717 -0.22699845 -0.3469417 -0.06650444
0001a0 8a 80 e3 3e 4c 39 ae 3e d9 8a fd be f1 96 93 be
       0.44434005 0.3402809 -0.49519995 -0.28826097
0001b0 06 12 0b 3d 66 6d 57 be 62 99 fe 3e c2 f3 c9 be
       0.033952735 -0.21037826 0.49726397 -0.39443785
0001c0 a6 e8 36 3d 31 f0 b8 3d 1e c1 b3 be 61 56 29 3e
       0.044655465 0.09030188 -0.35108274 0.16536857
0001d0 1a 31 ff bd 53 c4 ae be a0 6a 4c be 11 bc 97 3d
       -0.12460537 -0.34134158 -0.19962549 0.07408918
0001e0 c9 6c b0 be f9 2a 3e be 32 81 2d 3e fd 40 6e be
       -0.34457996 -0.1857108 0.16943815 -0.23266979
0001f0 c7 c4 03 3f 5b 5e 6a be 40 e2 9f 3c 6c 12 20 be
       0.51472133 -0.22887556 0.019517064 -0.15632027
000200 38 3c a2 3e fe 97 02 be 06 e1 c1 3e 7c 4e 80 3e
       0.31686568 -0.12753293 0.37866992 0.2505988
000210 13 9e 23 3f 5e cb d2 3e 56 16 f8 bc 5e dd 3a bf
       0.6391308 0.41170782 -0.030284088 -0.7299403
000220 ca 32 b0 3e 03 c8 82 be 84 04 9e be 33 6c 6b 3e
       0.3441375 -0.25543222 -0.3086282 0.22990493
000230 02 05 c1 3c ae c8 89 be d9 97 62 bc f2 69 b3 3e
       0.023561958 -0.2691092 -0.013830149 0.35041767
000240 fa ea cf bd 98 d3 a1 be e2 0b cd 3d f0 f7 8c be
       -0.1015224 -0.31606746 0.10012032 -0.2753291
000250 50 30 95 be e5 6d 95 3e 86 c7 6d be 8d 93 c3 be
       -0.29138422 0.29185405 -0.23220643 -0.3819851
000260 73 2a 37 3c 6a 48 05 bf 1c 41 9a 3d a5 18 ad be
       0.011179554 -0.5206362 0.0753195 -0.33807865
000270 98 ef d0 be 5f f6 02 be a7 8d 2d 3e 84 c8 85 bd
       -0.40807796 -0.12789296 0.16948567 -0.06532386
000280 f0 73 01 bf 4a d6 86 3d 14 fc 57 3d c6 ff c1 bd
       -0.5056753 0.06583841 0.052730635 -0.09472613
000290 1d f9 62 3e 64 8d 07 bf 1d 22 60 be 3f fc 42 bc
       0.22165342 -0.5295012 -0.21888013 -0.0119009605
0002a0 cd 26 86 be 36 aa 65 3e bd 85 e1 be 8d 47 0a 3f
       -0.26201478 0.22428212 -0.44047347 0.5401543
0002b0 94 d0 96 3d 8f 4d 6c 3e 12 f3 1d 3f 20 44 a3 be
       0.07364002 0.23076461 0.6169902 -0.31887913
0002c0 b1 d8 28 bf 14 eb d1 be 86 85 a1 3e 4f ba a1 3d
       -0.65955645 -0.40999663 0.31547183 0.07896864
0002d0 07 d6 c1 bd f8 08 81 be 4e 8d a8 3d f1 47 98 be
       -0.094646506 -0.25202155 0.08230077 -0.29742387
0002e0 84 cc d5 be 4e 17 89 be 8b 29 05 bf 0f fe d5 3d
       -0.41757596 -0.26775593 -0.52016515 0.104488485
0002f0 0f bc 5f bd b3 d6 08 3e 99 d8 17 bb bf 2a b0 3e
       -0.054622706 0.13363151 -0.0023169874 0.34407613

decoder_lin.0.bias f4 [64]
000000 57 77 3d 3e d3 98 62 3d 07 30 19 3f d1 fe ee bd
       0.18502556 0.055321526 0.5983891 -0.11669696
000010 5e 48 12 bd 60 ca f1 3e 3c df 2c 3e 97 c6 eb bd
       -0.035713546 0.47224712 0.16882032 -0.115124874
000020 33 d9 86 bd 0a 8e 61 3f 4f 96 eb 3d d6 4c 05 3f
       -0.06584396 0.8810736 0.115032785 0.5207037
000030 50 09 92 3f 69 31 b5 bd 10 89 1c 3f 8b d6 3e 3f
       1.1409092 -0.08847315 0.6114664 0.74546117
000040 c2 76 5d be 3e d6 2e bf 0b c4 2b 3f f2 86 47 3f
       -0.21627334 -0.6829566 0.6709601 0.77940285
000050 ab 9a 2c 3f 19 97 59 3d 72 1b 1f 3f 98 1c 0b bd
       0.67423505 0.053122614 0.62151253 -0.033962816
000060 3c 88 b8 3f b9 72 1b 3d ce a7 10 3f 17 3c 00 3f
       1.4416575 0.037951205 0.5650605 0.5009169
000070 1e 4e 43 3d 0a ee 11 3f 91 01 56 3f 24 74 2e bf
       0.04768192 0.57003844 0.8359614 -0.68145967
000080 bf 91 c9 3e 53 a8 3d be 75 6e 87 bd 4f 4d 07 3e
       0.39369008 -0.18521242 -0.06612865 0.13213085
000090 fb 5a 11 bf 40 b8 f7 be 81 44 89 3d af 5e c3 bd
       -0.5677945 -0.4838276 0.06702519 -0.09539544
0000a0 d7 98 96 be 08 9a 0c 3f 16 20 52 3e 13 a9 71 be
       -0.29413483 0.54922533 0.20520052 -0.23599653
0000b0 cf b3 ea 3c c8 a2 24 bf 38 52 17 3f 43 b5 ff be
       0.028650193 -0.64310884 0.5910983 -0.4994298
0000c0 fe a1 e8 3e 2c 77 8e 3e d3 2f 6d bf 14 69 15 bf
       0.4543609 0.27825296 -0.926511 -0.5836346
0000d0 87 73 52 3f 54 7f 3d bf f1 44 68 3f 40 1e 02 bf
       0.8220753 -0.7402241 0.90730196 -0.5082741
0000e0 2d 52 7d 3f a7 92 51 3d 1e ed db 3e dd bd 59 bf
       0.98953515 0.05116525 0.42954344 -0.85055333
0000f0 70 b3 89 be 58 50 22 3e cc 42 81 3e bd e3 67 be
       -0.26894712 0.15850961 0.25246274 -0.22645469

decoder_lin.2.weight f4 [288, 64]
000000 d3 1c 10 bc cf d5 90 3d c2 db 2b 3e 06 ab 12 3b
       -0.008795935 0.07072031 0.1678305 0.002237977
000010 86 c1 d0 bc de 9e d9 3d fb bc 79 3c ec 70 9b bd
       -0.025482904 0.10626005 0.01524281 -0.075898975
000020 5f ce 8c 3d 69 cd de 3d 42 4a 1a 3d d1 58 dd bb
       0.068753 0.10879023 0.037668474 -0.0067549725
000030 d3 2f 85 3d 25 68 48 3c 9f 53 90 bc 89 02 0a bd
       0.06503262 0.012231861 -0.017617999 -0.033693824
000040 42 ca 20 3d 9d b5 54 bc 3f 9a 46 3d f1 0b 80 3b
       0.039255388 -0.012982753 0.048486944 0.0039076735
000050 2e 48 04 3d 17 00 87 bd e0 46 80 3c 59 3d a5 3c
       0.0322954 -0.06591814 0.015658796 0.020170854
000060 05 df 1e 3c 15 88 19 bd f9 82 8c bb e9 94 b1 3a
       0.009696727 -0.037483294 -0.004288074 0.0013548407
000070 60 f4 d9 3a 20 fc 71 3c 24 77 7f 3c fb 8d 02 bc
       0.0016628616 0.014769584 0.01559237 -0.007968421
000080 13 55 47 bd 09 bd e8 3d ac 1f 8a 3d 3f fc cd bc
       -0.048665117 0.113641806 0.06744322 -0.025144694
000090 cd 24 a0 3c fa 71 47 bc 34 d9 7b 3c d6 fd b2 bb
       0.019548798 -0.01217317 0.0153716095 -0.0054623885
0000a0 b3 06 82 bc 93 13 d8 3c 08 01 dd 3c 64 28 6f bd
       -0.015872335 0.026376521 0.02697803 -0.05838813
0000b0 ae 29 ed bc 96 fd 1d bc dc 3e 40 3d 7b 26 7b 3c
       -0.028950538 -0.009642979 0.046934947 0.015328999
0000c0 ae 9f 90 bc 6e 8d 90 3d 06 3a c5 bd 36 f1 9e bd
       -0.017654266 0.070582256 -0.09630208 -0.07760851
0000d0 ed 59 06 3d b8 25 54 bd 4b fb 63 3d 0c c0 53 bd
       0.032800604 -0.051793784 0.055659574 -0.051696822
0000e0 ff 0c 22 3c ec 86 4b 3d bc 4c 9b bc 26 da ad bd
       0.009890794 0.04968922 -0.018957488 -0.08488874
0000f0 2e 79 3d bc 88 1e 94 3c 25 c7 a6 3b 20 d0 25 3d
       -0.011564536 0.018080965 0.005089658 0.040481687
000100 f2 66 8c 2c cf 87 ae b7 b6 fa 92 b5 c4 2b 6a b6
       3.9904685e-12 -2.0805657e-05 -1.0950814e-06 -3.4894192e-06
000110 cc 0d 42 36 64 e7 c3 b3 37 10 e4 b6 98 a1 1c 23
       2.8916284e-06 -9.122485e-08 -6.796817e-06 8.490996e-18
000120 54 e8 f4 b7 7a 9e 0d b3 b3 55 69 b6 d8 a6 96 aa
       -2.9195253e-05 -3.2973254e-08 -3.476959e-06 -2.6761124e-13
000130 b4 24 01 23 2e 32 d8 b4 5e c6 e8 b7 be 63 a8 b7
       7.000876e-18 -4.0269646e-07 -2.7748927e-05 -2.0073607e-05
000140 f9 f3 a2 b4 d7 8a 23 b5 f9 32 aa b2 57 d4 01 b2
       -3.0352365e-07 -6.092427e-07 -1.9813784e-08 -7.557069e-09
000150 8e e1 6c b7 0f fc 10 b4 27 2f 1e ad 34 8e b8 b7
       -1.4119212e-05 -1.3502743e-07 -8.99173e-12 -2.2000728e-05
000160 13 f0 3b 26 f5 2e d3 b7 2d 26 f7 b4 55 00 bd 1b
       6.520402e-16 -2.5175026e-05 -4.6035112e-07 3.1267642e-22
000170 fe c7 44 ba a4 94 23 38 7b 8d 2b b1 a0 f0 2f b2
       -0.0007506608 3.900066e-05 -2.4964197e-09 -1.02410525e-08
000180 aa fd 97 b7 6e d8 58 b4 2a db bb b9 d3 d1 ab 31
       -1.8118724e-05 -2.0195304e-07 -0.0003583071 5.0006093e-09
000190 8a 8a 63 b6 c8 89 f4 b2 68 87 b5 b3 5a 0d 95 b6
       -3.3906276e-06 -2.8467994e-08 -8.4530996e-08 -4.4421004e-06
0001a0 40 b6 2f b8 62 d8 90 af 14 9b c6 b5 2f 9f ac b5
       -4.1892985e-05 -2.6347197e-10 -1.4797283e-06 -1.2861327e-06
0001b0 e2 6d dd b3 9d e1 69 b5 67 fd 83 b6 e9 54 15 b7
       -1.0311102e-07 -8.7127574e-07 -3.933604e-06 -8.900862e-06
0001c0 b0 33 84 b5 19 34 44 b8 7c 9a 07 80 b5 60 0e a9
       -9.849809e-07 -4.677856e-05 -6.98267e-40 -3.1614214e-14
0001d0 3a 06 b6 b8 4b 79 2b a2 13 8f de b3 49 24 87 b3
       -8.679596e-05 -2.3239033e-18 -1.03637056e-07 -6.2930276e-08
0001e0 93 0a 00 80 ef 84 07 b6 36 43 06 31 da f7 1a b5
       -3.793e-42 -2.0193945e-06 1.9537771e-09 -5.773014e-07
0001f0 74 76 01 af 32 5a 95 b3 f7 8d 60 b7 64 04 23 b4
       -1.1774565e-10 -6.9547596e-08 -1.3384494e-05 -1.5182155e-07
000200 a6 93 a6 3d dd 5f 17 3d fb 01 8d 3d d1 e3 2d 3d
       0.081336305 0.036956657 0.06885143 0.04245359
000210 d5 80 9e bb c0 cd a0 3d 17 99 2c 3d dd 16 93 bc
       -0.0048371353 0.07851744 0.042138185 -0.017955238
000220 94 de 2b 3d a4 79 bb 3d fc a7 cc bd 54 0a 96 3d
       0.041960314 0.091540605 -0.09992978 0.07326189
000230 d6 96 b6 3d 69 d5 9b bb fb 47 86 3c fc be dc 3d
       0.089154884 -0.004755665 0.016391745 0.10778615
000240 b3 50 57 3d 8f c4 97 be 06 98 a0 bd 89 55 18 be
       0.052567195 -0.2964215 -0.07841496 -0.14876379
000250 80 48 9a 3d 06 a8 ca 3c fd 95 20 be 44 1f c2 bc
       0.075333595 0.024738323 -0.15682216 -0.02369655
000260 c5 09 e7 3d cd 81 3f bd c3 96 94 3d 72 2c 8d 3e
       0.1128116 -0.046754647 0.07255318 0.27572972
000270 fb 6a b6 3d 12 47 3b 3d dd 15 88 3d 27 b8 3c be
       0.08907124 0.045722075 0.06644795 -0.18429624
000280 02 6c cd bd 69 a2 26 be 60 cb 47 3b e6 42 63 3d
       -0.100303665 -0.16272892 0.0030486211 0.05548372
000290 82 7f 82 3b 5f 33 73 be 16 82 84 bd 76 37 31 bb
       0.0039824853 -0.23750065 -0.064701244 -0.0027041114
0002a0 c5 8a 9b 3c de 18 30 bc 00 aa 4c 3d 23 21 3e bd
       0.018987069 -0.010748116 0.049966812 -0.04641832
0002b0 a1 f5 12 3d 7c 25 4b bd fd 37 92 bd d9 17 83 bd
       0.03587878 -0.049596295 -0.07139585 -0.06401033
0002c0 f7 18 79 3d 8a 9f ac 3d dc 83 3b 3d c9 43 0d bd
       0.060814824 0.08428867 0.045780048 -0.034488473
0002d0 0e a4 fa bc d7 02 1f 3d 17 c4 b1 3d 5f 86 91 bd
       -0.030595805 0.038821068 0.08679979 -0.071057074
0002e0 df 46 0c 3e 11 42 80 bc df 73 9a 3d 49 84 71 be
       0.1369891 -0.015656503 0.07541632 -0.23585619
0002f0 2b 10 49 3d 96 f8 5b 3d 5a d4 17 be d0 62 cb 3b
       0.049087685 0.053703867 -0.148271 0.0062068477
000300 f8 9f 18 3d 24 29 6c be 2c 2c 85 bd dd b5 f5 bd
       0.037261933 -0.23062569 -0.06502566 -0.11997578
000310 4a 26 88 3d 5d 34 10 be a0 e9 05 be 28 36 72 3c
       0.06647928 -0.14082475 -0.13077402 0.01478342
000320 c4 f8 13 be 0e d1 1c be ee 07 10 bc 63 ee 58 3d
       -0.14450365 -0.15314123 -0.008790953 0.05296172
000330 0b 9a e6 3a f0 d5 d3 bd 12 4e f2 bd 96 31 11 be
       0.0017593516 -0.1034354 -0.11831297 -0.14179072
000340 93 63 3f bd 27 11 06 3d 91 83 ab bb f3 67 b2 3d
       -0.04672582 0.0327312 -0.00523419 0.08711233
000350 d4 d4 05 bd f4 cc 5d bd b4 e9 b7 3d 71 ef d1 3d
       -0.03267367 -0.054150537 0.08980122 0.10250748
000360 ad 2b 9e 3d 10 db 54 3d d0 3f 25 be ed bc f7 3a
       0.07723174 0.051966727 -0.16137624 0.0018900909
000370 ef 38 4a bd e8 71 2e 3c c4 0e b0 3d fd 69 c7 bd
       -0.049370702 0.010647275 0.08596566 -0.097370125
000380 23 b9 62 3d 21 1f de 3d 7c 9c 77 3c 06 2d 57 3d
       0.05535234 0.10845781 0.015112992 0.052533172
000390 af f5 f1 bd e0 af 9a 3d eb b0 d8 3d d9 f1 91 3d
       -0.118144386 0.07553077 0.105806194 0.07126207
0003a0 91 c7 84 3d 19 1e a2 3c cd 26 92 bd fd f9 84 bd
       0.06483377 0.019789742 -0.07136307 -0.06492994
0003b0 1c bd bd bc 4d a3 14 3e 01 b2 81 3c d1 7d 74 3c
       -0.023161463 0.1451542 0.01583195 0.014922575
0003c0 1b 55 99 3d 00 89 c4 bc f1 64 d5 3d 5a a4 07 3e
       0.07486936 -0.023991108 0.10419644 0.13246289
0003d0 ba 35 bf 3d 14 74 dc 3d d3 5e a7 bd 48 6d 18 3e
       0.093364194 0.10764328 -0.08172383 0.14885437
0003e0 66 2a 80 bc 38 98 88 3c 69 04 da 3c 04 26 50 3d
       -0.015645217 0.016674146 0.026613431 0.050817505
0003f0 76 9e f3 3c cd bf b4 3d f4 a5 f6 3d 69 8c 56 be
       0.029738646 0.088256456 0.12043372 -0.20952

decoder_lin.2.bias f4 [288]
000000 50 c2 97 3d 7c 7d 24 a6 a3 24 93 3e a9 43 25 3d
       0.07410109 -5.7068993e-16 0.2873889 0.04034773
000010 5c d8 bf bd 8e b3 1a ba 1f ae 65 3e 87 a9 5a 3d
       -0.09367439 -0.00059013895 0.22429703 0.05338433
000020 ec 0b d7 3b a8 01 c6 3d ad 98 ee 3c 54 c9 af 3c
       0.0065627005 0.09668285 0.029125536 0.021458305
000030 97 fa 2a 3e 71 ad 97 bd 57 59 74 a9 b3 8f 38 3d
       0.16697155 -0.07406128 -5.4256374e-14 0.045058917
000040 2f 30 b8 3e 39 b3 71 3e 35 36 92 3d f5 2b 07 00
       0.3597426 0.23603524 0.071392454 6.58617e-40
000050 bb 65 85 3e f4 64 13 3d 5e eb ac 3e 27 8b 22 3e
       0.26054177 0.03598495 0.3377332 0.15873395
000060 e3 23 a8 bd 46 48 00 95 c6 3c 08 80 97 3e 5a 3e
       -0.0820997 -2.5906408e-26 -7.56485e-40 0.21312939
000070 a7 e0 c0 bd 7a a9 42 b5 09 78 51 b6 19 a3 6a bd
       -0.09417849 -7.251725e-07 -3.1213297e-06 -0.05728445
000080 dd 4e cd bb 0a 38 47 3d a6 e1 88 88 2c 76 00 80
       -0.0062655048 0.048637427 -8.238252e-34 -4.2392e-41
000090 33 ae 47 3c 28 88 e4 3a ca f9 b9 3d 5b d7 1d be
       0.012187528 0.0017435597 0.090808466 -0.15414183
0000a0 65 8d cc b5 31 fb 26 be 0d 3f 8e bc b9 04 af bc
       -1.5240336e-06 -0.1630676 -0.01736405 -0.021364557
0000b0 ce de 32 bb 84 ad 00 bd 9c 6d 61 3e 0e bc b2 bc
       -0.0027293446 -0.031415477 0.22014469 -0.021818187
0000c0 ed 84 c1 b1 43 5f 61 be ec cf a5 bd 6b 64 25 bb
       -5.632151e-09 -0.22008996 -0.080962986 -0.0025236856
0000d0 d9 0c 32 3c 03 28 ea a9 c7 4e fa 3a 70 f5 99 3e
       0.010867321 -1.03986284e-13 0.0019096964 0.30070066
0000e0 98 96 d1 3d 27 81 e2 ab d8 d1 03 00 67 e1 45 3e
       0.102338016 -1.6094113e-12 3.50784e-40 0.19324265
0000f0 93 47 38 3c 6d 47 46 3d 13 ce 69 3e 32 db 0a ba
       0.011247533 0.04840796 0.22832517 -0.0005296945
000100 aa d5 60 b1 9c 97 d5 bc 24 14 d3 ba 0c ce a8 bd
       -3.2717744e-09 -0.02607327 -0.0016104025 -0.08242425
000110 80 3d 54 3e 55 7d 23 39 3b d8 86 be 14 2a 58 3e
       0.20726585 0.00015591581 -0.26336846 0.21109802
000120 92 89 89 3d c8 de 8b bd b4 d8 d8 b9 6c c9 2b 3e
       0.067156926 -0.068296015 -0.00041360187 0.16776055
000130 34 56 88 3e af 98 05 00 fd 5d 28 3e 1d c7 2b 3e
       0.26628268 5.1395e-40 0.16442104 0.16775174
000140 93 36 56 3e 4a e4 01 80 f3 e9 ec 3d a9 af 5a 3e
       0.20919256 -1.7373e-40 0.1156806 0.21356072
000150 b0 a0 ee 3d 5d b7 55 3e 22 10 02 80 60 b8 b7 3d
       0.116517425 0.20870729 -1.89458e-40 0.089707136
000160 6f 23 31 3e f5 d0 04 00 84 03 17 3e a2 fa 96 3e
       0.17298673 4.42302e-40 0.14747435 0.29488093
000170 24 7f 2f 3e 11 08 1d 3e b7 14 89 bc 86 f7 f2 3d
       0.17138344 0.15335108 -0.01673351 0.118636176
000180 2a ce e3 bd 31 b8 09 bc b3 7f d8 ab c7 e6 23 3e
       -0.11123307 -0.008405731 -1.5383167e-12 0.16006003
000190 97 30 a6 bd 9b 6d 0b 3e cf c7 65 3d 59 1e 9d ba
       -0.081147365 0.1361603 0.056098755 -0.0011987194
0001a0 99 6d 18 3e 62 c8 fa 3c 4b 98 7e b2 a4 4d 4f 3e
       0.14885558 0.030613128 -1.4819373e-08 0.20244461
0001b0 4b 96 95 3d 1e fa 15 b7 58 72 46 bd 97 b3 df 3c
       0.07304057 -8.939327e-06 -0.04844889 0.027307315
0001c0 20 13 d9 bb 9a 32 5a 3e 91 d5 0d 3e 27 36 40 3e
       -0.0066245943 0.21308365 0.13851 0.18770657
0001d0 99 23 76 3e df 06 38 3c 9c d8 ee 34 e7 cd b9 3d
       0.24037017 0.011232107 4.448856e-07 0.09072476
0001e0 0c 53 27 a8 5a 6b b7 3d c6 df 2a 3e af 9a 03 80
       -9.28837e-15 0.089560226 0.16686925 -3.30997e-40
0001f0 9a cb 7f 3e f2 59 c0 3b c7 d9 e2 3c 92 0e b1 b9
       0.24980012 0.0058700973 0.027691735 -0.00033770927
000200 35 90 93 3c df cf 62 3d a7 04 5b 00 72 6b 75 b4
       0.0180131 0.055374023 8.358699e-39 -2.2856491e-07
000210 82 6f fd 3d 70 a8 c5 3d 1b 1f b6 3e 89 e9 d9 b5
       0.12374784 0.096512675 0.35570607 -1.6235728e-06
000220 0d 18 39 3e ae 0a a3 3d 66 40 07 3e 6b 93 22 3e
       0.18075581 0.07961021 0.1320816 0.15876548
000230 e7 90 ae b6 99 9b d6 ad 6e 7c 81 3c b7 ac ae a7
       -5.202473e-06 -2.4398083e-11 0.015806403 -4.848196e-15
000240 a1 b9 83 3d 9d b5 5b 29 c0 b3 06 80 8b c2 f6 3d
       0.0643189 4.8785293e-14 -6.15495e-40 0.12048825
000250 fb b1 95 ad f8 45 a6 be 04 42 30 3e ad 80 a1 aa
       -1.7018378e-11 -0.32475257 0.17212683 -2.8688632e-13
000260 4a f2 16 bc 0f 34 cf 3d 5e 8d a3 bd 0d d6 02 80
       -0.00921304 0.10117351 -0.07985948 -2.60458e-40
000270 de ec 01 3d 93 68 96 be bd c4 2b bc 79 55 a8 3d
       0.031720035 -0.2937666 -0.010483918 0.082194276
000280 05 61 eb 3d cb 78 0d be af 30 10 3d 02 bb ac 3d
       0.114931144 -0.1381561 0.03520268 0.084341064
000290 06 fd 17 3e c8 91 ff ba 23 b4 08 be 5a 7d 38 3e
       0.14842615 -0.0019498402 -0.13349967 0.18016568
0002a0 ce 71 30 3d 93 d9 3d 3e 26 64 10 3e 46 0d 6c 3e
       0.043077283 0.18540029 0.14100704 0.23051938
0002b0 6e e9 cb be 88 ac ed bc ba 8c 28 3b 26 06 d0 bc
       -0.3982653 -0.029012933 0.0025718645 -0.025393557
0002c0 9c b4 ed b5 26 54 b1 bd 22 79 cd b9 1b 41 76 3e
       -1.771044e-06 -0.08658628 -0.00039190898 0.24048273
0002d0 c2 b6 57 bd 27 c0 ea 3d 7f 4c 20 be ef 23 04 af
       -0.052664526 0.114624314 -0.15654181 -1.2018096e-10
0002e0 0e 20 07 be 4f 28 0f be 2b 36 6b 8f c7 71 d0 bd
       -0.13195822 -0.1398022 -1.1596827e-29 -0.10177951
0002f0 ef 0d 67 be f6 98 53 3d 47 bf 3b bc ba 54 d5 3d
       -0.22563909 0.051659547 -0.011459178 0.10416551
000300 d1 a8 a9 ba b5 fe 18 bd 37 f7 e8 8d fc ff 8f 3d
       -0.0012943988 -0.037352283 -1.4357619e-30 0.07031247
000310 e3 88 98 bd bb 1a 04 3e c7 3d 0d 3e 02 f5 15 3e
       -0.07447984 0.12900822 0.13793097 0.14644244
000320 72 bd b1 3e 8b 90 87 3d 89 70 63 b7 6a 6e 25 3c
       0.34714848 0.06619366 -1.3556456e-05 0.010097126
000330 36 6e 3d bc 07 5c c9 3e 2b 53 c1 3d 34 3f 45 3e
       -0.011561921 0.39328024 0.09439691 0.19262391
000340 7d 38 05 80 00 f0 65 b7 29 7f 92 3d 24 b8 02 80
       -4.79442e-40 -1.3705343e-05 0.0715316 -2.49728e-40
000350 15 84 9e b3 6a 62 a2 3d 3d cc 3b 3e 3e 77 c0 bc
       -7.381474e-08 0.07928927 0.1833963 -0.02349436
000360 6e 16 d2 bc fe 45 34 3c b7 c3 a4 bc fc ac 08 80
       -0.025645461 0.011003016 -0.020112855 -7.96739e-40
000370 6c 66 48 3e 69 fa f0 3d 14 3e 33 bc 15 ae 52 3f
       0.19570321 0.11766512 -0.010940094 0.8229688
000380 31 b5 1d 3c 01 d9 74 3b 27 21 c5 3d d6 ab da 3d
       0.009625719 0.003736079 0.09625464 0.10677306
000390 31 38 55 3d 0c ea 9f bb 0b c9 f9 3d 89 97 97 3e
       0.05205554 -0.0048801955 0.12196549 0.296078
0003a0 64 92 33 3e 69 6d e6 3d 7d 91 d1 10 bc b1 bd ba
       0.17536312 0.11251337 8.2660125e-29 -0.0014472525
0003b0 75 60 47 ba 36 8c 08 80 3b 54 a7 bd 07 c6 07 00
       -0.0007605621 -7.84982e-40 -0.081703626 7.13887e-40
0003c0 cb 69 86 bd e3 c6 2a bc d2 88 62 3e d8 89 cc 3d
       -0.06563147 -0.010423395 0.22122505 0.09987229
0003d0 02 e2 ab 3d 52 71 01 80 87 16 08 3e 70 bc db 3d
       0.08392717 -1.32487e-40 0.13289843 0.10729301
0003e0 3c a4 54 3e 1f 16 1b 3e 7d 49 92 98 f0 e0 af 97
       0.20765775 0.15145157 -3.781432e-24 -1.1365892e-24
0003f0 98 65 f1 3c 85 5c 00 00 3f 84 00 00 c9 e6 0d 3c
       0.029467389 3.319e-41 4.7441e-41 0.0086609805

decoder_conv.0.weight f4 [32, 16, 3, 3]
000000 36 61 4b 3d f6 35 27 be c7 4f f8 bd d0 45 63 3e
       0.049653254 -0.16329178 -0.12124591 0.221946
000010 b2 a3 53 3e ce 0c 50 3d a4 eb 41 3e 95 b5 4c 3e
       0.20667914 0.05079346 0.18937546 0.19991143
000020 b3 5e 70 3d fb 92 16 3d 36 bf 29 3e 35 b4 86 be
       0.058684062 0.036761265 0.16576847 -0.26309362
000030 e9 0b 1c 3a a3 8f 9e bd 35 2e 82 be f2 ec 00 3d
       0.00059527025 -0.0774224 -0.25425878 0.03147597
000040 ae 07 14 be 0a 33 13 3d ca c7 48 3d 5c ad 46 3e
       -0.14456055 0.035937347 0.04901866 0.19402069
000050 cc c8 5e 3d 64 96 e2 bd 97 5d fe bd a6 3e 8c 3d
       0.054390714 -0.11063841 -0.124201946 0.06847887
000060 62 2f 1f be 5d d1 81 bd 9a 61 87 3d 28 a7 94 bd
       -0.15545419 -0.06338761 0.06610413 -0.07258445
000070 17 de 8f bd 50 49 e5 bd 38 65 43 be fb 54 2c 3d
       -0.07024782 -0.11195624 -0.1908158 0.04207323
000080 24 91 4f 3e ea c3 70 3d d1 3e 47 3e 77 c3 a1 3d
       0.2027021 0.05878059 0.19457556 0.0789861
000090 36 3c 18 3d 1a 43 27 bd 84 90 a4 3b 70 f8 8e bd
       0.037166797 -0.040835477 0.0050221104 -0.069809794
0000a0 c6 c2 93 ba a6 bb ae 3d d2 b9 87 3d 65 34 11 3e
       -0.0011273257 0.08531885 0.06627239 0.14180143
0000b0 6d 80 17 3e 83 82 15 3d eb 73 41 be 10 b1 61 3e
       0.14795084 0.03650142 -0.18891875 0.220402
0000c0 8e 0e 2f bd 69 e1 54 be a0 43 87 3d c5 e5 c7 3c
       -0.04273849 -0.20789112 0.06604695 0.024401555
0000d0 c6 23 68 3d a3 d6 0b bd 3b 4f 15 bd 68 7f aa bd
       0.05667474 -0.03414024 -0.036452513 -0.08325082
0000e0 f8 9f d9 bd a5 66 12 3e 8e 5f a6 3d e4 d0 39 3d
       -0.10626215 0.14296968 0.08123694 0.04536523
0000f0 96 29 00 3e 3d 2b 21 bc fe e6 06 bd 2f 89 85 3d
       0.12515864 -0.009836969 -0.032935135 0.06520306
000100 f9 9c 01 be ab 3c 0e be 8b 02 e6 3d 40 0e 2d 3d
       -0.12657537 -0.1389033 0.11230954 0.042249918
000110 0e 7d 3b 3d 5a c6 7b 3c 6e 80 57 3e 49 d7 d5 3c
       0.04577356 0.015367115 0.21045086 0.026103633
000120 76 a6 72 3c be 70 0b bc 15 7f 94 be fc d8 a2 bd
       0.014810195 -0.008510767 -0.29003206 -0.07951543
000130 d3 68 39 3e 81 be 04 3e 59 a7 30 3d 27 36 cf bc
       0.18106394 0.12963296 0.043128345 -0.025294377
000140 f7 71 00 bd a4 c9 54 bb 2b 99 dc 3b 25 a2 53 bd
       -0.031358685 -0.003246882 0.006732126 -0.051668305
000150 6b df 0f 3e b0 b0 80 3d 19 7b fb 3d 82 28 8a 3d
       0.14050071 0.062837005 0.122793384 0.067460075
000160 df 30 9d bc 42 d1 5e 3d 8d 6d 5f bd 90 cd 9f bc
       -0.019188343 0.054398783 -0.054547835 -0.0195072
000170 e1 3a 6c bd dc d7 ec 3d 0c c6 bd bd 40 4f d1 3b
       -0.05767334 0.115646094 -0.0926629 0.006387621
000180 bb a8 ae bc 22 10 d8 3c 16 da 45 3d 36 63 d5 bc
       -0.021320691 0.02637488 0.048303686 -0.026048284
000190 e6 2d c2 bd c6 14 62 3d b8 e1 da 3b f4 75 95 be
       -0.09481411 0.055195592 0.00667974 -0.29191554
0001a0 bf 60 d6 3c c7 03 a9 be 44 c2 8b bd a1 28 25 bd
       0.026169179 -0.33010694 -0.068241626 -0.04032195
0001b0 69 0b 8f bd 14 10 b3 3c 3f 94 57 be 2e 6e cb 3d
       -0.06984598 0.021858253 -0.21052645 0.099331245
0001c0 2f 25 15 3d 96 d9 37 be bf f5 34 bd c0 dd 1c 3e
       0.036412414 -0.17954096 -0.044179674 0.15318966
0001d0 e9 66 f7 3d 76 0c 9b ba ef ff 0d bd df 47 15 bd
       0.120801754 -0.0011829275 -0.034667905 -0.036445495
0001e0 dc f2 c3 3c 4b 1e 2c bc 3b f9 c3 bd 63 a7 34 3c
       0.023919515 -0.010505269 -0.09569021 0.011026236
0001f0 94 e0 33 bd 1a 3b e3 3d 47 67 63 bd 8d df 9d bd
       -0.043915346 0.11095257 -0.055518415 -0.077086546
000200 ef c9 cb 3c 7d 72 49 3d e9 92 c5 3c ff 48 42 be
       0.024876563 0.04918145 0.024117904 -0.18973158
000210 ba c8 10 bd 6c 06 05 3d c1 04 6f 3b 5d ca 90 3c
       -0.035347678 0.032476828 0.003647134 0.01767462
000220 3c 5b 4d be 01 c1 09 bd 13 18 44 bd a5 03 1e bd
       -0.20054334 -0.03363133 -0.04787452 -0.038577694
000230 c7 1c b9 bb 67 33 be 3d 80 e3 d6 bc 6a 24 39 3e
       -0.0056491825 0.09287148 -0.026231527 0.18080297
000240 19 2f c9 3d 64 95 17 3e 0a 24 62 bd 13 b0 7a 3e
       0.09823436 0.14803082 -0.05521015 0.2448123
000250 d6 f8 de bc 66 3d 7f bb fd 64 df bd 57 63 09 3c
       -0.027218264 -0.0038946508 -0.10907934 0.008385501
000260 59 02 42 3d 54 cb 57 3d e1 a8 33 bd 96 cb 03 3e
       0.04736552 0.052684143 -0.043862227 0.1287063
000270 dd a3 1d 3e f9 28 9d 3e 61 0c 6e be b9 2b 47 bd
       0.1539454 0.30695322 -0.2324691 -0.04862568
000280 ac 98 20 be 12 da b3 bc f6 7d b4 bd 2c 1a e7 bd
       -0.1568324 -0.02195457 -0.08813088 -0.11284289
000290 1f c1 09 b7 56 68 62 3e bf 9b 80 be da ae 85 be
       -8.210801e-06 0.22110114 -0.25118825 -0.26109964
0002a0 04 c6 1f be e7 d9 c1 bd d7 67 32 3b 97 a1 0e bc
       -0.1560288 -0.0946539 0.0027222538 -0.008705518
0002b0 68 6f cc 3d f0 fa 8f 3d bd 0e 03 3e f1 d1 76 bc
       0.099821866 0.070302844 0.12798591 -0.015064702
0002c0 44 49 86 bd 51 bf 92 3c 85 3f 49 3e b1 83 8a 3b
       -0.06556943 0.017913492 0.19653137 0.0042271246
0002d0 cc ff 39 3d 5a 54 1a bd d5 7a a5 bd ce 9b 06 be
       0.045409963 -0.0376781 -0.08080069 -0.13145372
0002e0 64 e8 0a 3e dc 4b 8a 3d 9c 34 0a be 4a 4d a8 3d
       0.13565212 0.0675275 -0.13496631 0.08217867
0002f0 fb 81 92 3c c1 51 56 3c 6e d7 c5 3c ff 66 87 bd
       0.017884245 0.013081015 0.024150576 -0.06611442
000300 c8 d3 51 3d 30 1c fa bd fe 6a 06 be c7 18 b9 bd
       0.05122736 -0.122124076 -0.13126752 -0.09037929
000310 c8 8e 94 3c ed ee 58 bc e5 4f 45 ba a7 81 e7 3d
       0.01813449 -0.013240558 -0.0007526859 0.11304026
000320 67 de a9 3d 1c 2b 00 bd 57 48 a5 3e 9f 37 d5 3d
       0.08294373 -0.031291112 0.32281753 0.104109995
000330 9c 8e 2c be 60 9a 26 bd b5 72 8b 3c 71 5e 50 3b
       -0.16851276 -0.040674567 0.01702247 0.0031794573
000340 e2 87 9e 3c 0b 1b be 3b ae 9f d5 3d 4d 9e d0 bc
       0.019351903 0.0058015636 0.10430847 -0.025466109
000350 70 b1 34 be 90 4d b6 bd 87 97 ac 3d 66 61 4a 3d
       -0.17645812 -0.089015126 0.08427339 0.049409293
000360 31 88 37 bd c4 0c 29 3e e7 81 8f 3d 47 bb d4 bc
       -0.044807617 0.16508776 0.07007199 -0.025968207
000370 71 f1 3c 3d ea 52 b8 bb 6a 2d 21 3d 43 89 a1 bd
       0.046128694 -0.0056251185 0.03934995 -0.07887509
000380 dd af b7 3d 13 44 cd 3d 8f 8c dd 3d ec 82 ae 3c
       0.0896909 0.1002275 0.10817825 0.021302663
000390 a2 77 d3 bd b2 8c c9 bd f9 dc e9 3d 32 f4 e1 3c
       -0.103255525 -0.098412886 0.114191 0.027582262
0003a0 32 1b d9 3d 03 a4 ed 3d 00 1c 3b 3c dd a1 49 3e
       0.1060089 0.116035484 0.01142025 0.19690652
0003b0 60 45 1b bd 77 11 3a bd 16 40 55 3d a7 0f 66 bb
       -0.037907958 -0.045426812 0.05206307 -0.0035104544
0003c0 ec 02 93 3c 6a 01 16 bd 31 0b ba 3d 6a 3f ff 3a
       0.01794573 -0.036622442 0.09084166 0.0019473855
0003d0 4a 88 c8 bd 3c 93 8c 3d 33 45 38 be 2f 05 1b be
       -0.0979162 0.0686402 -0.17995147 -0.15138696
0003e0 90 c5 e5 bc 98 79 c4 bd 5c 63 07 bc 55 57 f9 bb
       -0.028048307 -0.09593505 -0.008263435 -0.0076092877
0003f0 1e 1b c4 bd 1a 23 2f be 2e 7a 33 bd 8c 13 09 3d
       -0.09575485 -0.17103234 -0.04381769 0.033465907

decoder_conv.0.bias f4 [16]
000000 73 b9 00 3e 35 2a 17 3e 1a 62 a1 bd 9a 1d a3 3e
       0.12570743 0.14762194 -0.078800395 0.31858522
000010 ff a0 b7 3e 98 a6 67 3e 06 09 b4 bb fe 32 d4 3e
       0.35865018 0.22622144 -0.0054942397 0.41445154
000020 99 2e 22 3d 01 9b 3c 3e f7 a7 82 3e 54 13 3d 3f
       0.03959522 0.18418504 0.25518772 0.7385762
000030 f5 f8 90 3e 5c 0e a8 3e 74 e4 f9 3e fa f6 80 3e
       0.2831494 0.32823455 0.48807108 0.25188428

decoder_conv.2.weight f4 [16, 8, 3, 3]
000000 e1 ab 56 bc ad 08 d2 bc b2 0c 0b 3d 72 ee c5 bd
       -0.013102503 -0.025638903 0.033947654 -0.096646205
000010 e0 06 ac 3e 57 a1 91 3d 6a e4 19 be c8 f9 ab 3e
       0.33598995 0.07110851 -0.1502854 0.33589005
000020 89 78 47 3e 38 4d af 3d 1c 79 1e 3e e6 f4 95 3b
       0.19479574 0.0855965 0.15475887 0.0045763133
000030 f9 5a 8a 3e 1e 5e 9b 3e 81 09 1b 3e 11 3f 89 3e
       0.27022532 0.30345243 0.15140344 0.26805928
000040 6d 38 ac 3e 84 68 12 3d 6a ad c3 3c 7b ce 81 bd
       0.336368 0.035744205 0.023886401 -0.06338211
000050 c8 87 04 3d 79 0e d1 bd 9f a0 36 be c7 60 c2 be
       0.032356054 -0.102078386 -0.1783471 -0.3796446
000060 bb 8c 0d bd 3c 23 45 be c7 48 83 be 39 82 c5 bc
       -0.03455804 -0.19251722 -0.25641462 -0.024109947
000070 49 02 1e 3d e4 fb 88 3d 51 4c 66 bd 81 a8 0e 3d
       0.038576398 0.06688669 -0.056225125 0.034828667
000080 53 ed 0a 3e fd 60 bc 3d 04 c1 1e 3e 02 23 31 3e
       0.13567095 0.091981865 0.15503317 0.1729851
000090 67 3f 89 bd 6a 0c ff 3d b8 f8 13 bd 18 e3 d9 3c
       -0.06701546 0.1245354 -0.03612587 0.026597545
0000a0 8c 9e ff 3d 5e 20 41 3e 19 a2 bb 3c 91 0e e7 3d
       0.12481412 0.18860003 0.022904443 0.11282075
0000b0 bd 6d 50 3e 69 de 02 3d 48 29 71 3d ce f0 45 3c
       0.20354362 0.031950388 0.05887726 0.012081338
0000c0 08 44 d1 bd 45 16 57 3c 47 19 9d 3c 4b 16 f5 3d
       -0.10218054 0.013127868 0.019177092 0.11967143
0000d0 bf 6a 3b 3e 95 59 85 3d 12 08 d8 3c 1e 34 31 bd
       0.18302439 0.06511227 0.026371036 -0.043262593
0000e0 18 cb 26 be ae 67 4f bb 89 af 37 be 70 30 9f be
       -0.16288412 -0.0031647491 -0.17938055 -0.31091642
0000f0 39 e0 95 bd 49 ce 09 be 35 e5 0e be e2 c7 e6 ba
       -0.07318158 -0.13457598 -0.13954623 -0.0017607177
000100 b5 73 6b ba 3b ec 07 3e 20 d5 a3 bd 30 c3 0e be
       -0.000898178 0.13273709 -0.07999635 -0.13941646
000110 e9 14 30 3e be b5 9e bd 35 a3 9e bb d9 67 08 bd
       0.17195477 -0.07749508 -0.004841233 -0.03330216
000120 98 47 6a bd 9b b5 38 bd f1 90 5a 3e 1f 78 7e 3e
       -0.057197183 -0.045095067 0.21344353 0.2485051
000130 7d f3 94 3e 39 41 a2 3e bd 56 ff 3d c3 22 73 bc
       0.29092017 0.31690386 0.12467716 -0.014839831
000140 3c 8f 75 bd a1 3c 25 bd 46 d2 04 3f 28 bc 60 3e
       -0.059951052 -0.040341023 0.5188335 0.21946776
000150 fc 2e 3f 3c 3c 5c 09 3f b7 c0 44 3e 1e 57 d0 bd
       0.011668917 0.53656363 0.1921414 -0.10172866
000160 31 a8 6f 3e df 37 7d bc 40 a7 b5 3d 87 c3 09 be
       0.23404004 -0.015455215 0.08869791 -0.13453494
000170 c8 ea 35 3d 05 09 ab bd d0 58 4b be a3 1b b9 3d
       0.044413358 -0.0835133 -0.19858098 0.090384744
000180 be 4f 9f bd cb 27 56 be 41 77 f6 3c 3a 2d 53 bd
       -0.077788815 -0.20913617 0.030086162 -0.051556803
000190 eb 62 f0 bd 8d f4 b4 3d 08 5b 22 be 5c 4a 47 3e
       -0.11737617 0.08835707 -0.15855038 0.1946196
0001a0 de b6 68 3e d8 23 26 be 33 de 17 3d 98 d9 97 bd
       0.22726008 -0.16224611 0.03707714 -0.074145496
0001b0 dc 71 c6 bd 36 37 7a 3e 99 d4 84 3e 7b 59 75 be
       -0.09689686 0.24435124 0.2594345 -0.23959915
0001c0 85 d6 76 3e 54 61 3c 3e 78 79 45 be f8 4a b4 3d
       0.2410527 0.18396503 -0.19284618 0.08803362
0001d0 7a 60 56 be 3f c0 3f be f8 63 59 3e 3a fc 9d 3e
       -0.2093524 -0.1872568 0.21229541 0.30856496
0001e0 9e 03 11 3d 27 ad 6d 3e c5 82 60 3d 89 b6 b0 3c
       0.03540384 0.23210584 0.05481221 0.021571415
0001f0 3d 3f 29 be f9 2f ca bd 66 b9 2b be 44 2f 61 be
       -0.1652803 -0.09872431 -0.16769943 -0.21990687
000200 fa f9 97 bd a3 04 75 3d ee 2c 39 be 4e ec f4 3d
       -0.07420726 0.059818875 -0.18083546 0.11959134
000210 85 9d c1 3d db 70 7a 3d 40 cc 0d 3d 2d 37 d4 bd
       0.094538726 0.061142784 0.034618616 -0.103620864
000220 aa be 32 be 5d 0d 5d bb 76 6c cb bd d3 94 85 be
       -0.17455545 -0.003372989 -0.09932797 -0.26090106
000230 b0 78 03 3e aa 50 11 bd f5 e2 a0 bc 95 4a eb 3d
       0.12839007 -0.035477318 -0.019639472 0.11488835
000240 6e 86 8b bd cf 7a 7f be fe 11 9e 3e c7 a5 6e be
       -0.0681275 -0.24949192 0.30873102 -0.23305427
000250 1c c6 e5 be 32 99 9c 3e db 89 9a be a5 6b ad be
       -0.44877708 0.3058563 -0.301833 -0.3387119
000260 72 e7 52 3e 21 55 93 bc d6 db b0 bd 63 80 9f 3d
       0.20596102 -0.017984929 -0.086356804 0.0778816
000270 62 b5 20 be ef d0 d3 bd 29 b3 ed 3c 27 6a 3b be
       -0.15694192 -0.10342585 0.029016094 -0.18302213
000280 27 31 cc 3c 45 5a a9 3d a1 10 e8 3d 95 cb 3a bc
       0.024925781 0.08269171 0.11331297 -0.011401077
000290 d9 ae db bc a5 7a 01 be e3 f8 65 3d 45 19 7e be
       -0.026816772 -0.12644441 0.05614556 -0.24814327
0002a0 d8 aa 48 3c 34 03 f2 bc de 24 97 be be c3 d3 bd
       0.012247764 -0.029542543 -0.29520315 -0.10340069
0002b0 12 b1 8e be cc 9e 69 be 0e e9 ab bd fd 8e 14 be
       -0.2786947 -0.22814482 -0.08394061 -0.1450767
0002c0 8f 18 a2 bc 37 0e c0 bd 67 0e 80 be 5a 19 4a 3d
       -0.019787101 -0.09377711 -0.25010988 0.049340583
0002d0 5d 57 0a bb 5c 31 2a be bb 44 0d 3d e0 49 05 be
       -0.0021109201 -0.16620392 0.034489375 -0.13016462
0002e0 a5 24 6b bd 9c 11 80 3e 8e 46 3c be 7f 4c 79 be
       -0.057407994 0.25013435 -0.1838629 -0.24345587
0002f0 d3 3d 13 3e ff d7 a5 bc 41 5d cb bc 59 d8 8d bd
       0.14379053 -0.020244597 -0.02482474 -0.06926031
000300 82 ea a6 3d ae 62 82 3c 55 82 55 bd f9 39 d3 bc
       0.081501976 0.015916195 -0.052126247 -0.02578448
000310 fb ff be bd df 1f 80 3c b9 96 50 be 79 e4 83 3d
       -0.09326168 0.015640197 -0.20369996 0.06440062
000320 fd 9a b7 bd 3a 60 a3 3e 3a 21 4a bc 69 42 d0 be
       -0.089651085 0.31909353 -0.012337023 -0.40675667
000330 db 41 3f 3d ee 50 bc bd 03 09 f6 bc 13 a8 e7 bc
       0.046693664 -0.091951236 -0.030033594 -0.028278386
000340 9e 18 55 be 06 25 42 be 4d 19 b2 3c e5 89 10 be
       -0.20810172 -0.18959436 0.02174058 -0.14115103
000350 09 d6 d3 bc 6d 32 da 3c 60 84 ba 3b b3 8f 0e be
       -0.025858896 0.026635373 0.00569205 -0.13922004
000360 d4 ea 85 3d 51 64 f5 3d 43 c7 4c be 24 90 be 3d
       0.065389305 0.119820245 -0.19997887 0.093048364
000370 bd a0 79 3e 06 3f 24 be 64 4b ff 3d c0 45 05 3e
       0.24377723 -0.16039667 0.124655515 0.13014889
000380 95 72 d0 bd 21 fb 9e 3d 65 79 da 3d a7 70 87 3d
       -0.10178105 0.07762743 0.106676854 0.066132836
000390 ec ea ad 3e 6a 85 b2 3e 04 c7 4c bd d9 90 99 3e
       0.33968294 0.34867412 -0.049994484 0.29993322
0003a0 4e 3e 48 3e 21 4e b4 bb 67 c6 62 bd 73 78 b2 3d
       0.19555017 -0.0055024778 -0.055364992 0.0871438
0003b0 a9 0c cc 3d 9c d0 91 bd 75 bb 3e 3e 84 aa 33 3e
       0.09963352 -0.07119867 0.18626197 0.17545515
0003c0 79 cc b8 bd 9b b4 f1 3d c2 4d 4c 3e bd 79 15 3d
       -0.09023375 0.11802026 0.19951537 0.03649305
0003d0 2e fc 1a 3e 78 f3 6c 3c 32 0c 76 3d 11 49 a0 3e
       0.15135261 0.014462344 0.060070224 0.31305745
0003e0 3e e8 e0 3b 4b b2 aa 3d ca c2 37 3e 5a de c3 bc
       0.006863623 0.08334788 0.179454 -0.023909736
0003f0 b1 fd ed ba 32 fb f4 3d 68 95 40 bd 94 1b 5d 3d
       -0.0018157271 0.11961974 -0.047017485 0.05398138

decoder_conv.2.bias f4 [8]
000000 96 c2 aa 3d d4 cc 28 be 69 94 20 3f 87 f1 a9 3d
       0.083378956 -0.16484386 0.62726456 0.08298021
000010 ef 19 d9 3d c0 aa e3 3d f9 17 18 3f 97 c3 17 3e
       0.106006496 0.11116552 0.5941158 0.14820705

decoder_conv.4.weight f4 [8, 1, 3, 3]
000000 98 93 88 be 9a 11 01 bf 36 a7 b1 be 90 ba 2c bf
       -0.26675105 -0.5041748 -0.34697884 -0.6747217
000010 d2 3f 8c bf 31 9c 31 bf ed 29 05 bf ce 54 2d bf
       -1.0956976 -0.69378954 -0.520171 -0.67707527
000020 e8 e0 ea be 4c 05 0a be 95 54 e1 be 5f eb 46 be
       -0.45874715 -0.13478583 -0.44009843 -0.19425724
000030 be 84 e7 be 14 70 82 bf 4b 01 b7 be 24 99 a0 be
       -0.45218462 -1.0190454 -0.35743174 -0.31366837
000040 21 27 0c bf 19 a9 4b 3d 81 34 93 3e ef 6b 2e 3f
       -0.54747206 0.04972181 0.28750995 0.68133444
000050 6f b0 f2 3e 07 6a 23 3f 7a 61 a1 3f e0 8f 56 3f
       0.47400233 0.6383366 1.2607872 0.83813286
000060 22 99 8d 3e e2 e3 d8 3e b5 cc 50 3e d7 05 b5 bd
       0.27655894 0.4236136 0.2039059 -0.088390045
000070 ae 9b f9 be 36 29 62 be 1d 92 bc be 2a ec c0 be
       -0.48751587 -0.22086033 -0.36830226 -0.3768018
000080 54 bb 5c 3d ea ae 99 be a0 8c b3 be f6 87 16 3e
       0.053889588 -0.3001626 -0.35068226 0.14700302
000090 26 0e ad 3d 02 d2 12 3e eb a1 69 3d 02 bd db be
       0.08449964 0.14337924 0.057039183 -0.4291764
0000a0 69 64 0e bf f7 46 a5 be 35 48 bf be ae 2d 80 be
       -0.55621964 -0.32280704 -0.37359777 -0.2503485
0000b0 b0 ce 8f be ff 1d 99 be 93 85 b3 be 96 3e 4a be
       -0.28087378 -0.29905698 -0.35062847 -0.19750437
0000c0 5c e0 36 be e9 d9 34 be 64 87 27 3e 04 50 00 bf
       -0.17859024 -0.17661251 0.16360241 -0.50122094
0000d0 31 87 1c bf 51 cc e9 3b e6 86 a8 3e 27 06 35 3f
       -0.61143786 0.007134952 0.3291542 0.7071251
0000e0 f3 c3 f8 3e 03 14 f5 3e 3c 50 70 3f 79 86 2b 3f
       0.48586997 0.4786683 0.9387243 0.67002064
0000f0 87 1b f9 3e e2 32 47 3f 5a 88 f2 3e 10 85 16 be
       0.48653814 0.77812016 0.47369653 -0.14699197
000100 b5 6b fd 3e ed ea ce 3e 7a 05 8c be 25 ca 4e 3e
       0.49496236 0.4041361 -0.27347928 0.201943
000110 80 37 9c 3e 02 57 b4 be 60 7a 2f 3e c3 d2 5e 3e
       0.30511093 -0.35222632 0.17136526 0.21760087
