Bestencoder_params3.pth (torch, 101447 bytes, 10 tensors)

encoder_cnn.0.weight f4 [8, 1, 3, 3]
0	0xbcaa0afc	-0.02075719
1	0x3cf47208	0.02983953
2	0xbe761178	-0.24030101
3	0xbe61643c	-0.22010893
4	0xbde90788	-0.113783896
5	0xbd486d42	-0.04893232
6	0xbd80a6f6	-0.06281845
7	0x3d8ac099	0.06775016
8	0xbd838572	-0.06421937
9	0x3da392ad	0.079869606
10	0xbca78fd3	-0.020454323
11	0xbdd156a6	-0.10221605
12	0xbe81ad1d	-0.25327387
13	0xbe4f5531	-0.20247342
14	0xbe5702df	-0.20997189
15	0xbe012e09	-0.12615217
16	0xbd244886	-0.040108226
17	0x3c181e83	0.009284618
18	0xbe23f567	-0.16011582
19	0xbda0267e	-0.07819842
20	0x3e0a7499	0.13521041
21	0x3e7d8fe9	0.24761929
22	0x3d918997	0.07106321
23	0x3e9de410	0.3083806
24	0x3d1631fb	0.03666876
25	0x3dec8b64	0.11550024
26	0x3ea47e1c	0.32127464
27	0xbdd6c624	-0.10487011
28	0xbd5c676f	-0.05380958
29	0xbd20a384	-0.03921844
30	0xbdd872f3	-0.105688
31	0xbc587bd2	-0.013213115
32	0xbe3bcd9b	-0.18340151
33	0xbe6f1296	-0.23346934
34	0xbe256543	-0.1615191
35	0xbe6cacc4	-0.2311278
36	0x3bfe70fb	0.007764933
37	0x3ead8c52	0.33896118
38	0x3ea108a4	0.31451905
39	0x3d17bd53	0.037045788
40	0xbd736873	-0.059425782
41	0xbdcb59a2	-0.099292055
42	0xbe1fac1b	-0.15592997
43	0xbeba2c2d	-0.36361828
44	0xbead3ed8	-0.33837008
45	0x3db6ef62	0.089323774
46	0x3f249f00	0.64305115
47	0x3efda2f5	0.4953839
48	0x3e91ee17	0.2850196
49	0x3f3549c8	0.70815706
50	0x3f1afd54	0.605428
51	0x3f03a937	0.51430076
52	0x3f22b9c2	0.63564694
53	0x3ea3ca5e	0.3199033
54	0x3cbc4b51	0.022985132
55	0xbc2466ec	-0.010034304
56	0xbdb97063	-0.09054639
57	0xbe8cfc98	-0.27536464
58	0xbe136b53	-0.1439641
59	0xbe4bb018	-0.19891393
60	0x3d112c01	0.035442356
61	0x3dd31280	0.10306263
62	0xbbefd28c	-0.0073188003
63	0x3e9df473	0.30850562
64	0x3f244f62	0.6418363
65	0x3ebfac5c	0.37436187
66	0x3ec50f3c	0.38488185
67	0x3f2b8fb6	0.6701616
68	0x3f0ae855	0.5426076
69	0x3ef60c73	0.48056373
70	0x3e912558	0.28348804
71	0x3e210e96	0.1572822

encoder_cnn.0.bias f4 [8]
0	0x3e8b7c95	0.27243486
1	0x3eda7a02	0.4267121
2	0x3eda5691	0.4264417
3	0x3efaf882	0.4901772
4	0x3e7fc250	0.24976468
5	0xbb17b9b4	-0.002315146
6	0x3e58fbe5	0.2118984
7	0xb936f237	-0.00017447105

encoder_cnn.2.weight f4 [16, 8, 3, 3]
0	0xbbff4434	-0.007790113
1	0xbc292a27	-0.010324991
2	0xbdccd392	-0.10001291
3	0x3b8506f0	0.004059665
4	0xbd376497	-0.044773664
5	0xbda2c682	-0.079480186
6	0x3d1324f9	0.03592393
7	0x3c1567e4	0.009119008
8	0xbd35bfd9	-0.044372413
9	0xbb9a32e8	-0.0047057755
10	0xbd8c7735	-0.068586744
11	0xbd984ffc	-0.07437131
12	0x3cdcc651	0.026950033
13	0xbda802fb	-0.082036935
14	0xbda517e8	-0.080612004
15	0x3d290de4	0.041273013
16	0xbce685b8	-0.028139934
17	0xbb50df1e	-0.003187127
18	0x3d9ecbdb	0.07753726
19	0x3e166e39	0.14690484
20	0x3e04b573	0.12959842
21	0x3e07992f	0.13242029
22	0x3e107707	0.14107905
23	0x3e16f0c6	0.14740285
24	0x3d8c1083	0.06839087
25	0x3d9d6c71	0.07686699
26	0x3dc9b1f3	0.09848394
27	0xbd8978e9	-0.06712515
28	0xbe040ff8	-0.12896717
29	0xbe3953dc	-0.18098396
30	0xbd3cf4fc	-0.046132073
31	0xbdcdeb55	-0.10054652
32	0xbe12f15e	-0.14349887
33	0xbc828c1e	-0.015935954
34	0xbd745a9a	-0.059656717
35	0xbdaed14a	-0.085360125
36	0x3d82a122	0.0637839
37	0x3aa0508d	0.0012231037
38	0x3d3d0965	0.046151537
39	0x3d16a8ba	0.036782004
40	0x3d8e7f1b	0.06957837
41	0x3d55623a	0.05209563
42	0x3dae91ea	0.08523925
43	0x3cf00a57	0.029301805
44	0x3d030a38	0.031992167
45	0x3ce0141b	0.027353337
46	0x3eb83d52	0.35984284
47	0x3e49c4dc	0.19704002
48	0x3e05e59c	0.1307587
49	0x3ee3d632	0.44499356
50	0x3e6e24de	0.23256251
51	0x3cd3d3b0	0.025857776
52	0x3e83b597	0.2572448
53	0x3db61011	0.08889783
54	0x3d0fcd59	0.035107944
55	0xbcb1da3a	-0.021710504
56	0xbda42f15	-0.08016793
57	0xb9460dc4	-0.0001888788
58	0xbdad828a	-0.08472164
59	0xbdb5c69d	-0.08875773
60	0x3d36069a	0.04443989
61	0x3b869704	0.004107358
62	0x3c14b40d	0.009076131
63	0x3db664d6	0.08905952
64	0x3e78a982	0.24283412
65	0x3e65ec09	0.22453322
66	0x3e0ff0ba	0.14056674
67	0x3ecba208	0.39772058
68	0x3e9759a8	0.2956059
69	0x3d1e089a	0.03858242
70	0x3e5de014	0.2166751
71	0x3dae8aea	0.085225895
72	0x3de0a922	0.109697595
73	0x3dc6b282	0.097020164
74	0x3dc43d89	0.095820494
75	0x3d42cfa2	0.047561295
76	0x3dcf0fb8	0.1011042
77	0x3c419376	0.011814943
78	0x3db6de7b	0.089291535
79	0x3ca1ff1b	0.019774964
80	0x3d301310	0.04298693
81	0x3e04968a	0.12948051
82	0x3dad6776	0.08466999
83	0x3d43bd57	0.04778799
84	0x3dfc0063	0.12304761
85	0x3e13f7a9	0.14449944
86	0x3d4be4f0	0.04977888
87	0x3e12eb83	0.14347653
88	0x3d354792	0.044257708
89	0x3d7d544d	0.061847974
90	0x3e3200d9	0.17383136
91	0x3d447a2c	0.047968075
92	0x3e3bed42	0.18352225
93	0x3da785aa	0.08179791
94	0xbb0bf6b9	-0.0021356775
95	0x3e1eced3	0.15508585
96	0x3dba6334	0.09100953
97	0x3dc79f70	0.09747207
98	0x3dfc543b	0.12320753
99	0x3df398d2	0.118943825
100	0x3e171a59	0.14756145
101	0x3dcefe44	0.10107091
102	0x3e47951e	0.19490477
103	0x3e03ed44	0.12883478
104	0x3ddc6bd8	0.10762757
105	0x3e28c671	0.1648195
106	0x3d9e2c38	0.07723278
107	0x3d922482	0.071358696
108	0x3ceda120	0.029007494
109	0x3d26af78	0.040694684
110	0xbc88c0a9	-0.01669343
111	0x3e29a4b1	0.16566731
112	0x3c966bf5	0.018362025
113	0x3d361da5	0.044461865
114	0x3caab3ff	0.020837782
115	0xbbea14b2	-0.0071435804
116	0x3da55d49	0.08074433
117	0x3bc7f2da	0.006101948
118	0xbea891c1	-0.329237
119	0x3da58f4c	0.08083972
120	0xbe0acf35	-0.13555606
121	0xbe93f9fd	-0.28901663
122	0x3e0df73c	0.13863844
123	0xbe4d07ea	-0.2002255
124	0xbd62a0f6	-0.055329286
125	0x3e5079cc	0.20358962
126	0x3db21de9	0.08697111
127	0x3d9b2c4e	0.0757681
128	0x3d8166e3	0.06318452
129	0x3db2f106	0.08737378
130	0x3d9ce2d4	0.076604515
131	0x3d3e0008	0.04638675
132	0x3d6e2673	0.058142137
133	0x3bfdf6b7	0.007750358
134	0x3cd13ecd	0.025542641
135	0xbd15ed18	-0.036603063
136	0xbe8fbb7b	-0.28072724
137	0x3cdd3223	0.027001446
138	0xbd9832fb	-0.07431599
139	0xbe8f695e	-0.28010076
140	0x3e092999	0.13394774
141	0xbe017371	-0.12641694
142	0xbd695afe	-0.056971543
143	0x3e4fb813	0.20285062
144	0x3e069833	0.13143997
145	0x3dd091c7	0.10184055
146	0x3db1115a	0.08645888
147	0x3e02acc1	0.12761213
148	0x3da746bd	0.08167789
149	0x3e01dc8b	0.12681787
150	0x3ddef509	0.108865805
151	0x3dc713c1	0.09720565
152	0x3e1008ef	0.14065908
153	0x3e5be7d7	0.21475159
154	0x3e270b13	0.16312818
155	0x3dab24b9	0.08356614
156	0x3e306027	0.17224179
157	0x3dbeae65	0.09310607
158	0x3e019a78	0.12656581
159	0x3e10c515	0.14137681
160	0x3deae5e8	0.114696324
161	0x3e38a554	0.18031818
162	0x3da37d0e	0.07982837
163	0x3db1df5b	0.0868518
164	0x3dcf05dd	0.1010854
165	0x3d497e66	0.04919281
166	0x3dd67629	0.10471756
167	0xbcf323ca	-0.029680151
168	0x3dfcbfb4	0.12341252
169	0x3dbbb6d9	0.09165735
170	0xbcf1e804	-0.029529579
171	0x3e620493	0.22072057
172	0x3e5902ac	0.21192425
173	0x3e264dee	0.16240665
174	0x3e2984cf	0.16554569
175	0x3e026869	0.12735142
176	0x3e228b29	0.15873398
177	0x3e361f66	0.17785415
178	0x3de50107	0.111818366
179	0x3e33ab2e	0.17545769
180	0x3d58200c	0.052764937
181	0x3cc63763	0.024196332
182	0x3dbeab15	0.09309975
183	0x3df8dc38	0.121513784
184	0x3dc3b266	0.09555511
185	0x3e0011c6	0.1250678
186	0x3dc52868	0.096268475
187	0x3d97efd6	0.07418792
188	0x3df65954	0.12028757
189	0xbe4bffeb	-0.19921844
190	0xbe839ffa	-0.2570799
191	0x3d260a87	0.040537383
192	0xbe1348f5	-0.143833
193	0xbe27cc34	-0.16386491
194	0xbe63eb6e	-0.22257778
195	0xbccd4545	-0.025057444
196	0xbce86b93	-0.028371608
197	0xbea08915	-0.31354585
198	0x3de41885	0.11137489
199	0x3d99081b	0.07472249
200	0x3da50d81	0.08059216
201	0x3de9a045	0.11407522
202	0x3d8e76a3	0.06956222
203	0x3dff10c2	0.12454368
204	0x3dc086a7	0.09400683
205	0x3d9da915	0.076982655
206	0x3dfc4901	0.12318612
207	0xbe5a0276	-0.21290001
208	0xbe716386	-0.23573121
209	0x3d83c5d5	0.06434218
210	0xbe36b1b2	-0.17841223
211	0xbdeb976d	-0.115034916
212	0xbe391fd7	-0.18078552
213	0xbd3bfadf	-0.045893546
214	0xbd148136	-0.036256038
215	0xbe80a707	-0.25127432
216	0x3dde7eea	0.10864051
217	0x3d5e095d	0.05420815
218	0x3df168ed	0.11787591
219	0x3db9bcfc	0.09069249
220	0x3d53104e	0.05152922
221	0x3da829f6	0.082111284
222	0xbc3f4ae1	-0.011675567
223	0xbca6a9e7	-0.020344688
224	0x3ceeffaa	0.029174645
225	0x3dd807ad	0.10548339
226	0x3e00ec4e	0.12590143
227	0x3e0d2170	0.13782287
228	0x3df2a1d4	0.118472725
229	0x3da3830b	0.07983979
230	0x3d3336a5	0.043753285
231	0x3b615606	0.003438355
232	0xbae5a9d4	-0.0017521926
233	0x3c206715	0.009790202
234	0xbca7bc59	-0.020475553
235	0xbcdd6146	-0.027023923
236	0xbe1a9c0c	-0.1509859
237	0x3d2f6f26	0.04283061
238	0x3df2c371	0.11853684
239	0x3cb883c4	0.022523768
240	0x3e22f990	0.15915513
241	0x3e15e7bb	0.1463918
242	0xbc8b6155	-0.017014185
243	0x3e35e93a	0.1776475
244	0x3e23d8aa	0.1600062
245	0x3e5fdcba	0.21861544
246	0x3dfcee93	0.12350192
247	0x3d5020e6	0.050812624
248	0x3de2de20	0.11077523
249	0xbd303ba7	-0.04302564
250	0xbd8199ee	-0.06328188
251	0xbb9afcf5	-0.004729862
252	0x3e3e7b62	0.18601754
253	0x3e32aa8b	0.1744787
254	0x3e2ae6de	0.16689631
255	0x3c6c13a2	0.014408978

encoder_cnn.2.bias f4 [16]
0	0x3dac7af2	0.084218875
1	0x3dbaadfd	0.09115217
2	0x3e1c1646	0.15242872
3	0x3b120e72	0.0022286442
4	0x3ddfb257	0.109226875
5	0x3dacd80f	0.084396474
6	0x3e0e1e50	0.13878751
7	0x3d7bac55	0.061443646
8	0x3c9aa47d	0.018877262
9	0x3dfff5bc	0.12498042
10	0x3db2692b	0.087114654
11	0x3c083a5c	0.008314695
12	0x3d019feb	0.03164665
13	0xba2a5628	-0.00064978236
14	0xac9571f1	-4.2474847e-12
15	0x3da5e17d	0.08099649

encoder_cnn.4.weight f4 [32, 16, 3, 3]
0	0xbd55618a	-0.052094974
1	0x3cefa151	0.029251726
2	0xbda3ce38	-0.079983175
3	0xbe0b2863	-0.13589625
4	0x3c751e54	0.014960844
5	0xbd8ecd4f	-0.06972753
6	0xbcfbcdff	-0.030737875
7	0xbd8d047a	-0.068856195
8	0xbdca61be	-0.09881924
9	0x3bbd5c65	0.0057788366
10	0xbc4f4d1a	-0.01265266
11	0x3cfda54d	0.03096261
12	0xbbce7894	-0.006300995
13	0xbbcd2de1	-0.0062615727
14	0x3bd543ed	0.0065083415
15	0xbcf6806d	-0.030090535
16	0x3d00ae1f	0.031416055
17	0xbaa7fc60	-0.0012816302
18	0x3bd552e7	0.006510127
19	0xbc840444	-0.016115315
20	0x3cefbf54	0.029266037
21	0xbb997a39	-0.0046837595
22	0x3c2fb5d7	0.010724506
23	0x3d6562fb	0.0560026
24	0xbd2a22ab	-0.04153697
25	0x3d19b1e9	0.037523184
26	0x3d332db2	0.04374475
27	0x3cdf4332	0.02725372
28	0x3c70a75e	0.014688341
29	0x3bc2f835	0.0059499987
30	0xb906098a	-0.0001278279
31	0x3c81bc4c	0.015836857
32	0x3c5d7faf	0.013519212
33	0x3cd52429	0.026018219
34	0xbd9e9d95	-0.077449
35	0x3bc32a73	0.005955988
36	0x3cece053	0.02891556
37	0x3c69bdaf	0.0142664155
38	0x3ce88923	0.028385704
39	0x3ba3e1fc	0.0050013047
40	0x3c0fb436	0.008770993
41	0x3ce59d31	0.028029056
42	0xb784abc0	-1.5815604e-05
43	0x3d749217	0.059709635
44	0x3d038bbb	0.03211568
45	0x3c26919a	0.01016655
46	0x3d0ce6a7	0.034399655
47	0x3c21e246	0.009880608
48	0xbd241bd5	-0.040065605
49	0x3b2a673c	0.0026001474
50	0x3d2796e0	0.04091537
51	0xbcef3bde	-0.029203352
52	0x3d82e309	0.0639096
53	0x3d003458	0.03129992
54	0xbb304328	-0.0026895497
55	0x3cf4583a	0.029827226
56	0x3cec034d	0.028810168
57	0xbcaf234e	-0.02137914
58	0xbb7fa9ab	-0.0039011042
59	0x3c72f3c3	0.014828625
60	0xbcb5d490	-0.022196084
61	0x3d54f3c8	0.0519903
62	0x3d093b13	0.033503603
63	0x3c48a08a	0.012245307
64	0x3b07ef34	0.0020741941
65	0x3cdb012c	0.026733957
66	0xbcbc133d	-0.022958392
67	0x3c57cba2	0.013171108
68	0x3d1ba140	0.037995577
69	0xbd5449dd	-0.051828254
70	0x3d291bfd	0.041286457
71	0x3d361794	0.04445608
72	0x3cfb5f01	0.03068495
73	0xbb0e84d0	-0.0021746643
74	0x3cc90548	0.024538651
75	0xbc1352da	-0.008991921
76	0xbc0a4e2a	-0.008441487
77	0x3d0cb21f	0.034349557
78	0xbc30b3cb	-0.0107850535
79	0xbba201eb	-0.0049440763
80	0x3cc3e2b7	0.023911817
81	0x3d0ddbe6	0.03463354
82	0x3cd892bb	0.026437154
83	0x3c202177	0.009773604
84	0x3d94827c	0.072514504
85	0xbbaa1818	-0.0051908605
86	0x3b988048	0.004653964
87	0x3cca76aa	0.024714787
88	0x3d87fe4c	0.066403
89	0x3c98023a	0.01855575
90	0x3d8386f3	0.06422224
91	0x3cc932b5	0.024560312
92	0xbad409ee	-0.0016177276
93	0xbc9251df	-0.017861305
94	0x3a54ac03	0.000811279
95	0x3cb81071	0.022468777
96	0xbcf51a0f	-0.029919652
97	0x3d7c31f7	0.061571088
98	0x3c8fdb4b	0.017560622
99	0x3d197930	0.03746909
100	0xb6c83853	-5.9670215e-06
101	0x3cf82d05	0.030294904
102	0x3c6426a8	0.013925232
103	0x3c926d03	0.017874246
104	0x3d401ee2	0.046904452
105	0x3c2899f6	0.010290613
106	0x3bc5176e	0.006014756
107	0x3d2f491c	0.042794332
108	0xbe1a46af	-0.15066026
109	0xbc2b2526	-0.010445869
110	0xbc7354a4	-0.014851723
111	0xbe2785c8	-0.16359627
112	0x3c8eee73	0.017447686
113	0xbdb7f122	-0.08981539
114	0xbd7be6fb	-0.061499577
115	0xbddf713e	-0.10910271
116	0xbe07dc9c	-0.1326775
117	0x00045cdb	4.00652e-40
118	0x00066127	5.85865e-40
119	0x00036799	3.1267e-40
120	0x000159ee	1.24096e-40
121	0x0003e5af	3.57901e-40
122	0x80030653	-2.77775e-40
123	0x80065ca5	-5.84248e-40
124	0x0002b0bb	2.4707e-40
125	0x0001d84e	1.69431e-40
126	0x092d7336	2.087829e-33
127	0x0924b8ea	1.9827728e-33
128	0x888d11d4	-8.49032e-34
129	0x88ab6db3	-1.0317478e-33
130	0x09581f01	2.6014632e-33
131	0x896444b8	-2.7476813e-33
132	0x896f2310	-2.8785065e-33
133	0x89581d37	-2.6013791e-33
134	0x89598b0c	-2.6185804e-33
135	0xbc40bd71	-0.011763916
136	0x3ccf9a55	0.025342146
137	0xbdb649ce	-0.08900796
138	0xbdad01c5	-0.08447603
139	0x3cb69cdc	0.022291593
140	0xbd9a46bd	-0.075330235
141	0x3d004cb1	0.03132314
142	0xbe03857d	-0.1284389
143	0xbde7483a	-0.11293073
144	0xbdaca7d1	-0.08430446
145	0xbdfb206e	-0.12262045
146	0xbe3d3037	-0.18475424
147	0xbdde2f1c	-0.10848829
148	0xbd64d31c	-0.055865392
149	0xbe3821fb	-0.17981713
150	0xbe62b023	-0.22137503
151	0x3d0f55a7	0.034993794
152	0xbe85f27f	-0.26161572
153	0x3c784717	0.015153668
154	0xbb8fa895	-0.00438411
155	0x3e2ada97	0.16684948
156	0x3c9e0d42	0.019293431
157	0x3d0ba5b6	0.03409358
158	0x3d72c8fa	0.059273697
159	0x3dc078c0	0.09398031
160	0x3ce9b8fe	0.028530594
161	0xbbb47f1a	-0.0055083157
162	0x3c658edf	0.014011114
163	0x3dd7025b	0.10498496
164	0xbdf3c5bf	-0.119029514
165	0x3cfb58cd	0.030681992
166	0x3d99d1bb	0.07510706
167	0x3e117534	0.14204866
168	0x3d64c35a	0.055850364
169	0x3ab3661c	0.0013687047
170	0x3dbe6ba8	0.092978776
171	0x3db19c75	0.0867242
172	0x3dc8a6b1	0.09797419
173	0xbdc1aba8	-0.09456569
174	0xbd77d7c1	-0.060508493
175	0x3d80ce9a	0.06289406
176	0xbd5e6fb4	-0.054305747
177	0x3d09d79d	0.03365289
178	0x3d21c954	0.039498642
179	0x3e2d051a	0.16896477
180	0x3d08383f	0.033256765
181	0x3d4e5d38	0.05038187
182	0xbd0faf01	-0.035079006
183	0x3ccaa3f7	0.024736388
184	0x3d7e14d9	0.0620316
185	0x3dd14562	0.10218312
186	0x3cd903bc	0.026491039
187	0xba81e6e3	-0.0009910729
188	0x3d84293d	0.06453178
189	0x3c3c79a5	0.011503612
190	0x3d9b340d	0.07578287
191	0xbc50eeb3	-0.012752223
192	0xbb9524ac	-0.004551491
193	0x3cffe279	0.03123592
194	0x3da6f21b	0.08151647
195	0xbb30915c	-0.002694211
196	0x3a3accf7	0.0007125879
197	0x3d51125a	0.051042892
198	0x3c3ffcdf	0.011718004
199	0x3db5c724	0.08875874
200	0x3d8af282	0.06784536
201	0x3a6ff829	0.0009154105
202	0x3d5fd146	0.054642938
203	0x3d3ede9c	0.046599016
204	0x3d7b2b2e	0.061320476
205	0x3c5c50ce	0.013447
206	0x3d9964ec	0.074899524
207	0x3c76836c	0.015045982
208	0x3e0256e5	0.1272846
209	0xbd9774b5	-0.07395307
210	0x3c80437b	0.015657177
211	0x3d8c3042	0.06845142
212	0x3db693e4	0.08914927
213	0x3cd18ba9	0.02557929
214	0x3d0dafca	0.034591474
215	0x3dcc6d65	0.09981803
216	0x3d69f55e	0.057118766
217	0x3da21bad	0.07915435
218	0xbd7854c9	-0.060627732
219	0x3c0ccfb2	0.00859444
220	0x3da45676	0.080243036
221	0xbbcee360	-0.0063137263
222	0x3d587354	0.05284436
223	0x3cf178f3	0.029476618
224	0x3e283ce6	0.16429481
225	0x3d7baed4	0.061446026
226	0x3cd4ec1f	0.025991498
227	0x3d6d0381	0.05786467
228	0x3d3a3d91	0.04546887
229	0x3c567335	0.013088991
230	0x3d16ebe3	0.036846053
231	0x3dc20559	0.09473676
232	0x3d511cab	0.05105273
233	0x3cfcc5f3	0.030856108
234	0x3d259aeb	0.040430944
235	0x3c91de53	0.017806208
236	0x3dbbf2ef	0.09177195
237	0x3d420754	0.04737027
238	0x3d07a895	0.033119757
239	0x3d7fb011	0.06242377
240	0x3dacf106	0.08444409
241	0x3c26c5ab	0.010178964
242	0xbb8bff01	-0.004272342
243	0x3d8a4350	0.0675112
244	0x3dd3d2da	0.10342951
245	0xbe08f838	-0.13375938
246	0x3c7d91cb	0.015476654
247	0x3d8a54ce	0.067544565
248	0x3d7bddb1	0.06149072
249	0x3c9c9ace	0.019116785
250	0x3d5eb54f	0.054372128
251	0x3e09de48	0.134637
252	0xbe42d610	-0.19026971
253	0xbe207209	-0.15668501
254	0x3e367699	0.17818679
255	0xbe1f4d32	-0.15556791

encoder_cnn.4.bias f4 [32]
0	0x3ac83bbb	0.001527659
1	0x3d336f55	0.043807346
2	0x3d84c665	0.06483153
3	0x3d85edb1	0.06539477
4	0x3d2c161c	0.042013273
5	0x3d30da8e	0.04317718
6	0x3d5c3a14	0.053766325
7	0x3d888a6f	0.06667029
8	0x3d2f7d3e	0.04284405
9	0x3d656c09	0.056011233
10	0x3d022bbf	0.03178
11	0x3cc6d394	0.02427081
12	0x3be147b3	0.0068750023
13	0x3cbedb51	0.023297938
14	0x3d17d9dd	0.037073005
15	0x3d8da097	0.06915396
16	0x3bcbde7b	0.00622159
17	0x3d5ee82d	0.05442064
18	0xaf9dcb38	-2.870253e-10
19	0x3c84ef67	0.016227437
20	0x3c8c5c43	0.017133838
21	0x3bd373d2	0.006453016
22	0xbc48bfb9	-0.0122527415
23	0x3d870f9a	0.06594773
24	0xb9d1faf5	-0.00040050564
25	0xbc6fb910	-0.014631525
26	0xbc0144b2	-0.007889913
27	0x3c879b5b	0.016553571
28	0x3cb212ba	0.021737445
29	0x3e0f82f4	0.14014798
30	0x3d34abd2	0.044109173
31	0xb92e5dab	-0.00016628827

encoder_lin.0.weight f4 [64, 288]
0	0x3d56bedf	0.052428123
1	0x3b6b8245	0.00359358
2	0x3d23ad46	0.03996017
3	0xbd278612	-0.040899344
4	0x06046c07	2.4905807e-35
5	0x3ccf1a30	0.025281042
6	0x389e30c7	7.5431126e-05
7	0x3bd48081	0.0064850454
8	0x3b26f578	0.00254759
9	0x3debfead	0.11523185
10	0x3d138f19	0.03602514
11	0x3d53f6b2	0.05174894
12	0xbe8e0b95	-0.2774321
13	0xbb99dd53	-0.0046955734
14	0xbd3c2ec9	-0.045943055
15	0x3e908fae	0.2823462
16	0x3bec5197	0.0072118747
17	0xbd3b387c	-0.045708165
18	0xbc86ca7e	-0.016453978
19	0x3e357ab5	0.1772259
20	0x3d75bb49	0.059993062
21	0x3c75c9cd	0.015001726
22	0xbd7f20b0	-0.062287033
23	0xbce4f759	-0.027949976
24	0x3d29d2b4	0.041460708
25	0xbe6025a0	-0.21889353
26	0x3c9338ce	0.017971423
27	0xbbcbc208	-0.0062181987
28	0x3cdb6cf1	0.026785346
29	0x3d1666e3	0.036719214
30	0x3d25ff1b	0.04052649
31	0xbd9b354f	-0.07578527
32	0x3db2d14c	0.087313265
33	0x3d2093bf	0.0392034
34	0xbdb8302f	-0.08993565
35	0x3d49b07b	0.04924057
36	0xbcc8ef37	-0.024528129
37	0xbc822919	-0.015888738
38	0xbe0df591	-0.13863207
39	0xbc481244	-0.012211386
40	0xbe70b15d	-0.23505159
41	0x3d4dc553	0.05023701
42	0x3de3f3c8	0.11130482
43	0xbb26a107	-0.002542557
44	0xbc915e64	-0.017745204
45	0x3d9038fa	0.070421174
46	0x3d854c37	0.065086775
47	0x3d4918e6	0.04909601
48	0xbdbe9a6e	-0.09306799
49	0xbcf85b92	-0.030317102
50	0x3d816acc	0.06319198
51	0x3d2951d2	0.041337796
52	0xbe4eef7f	-0.20208548
53	0x3dab4fb3	0.08364811
54	0xbd8b8f7d	-0.068144776
55	0xbd8344f8	-0.06409639
56	0xbdf3b8b5	-0.119004644
57	0xbd340476	-0.043949567
58	0xbd412abe	-0.047159903
59	0x3d454527	0.048161652
60	0xbd6e2cc9	-0.05814818
61	0xbde1c611	-0.11024106
62	0xbd916599	-0.07099456
63	0xbc75cf57	-0.015003047
64	0x3d65bfe3	0.0560912
65	0x3b322cde	0.0027187387
66	0xbd17d873	-0.037071656
67	0xbe0ac06c	-0.13549966
68	0x3dca166e	0.098675594
69	0x3d537725	0.051627297
70	0xbe852e0d	-0.26011696
71	0x3c0ef426	0.008725202
72	0x3d7af235	0.061266143
73	0xbd4075f4	-0.04698749
74	0x3d7b4388	0.0613437
75	0x3de90525	0.11377934
76	0xbca005dd	-0.019534046
77	0x3e0ea83a	0.13931361
78	0xbe17b453	-0.14814882
79	0xbcc80123	-0.024414605
80	0xbcc06eec	-0.023490392
81	0xbc29eb46	-0.010371035
82	0xbc478181	-0.012176872
83	0xbcf3757f	-0.029719112
84	0x3db373fe	0.08762358
85	0x3e200185	0.1562558
86	0x3db7dc22	0.08977534
87	0xbdea2cd8	-0.114343345
88	0xbe585143	-0.21124749
89	0x3dbdd2f2	0.0926875
90	0xbca38989	-0.019963043
91	0x3ce7a36c	0.028276168
92	0x3d964df5	0.07339088
93	0x3d558fe2	0.05213917
94	0xbe080cd9	-0.13286151
95	0xbe9fc364	-0.3120376
96	0x3d57f15d	0.052720416
97	0x3dad57e4	0.084640294
98	0xbddf7256	-0.1091048
99	0x3cf1352d	0.029444302
100	0xbdf13898	-0.117783725
101	0x3e10fe99	0.14159621
102	0xbdf887a1	-0.12135244
103	0xbc30e742	-0.010797324
104	0xbe2832e5	-0.16425665
105	0xbcfe5e60	-0.03105086
106	0x3e0f9721	0.14022495
107	0xbccdde23	-0.025130337
108	0x3d016274	0.031588033
109	0x3c3730ac	0.011181038
110	0x3d8610b5	0.06546155
111	0xbcbf89c2	-0.023381118
112	0x3d505649	0.050863538
113	0xbd32ac37	-0.043621268
114	0x3cbf2ffb	0.023338309
115	0xba9a8a3f	-0.0011790468
116	0x3d858712	0.06519903
117	0xbaf7e065	-0.0018911479
118	0xbd2450b4	-0.040116027
119	0xbdd202fb	-0.10254475
120	0xbe5d2150	-0.21594739
121	0xbb735bd6	-0.0037133596
122	0xbd63b579	-0.055592988
123	0xbcedc2d4	-0.029023565
124	0xbd5dea27	-0.054178383
125	0x3d892889	0.066971846
126	0x3d1ae8fd	0.03781985
127	0xbc9a8655	-0.018862883
128	0x3d9a30f6	0.0752887
129	0xbc9e7fe1	-0.019348087
130	0x3c858a80	0.016301394
131	0x3d8e82c0	0.06958532
132	0x3c36f5c9	0.011166998
133	0x3d1c4a56	0.03815683
134	0xbc342a9f	-0.01099649
135	0xbdacca33	-0.08437004
136	0xbd94cb0e	-0.07265292
137	0xbde351c3	-0.11099579
138	0xbd65c4d1	-0.056095902
139	0xbd1a72eb	-0.03770725
140	0x3cd9abc0	0.026571155
141	0xbdb59eca	-0.08868177
142	0xbd812856	-0.063065216
143	0xbc364640	-0.011125147
144	0x3d3b196e	0.04567855
145	0xbaa1863c	-0.001232333
146	0xbdbfa3e3	-0.09357431
147	0xbd733fc0	-0.05938697
148	0x3c58ba40	0.013227999
149	0xbe6b7f1f	-0.22997712
150	0x3d377a35	0.04479428
151	0x3c2ab1a9	0.010418334
152	0x3cc24a63	0.023717111
153	0x3cb55c75	0.022138814
154	0x3e1c5352	0.15266159
155	0x3e241cff	0.16026686
156	0x3d10a31e	0.03531181
157	0xbd0647b7	-0.032783236
158	0x3ce62289	0.02809264
159	0x3d5927a1	0.05301631
160	0x3dea902f	0.11453282
161	0x3cfed1e9	0.031105952
162	0x00015e2b	1.25617e-40
163	0x800558ad	-4.90988e-40
164	0x80089238	-7.87137e-40
165	0x8007f93a	-7.32254e-40
166	0x00081f93	7.4601e-40
167	0x00029f29	2.40767e-40
168	0x80090990	-8.2995e-40
169	0x0007a90e	7.03494e-40
170	0x8000a7c4	-6.0183e-41
171	0x3c8eeeda	0.017447878
172	0x3a765e5f	0.00093982177
173	0x3de0b2f4	0.109716326
174	0xbd5f241b	-0.054477792
175	0x3e101d5d	0.14073701
176	0xbdf6c770	-0.120497584
177	0xbb4215be	-0.002961501
178	0xbe60583c	-0.21908659
179	0xbe05c302	-0.13062671
180	0x3d1b23f0	0.03787607
181	0x3cce1b07	0.025159372
182	0x3dd3ec50	0.103478074
183	0xba03f3dd	-0.0005033592
184	0xbd81ac34	-0.06331673
185	0x3e11d299	0.14240493
186	0xbcb21fc6	-0.021743666
187	0xbe46aeee	-0.19402668
188	0xbd93a2ba	-0.07208772
189	0x3ce074f1	0.027399512
190	0xbd88a9cb	-0.066730104
191	0x3c70269b	0.014657642
192	0xbe65e257	-0.22449623
193	0x3ce43280	0.027856112
194	0xbd8ca194	-0.06866756
195	0xbd4bf703	-0.049796116
196	0x3d1f5dd6	0.03890785
197	0xbc57c2b8	-0.013168983
198	0x3d1bcb88	0.0380359
199	0x3d4dacf2	0.05021376
200	0x3da650f6	0.08120911
201	0xbdbf26ed	-0.093335964
202	0xbdb22c31	-0.08699835
203	0x3d339ac4	0.043848768
204	0x3b5b497c	0.0033460548
205	0xbc00bbde	-0.007857291
206	0x3c7f8a90	0.015597001
207	0x3d5bc266	0.05365219
208	0x3bb1dc2a	0.005427857
209	0x3dbbef34	0.09176484
210	0x3da9fec5	0.083005466
211	0x3d9b7ebe	0.075925335
212	0xbe8196b5	-0.25310293
213	0x3d142c01	0.036174778
214	0xbbcd4bb5	-0.0062651285
215	0x3dae3ff5	0.085082926
216	0x3d340d40	0.04395795
217	0xbdf0c1e5	-0.117557324
218	0xbd788ec8	-0.06068304
219	0x3d7b634b	0.06137399
220	0x3c1083f5	0.0088205235
221	0xbd18af30	-0.037276447
222	0xbd464ecf	-0.048415
223	0x3a67ddb6	0.0008844988
224	0x3aeaf92c	0.0017927042
225	0x3c17f57e	0.0092748385
226	0xbd16471a	-0.0366889
227	0x3d9bde7f	0.07610797
228	0xbd5cc691	-0.053900305
229	0x3be7fe99	0.007079911
230	0xbdbb8db0	-0.09157884
231	0xbc9b0633	-0.018923854
232	0x3a8f441d	0.0010930334
233	0x3d0aad63	0.03385676
234	0x2b31a096	6.310589e-13
235	0xa8e779a6	-2.5698908e-14
236	0xac94fe58	-4.234651e-12
237	0x2b8323c4	9.318037e-13
238	0xa9787a7b	-5.5173297e-14
239	0xa9db3721	-9.735117e-14
240	0x2b48fa03	7.1401235e-13
241	0x2937c281	4.0802868e-14
242	0x30c18d64	1.4082784e-09
243	0x3d4899b7	0.04897472
244	0x3d0ec51f	0.034855958
245	0x3d569281	0.05238581
246	0x3cbc61b8	0.022995815
247	0x3dc85680	0.097821236
248	0xbe2ed73a	-0.1707429
249	0x3cc713cc	0.024301432
250	0xbd9f0ce8	-0.077661335
251	0xbd0cf281	-0.034410957
252	0xbc0d25e5	-0.008614992
253	0x3dcba84b	0.09944209
254	0xbd1ea336	-0.03872987
255	0xbc8ee94a	-0.017445225

encoder_lin.0.bias f4 [64]
0	0xbc082a6e	-0.008310897
1	0x3c8675c7	0.016413582
2	0x3c6b4ac1	0.014361084
3	0x3a664857	0.0008784583
4	0xbc12b211	-0.008953587
5	0xb94dcab0	-0.0001962583
6	0xbbf36175	-0.0074273893
7	0x39cba4a8	0.00038841856
8	0x3c6d9896	0.014501711
9	0x3b7e456e	0.0038798708
10	0x39b446b9	0.00034384968
11	0x9e6e4179	-1.26131545e-20
12	0xbcb88e36	-0.022528749
13	0xbaf03ebd	-0.0018329244
14	0x3b619050	0.0034418292
15	0x3ccad6fa	0.024760712
16	0xbc3f08c3	-0.011659804
17	0x000514a2	4.66579e-40
18	0x3c633aa0	0.013868958
19	0x3d603e9b	0.054747205
20	0xbc53dfce	-0.012931777
21	0xbc810f7b	-0.015754452
22	0xb98bbda7	-0.00026653448
23	0xbbe5b864	-0.0070105065
24	0x3c30a2ad	0.010780972
25	0xbbc2a6ce	-0.005940295
26	0xbb17a6c5	-0.0023140174
27	0xbc1706da	-0.009217942
28	0xbca0811d	-0.019592816
29	0x3c68984b	0.014196466
30	0x0001d4e8	1.68212e-40
31	0x383e2469	4.533344e-05
32	0xbbb17a2e	-0.0054161763
33	0x3c2c10e6	0.010502076
34	0xba3b233d	-0.0007138735
35	0x8a7c0765	-1.21347494e-32
36	0x3cb5aac1	0.022176148
37	0x3c4ba14c	0.012428593
38	0xbc1420f6	-0.009041062
39	0xbc00b132	-0.007854747
40	0x3be05ada	0.006846768
41	0xbbaa57f7	-0.0051984745
42	0xbbcfb07a	-0.0063381763
43	0xbc2051c8	-0.009785123
44	0x3cb7b96b	0.022427281
45	0x3c561e1f	0.013068705
46	0x3d38179b	0.044944387
47	0xbc9dfbd3	-0.019285118
48	0xbb2600ca	-0.002533006
49	0xbc2e39dc	-0.010633912
50	0xbc8df0c8	-0.017326728
51	0xbb3f17c0	-0.0029158443
52	0x3d16eff7	0.036849942
53	0xbc5e097d	-0.013552067
54	0xb015215a	-5.425328e-10
55	0xbc06e708	-0.008233793
56	0xbb064c81	-0.0020492377
57	0x90356ad4	-3.5778253e-29
58	0x2aa404cd	2.9135583e-13
59	0x3c5df4ab	0.013547103
60	0xbc306974	-0.0107673295
61	0xbc062992	-0.008188622
62	0x3b0e0742	0.0021671806
63	0xbbf6714f	-0.0075208317

encoder_lin.2.weight f4 [3, 64]
0	0x3e4979a5	0.1967531
1	0xbd83793d	-0.06419609
2	0xbe6bb57f	-0.23018454
3	0x3ece230f	0.40261123
4	0xbeae1189	-0.33997753
5	0xbec2310f	-0.37928054
6	0xbe3641fe	-0.17798612
7	0x3e8daad1	0.27669385
8	0x3e20814a	0.1567432
9	0xbe95b0a4	-0.2923633
10	0xbdb417b8	-0.087935865
11	0xbbfc2dd3	-0.0076958924
12	0x3dfa0853	0.12208619
13	0xbe94a8f1	-0.29035142
14	0x3dd66ab1	0.104695685
15	0xbe34fca4	-0.176745
16	0xbe7b193b	-0.24521343
17	0x3c101aba	0.008795435
18	0x3b54a009	0.0032444021
19	0xbde3bac3	-0.11119606
20	0x3eeb0b5b	0.459071
21	0x3f1390de	0.57642925
22	0xbd28d207	-0.041215923
23	0xbe61dc80	-0.2205677
24	0xbd9b9f5c	-0.07598755
25	0x3c5469fc	0.012964722
26	0x39fe80a5	0.00048542503
27	0xbdaafb59	-0.08348722
28	0x3e00b49f	0.12568901
29	0x3c419ba8	0.0118168965
30	0xb3393772	-4.3124096e-08
31	0xbca4378b	-0.020046016
32	0x3d98d153	0.074618004
33	0xbe3da830	-0.1852119
34	0xbe602c5e	-0.21891925
35	0xbc36eb3a	-0.011164481
36	0xbdd0a91c	-0.10188505
37	0xbcc18a8d	-0.023625636
38	0xbe1c93f8	-0.1529082
39	0xbe60d5f6	-0.2195662
40	0xbdb1c477	-0.08680051
41	0xbc6b2471	-0.01435195
42	0x3eb818f6	0.35956544
43	0xbe36fe94	-0.17870551
44	0x3e41314e	0.18866464
45	0x3e959211	0.29213002
46	0xbdfecdca	-0.12441595
47	0xbef18f02	-0.4717942
48	0xbd9cb273	-0.07651224
49	0x3e043dcc	0.12914199
50	0x3da8d897	0.08244436
51	0x3e0f2ae0	0.139812
52	0xbdcd3fe4	-0.10021952
53	0x3d9fee08	0.07809073
54	0xbce69757	-0.028148336
55	0xbe17d862	-0.14828637
56	0xbe9369ed	-0.28791752
57	0x3c51582c	0.0127773695
58	0x3c60cf18	0.01372125
59	0x3eb129e1	0.34602264
60	0xbdfba882	-0.12288
61	0xbe30360c	-0.17208117
62	0xbd872eac	-0.06600699
63	0xbe0de82d	-0.138581
64	0xbe648412	-0.22316006
65	0x3dfcc9d9	0.12343187
66	0xbcea1f95	-0.028579513
67	0x3d1b8143	0.03796507
68	0xbe7f6c04	-0.24943548
69	0x3d9825de	0.074290976
70	0xbe01bac5	-0.12668903
71	0x3cb7bf1e	0.022429999
72	0x3e16c6c1	0.14724256
73	0xbec364d2	-0.38162857
74	0xbd2e7d90	-0.042600214
75	0x3a0bc8be	0.0005332342
76	0xbe06228b	-0.13099115
77	0x3e87a460	0.26492596
78	0x3e4be2d1	0.19910742
79	0x3e4fcd84	0.20293242
80	0xbe03d7ac	-0.12875241
81	0xbb9e8278	-0.0048373304
82	0x3d875b38	0.066091955
83	0x3e4a9150	0.19781995
84	0xbe15d0d4	-0.14630443
85	0xbe942e45	-0.2894155
86	0xbe55e2ad	-0.20887251
87	0x3f2c97b0	0.67418957
88	0x3d53f1bb	0.051744204
89	0xbf077dee	-0.5292653
90	0xbaf0a61c	-0.0018360051
91	0x3deec8e1	0.11659408
92	0xbe86ba08	-0.26313806
93	0x3f13de2d	0.5776089
94	0x390ec6b2	0.00013616195
95	0x3d98c5bd	0.074595906
96	0x3e0b5642	0.13607123
97	0x3d100305	0.03515913
98	0xbe13d3f5	-0.14436324
99	0x3b4b91ae	0.0031062174
100	0xbd68e0bd	-0.056854952
101	0x3d5a743a	0.0533335
102	0xbe0cccda	-0.1375002
103	0xbea581ef	-0.32325694
104	0x3e1b0809	0.15139784
105	0xbd70973d	-0.058737982
106	0xbe2b6c53	-0.16740541
107	0xbf22f99c	-0.63662124
108	0x3e5a6fc4	0.21331698
109	0x3e72f6fa	0.23727027
110	0xbdee9c4b	-0.11650904
111	0xbe2610d7	-0.16217361
112	0xbe177ef0	-0.14794517
113	0xbe412c37	-0.18864523
114	0xbe1e51fe	-0.15460965
115	0xbef04655	-0.4692866
116	0x3e75ff7c	0.24023241
117	0xbed75e9f	-0.42064378
118	0x3baf838c	0.005356258
119	0xbe0f2772	-0.13979891
120	0xbd9c2e16	-0.07625978
121	0xbb09cb10	-0.0021025576
122	0xbc6db1f6	-0.014507761
123	0x3a34e435	0.00069004606
124	0xbdfbfde4	-0.12304285
125	0xbd92d40d	-0.07169352
126	0xbe0033d1	-0.12519766
127	0xbe08a748	-0.13345063
128	0x3f404c01	0.7511597
129	0xbd41acc4	-0.047283903
130	0x3d8e614f	0.06952154
131	0x3f24cfe8	0.6437974
132	0xbdd58eb4	-0.10427609
133	0x3e130ac5	0.14359577
134	0x3d794d35	0.060864646
135	0x3ea7da01	0.3278351
136	0x3e52e2f6	0.20594391
137	0x3e27062e	0.16310951
138	0xbe6ee59e	-0.2332978
139	0x3b041af6	0.0020157672
140	0x3b3aef06	0.0028523817
141	0x3ecc3970	0.3988757
142	0x3e6ddf8f	0.23229812
143	0xbe381a8a	-0.17978874
144	0x3e811cef	0.25217387
145	0x3c5ac30d	0.013352168
146	0xbdc0a930	-0.0940727
147	0xbe4fd440	-0.2029581
148	0x3f29a38c	0.6626518
149	0x3ed6398d	0.41840783
150	0xbe63f05c	-0.22259659
151	0x3ed281bc	0.41114604
152	0x3e20aaa7	0.15690099
153	0x3eb768b0	0.35822058
154	0xbc595e7c	-0.013267156
155	0x3ecab951	0.3959451
156	0x3d9ace31	0.07558859
157	0x3f2ece03	0.682831
158	0x3afbd2e7	0.0019212634
159	0x3f34463a	0.7041966
160	0xbd0292ea	-0.03187839
161	0x3e3b04bf	0.18263529
162	0x3ec48a87	0.38386938
163	0x3a68ce75	0.0008880862
164	0x3d827403	0.06369784
165	0xbd5030f2	-0.050827928
166	0x3dbf7dd3	0.09350171
167	0x3e9bff9c	0.30468452
168	0x3e671d6c	0.22569817
169	0xbd72c42e	-0.059269123
170	0x3daecba1	0.08534933
171	0xbe9470db	-0.28992352
172	0x3e55232f	0.20814203
173	0x3efe7fe8	0.4970696
174	0x3df65027	0.120270066
175	0x3ebe551d	0.3717431
176	0xbde74257	-0.1129195
177	0xbdcd6937	-0.10029834
178	0xbd90c218	-0.070682704
179	0xbe8c4a07	-0.27400228
180	0xbd2a4994	-0.041574076
181	0xbea7c13e	-0.3276462
182	0xbcaea0d6	-0.021316927
183	0x3dbf56aa	0.09342702
184	0x3e97b369	0.29629067
185	0xb8ea476c	-0.00011171293
186	0x3a1c905e	0.000597244
187	0xbd5c37b8	-0.053764075
188	0x3e0103a7	0.1259905
189	0x3e2cf803	0.16891484
190	0x3d50e499	0.050999258
191	0x3d9955d7	0.07487076

encoder_lin.2.bias f4 [3]
0	0xbe0dc7e9	-0.13845791
1	0xbd4dbbe2	-0.050228007
2	0x3cff3ed8	0.031157896
