decoder_paramsfold3.pth (torch, 102279 bytes, 9 tensors)

decoder_lin.0.weight f4 [64, 2]
0.89345837 0.0031999038 -0.22423862 0.5700864 -0.59069425 -0.69509274 -0.024948461 0.39324197
-0.03333887 0.29532793 0.32344422 0.54410726 -0.11971612 0.3310635 0.28001386 0.4992238
0.77067435 -0.17923766 -0.07191396 0.31804547 -0.4662747 0.13165519 -0.21284501 0.43337873
-0.046843763 0.41040155 0.062988475 0.3946428 0.7751402 -0.0038817255 -0.07495681 -0.4198362
-0.20133257 0.10839773 0.13560596 0.076586425 -0.46357635 0.45825735 -0.057830814 -0.52280354
0.080122754 -0.8821062 -0.4157023 0.08809606 -0.18503118 0.15696284 0.0644123 -0.92234504
0.2656247 0.4603068 0.39942393 0.49297497 -0.64622253 -0.22379284 0.608296 0.33463824
0.38537034 0.2501919 -0.6420675 0.14679337 0.4180606 0.5081385 1.2368201e-06 -9.494532e-06
0.8965949 -0.19930856 0.07762048 0.19268167 -0.2875463 0.29215497 0.3693884 0.50537074
0.28022158 0.43629634 -0.29382718 0.35468078 -0.44586316 0.079483785 -0.040410303 0.53579277
-0.3532808 -0.61469054 -0.24169973 -0.4303746 -0.61727655 0.20698354 -0.20958325 0.52434105
0.0015983472 -0.43870473 -0.11095927 0.50365466 5.3706515e-07 -4.2110884e-07 0.41243848 0.749084
-0.2170721 0.3400261 0.07525622 0.057408907 0.0010462496 -0.5009065 0.29580364 0.46433136
-0.24465628 0.3564006 0.0037988762 -0.32452238 0.20134683 0.4536149 0.2863134 -0.36277223
0.59976155 -0.14086126 0.6072427 -0.91784644 -0.31040013 -0.5571649 -0.77106506 -0.14402375
0.0017418828 -0.2722928 -0.4066417 0.14325483 -0.3297552 -0.5730443 0.17148851 0.1728869
00000000: b0b9 643f 7ab5 513b cf9e 65be 2ff1 113f
00000010: bd37 17bf 99f1 31bf b760 ccbc 0357 c93e
00000020: 578e 08bd 3935 973e 7b9a a53e 9d4a 0b3f
00000030: ba2d f5bd 2881 a93e fa5d 8f3e 439a ff3e
00000040: ea4a 453f 148a 37be a047 93bd dbd6 a23e
00000050: 8fbb eebe 9ed0 063e 0bf4 59be d1e3 dd3e
00000060: 3fdf 3fbd 2720 d23e 1a00 813d 9f0e ca3e
00000070: 976f 463f 8c64 7ebb f582 99bd c5f4 d6be
00000080: 202a 4ebe a1ff dd3d 4adc 0a3e 58d9 9c3d
00000090: e159 edbe b5a0 ea3e 01e0 6cbd 74d6 05bf
000000a0: 6617 a43d b6d1 61bf efd6 d4be b56b b43d
000000b0: d078 3dbe deba 203e 99ea 833d ce1e 6cbf
000000c0: f6ff 873e 55ad eb3e 4b81 cc3e 3767 fc3e
000000d0: d76e 25bf f329 65be 49b9 1b3f b455 ab3e
000000e0: 434f c53e 2719 803e 895e 24bf 0051 163e
000000f0: 0a0c d63e 5d15 023f d100 a635 b44a 1fb7
00000100: 3e87 653f 8b17 4cbe 7cf7 9e3d 584e 453e
00000110: 4539 93be 5695 953e 7a20 bd3e fa5f 013f
00000120: 3479 8f3e 3c62 df3e 8470 96be b898 b53e
00000130: 2d48 e4be 65c8 a23d 4685 25bd b729 093f
00000140: 39e1 b4be 5c5c 1dbf 2280 77be 0f5a dcbe
00000150: d605 1ebf 7ef3 533e fe9c 56be 373b 063f
00000160: a27f d13a e89d e0be 9d3e e3bd 83ef 003f
00000170: d62a 1035 c214 e2b4 232b d33e f8c3 3f3f
00000180: 2648 5ebe e717 ae3e ef1f 9a3d 9a25 6b3d
00000190: 5022 893a 693b 00bf 9373 973e d7bc ed3e
000001a0: 2d87 7abe 247a b63e 91f6 783b cc27 a6be
000001b0: dd2d 4e3e 3640 e83e ac97 923e 48bd b9be
000001c0: f989 193f ef3d 10be 4274 1b3f fcf7 6abf
000001d0: c4ec 9ebe 5ca2 0ebf 8564 45bf f67a 13be
000001e0: e34f e43a f669 8bbe 5733 d0be 65b1 123e
000001f0: acd5 a8be 08b3 12bf af9a 2f3e 4309 313e

decoder_lin.0.bias f4 [64]
0.39706552 0.0010401814 0.19814484 -1.1463943 0.11976736 0.2045416 -0.26530886 -0.21190064
-0.010402035 -0.61508024 -0.32787517 -0.3070032 0.3696207 -0.2975724 -0.16302498 0.30730882
0.33890378 2.3029137 0.6172285 0.22868559 -0.45338666 0.22440612 -0.11721631 -0.44076326
-0.023465779 0.19786903 0.43102953 0.3218643 0.24304955 0.73975646 -0.34289384 -3.880097e-05
-0.16093998 0.99939567 0.9910221 0.5335897 0.5032494 0.50080353 0.35878623 0.3060317
0.21078502 0.16085738 0.7651858 -0.30204952 0.10157163 -0.6214233 -1.2920608e-06 -0.47113746
-0.081102975 0.7567723 0.13109802 0.29896882 0.0012301299 0.05179231 -0.43758363 2.2258031
-0.07274927 0.47377646 0.2553421 0.1758835 0.0032017936 -0.95053583 0.17242512 1.0998906
00000000: 2c4c cb3e b256 883a 7be6 4a3e 0cbd 92bf
00000010: 9748 f53d 5a73 513e 90d6 87be 7bfc 58be
00000020: 4c6d 2abc e675 1dbf 41df a7be 862f 9dbe
00000030: ed3e bd3e 695b 98be 05f0 26be 9557 9d3e
00000040: cc84 ad3e f062 1340 b002 1e3f 8e2c 6a3e
00000050: 4c22 e8be b8ca 653e 1b0f f0bd b9ab e1be
00000060: 4e3b c0bc 2e9e 4a3e e7af dc3e 66cb a43e
00000070: fbe1 783e ae60 3d3f c88f afbe 39be 22b8
00000080: 73cd 24be 65d8 7f3f a0b3 7d3f 5699 083f
00000090: f4d4 003f a934 003f d4b2 b73e 30b0 9c3e
000000a0: 07d8 573e ccb7 243e 37e3 433f 3ca6 9abe
000000b0: c904 d03d 9915 1fbf df6a adb5 ee38 f1be
000000c0: 5119 a6bd d4bb 413f 8f3e 063e 7112 993e
000000d0: 4f3c a13a 2c24 543d f60a e0be 8f73 0e40
000000e0: 92fd 94bd d492 f23e 33bc 823e ce1a 343e
000000f0: 2fd5 513b 5156 73bf 3690 303e 37c9 8c3f

decoder_lin.2.weight f4 [288, 64]
0.007855135 0.028307842 0.0065849638 0.048962504 0.016886476 -0.01936736 0.005085816 -0.028464751
-0.062359694 0.021412835 0.007931534 0.00930746 0.020890124 0.004044767 -0.04045875 -0.014477445
0.008484852 -0.0038051675 0.0408634 -0.0054301852 -0.0019236313 0.008357475 -0.00035557174 -0.0027677345
-0.02232816 0.026467975 0.011374655 0.059053976 0.04758789 0.019671801 0.0055114143 -4.2791384e-09
-0.07009784 0.012346124 0.021961989 0.005024873 -0.013550895 0.029269531 0.009461556 0.01970393
-0.059364375 -0.040501837 0.0186476 0.010955155 -0.008242551 0.012031575 7.515777e-09 -0.03730583
0.01809118 0.0012926903 -0.00896566 -0.0142890075 0.022882698 -0.006714287 -0.02663056 0.056404233
-0.0517279 -0.08184345 -0.05597307 0.026566822 -0.0043157926 0.050782353 -0.054889396 0.0068227164
0.111600675 -0.0145013 -0.12590234 -0.12108234 -0.0033812255 0.02196576 -0.021657236 0.0056138225
0.16359475 -0.04823711 0.052989785 -0.042440195 0.0046693636 -0.009453213 0.11996474 -0.067782134
0.036153357 -0.015219061 -0.009517191 -0.051979672 -0.032100424 0.05939841 -0.000932392 -0.033706613
0.01373212 -0.023110477 -0.051283114 -0.009380775 -0.017020104 0.08090664 -0.033546034 2.102737e-07
0.163772 0.0220653 -0.007874604 -0.01211227 0.026178136 -0.013697313 0.062337436 0.003962799
-0.11129725 -0.07819656 0.0854505 -0.016303657 -0.041156203 -0.029205991 -1.2146242e-07 0.013801284
-0.02111801 -0.008022735 -0.045436352 -0.009444703 -0.021452641 -0.032255195 0.0025612353 0.13566874
0.13125075 0.017537445 -0.104053915 -0.014556888 -0.02613941 0.10623431 -0.09981479 -0.020688828
0.093028694 0.029963827 -0.047640316 0.01206964 0.046724837 -0.03848953 0.007962254 -0.07972822
-0.06454915 0.009168792 0.060981758 0.03665578 0.07662922 -0.074514836 -0.07876282 -0.14274552
-0.0018764093 0.11558464 -0.004044362 -0.17219175 -0.08243629 0.03025818 0.022175765 -0.10671807
-0.033347044 -0.020989604 0.03245553 0.11609284 0.12429553 0.03533963 -0.027515419 -1.1625348e-06
-0.100765765 -0.008473201 0.037405048 -0.025733717 -0.023461511 0.04261453 0.027775615 0.037429955
-0.09412027 -0.06639971 0.043337982 0.013739569 -0.111381166 0.01601693 1.4926479e-07 -0.07043603
0.023620825 0.048537724 -0.1294733 -0.0064766244 0.0043452154 -0.08047974 -0.09249676 0.20545293
-0.061963834 -0.03110584 -0.09298815 0.08528284 -0.06496781 0.1357596 -0.09462338 0.040816367
-0.018302362 -0.019503782 -0.042927798 -0.08199911 0.022604244 0.021419106 -0.03546496 -0.004379878
-0.015609165 -0.04977629 -0.038412876 -0.06134231 0.016620973 -0.003856417 -0.021255627 -0.01561448
0.00788556 0.06423607 -0.028481157 -0.015517126 0.0038358327 0.00015071653 -0.0130864605 0.004067833
0.021599274 0.0316559 -0.019905664 0.01165283 0.012999899 -0.00064512424 -0.012154216 1.1829061e-08
-0.017364513 0.04311158 0.008899863 0.039684266 0.027020847 -0.035328645 0.0031976698 0.036171965
-0.027061606 -0.02051656 -0.0055003455 -0.04396507 -0.010749112 -0.051602002 -1.105306e-07 -0.023476828
-0.049040023 0.028897466 -0.011812733 0.040033292 -0.04783249 -0.008548824 -0.01287567 0.05449283
-0.009329176 -0.122317486 -0.026283542 -0.043265615 -0.005840067 0.00014320243 -0.024885355 0.043686774
00000000: d3b2 003c d9e5 e73c aec6 d73b e88c 483d
00000010: 8255 8a3c 4ca8 9ebc eba6 a63b e92e e9bc
00000020: e16c 7fbd f869 af3c 44f3 013c 517e 183c
00000030: c421 ab3c f789 843b 13b8 25bd ce32 6dbc
00000040: 0c04 0b3c 1e60 79bb 6160 273d b2ef b1bb
00000050: 5b22 fcba caed 083c 086c bab9 e162 35bb
00000060: 8ce9 b6bc 5ed3 d83c c35c 3a3c 95e2 713d
00000070: 85eb 423d c226 a13c 1899 b43b b307 93b1
00000080: 758f 8fbd 6647 4a3c a1e9 b33c b1a7 a43b
00000090: 9304 5ebc a8c6 ef3c a404 1b3c 236a a13c
000000a0: 0f28 73bd 41e5 25bd dac2 983c 407d 333c
000000b0: c40b 07bc 1520 453c bd1e 0132 ffcd 18bd
000000c0: f433 943c 7d6f a93a b4e4 12bc 711c 6abc
000000d0: 7f74 bb3c 8603 dcbb 5528 dabc 2008 673d
000000e0: a2e0 53bd 8a9d a7bd 0544 65bd aaa2 d93c
000000f0: 7e6b 8dbb 2801 503d b4d3 60bd 1891 df3b
00000100: e58e e43d dc96 6dbc 8bec 00be 05fa f7bd
00000110: 8d97 5dbb 8af1 b33c 846a b1bc 28f4 b73b
00000120: 6285 273e 4794 45bd d10b 593d c5d5 2dbd
00000130: 7601 993b a6e1 1abc 13b0 f53d 5cd1 8abd
00000140: 8b15 143d 5e59 79bc feed 1bbc a3e8 54bd
00000150: bc7b 03bd bf4b 733d c56b 74ba f20f 0abd
00000160: b0fc 603c 2f52 bdbc 3e0e 52bd d2b1 19bc
00000170: bf6d 8bbc 61b2 a53d 9167 09bd 98c7 6134
00000180: d9b3 273e 4ac2 b43c 7c04 01bc 8b72 46bc
00000190: 8873 d63c b26a 60bc 8a55 7f3d 5eda 813b
000001a0: d0ef e3bd 8525 a0bd ac00 af3d 3f8f 85bc
000001b0: 6893 28bd 6741 efbc 566b 02b4 c81e 623c
000001c0: adff acbc ca71 03bc 781b 3abd f5bd 1abc
000001d0: 73bd afbc 061e 04bd 66da 273b bfec 0a3e
000001e0: 9966 063e b0aa 8f3c 381a d5bd 0380 6ebc
000001f0: 5122 d6bc 6091 d93d b26b ccbd 9e7b a9bc
00000200: d485 be3d b376 f53c 7e22 43bd bdbf 453c
00000210: 8b62 3f3d 33a7 1dbd 1d74 023c 8d48 a3bd
00000220: 5832 84bd b338 163c 02c8 793d 5f24 163d
00000230: c8ef 9c3d 3c9b 98bd 674e a1bd e22b 12be
00000240: d9f1 f5ba a4b7 ec3d 9186 84bb 0953 30be
00000250: 5cd4 a8bd 01e0 f73c f3a9 b53c 018f dabd
00000260: e996 08bd 64f2 abbc 17f0 043d 15c2 ed3d
00000270: a88e fe3d 4ac0 103d 0468 e1bc 6408 9cb5
00000280: 485e cebd 2ed3 0abc 0936 193d 84cf d2bc
00000290: 5b32 c0bc 938c 2e3d b089 e33c 2750 193d
000002a0: 21c2 c0bd 92fc 87bd 2b83 313d ee1b 613c
000002b0: cf1b e4bd f035 833c 9845 2034 c440 90bd
000002c0: 7680 c13c 7ecf 463d a694 04be dd39 d4bb
000002d0: 4f62 8e3b 90d2 a4bd f16e bdbd 4162 523e
000002e0: cacd 7dbd add1 febc 9270 bebd c5a8 ae3d
000002f0: d80d 85bd 9104 0b3e e7c9 c1bd 102f 273d
00000300: d6ee 95bc 65c6 9fbc 0fd5 2fbd 26ef a7bd
00000310: 892c b93c 1f77 af3c b543 11bd 1485 8fbb
00000320: 95bd 7fbc 39e2 4bbd d256 1dbd 1342 7bbd
00000330: b528 883c f1bb 7cbb 4820 aebc e0d3 7fbc
00000340: 7032 013c 338e 833d 5151 e9bc 8b3b 7ebc
00000350: 9862 7b3b a909 1e39 9868 56bc 754b 853b
00000360: f6f0 b03c 9ea9 013d 3411 a3bc 83eb 3e3c
00000370: 87fd 543c 8e1d 29ba 7a22 47bc c338 4b32
00000380: 0640 8ebc c595 303d bbd0 113c f88b 223d
00000390: d35a dd3c c5b4 10bd ff8f 513b 0e29 143d
000003a0: 4db0 ddbc 5812 a8bc 3e3c b4bb b814 34bd
000003b0: 0b1d 30bc 9f5c 53bd d75c edb3 7a52 c0bc
000003c0: 31de 48bd 61ba ec3c 318a 41bc f3f9 233d
000003d0: 00ec 43bd 5e10 0cbc 79f4 52bc e033 5f3d
000003e0: 66d9 18bc 9781 fabd 9550 d7bc 4937 31bd
000003f0: 085e bfbb 9c28 1639 5fdc cbbc e7f0 323d

decoder_lin.2.bias f4 [288]
-0.010818037 0.0063388 0.026906705 0.033295885 0.30372196 3.25401e-40 -0.22289884 -0.001327245
-9.82053e-06 -4.5616282e-26 -0.026324805 -5.1559284e-19 -0.005438293 -3.5652437e-35 -6.9728367e-06 0.056486014
0.0050603105 0.027911125 -1.3187659e-08 -0.038737155 -1.587026e-19 0.02287761 -1.4605427e-08 7.2657864e-32
0.02514695 0.70789546 0.20938621 0.05379716 -3.1600632e-11 -0.004711902 0.051654242 6.62206e-40
-1.981088e-08 0.08764228 -7.2439256e-19 0.06902887 -2.0406453e-05 -5.4846696e-06 -1.0494579e-08 -0.07864383
1.0201954e-28 0.10593436 -0.0027082637 0.027447034 0.045023274 -4.1836922e-27 -8.7879096e-05 0.13016832
-1.3575009e-30 -0.04116671 0.049881455 -0.02473417 -0.075322844 0.08734634 0.038867667 0.12533242
0.37124124 -0.064867996 -3.0340108e-09 5.36742e-40 3.4599e-40 0.032108128 -0.00014519165 0.002235254
-0.0056278794 -1.17747e-40 4.946262e-34 0.17129259 -0.10537607 0.119219966 1.14046e-40 -7.10053e-40
0.026178949 0.0815003 -7.107084e-05 0.009523098 -0.0016607168 -2.364331e-16 -0.02662074 -0.00032075582
-0.0033408545 -4.95366e-40 -3.62367e-40 -0.11701203 -0.025172655 -3.334196e-07 -0.00021152578 -2.0649793e-05
-0.06632001 -1.8424402e-05 0.01313854 0.16089918 0.035259325 -0.01732872 -0.003042675 0.16914745
-0.022108588 0.0010845636 -0.046818558 -6.769e-41 0.14469096 0.12656766 -3.963922e-19 2.3715e-40
-0.034013186 -0.0011331652 0.29086044 0.02499804 0.056754284 0.3841656 -9.241214e-28 -1.32540975e-20
-6.8348255e-18 0.115214765 0.06750733 0.058066346 -2.1557803e-13 0.015875515 -1.8035527e-06 0.019715179
0.026056916 0.15562148 -0.007865839 -0.00027661037 -4.3677786e-09 3.12328e-40 0.0036267575 7.35266e-40
0.021647874 5.4349047e-30 8.35457e-40 0.011051686 0.04710027 -6.7589e-40 -0.05358562 0.056397147
-1.1659829e-05 -7.2035e-40 -5.76574e-40 6.8159e-41 -0.017634824 4.12806e-40 -0.036464114 0.10683131
6.85053e-40 -2.9057226e-06 0.2593511 -1.6081118e-05 6.35792e-40 0.049148176 -0.00596218 -3.7483399e-06
0.11325667 -3.7759775e-05 0.07387399 -0.0027987296 -1.3899137e-07 0.00031119186 -0.004321565 0.05077655
0.25569788 3.37791e-40 0.007716766 -3.38245e-40 0.13017434 -0.012872377 0.23498125 -3.8660967e-11
0.1444549 -2.0242758e-05 0.13337757 0.0838024 0.14025746 -0.19508314 -2.0229658e-23 -0.040855937
-5.4239263e-05 -0.005703144 0.16819915 0.045740362 -9.799828e-11 -0.16303986 -0.038966686 -0.030377844
2.30584e-40 -0.06723543 -3.551762e-15 -0.0080064805 -0.1292726 0.10940866 -2.849719e-14 -7.13307e-40
-0.0045455084 -0.007033432 -4.20659e-40 0.08260849 5.037213e-30 -0.34919468 -7.4539817e-06 -0.047700036
0.08757661 -6.201322e-26 5.836557e-05 0.021246685 2.6166e-41 -3.3184536e-27 -0.041800555 -1.982963e-37
2.8044e-40 -5.443528e-29 0.03177227 7.25958e-40 -0.009276228 -0.024963558 -4.45715e-40 6.80727e-40
0.009103768 -4.563661e-09 0.0006603183 0.09849337 -1.8904994e-11 0.1557296 0.14157145 6.5657e-40
1.5365519e-33 0.056709148 -0.009131253 0.15177588 -1.90333e-40 -0.3623919 0.15209393 0.10726144
6.40385e-40 -0.061180092 -0.013394157 0.17269935 -6.22483e-40 -0.022510763 -0.00023581389 -6.89894e-40
0.14469555 -1.7084392e-05 -1.4853779e-19 -0.005777385 -5.701322e-08 -8.361106e-05 0.10408874 -7.4392e-41
-1.01769246e-10 0.04783884 0.26041475 -8.280085e-06 0.017345695 0.15735222 -0.24142398 0.01633388
00000000: 233e 31bc b5b5 cf3b 736b dc3c 4461 083d
00000010: 7281 9b3e 168b 0300 983f 64be f4f6 adba
00000020: dbc2 24b7 82e1 6195 1ea7 d7bc 182d 18a1
00000030: b533 b2bb 958f 3d86 36f8 e9b6 e15d 673d
00000040: f6d0 a53b dfa5 e43c f08f 62b2 daaa 1ebd
00000050: eb5c 3ba0 d369 bb3c 59eb 7ab2 6fa1 bc0b
00000060: fa00 ce3c a338 353f 5769 563e 695a 5c3d
00000070: 26fb 0aae 4c66 9abb 6693 533d f635 0700
00000080: 962c aab2 cc7d b33d 8ecd 55a1 025f 8d3d
00000090: 862e abb7 f408 b8b6 a64b 34b2 0410 a1bd
000000a0: 3c53 0111 1df4 d83d 207d 31bb 9ad8 e03c
000000b0: 536a 383d aebb a593 bb4b b8b8 d84a 053e
000000c0: 6244 dc8d 6d9e 28bd 7f50 4c3d 509f cabc
000000d0: dd42 9abd a3e2 b23d b433 1f3d 2457 003e
000000e0: 5513 be3e 83d9 84bd e27e 50b1 38d8 0500
000000f0: 7bc4 0300 d083 033d 963e 18b9 577d 123b
00000100: 136a b8bb 3b48 0180 255e 2408 5367 2f3e
00000110: 69cf d7bd 9929 f43d ea3d 0100 57bb 0780
00000120: 3c75 d63c a1e9 a63d de0b 95b8 c506 1c3c
00000130: 69ac d9ba 5e4b 88a5 bd13 dabc 1e2b a8b9
00000140: 3df2 5abb e164 0580 22f2 0380 01a4 efbd
00000150: e236 cebc d700 b3b4 05cd 5db9 1839 adb7
00000160: c9d2 87bd 1a8e 9ab7 0843 573c c1c2 243e
00000170: 156c 103d f6f4 8dbc 9e67 47bb fd34 2d3e
00000180: 121d b5bc ea27 8e3a d1c4 3fbd b1bc 0080
00000190: de29 143e f49a 013e 18fd e9a0 1495 0200
000001a0: 6951 0bbd b786 94ba a9eb 943e b1c8 cc3c
000001b0: 2e77 683d 5bb1 c43e d16e 9292 e25c 7a9e
000001c0: 1a29 fca2 b8f5 eb3d 4841 8a3d fad6 6d3d
000001d0: 23b8 72aa 5e0d 823c 9911 f2b5 ba81 a13c
000001e0: 5075 d53c 3d5b 1f3e b8df 00bc 0406 91b9
000001f0: 6313 96b1 a566 0300 e5ae 6d3b 9f01 0800
00000200: e256 b13c 4777 dc0e ea18 0900 2112 353c
00000210: 36ec 403d 1b5c 0780 987c 5bbd b200 673d
00000220: 969e 43b7 0bd8 0780 4147 0680 00be 0000
00000230: e876 90bc bc7e 0400 655b 15bd 60ca da3d
00000240: a675 0700 efff 42b6 abc9 843e f0e5 86b7
00000250: 54ec 0600 994f 493d 645e c3bb fd8b 7bb6
00000260: 1df3 e73d 4060 1eb8 3f4b 973d e46a 37bb
00000270: a83d 15b4 7727 a339 ea9b 8dbb 12fb 4f3d
00000280: d5ea 823e a0ad 0300 eddc fc3b e4ae 0380
00000290: 6c4c 053e aae6 52bc ed9e 703e 6108 2aae
000002a0: fceb 133e fece a9b7 2194 083e 98a0 ab3d
000002b0: a79f 0f3e e0c3 47be 35a6 c399 8e58 27bd
000002c0: f77e 63b8 70e1 babb 663c 2c3e 3f5a 3b3d
000002d0: 2180 d7ae ecf3 26be 889b 1fbd f5da f8bc
000002e0: c682 0200 bbb2 89bd 72ee 7fa7 9d2d 03bc
000002f0: 0960 04be a611 e03d 0657 00a9 69c4 0780
00000300: 7df2 94bb b478 e6bb a094 0480 a42e a93d
00000310: 6955 cc0e a5c9 b2be 371d fab6 1d61 43bd
00000320: 5e5b b33d 8c89 9995 8ecd 7438 870d ae3c
00000330: f148 0000 1e75 8393 0f37 2bbd 17f4 8682
00000340: c10d 0300 8402 8a90 a423 023d ade7 0700
00000350: 52fb 17bc 6080 ccbc 79da 0480 9769 0700
00000360: f827 153c 63ce 9cb1 3619 2d3a e4b6 c93d
00000370: 434a a6ad 9577 1f3e 1bf8 103e 4026 0700
00000380: b14d ff08 da47 683d 409b 15bc 236b 1b3e
00000390: 9212 0280 6e8b b9be 83be 1b3e e3ab db3d
000003a0: 22f9 0600 fa97 7abd 2b73 5bbc 19d8 303e
000003b0: 3bc7 0680 7e68 b8bc cf44 77b9 2583 0780
000003c0: 122b 143e 7450 8fb7 cb5c 2fa0 3850 bdbb
000003d0: b3de 74b3 5958 afb8 7a2c d53d 60cf 0080
000003e0: feca dfae a9f2 433d 1555 853e b2ea 0ab7
000003f0: 8f18 8e3c f120 213e d937 77be a1ce 853c

decoder_conv.0.weight f4 [32, 16, 3, 3]
-0.015934378 0.010871122 -0.13819124 0.096023455 -0.10313335 -0.17386179 -0.102674596 -0.015623263
-0.13738075 -0.08959376 -0.10009203 0.12168607 -0.004111803 -0.4327757 -0.042895064 0.053040583
-0.09979478 -0.17418481 -0.04457858 -0.20302859 -0.03381171 0.035152502 0.021641634 0.17666571
-0.009269164 -0.022633867 0.041261118 -0.045914963 -0.121589825 -0.04772724 -0.111423105 0.012591014
-0.053750843 -0.13342069 -0.066035934 0.0013693955 0.01957654 0.036928497 -0.11046064 -0.011159395
-0.01922416 0.020224022 -0.016338302 -0.07186484 0.12477956 -0.050291114 -0.0023687317 0.05558686
0.04742336 -0.25980046 -0.02317783 -0.027993659 -0.11167618 0.043755364 0.029822024 0.007509038
-0.07449056 -0.06249277 0.008521435 -0.23456386 -0.19239907 -0.010143706 0.01681665 -0.006546442
0.103757836 -0.056026895 -0.09904002 0.14941612 0.049388252 -0.10554622 -0.07273171 -0.16651446
-0.0074527753 0.033410657 -0.004443299 -0.033982005 0.337582 -0.03488592 -0.05156591 0.0062883273
0.08074105 0.032444984 -0.10719913 -0.059359528 0.010682963 -0.0703475 -0.0001116908 -0.12292855
0.017106565 -0.16256557 -0.026173104 0.024197478 -0.1630594 -0.121967524 -0.13755855 -0.07841327
-0.058438912 0.04803091 -0.013691428 0.050557457 -0.0012124889 -0.06886495 -0.153239 0.04760399
-0.04587732 -0.116245635 0.05758432 0.07892221 0.053914383 -0.05810668 -0.066039115 -0.20532843
-0.10731984 0.18723272 -0.12139671 0.06203094 -0.014409296 -0.022139555 -0.19600758 0.016758574
0.01466671 -0.47673246 -0.08469825 -0.028152885 -0.08120757 -0.054809295 -0.014757336 -0.13175277
-0.016464753 -0.029905483 -0.21187809 -0.16595072 -0.024584845 -0.14835402 0.090675294 0.045167703
0.03514508 -0.07961356 -0.09733657 -0.15772691 -0.17037848 -0.02676734 0.08258146 -0.069864616
-0.00061651575 -0.2475837 -0.059562556 -0.090156764 -0.07282738 -0.06161461 -0.047713093 0.14357695
-0.20921129 -0.065612674 -0.1335705 0.017058548 0.0122201145 -0.2632191 0.12529047 0.023381898
0.1363598 0.14912198 -0.0797557 -0.05346553 -0.13772176 -0.007951146 0.06830832 0.044907916
-0.2682509 0.37294015 0.0678727 0.019013966 0.12909096 -0.056306638 0.05559926 0.14207873
-0.07184927 -0.040020585 -0.014203075 -0.08299278 -0.026046872 -0.040796347 0.0992884 -0.10649052
-0.14321928 -0.31292966 -0.004527376 -0.21664824 -0.17702241 -0.016528996 -0.04977663 0.05930394
0.05514107 0.24247682 0.096965484 0.1609888 0.15752725 0.1160626 -0.07956486 -0.059014693
0.044372078 0.060349636 0.0074555203 0.14658852 0.05271671 0.17902079 0.1485114 -0.04250935
-0.11228185 0.06824779 0.040953685 0.39570436 -0.0843559 -0.09076759 0.2920441 0.018318482
-0.11848846 0.14766291 0.06433343 -0.014557055 0.24903974 0.18082573 0.102017716 0.18560077
0.1801788 0.018473279 0.071421094 0.0037797762 -0.041311022 0.039604884 -0.0441344 -0.21065982
-0.06400731 -0.019676002 0.03566731 0.15462695 0.041733135 -0.1097175 0.063238226 0.09762864
-0.02036989 0.10112307 0.07482722 -0.0053529325 0.03993601 0.024536394 -0.19674338 -0.09512007
-0.11263415 0.22373694 0.297307 0.06397307 0.13980795 -0.0937842 -0.013619781 -0.07315504
00000000: d088 82bc ca1c 323c 0182 0dbe f2a7 c43d
00000010: 9437 d3bd d308 32be 0f47 d2bd b7f8 7fbc
00000020: 8aad 0cbe ef7c b7bd 0dfd ccbd 8c36 f93d
00000030: 4ebc 86bb c794 ddbe bcb2 2fbd 1541 593d
00000040: 3561 ccbd 815d 32be 0798 36bd bae6 4fbe
00000050: 267e 0abd 12fc 0f3d cc49 b13c dbe7 343e
00000060: b1dd 17bc a96a b9bc 6b01 293d 5411 3cbd
00000070: 1604 f9bd a37d 43bd cc31 e4bd 8a4a 4e3c
00000080: d829 5cbd 6f9f 08be d93d 87bd 4a7d b33a
00000090: fb5e a03c 5642 173d 3039 e2bd e5d5 36bc
000000a0: fc7b 9dbc d9ac a53c e7d7 85bc e02d 93bd
000000b0: 6d8c ff3d 0efe 4dbd b93c 1bbb 0caf 633d
000000c0: ff3e 423d 9104 85be 6fdf bdbc f552 e5bc
000000d0: 7bb6 e4bd d338 333d 514d f43c 600e f63b
000000e0: 828e 98bd 6bf8 7fbd 7d9d 0b3c 8231 70be
000000f0: 4304 45be c931 26bc 12c3 893c 8983 d6bb
00000100: fd7e d43d 757c 65bd 7ed5 cabd 8a00 193e
00000110: 564b 4a3d 9e28 d8bd 5df4 94bd c482 2abe
00000120: 6936 f4bb 9dd9 083d 1899 91bb b730 0bbd
00000130: 8cd7 ac3e 8ae4 0ebd c736 53bd 500e ce3b
00000140: 905b a53d 08e5 043d 388b dbbd fa22 73bd
00000150: 9807 2f3c 5a12 90bd 8b3b eab8 f7c1 fbbd
00000160: 1123 8c3c 9777 26be fa68 d6bc ca39 c63c
00000170: 0bf9 26be 1cca f9bd 26dc 0cbe 2397 a0bd
00000180: a45d 6fbd 0fbc 443d 0352 60bc 5615 4f3d
00000190: 60ec 9eba 1109 8dbd afea 1cbe 67fc 423d
000001a0: dbe9 3bbd 3112 eebd 89dd 6b3d f8a1 a13d
000001b0: 54d5 5c3d 4501 6ebd 843f 87bd 9e41 52be
000001c0: 81ca dbbd efb9 3f3e d79e f8bd 2814 7e3d
000001d0: f814 6cbc 035e b5bc 36b6 48be 4749 893c
000001e0: a44c 703c 4716 f4be 4776 adbd e1a0 e6bc
000001f0: 2850 a6bd b67f 60bd c1c8 71bc 33ea 06be
00000200: 17e1 86bc 58fc f4bc 92f6 58be fcee 29be
00000210: 2866 c9bc 1eea 17be f8b3 b93d c501 393d
00000220: 4af4 0f3d 6f0c a3bd 6558 c7bd 2a83 21be
00000230: b277 2ebe 2e47 dbbc 7820 a93d 2e15 8fbd
00000240: ac9d 21ba 9586 7dbe def7 73bd 1ca4 b8bd
00000250: 8526 95bd 9a5f 7cbd ce6e 43bd d605 133e
00000260: 7c3b 56be f05f 86bd b5c6 08be 5ebe 8b3c
00000270: e036 483c a7c4 86be 254c 003e 658b bf3c
00000280: e7a1 0b3e 6fb3 183e f556 a3bd acfe 5abd
00000290: ef06 0dbe 8645 02bc 3ce5 8b3d 5df1 373d
000002a0: 2f58 89be 03f2 be3e d800 8b3d 2dc3 9b3c
000002b0: 6c30 043e caa1 66bd 0dbc 633d 167d 113e
000002c0: b625 93bd a0ec 23bd 04b4 68bc 1ef8 a9bd
000002d0: 4060 d5bc 121a 27bd b757 cb3d b417 dabd
000002e0: 13a8 12be 5138 a0be 625a 94bb 09d9 5dbe
000002f0: 5d45 35be d167 87bc 94e2 4bbd b0e8 723d
00000300: 9adb 613d d84b 783e d795 c63d 3fda 243e
00000310: d34e 213e 3ab2 ed3d e7f2 a2bd 64b9 71bd
00000320: 7fbf 353d 2e31 773d 704d f43b 4d1b 163e
00000330: 7aed 573d 3a51 373e 5f13 183e 491e 2ebd
00000340: 07f4 e5bd 7fc5 8b3d 0dbf 273d c399 ca3e
00000350: c9c2 acbd 5ce4 b9bd ce86 953e a410 963c
00000360: 14aa f2bd f234 173e 3fc1 833d b780 6ebc
00000370: 4604 7f3e 612a 393e aaee d03d 210e 3e3e
00000380: cb80 383e 4655 973c 3945 923d 1fb6 773b
00000390: bf35 29bd bb38 223d 46c6 34bd 35b7 57be
000003a0: 4416 83bd 912f a1bc e317 123d 8756 1e3e
000003b0: 5df0 2a3d 92b3 e0bd 0b83 813d 86f1 c73d
000003c0: c1de a6bc 9d19 cf3d 033f 993d a767 afbb
000003d0: f193 233d 8c00 c93c 1977 49be 50ce c2bd
000003e0: bcac e6bd 4c1b 653e a038 983e 5004 833d
000003f0: d129 0f3e ee11 c0bd 8025 5fbc 4fd2 95bd

decoder_conv.0.bias f4 [16]
0.25868633 0.526336 -0.058627646 -0.3727331 0.36569494 0.007309504 0.2726097 -0.023731379
-0.12972042 0.9277797 0.32101417 0.27132073 0.46912307 0.54861104 0.57786995 0.1493735
00000000: 8972 843e f5bd 063f 8b23 70bd dfd6 bebe
00000010: 5e3c bb3e 9084 ef3b 8093 8b3e 4f68 c2bc
00000020: 6ed5 04be f882 6d3f f85b a43e 8dea 8a3e
00000030: e630 f03e c671 0c3f 49ef 133f 5ef5 183e

decoder_conv.2.weight f4 [16, 8, 3, 3]
-0.048370894 0.08194616 0.04486416 -0.066797495 0.13272102 -0.040812425 0.0038424477 0.12667426
-0.01532761 0.014216756 0.114387296 0.12597229 -0.15484713 -0.34549907 0.16398111 -0.32480347
0.047440704 0.21194912 -0.04960443 -0.3363312 -0.04626145 -0.022441471 0.18034327 0.12549369
0.10798262 -0.020350354 -0.073237024 -0.0462556 -0.115294635 -0.11381336 -0.78577226 -0.14269261
-0.09685345 0.18376106 -0.14605713 -0.073566906 0.04829593 0.049262073 -0.13951893 0.1773404
-0.09982655 0.015413999 0.059240546 0.096822396 -0.06539348 0.033050127 0.11164169 -0.03709859
-0.06355195 -0.042156275 -0.05251288 0.17217056 0.30671453 0.026826825 0.0054033906 -0.03223012
0.0044354415 0.0024443162 -0.07109913 0.034076225 0.14117071 0.36067542 0.21892686 -0.020837344
0.021000963 -0.07866489 -0.19073378 -0.24736384 -0.1308711 0.1727834 0.13954976 -0.08424656
-0.007998589 0.052696746 0.069444135 0.022589467 0.18420222 -0.06786128 0.106525816 0.15467039
0.050897162 0.15207651 0.044110965 0.05565209 -0.30658096 -0.09523552 -0.035021883 -0.08720075
-0.5527751 0.075479776 0.019198144 -0.02606528 -0.1891281 -0.018904272 -0.2060016 -0.12817656
0.04221021 0.08995291 0.09359257 -0.06243014 -0.04967924 0.14481963 0.061758377 -0.05723128
0.04953808 0.104411975 0.18068962 -0.30577794 0.029919935 -0.11485026 0.008796673 0.069260746
-0.0028359257 -0.1477184 0.14365183 0.029410345 0.20045677 0.106376134 0.018164968 0.122839116
0.15442395 0.31707007 0.24919726 0.30161285 0.48257884 0.31952414 -0.004909019 0.08662922
0.010113583 -0.11788826 0.10963082 0.04991536 0.09336006 0.11053834 0.095111184 0.1993621
0.10351508 0.08959595 0.2926028 0.2256298 0.17390385 0.2725583 0.28636467 0.059645515
-0.20291236 -0.099895656 -0.047137436 0.033918366 0.088857315 -0.0011887127 -0.0101705985 0.38398987
0.17750458 -0.013893279 0.047947112 0.13740066 0.092451334 -0.20284924 -0.09767312 -0.32471913
-0.2435639 -0.10597137 -0.04483651 -0.14444412 -0.05431533 -0.47974092 -0.22872922 0.06982068
0.017341856 0.080466 0.06529538 -0.24209632 -0.17390122 -0.21746302 -0.037794955 -0.37918288
-0.025763031 0.016988628 -0.06949798 -0.023334702 -0.035104793 -0.09346091 0.09159965 0.15896071
-0.26191515 -0.09993945 -0.09686763 -0.35570756 -0.095708124 0.028422689 -0.042308312 0.07890199
0.26092693 0.29552194 0.24773115 0.23569997 0.48341987 0.22790287 -0.06832326 0.06405956
-0.033222463 -0.0060762656 0.054797567 0.10764535 0.101430595 0.1980582 0.1822748 0.09000775
0.11099896 -0.0050837155 0.19031656 0.28228775 0.18279923 0.16082378 0.3043303 0.23821096
-0.12399316 -0.09884528 0.11837048 -0.4272171 -0.41833195 0.28356364 -0.30698535 -0.07990409
0.12706076 0.024371026 0.033106465 -0.042696882 -0.00780224 0.018602049 -0.40536663 0.06866914
-0.477612 -0.27697426 -0.08911945 -0.27929294 0.0032442359 -0.23608291 -0.45928964 0.04471917
-0.2272715 -0.07958733 0.06849886 0.17463468 -0.0013653892 -0.16452312 -0.11034566 0.022112869
-0.2212384 0.078223504 -0.0156053305 -0.1354789 -0.08681831 0.060204573 -0.11458109 -0.07068954
00000000: 8f20 46bd 63d3 a73d 7bc3 373d 20cd 88bd
00000010: 05e8 073e ee2a 27bd 93d1 7b3b e6b6 013e
00000020: a820 7bbc 66ed 683c e343 ea3d e1fe 003e
00000030: 3f90 1ebe 41e5 b0be aaea 273e a44c a6be
00000040: 2f51 423d 3109 593e 042e 4bbd 9a33 acbe
00000050: a57c 3dbd 2dd7 b7bc e8ab 383e 6b81 003e
00000060: fe25 dd3d c9b5 a6bc 4bfd 95bd 8376 3dbd
00000070: 981f ecbd fb16 e9bd 5f28 49bf 031e 12be
00000080: 1a5b c6bd dc2b 3c3e 0090 15be 3faa 96bd
00000090: f4d1 453d 07c7 493d 0dde 0ebe b998 353e
000000a0: dd71 ccbd ff8a 7c3c 37a6 723d d24a c63d
000000b0: 04ed 85bd 925f 073d 66a4 e43d b1f4 17bd
000000c0: 8627 82bd 0fac 2cbd bf17 57bd 7b4d 303e
000000d0: b009 9d3e eec3 db3c ed0e b13b bb03 04bd
000000e0: 2e57 913b d230 203b 6c9c 91bd 8393 0b3d
000000f0: 0e8f 103e 73aa b83e 5d2e 603e 14b3 aabc
00000100: 360a ac3c 0f1b a1bd b74f 43be f24c 7dbe
00000110: 1303 06be 22ee 303e 22e6 0e3e 7689 acbd
00000120: 840c 03bc 8bd8 573d ba38 8e3d 8c0d b93c
00000130: 829f 3c3e dbfa 8abd 352a da3d ea61 1e3e
00000140: 8b79 503d f2b9 1b3e b3ad 343d 72f3 633d
00000150: 2ef8 9cbe d70a c3bd 1b73 0fbd 4f96 b2bd
00000160: ab82 0dbf 2495 9a3d 6d45 9d3c db86 d5bc
00000170: ccaa 41be 22dd 9abc 15f2 52be b740 03be
00000180: 9de4 2c3d 3b39 b83d 76ad bf3d bfb6 7fbd
00000190: 757c 4bbd 994b 143e 5af6 7c3d 596b 6abd
000001a0: 71e8 4a3d f2d5 d53d b306 393e ed8e 9cbe
000001b0: a71a f53c 9d36 ebbd ec1f 103c 94d8 8d3d
000001c0: f0da 39bb 7e43 17be 7719 133e f7ed f03c
000001d0: 8a44 4d3e bbdb d93d b3ce 943c 1393 fb3d
000001e0: 5021 1e3e 0257 a23e 912d 7f3e 006d 9a3e
000001f0: 9314 f73e ab98 a33e d6db a0bb a96a b13d
00000200: 71b3 253c 666f f1bd 2086 e03d 0c74 4c3d
00000210: 8f33 bf3d ed61 e23d a7c9 c23d 9425 4c3e
00000220: b7ff d33d 157e b73d 09d0 953e 800b 673e
00000230: da13 323e c38c 8b3e 649e 923e db4e 743d
00000240: 42c8 4fbe 1896 ccbd 2f13 41bd fced 0a3d
00000250: d3fa b53d 94ce 9bba 95a2 26bc 529a c43e
00000260: c3c3 353e a3a0 63bc 3164 443d c2b2 0c3e
00000270: 2057 bd3d b6b7 4fbe d808 c8bd 9641 a6be
00000280: d168 79be 8507 d9bd 7da6 37bd 29e9 13be
00000290: c079 5ebd 9aa0 f5be fe37 6abe 25fe 8e3d
000002a0: 8210 8e3c 5ccb a43d 96b9 853d 19e8 77be
000002b0: 2913 32be a0ae 5ebe e2ce 1abd 4224 c2be
000002c0: fe0c d3bc bc2b 8b3c f554 8ebd 6b28 bfbc
000002d0: 0bca 0fbd 6f68 bfbd 9998 bb3d 99c6 223e
000002e0: be19 86be 0ead ccbd 8962 c6bd 4d1f b6be
000002f0: 9f02 c4bd b3d6 e83c 7b4b 2dbd 5e97 a13d
00000300: 3798 853e a74e 973e 3cad 7d3e 555b 713e
00000310: cf82 f73e 5f5f 693e 11ed 8bbd a931 833d
00000320: 4714 08bd 691b c7bb 6a73 603d 2a75 dc3d
00000330: d8ba cf3d c5cf 4a3e 3fa6 3a3e fc55 b83d
00000340: 6c53 e33d 4c95 a6bb 58e2 423e 0588 903e
00000350: b92f 3b3e fdae 243e 2ed1 9b3e 93ed 733e
00000360: 20f0 fdbd 656f cabd 396c f23d 33bc dabe
00000370: 9b2f d6be 412f 913e 2f2d 9dbe c1a4 a3bd
00000380: 371c 023e bfa5 c73c a59a 073d ede2 2ebd
00000390: efa9 ffbb 5363 983c 378c cfbe 68a2 8c3d
000003a0: 8f89 f4be 92cf 8dbe 4284 b6bd 7cff 8ebe
000003b0: 3f9d 543b b8bf 71be 0328 ebbe 732b 373d
000003c0: dcb9 68be affe a2bd 2149 8c3d 6fd3 323e
000003d0: dcf6 b2ba c078 28be e8fc e1bd 0c26 b53c
000003e0: 528c 62be a533 a03d 80ad 7fbc fbba 0abe
000003f0: cccd b1bd 1299 763d 7ea9 eabd adc5 90bd

decoder_conv.2.bias f4 [8]
0.24879266 0.43509877 0.4216449 0.26846668 0.16554558 0.24408278 -0.13241851 -0.00058779994
00000000: 81c3 7e3e 44c5 de3e d7e1 d73e 7774 893e
00000010: c884 293e d6f0 793e b898 07be 9616 1aba

decoder_conv.4.weight f4 [8, 1, 3, 3]
-0.22211598 -0.2527066 -0.30727643 -0.37535998 -0.59268135 -0.60346836 -0.2139738 -0.38327
-0.40512344 0.34514067 0.80980307 0.55394673 0.7807066 1.4586102 0.8685797 0.5785462
0.9924644 0.5368736 -0.47024775 -0.67113507 -0.40841585 -0.5377974 -0.40528712 -0.27522108
-0.35807565 -0.42723405 -0.21400173 0.36407354 0.7309758 0.47689116 0.82843506 1.4478279
0.8066476 0.53454584 0.82646066 0.35502648 0.53152037 0.60054106 0.27263752 0.98077464
0.7708819 0.36148903 0.53063893 0.1448654 -0.15743238 -0.30138558 -0.7256526 -0.34625262
-0.58741343 -1.06068 -0.35667804 -0.27370206 -0.3243114 0.029693523 -0.044918854 -0.092409596
0.047689606 -0.029861629 -0.08070568 0.024708696 -0.26428494 -0.810761 -0.4948447 -0.009950491
-0.06778956 -0.15384665 -0.20497064 -0.58029807 -0.5668133 -0.19772811 -0.53662527 -0.45712575
00000000: 5f72 63be c262 81be 5653 9dbe 2f2f c0be
00000010: f7b9 17bf e77c 1abf f31b 5bbe f73b c4be
00000020: 576c cfbe 47b6 b03e 414f 4f3f 74cf 0d3f
00000030: 63dc 473f bdb3 ba3f 3d5b 5e3f 9b1b 143f
00000040: 2612 7e3f 8c70 093f 50c4 f0be 82cf 2bbf
00000050: e21b d1be 17ad 09bf cb81 cfbe c7e9 8cbe
00000060: b155 b7be 6cbe dabe 4523 5bbe d967 ba3e
00000070: 3b21 3b3f 142b f43e 5214 543f 6d52 b93f
00000080: 7580 4e3f ffd7 083f ed92 533f 08c6 b53e
00000090: b811 083f 0fbd 193f 2597 8b3e 0c14 7b3f
000000a0: 8458 453f 1715 b93e f4d7 073f 9857 143e
000000b0: f435 21be 364f 9abe 5ec4 39bf 0648 b1be
000000c0: ba60 16bf 5dc4 87bf 819e b6be ad22 8cbe
000000d0: 250c a6be d53f f33c d5fc 37bd 3e41 bdbd
000000e0: 2d56 433d 60a0 f4bc 0549 a5bd e469 ca3c
000000f0: 5b50 87be 088e 4fbf 495c fdbe 6207 23bc
00000100: 41d5 8abd fa89 1dbe d3e3 51be 6a8e 14bf
00000110: ad1a 11bf 3d79 4abe 4660 09bf 630c eabe
