decoder_paramsfold2.pth (torch, 102279 bytes, 9 tensors)

decoder_lin.0.weight f4 [64, 2]
00000000: cbfc cf3a 6700 633d 24fc 3dbe 2d88 0abe
00000010: 2643 de3e 082a c03d 49c2 d43e ecdf 083f
00000020: 63e2 c9be 2369 30bd f6f9 87be 171f 71be
00000030: 77e9 a93e be35 c4be bcab aebd 8b6c db3e
00000040: 066e 233f 72db b1be da5e 77be 2bfb bf3e
00000050: ce71 38bd c392 29bf 2cc9 72be 2873 87be
00000060: 6890 a1be f29a 02be 5dfa 043f 78ea 2b3f
00000070: 7830 77be bafe e13e 87fa 02be adb8 a03e
00000080: b487 d3bd bbc9 a83e 04c3 a23e 4457 c23e
00000090: 8b9f 04bd d19b ef3e 78ad f9be 12c3 d53d
000000a0: 9955 4d3e ea84 043f cd66 97be fd75 ec3d
000000b0: 0be0 3dbe 2593 873e 1509 3c3f 8495 793d
000000c0: ca68 29bf 18e6 23be 3d65 bfbe 19ac 9f3e
000000d0: 9aeb afbd b8fa 023e a42b fcbe 64c1 29bd
000000e0: 2be3 e4bb 607b f0be a2ca ef3e 96b8 ccbe
000000f0: af99 4dbd 83f8 f7be d330 0d3f 1b4f bebe
00000100: aff0 b5bd 020a 063e da99 9cbe 8094 9ebe
00000110: 7fa5 0a3f 81ff 133e 5bac e8be 41e0 c33e
00000120: b41a 8cbd c153 ba3d 8d19 a4be ace0 9c3e
00000130: 4ede 87be d942 93be 714d a93e d79a dc3e
00000140: 1f7a 23bc 79b7 e1be b6d6 16be facc 40be
00000150: 70c2 9abe 6313 87be f4a1 c73e ddb1 283e
00000160: 2864 c03a f682 d83e 77e8 833e c50a c53c
00000170: 4eb8 283f dc60 2e3e 8b78 ce3e 3b2b 8d3d
00000180: 4f09 ba3e 838a 223d 8c19 70bd c200 f9be
00000190: 41a9 a73e 8bfc d23e 1fb5 22bf fdd0 df3e
000001a0: 3a40 b9bd 6805 2fbf bb18 a9be f984 083f
000001b0: 1ad4 75be c4f2 6ebe 924b ce3e 0362 013f
000001c0: 19d6 00bc b3d0 a33d be48 43bf a537 723e
000001d0: 7f3f e5be ff81 953e aac4 f6be db92 cabe
000001e0: a038 cdbe 7fb6 3d3e a2f6 d7be 051f 413e
000001f0: 208b 213f 53f2 e43d 96e6 34bd 7dfa c33d
0.0015868185 0.055420306 -0.18553215 -0.1352851 0.43410605 0.09383017 0.41554478 0.5346668
-0.39430532 -0.043069016 -0.26557893 -0.23547016 0.33185932 -0.38322252 -0.085288495 0.4285625
0.6383976 -0.34737736 -0.24157277 0.37496313 -0.045030408 -0.66239566 -0.23709553 -0.26455045
-0.31555486 -0.1275442 0.51944524 0.67154646 -0.24139583 0.44139653 -0.12790881 0.31390896
-0.10328618 0.32966408 0.3178941 0.37957203 -0.032378715 0.46798566 -0.4876516 0.10437597
0.20052184 0.5176531 -0.29570618 0.11545942 -0.18542497 0.2647945 0.7345136 0.060933605
-0.6617552 -0.16005743 -0.37381926 0.31185988 -0.08589859 0.12790954 -0.49252045 -0.041444197
-0.0069850883 -0.46969128 0.46834284 -0.39984578 -0.050195392 -0.48431787 0.55152625 -0.37169728
-0.088837974 0.13089755 -0.3058613 -0.30972672 0.54158777 0.14452936 -0.45443997 0.3825703
-0.06841031 0.09098006 -0.32050744 0.3064016 -0.26536793 -0.28761938 0.33066896 0.43086883
-0.009977846 -0.4408529 -0.14730343 -0.18828192 -0.3022647 -0.26381978 0.38990748 0.164741
0.0014678286 0.42287415 0.25763294 0.024052987 0.65906227 0.17029136 0.40326342 0.06893011
0.36335227 0.039682876 -0.058618113 -0.4863339 0.32746318 0.412083 -0.6355762 0.43714133
-0.09045453 -0.68367624 -0.3302668 0.533279 -0.24006692 -0.23334795 0.4029203 0.5054018
-0.007863545 0.079987906 -0.7628287 0.23654039 -0.44775006 0.29200742 -0.48196918 -0.39565167
-0.40082264 0.18526648 -0.42180353 0.1885949 0.6310291 0.11179032 -0.044165216 0.09569261

decoder_lin.0.bias f4 [64]
00000000: 602b adbd aa61 7e3f 1442 2a3f ebee b1be
00000010: 6ce5 d0be b87d 2cbe 7d0d 553f 288b 60bf
00000020: 656e e1be a79e 1d3d 3a22 bbbe ae61 55be
00000030: 57af d13e c203 60be c6c1 73bf 0e70 4f3e
00000040: bd5b 4f3f 7429 0a3f bdb6 12bf 6936 fd3d
00000050: ef65 423f 02c0 213f bb32 713f f332 08bf
00000060: 6822 93be bb75 613f 4663 9a3e f057 343f
00000070: b160 803e 9928 053f b275 f33d fbf0 5d3e
00000080: a258 023f 6acf 1c3d fb89 f13e b56e 94bd
00000090: bf45 e93e 528a 60bf 6f90 d9be b363 7cbf
000000a0: fe82 693f 8d5d 543f 38c4 2b3c 6763 a53e
000000b0: 9f14 1c3f e80d 8d3f 8f81 69bf 0b19 883f
000000c0: 0559 b33e 8059 5b3e 1e36 693e 1537 04bf
000000d0: 2490 8fbe 954b c0be 198a 703e 0fd5 0d3f
000000e0: 6195 db3f 4b70 babe 44b1 4fbe e196 243f
000000f0: 07b3 0dbf a130 c43e e9b4 c23e 7029 8f3f
-0.08455539 0.99367774 0.6650708 -0.34752592 -0.40800035 -0.16844833 0.83223706 -0.87712336
-0.44029537 0.03848138 -0.3654955 -0.20838043 0.40954086 -0.21876433 -0.9521755 0.20257589
0.80999357 0.539695 -0.57310086 0.123638935 0.7593679 0.63183606 0.94218034 -0.5320274
-0.28737187 0.8807027 0.30153865 0.7044668 0.2507377 0.5201507 0.11887683 0.21673958
0.5091649 0.038283743 0.47175583 -0.07247678 0.45561025 -0.8771106 -0.42493007 -0.9858963
0.91215503 0.8295525 0.010483794 0.323024 0.60968965 1.1019869 -0.91213316 1.0632643
0.35028854 0.2142086 0.2277455 -0.5164655 -0.28039658 -0.37557665 0.2349018 0.55403227
1.7154962 -0.36413798 -0.20282465 0.6429272 -0.553513 0.3831835 0.38028648 1.1184521

decoder_lin.2.weight f4 [288, 64]
00000000: 7576 fda3 8d82 7abc c647 d8ba b455 4fbb
00000010: 97ea 4dbc 52e0 77bc 2e54 00bb e6dc fa38
00000020: ca3d 8eb9 244c 93ba 4c3d 83bc 43a6 72bc
00000030: a680 81bc c935 c7bb 1fdb aa3a 74c5 983a
00000040: 3fc9 2d3a 5b88 50bb ac11 b439 2eda 59bc
00000050: f9b3 eaba e8a1 3ebc d9bc c5bb e49f a4ba
00000060: 8bbe 8ebc 7e43 2abc 4d9e feba 4189 89bc
00000070: 6469 74bc 11fa 37ba 087f 7fbc fcc7 d3b9
00000080: a37b 5abb d22b 91bc e24e 0abb e9ab eabb
00000090: 081a 41bb b50f 67b8 2e68 6ebc 8969 e7b9
000000a0: 15b0 95bc 146c 7cbc 931f 8abc bc84 91ba
000000b0: 4ab1 0b3b 95eb 63bb d44d 0cba 0dc6 6dbb
000000c0: 3586 99b9 3495 85bc e408 43bb d867 10bc
000000d0: b775 8fbc 7479 173a 8af3 85bc 8934 97bb
000000e0: bcb6 1ebc f0f6 5abc f95c 05bc 9363 aabc
000000f0: 39b6 01bc f1e2 3fbc 32e1 20bb a9d3 d3bb
00000100: c818 2ea8 c760 20b6 64cb 4c37 ae78 8eb9
00000110: 93f3 dcb7 847c 01ab 64ad cb35 e5e8 3eb8
00000120: b37e 8db7 69a7 35ba 6358 cdaf a18e f1a2
00000130: 2e9e 09b8 a6b5 4fba 340c 43b9 db36 53b9
00000140: e03f d9b9 0a9b 52b9 c3d1 b5b8 7a4c 44ba
00000150: 5e19 19ba 66f4 95b9 0b65 dfb9 88f6 22b9
00000160: 8599 deb9 470d ccba 83ef b1b6 07f7 2fba
00000170: 10e9 06ad 9c78 e2b5 270a 87ac 236d 0037
00000180: 9c68 d7b6 0176 3fae 95b5 c9b5 efd6 e1ba
00000190: 5557 4eb5 c45b c3b8 7cc7 449f aa83 8fb7
000001a0: b492 a8b0 ca06 35b1 2625 edb1 3c59 c1b6
000001b0: 3ec8 aab9 93de 54b7 863b 4db8 d375 b2b6
000001c0: fb9f 9f35 6641 34ad e9ee 50b9 5347 29bb
000001d0: 0e87 90b0 c194 bfba 47eb baaf bd22 0cba
000001e0: 8f8a dab7 7087 18bb 89e6 81ba 8d6d d4b7
000001f0: b0d1 3fb9 ed8b 88ba 0c08 50b7 792d 69b7
00000200: 6525 3dbc 0199 f6bd 24f0 ab3d bdb8 65bc
00000210: f114 0abb 12c4 703b 46f4 653c 5114 dfbd
00000220: ec13 83bd 26a5 653c e5bb 43bd 6bba e7b9
00000230: a506 97bb 8357 343d 3064 c2bd 01d3 2f3d
00000240: 3cc6 dd3d 88f6 9f3c 9d93 76bd 90d2 11be
00000250: 2bcc 0d3e c2d8 6dbd 7168 483d 333e 47bd
00000260: 6ec9 3bbc 9b6d 983d f66b d13c d9b3 18be
00000270: aa78 81bc 518c 58bc 0523 08bd ce90 18bd
00000280: 35a5 e33c 546c 9b3b 4133 453d 28e7 0fbd
00000290: e967 293d f097 5dbd 6075 523a d5cc eabd
000002a0: 5485 a0bd d190 cfbd d5da 023c 1f00 ac3d
000002b0: 4711 403d 8f99 173e f6c1 89bd 74c5 e53d
000002c0: 439c 503d 3335 0abd d1be ad3c 3708 cdbd
000002d0: 9c16 3cbd fb63 503c 2d6c f8bb 3354 1f3d
000002e0: 76b9 2d3e e994 61be bbb9 47bd 2118 0bbd
000002f0: 2742 03be 1236 99bd 8e21 253d 3d5f a73d
00000300: 363e 12bc d496 b73d 9600 683d fbba 0fbd
00000310: cd85 2bbd 9d12 60bc d623 7fbd bc60 88bd
00000320: a2fb c23c 49a6 1f3d 316d 8abd 5324 08bd
00000330: 7b3c 873c e093 a93c 9439 64be 242c 3dbd
00000340: 63b3 033d 5176 36bc 6786 4dbd 7964 71bc
00000350: 41b1 98bd 7e53 f63d f03a f23d d612 a7bd
00000360: 9cc1 f3bc ced8 ea3d ab8f c43c 2361 223d
00000370: 8235 17bc 4f3a 22bd bd7c 45bd bf07 5ebd
00000380: b00e 6e3d 48f0 0d3d a525 9a3d 9dd6 87bc
00000390: 7d25 573d 499f 36be 24b8 a2bd a615 b6bd
000003a0: df97 a63d 2127 103d 83c8 da3c de23 443d
000003b0: 389e 503c 1c28 403d ddd6 05be 2855 823d
000003c0: 3518 0f3d 4f6b 1dbd 5903 253c f91f 40be
000003d0: c680 cabd b999 ccbd 6ac4 343d e5a9 853c
000003e0: fdaa 463e 0a8a 87bd 794d 04be 44aa 643d
000003f0: 0a5d c7bd 8238 2dbc 253b 1d3d d604 b63d
-2.7480483e-17 -0.015289915 -0.0016500882 -0.0031636776 -0.012568138 -0.015129166 -0.0019581425 0.000119620745
-0.00027130387 -0.0011237902 -0.01602044 -0.014810148 -0.015808415 -0.0060794097 0.0013035274 0.0011655525
0.0006629414 -0.0031819555 0.00034345442 -0.013296647 -0.0017906419 -0.011635281 -0.0060344753 -0.0012559858
-0.017424842 -0.010392068 -0.001942584 -0.01678908 -0.014917705 -0.0007018159 -0.015594251 -0.00040394056
-0.0033337853 -0.01772109 -0.0021104147 -0.0071616066 -0.0029464979 -5.508932e-05 -0.014551206 -0.00044138383
-0.018272439 -0.015406627 -0.016860759 -0.001110218 0.002131539 -0.003477787 -0.00053521735 -0.0036281378
-0.00029282426 -0.016306497 -0.0029759938 -0.008813821 -0.017512185 0.0005778291 -0.01635148 -0.004614417
-0.009687122 -0.013364539 -0.008139842 -0.020799434 -0.00791698 -0.011711822 -0.002454829 -0.006464441
-9.664314e-15 -2.389819e-06 1.2206703e-05 -0.00027174264 -2.6339467e-05 -4.6002807e-13 1.5175142e-06 -4.551643e-05
-1.6867509e-05 -0.0006929548 -3.7352085e-10 -6.5474195e-18 -3.281066e-05 -0.0007923491 -0.00018601195 -0.00020142963
-0.00041437056 -0.00020084917 -8.669824e-05 -0.00074882025 -0.0005840267 -0.00028601586 -0.00042609157 -0.00015541364
-0.0004245752 -0.0015567922 -5.302894e-06 -0.000671253 -7.668768e-12 -1.6873414e-06 -3.838058e-12 7.654805e-06
-6.4196774e-06 -4.353318e-11 -1.5028514e-06 -0.0017230193 -7.6868065e-07 -9.315417e-05 -4.1669624e-20 -1.710824e-05
-1.2265304e-09 -2.6342826e-09 -6.901831e-09 -5.7622365e-06 -0.0003257412 -1.2688007e-05 -4.8931244e-05 -5.31853e-06
1.1892984e-06 -1.0246337e-11 -0.00019925427 -0.0025829866 -1.0515764e-09 -0.0014616476 -3.4000378e-10 -0.00053457526
-2.6052146e-05 -0.0023274086 -0.0009910624 -2.5323383e-05 -0.00018293294 -0.0010417678 -1.239964e-05 -1.389847e-05
-0.01154456 -0.12040902 0.083954126 -0.014021096 -0.002106961 0.003673796 0.01403529 -0.10892547
-0.06400284 0.014016425 -0.047786612 -0.00044198646 -0.0046089464 0.04402877 -0.094917655 0.04292584
0.10828826 0.019526735 -0.06019937 -0.1424048 0.13847415 -0.058068044 0.048927728 -0.048643302
-0.011461599 0.074427806 0.025564175 -0.14912356 -0.015804607 -0.013217048 -0.033236522 -0.03724747
0.027788738 0.0047431383 0.048144583 -0.035132557 0.041358862 -0.054099977 0.00080283545 -0.1146485
-0.0783793 -0.101350434 0.007986744 0.083984606 0.046891477 0.14804672 -0.06726448 0.11219302
0.050930273 -0.03374214 0.021209152 -0.100113325 -0.04592 0.01271915 -0.007581255 0.038898658
0.16965279 -0.22029461 -0.04876111 -0.033958558 -0.12818204 -0.07481016 0.040315203 0.08172462
-0.008925965 0.08964315 0.056641184 -0.035090428 -0.04187565 -0.013676313 -0.062290035 -0.066590756
0.023801629 0.03897694 -0.06759108 -0.033237766 0.016508332 0.020700395 -0.2228759 -0.046184674
0.0321535 -0.011136607 -0.050177004 -0.014733427 -0.074556835 0.120276436 0.11827648 -0.081578895
-0.029755406 0.114671335 0.023994287 0.039643418 -0.009229066 -0.03960639 -0.048214663 -0.054206606
0.058119476 0.03465298 0.075267114 -0.016581828 0.052525986 -0.178342 -0.07945278 -0.08890848
0.08134436 0.035193566 0.02670694 0.047885768 0.012733035 0.04691325 -0.13070245 0.063638985
0.034935195 -0.038432416 0.010071599 -0.18762197 -0.09887843 -0.09990258 0.044132628 0.016316364
0.19401164 -0.06618126 -0.12920178 0.05582644 -0.09734543 -0.010572555 0.038386483 0.08887641

decoder_lin.2.bias f4 [288]
00000000: f738 d4bb 724f a5b2 48f6 083e d0fd 213e
00000010: 1c34 e5b9 4db6 d8bd 9211 b63d 301c 683e
00000020: e15e 76bc dbf8 f13c 9ad6 283e 592b 1cbb
00000030: 5cb7 ee3d c007 b326 52e2 203e 006b 523d
00000040: 890b 2db2 cebe db3d 7390 df3a 7dc3 c63c
00000050: 1a92 abb4 47ad 493e 120d 393e 7987 0600
00000060: 4649 8b3d 18d9 05bd 6a57 0080 acdb 303d
00000070: 5bef 1d3d 826f 0eb9 a3d9 ee3d 82f3 19bb
00000080: b1b5 bab3 44a1 e43c 22a6 b03d fe1d 68bb
00000090: 280c 9c3d 438b a6bd d87a d63d 5b40 5c3c
000000a0: 99db a5ba 492e c5bc 7449 363e 7bec b33e
000000b0: 97a6 3ab3 75ed 15bc 5765 153e 0590 88b8
000000c0: d635 0200 a7da 833d 016b 993e cc71 943d
000000d0: 7bfb 859c 5ed0 e8bc db26 0500 c894 323e
000000e0: 7dc9 b63d bedd 0681 e144 e639 f2cb 679b
000000f0: 8e7b 09b4 9c12 143d b201 cf3d fd1c 283d
00000100: a559 4fb2 70ee 273d 5c07 ef99 1ed6 9bbc
00000110: 4797 3f3d 678f 0f01 1350 52be 380a a5bc
00000120: 0a35 9f3b 3a2a 9fbd 3d01 99ab 637e 0480
00000130: 8c59 9bb6 df7c 2a94 d116 0d3d 525a d9bb
00000140: faa4 87b7 fd64 983d 1a33 1fa0 e8ce 833d
00000150: 61e5 48bd f2cf 0fb7 0fab bcbd 1ba1 383d
00000160: 7e6c f83d 35d2 3abb 2dce fb3c bfb4 4ca4
00000170: 1feb f63d 1c03 aab3 1360 4200 6dad 0d3e
00000180: e802 f1a0 2e1e 3819 17bf 813d 27a9 0480
00000190: 0b10 07ba 2e5e 670f a029 36bc 1d2c debc
000001a0: ba60 233c d3fd 993d 8324 603e 81f2 973d
000001b0: 9cdd ff3b 24d4 173e b169 d93b b2c8 c9bc
000001c0: c0ac 02af b8ff 753e 2f11 eebd 0fe4 0000
000001d0: 27d6 adbd 7fa8 deba 4b00 ce8e 0b59 a23d
000001e0: 3791 68b6 b1d5 703d 5238 2e3e 4367 0500
000001f0: cc8f d982 1734 e33d ac01 78bb 7bb1 0bbc
00000200: c7d8 ab3d 6c52 1ab8 2021 273e 0af5 0080
00000210: 92cb a13d 4343 f83d 941c adbc 5947 eb3c
00000220: 5a81 0400 626c 58bd ec27 f0b6 a2f2 20a7
00000230: e79e 173d 506c 563d ab23 993e 662f 093e
00000240: 1b3d 0500 c349 86be 5d80 b73d 4dd5 dfbd
00000250: caf5 0380 747a f43b ca72 7abc b70f 13be
00000260: 12fa f5bd 3851 853d 242f f43d 1ef4 f53d
00000270: c0fb f793 381b 893e 4453 603e 168d bf3d
00000280: c05c 363e 34a6 fdbb c169 0e3e ca01 6a9c
00000290: 99af 343e 61dc 0080 9fcb 07bb 0320 e89e
000002a0: 59b1 ad3e f9f9 c23d b3d6 b93c c69e 603d
000002b0: 8f5f 3622 a66e 133d 543e 5180 677f 64bc
000002c0: 0842 0200 cbb0 0280 2908 e33e f912 233b
000002d0: 2c6d 5c3d dc89 423e af97 973d c4d4 263e
000002e0: caa4 29af 9531 dbb1 0f85 8ebd 46ad 433e
000002f0: 24d1 3d3c a831 0600 e406 f7bd a853 0080
00000300: 6962 31bd 6bca 15b8 bbb0 fcbe 9566 a1bb
00000310: c264 0780 eff3 82ac 31b5 69bd 14db 1bbd
00000320: 3df6 fabc 0d07 d8bd 7e95 04bc 93d1 913e
00000330: edca 803c 316d 06be a91c 9fb1 95fd e13c
00000340: fbf0 0d87 ec69 d43d 7bee 28a6 2fe2 d03d
00000350: 2898 3b3e 84ca ce3d 75df a1bc 750b 843c
00000360: 34a4 0c3d 422c 0bbe b703 253d cda1 829c
00000370: a7f5 0580 3a6e 8e3e 6c47 80b6 26c0 f992
00000380: 7dd9 c0bb ec85 bc3a db14 540a 3af9 a23d
00000390: ba65 9792 2170 e13d a987 18a6 6ab9 803d
000003a0: fe5a 9839 0043 9dbd 0adb 523d 0f2b 42a1
000003b0: 48b6 f73d 0875 2a3e 4bf7 01b5 32b5 1bbe
000003c0: 7c0d 993d fe70 aea9 9632 3ab2 e6c9 723d
000003d0: 2efd 0ab9 c129 0200 c077 343e 19b8 cbbb
000003e0: f0bb 0500 dd52 8b3c d1b8 3d3d 2688 153e
000003f0: daa7 bd3d 8b2a b89f 671a cfbc 8d79 0c3e
-0.0064765173 -1.9244656e-08 0.13375199 0.15819478 -0.00043717108 -0.10581646 0.0889007 0.22667003
-0.015037269 0.029537609 0.16488114 -0.0023829548 0.11656067 1.2422721e-15 0.15711334 0.051371574
-1.0072548e-08 0.107297525 0.0017056599 0.024263138 -3.1957535e-07 0.19695006 0.18071392 5.99611e-40
0.06801085 -0.03267774 -3.1358e-41 0.043178245 0.038558345 -0.00013583715 0.11662605 -0.002349109
-8.6943494e-08 0.027908929 0.08625437 -0.0035418267 0.07619506 -0.08132031 0.10472649 0.013443078
-0.0012653946 -0.024069922 0.17801458 0.35141358 -4.3458012e-08 -0.009150852 0.1458944 -6.511811e-05
2.02984e-40 0.06438189 0.2996445 0.072482675 -8.866208e-22 -0.02841967 4.73116e-40 0.17439568
0.089251496 -2.4771005e-38 0.00043920337 -1.917377e-22 -1.2804068e-07 0.03615056 0.10107745 0.04104327
-1.2069369e-08 0.040998876 -2.4714993e-23 -0.019022997 0.04677513 2.6367838e-38 -0.20538358 -0.020146474
0.0048586177 -0.07771726 -1.0871648e-12 -4.12681e-40 -4.6297846e-06 -8.607433e-27 0.034445588 -0.0066330815
-1.6170077e-05 0.07441137 -1.3484732e-19 0.064359486 -0.049046878 -8.57188e-06 -0.09212314 0.045075517
0.12130068 -0.002850664 0.03073796 -4.4388547e-17 0.120565645 -7.9168075e-08 6.095608e-39 0.13835688
-4.082891e-19 9.518672e-24 0.063352756 -4.28022e-40 -0.0005152232 1.1407318e-29 -0.011118323 -0.027120644
0.009971792 0.07519116 0.21888928 0.07419301 0.0078084003 0.14827019 0.006634914 -0.024631832
-1.1884804e-10 0.2402333 -0.11624371 8.1812e-41 -0.08488112 -0.0016987472 -5.0783203e-30 0.0792714
-3.465522e-06 0.058797542 0.17013672 4.96221e-40 -3.196782e-37 0.1109392 -0.0037842793 -0.008526201
0.08390956 -3.6793223e-05 0.1632123 -8.7903e-41 0.07900156 0.12122204 -0.021131791 0.028720545
4.13745e-40 -0.052837737 -7.157205e-06 -2.2335992e-15 0.037016775 0.05234939 0.29910025 0.13396987
4.81098e-40 -0.2622815 0.0896003 -0.10929356 -3.63679e-40 0.0074608866 -0.015286157 -0.14361463
-0.12010588 0.06509632 0.11923054 0.12009452 -6.259981e-27 0.2677858 0.21906763 0.09353082
0.17808819 -0.00774076 0.1390753 -7.742642e-22 0.1764511 -7.9057e-41 -0.0020720733 -2.4577195e-20
0.33924368 0.09520335 0.022685384 0.05483892 2.4716188e-18 0.035994194 -7.461034e-39 -0.013946391
2.07359e-40 -2.47092e-40 0.44342163 0.0024883135 0.053815052 0.18997902 0.07401978 0.16292101
-1.5429005e-10 -6.3793757e-09 -0.06958973 0.19109067 0.011585508 5.68826e-40 -0.12061861 -3.001e-41
-0.043306742 -3.5712885e-05 -0.49353585 -0.004925559 -6.78994e-40 -3.7219043e-12 -0.057057563 -0.038050726
-0.030634994 -0.1054822 -0.008092282 0.28480205 0.015721763 -0.1312759 -4.6307673e-09 0.027586738
-1.0678479e-34 0.103717655 -5.860991e-16 0.10199391 0.18319762 0.100972205 -0.019759873 0.016118744
0.034336284 -0.13591102 0.040286746 -8.644503e-22 -5.47301e-40 0.2781847 -3.823012e-06 -1.5761477e-27
-0.0058853016 0.0014383174 1.0211351e-32 0.079576924 -9.554517e-28 0.11007715 -5.291945e-16 0.06285365
0.00029059494 -0.07678795 0.051478423 -6.5786744e-19 0.12095314 0.16646206 -4.8416103e-07 -0.1520584
0.07473275 -7.746753e-14 -1.0838127e-08 0.059274577 -0.00013255022 1.9865e-40 0.17623806 -0.0062170145
5.26597e-40 0.017007286 0.046318833 0.14602718 0.09260531 -7.799741e-20 -0.025281144 0.13718243

decoder_conv.0.weight f4 [32, 16, 3, 3]
00000000: 9a13 f5bd f289 ebba b45c c03d 26f6 d3bd
00000010: 4be1 d73b a59c 133e c001 e13d 009d 343e
00000020: 542b 0abd 87e9 8abc 8e67 523c fb2d 54bd
00000030: 1692 84bd 1559 6abd ce3b b53d ce31 9f3d
00000040: 9e97 7b3d 677f 823d adf3 e1bd 15f3 26bc
00000050: c021 eb3b bf83 a73c 139b 7bbd 5180 d13d
00000060: 93e0 d73d 2f74 2f3e 5ab7 de3a eb88 353d
00000070: 7de6 ebbd a61f 8abd c019 8bbc fe24 86bb
00000080: 1f97 17bd d7e0 53bc 2a91 333d 889e eabd
00000090: e06a b63d e2dd 813d 8037 1a3d 4d2e febc
000000a0: 4b7f 20bd 4a2b 57bd 8756 3bbe 3ab9 193b
000000b0: 9abc 5b3e f524 15bc d5f1 02be a89d b4bc
000000c0: aedf 18be 3e96 f6be f799 6a3e d32e ccbc
000000d0: 30a8 92bd 6546 e23b 1a6a 06be c35f 2fbd
000000e0: 785f adbc afc1 76bc f445 dc3d 5b61 9dbc
000000f0: 99fa 533b ca17 da3d 31dc 0d3e 73d4 a9bd
00000100: ba63 d8bc 24bb 6a3d 561e 4fbd 09ff 6f3e
00000110: 2820 c3bd b6ed 6b3d 7708 ee3d f9fa 6c3e
00000120: 67e1 63bd bd80 92bd a821 aabd 2b62 13bb
00000130: e385 593e a595 ff3d 648c 23bd 7e19 4e3e
00000140: ed43 a23d 17c6 61bd f0fd bfbd 9050 623d
00000150: 2b20 b5bd 4315 44be 3ab4 8ebd 1eaf 053c
00000160: d55b 8b3d 1c25 23bd aa69 34bd 6f23 1abc
00000170: c7e3 dc3d e86f f3bd fec8 513d 25ce 303e
00000180: 22e3 84bd 85d5 4b3e 3507 273e 3752 67bd
00000190: 2c68 cfbd 6583 353d fcb6 f8bc 04f1 0e3d
000001a0: 6dea c33d fa70 9a3d 5b52 083e 11b4 ba3d
000001b0: 473d 083c b7e8 8dbd 4de7 bcbc d497 683c
000001c0: e393 053d 149b c6be e344 813c 0609 043e
000001d0: 72fa 5fbd a141 a73b 0138 f9bd 54bd a5bd
000001e0: b003 923c 5eea 7bbd 5121 dbbd a346 4e3d
000001f0: d797 3c3d 9609 51bd 49ce 5cbd 0569 40bd
00000200: 14af 5c3d bdf6 643c 0866 52bc b5f0 be3d
00000210: f38f 563c 3c47 be3d 5404 07be 6090 8abd
00000220: a938 c93c 2c63 933c c8fa a4bd bac3 28bc
00000230: 46d0 843e 25ea 4abc e97d 453d 7913 d63d
00000240: 6b5f c93d 1ef2 f3bc 1a6f f5bc 187a 6f3e
00000250: 280a 053d b531 b13d 163f eebb 667b c23d
00000260: ac9b 403e 5987 42bd 5ca4 77bc 2e7a afbd
00000270: e84c 273d 9029 d33d 9e4d a6bd aec5 c9bd
00000280: d60c 7f3d 49c9 fbbd 1adc 2fbe 8263 933c
00000290: 64c9 afbd 74b1 60bd 9aeb a23e 2ed3 393e
000002a0: d45c cd3d 5445 ca3d fb2e 95bd 1bd5 86bd
000002b0: 1085 5ebd c570 733d 3fa2 1d3e ad00 133e
000002c0: 0aef 273e cd1f 8ebd 7670 0e3e 094a f63d
000002d0: 5440 4abe 8aec 953d a8e5 f7ba 3f92 283e
000002e0: ed4c 853e 90ad 913d 94cd a83d 0a49 74be
000002f0: 25d8 52bd cd9d 42be ac4b 6c3d 3a9d cbbc
00000300: 11fb 233e bc58 11bd 21ae 56be 259f 823e
00000310: a5ac 15be 9640 373e aebe bbba 9e2c 923e
00000320: 39f9 413d 604b a23d 5b0a 883e f943 623d
00000330: 4d79 a23e f5f7 c4bd 3bef 093d 04df 95bc
00000340: f26b f3bd c20b 9a3b 4908 833c 52ca 05bb
00000350: b990 3c3d 9a07 fb3c 414b 5f3d ad44 cfbc
00000360: 8a23 0a3d 71cb 1e3c d336 4fbd 08fc 0e3e
00000370: fda5 963d 346b 16be 9533 6e3e 8bac 803d
00000380: 10a1 423d aec2 dd3c a5d8 b4bc a0b3 1fbd
00000390: 7f4d 7e3d 13e4 7d3e 2559 84be 49e1 403e
000003a0: 9636 a13d b8a7 8cbd 9f9e ab3d e46c 253d
000003b0: dbea 003d 5af1 c73c c773 9c3d 1f02 de3d
000003c0: d105 363e 3124 e7bd 3e2f 92bc e10b 2f3c
000003d0: 77b1 643d 9149 e8bd 30ec 90bd 0dc4 3ebe
000003e0: 774f 8bbd f72d 66bc b5db 6c3d fcb7 173e
000003f0: ca21 9f3d 08ea 53ba 6b93 12be 5171 e53d
-0.11966629 -0.0017970188 0.09392682 -0.103496835 0.0065881363 0.14415224 0.10986662 0.17638016
-0.033732727 -0.016957058 0.012842072 -0.051801663 -0.06473176 -0.05721386 0.088492975 0.07773171
0.06142389 0.06371956 -0.110328056 -0.010189791 0.007175654 0.020448564 -0.061427187 0.102295525
0.10540881 0.17134164 0.0016991899 0.04432003 -0.115185715 -0.06744318 -0.016980052 -0.0040937653
-0.037009355 -0.012932024 0.04383961 -0.11456019 0.089071035 0.06341149 0.037650585 -0.031027937
-0.039183896 -0.052531518 -0.18294726 0.002345635 0.21458665 -0.0091030495 -0.12787564 -0.022047833
-0.14929077 -0.481615 0.22910295 -0.024924671 -0.071609855 0.0069053643 -0.13126412 -0.042815935
-0.021163687 -0.015060826 0.1075553 -0.019211462 0.0032345413 0.10649069 0.13853528 -0.082924746
-0.02641474 0.057307377 -0.05056604 0.23437132 -0.09527618 0.057599746 0.11622708 0.23142613
-0.055634882 -0.07153461 -0.08307201 -0.0022488933 0.2124248 0.12479714 -0.03992881 0.20126912
0.07923112 -0.055120554 -0.093746066 0.05525261 -0.08844026 -0.19148736 -0.06967969 0.008159427
0.06804625 -0.039830312 -0.04404608 -0.009407862 0.107856326 -0.11886579 0.05121707 0.17266138
-0.06488635 0.1990567 0.16311343 -0.05647489 -0.10127291 0.04431476 -0.030360691 0.03489782
0.095661975 0.0754108 0.13312666 0.09116376 0.008315391 -0.069291525 -0.023059512 0.014196355
0.03261174 -0.3879019 0.015779918 0.12894067 -0.054682203 0.005104259 -0.12168885 -0.08092752
0.017824024 -0.061502807 -0.10699714 0.050360333 0.046043243 -0.051034532 -0.053907666 -0.046975154
0.053877905 0.013974843 -0.012841709 0.09323255 0.013095844 0.09290931 -0.13185245 -0.067658186
0.02456315 0.017991625 -0.08055645 -0.010300571 0.2594015 -0.012384926 0.04821578 0.10452933
0.09832653 -0.029778536 -0.029960204 0.23386419 0.03248039 0.08652059 -0.007270704 0.09496193
0.18809384 -0.04749236 -0.01511487 -0.08568226 0.040844828 0.10310662 -0.08120273 -0.098521575
0.0622681 -0.122942515 -0.17173806 0.017991785 -0.08583334 -0.054856732 0.31820375 0.18146965
0.10027471 0.098765045 -0.072843514 -0.065836154 -0.054326117 0.059433717 0.15393923 0.14355727
0.1639978 -0.06939659 0.13910088 0.1202584 -0.19751102 0.07320507 -0.0018913047 0.16462038
0.26035252 0.071131825 0.08242336 -0.23855987 -0.051475663 -0.19005509 0.057689354 -0.024855245
0.16013743 -0.035485014 -0.20964862 0.25512043 -0.1461664 0.17895731 -0.0014323795 0.28549665
0.047356818 0.07924533 0.265704 0.055240605 0.3173317 -0.096176066 0.033675414 -0.018294819
-0.11885823 0.0047011087 0.015995162 -0.0020414782 0.046036456 0.030643273 0.054515127 -0.025301302
0.0337253 0.009692059 -0.050589394 0.1396333 0.073558785 -0.14689332 0.23261864 0.0628291
0.047516882 0.02707037 -0.02207596 -0.038989663 0.062085625 0.24794035 -0.25849262 0.1883594
0.078717396 -0.06867927 0.08379864 0.04038705 0.031473976 0.024407078 0.0763927 0.10840248
0.17775656 -0.112862 -0.017844792 0.0106839845 0.055833306 -0.11342157 -0.07076299 -0.18629475
-0.06802266 -0.014049045 0.057826716 0.14816278 0.077701166 -0.00080838846 -0.14314048 0.11203254

decoder_conv.0.bias f4 [16]
00000000: 82b6 2f3e 3fd4 853d 1e70 b1bd 514e 563e
00000010: f676 523e ccd6 2e3e bbb9 973e 220a 553e
00000020: 48bf 933d 0d15 a93e 128b 4b3e 445a 5b3e
00000030: 5dbc 803e e5f8 c13d 95d6 e03e 4704 2f3e
0.17159465 0.06534623 -0.08663963 0.20928313 0.20553192 0.17074126 0.2963389 0.20804647
0.072142184 0.33023873 0.1987727 0.21421152 0.2514371 0.09471301 0.43913713 0.17091475

decoder_conv.2.weight f4 [16, 8, 3, 3]
00000000: 5d0a 08bd 84ba 703d fca7 143d 41e5 633e
00000010: 3167 7dbd 29ea 9bbe 1bcc 843e e75c 1cbe
00000020: 8db6 f8bc 65af 023e 0a03 24be bbe6 d7be
00000030: 07e7 9339 08d7 87be 7054 3ebe 5f16 9abd
00000040: f676 e83d 009b 27be 8ac3 c1bd b973 1e3e
00000050: e9ff 9a3e dbb5 02be 73f1 613e ef13 023f
00000060: 2f9b 953c ea5e c33e 5bb1 9b3e e4b5 b6bd
00000070: e0e0 4a3d c616 a63e 68e6 8bbd 5712 aa3d
00000080: 5f79 923e 2b7a 263d eb4b 41bd 718c cc3d
00000090: 7a35 f63d ef21 523e 3e1b dbbe d688 d53d
000000a0: 2568 43be 2aae f1be 6c24 833c 56f3 02bd
000000b0: a6d5 92be fa6e af3d f953 28bd 38fa 773e
000000c0: 6f7f 4abd 4e87 323e 2448 913e e098 403e
000000d0: c71f 903d b19b d03d 7f40 d33d 8904 513e
000000e0: 0a0a 913e 4014 b03e cdff c43e e1a0 8b3e
000000f0: 8c28 283e a2be 07bd caa5 ec3d eee1 95bd
00000100: 8ce4 e93d b70d f83d 9616 6e3d 98b5 073e
00000110: bdad 2d3d e5e3 dcbb a96a bf3d a931 27bd
00000120: 5844 7fbd a855 25be de34 423d bb23 8dbe
00000130: 21ba 80be 2830 5abd 27a4 5e3e fc4d dc3e
00000140: 0e19 dc3d f367 47be 8cdc cb3d 837b acbd
00000150: e3d4 a4be 328f 06be 8491 debd 7245 71be
00000160: 933c 35bd cdf5 873e 9bbe 933d fe5c d63d
00000170: d2d2 3fbb e3e7 a73e 3406 d33d 9590 e43d
00000180: 39fd 473e aee7 83bd af9f 26bd 098f 2e3e
00000190: 133b da3d c3f8 43be d5b0 a63e 4aad dc3d
000001a0: 827c 6dbd f9e8 023e 8d20 08bd 871c 4abe
000001b0: 23e2 cdbd 53b2 e6bc 1601 92bd 8597 41be
000001c0: 53b8 6dbd ec65 023d 1c8e b1be b733 603e
000001d0: a1d9 cebd e77e 8c3d c9db 0e3e b73e a5ba
000001e0: aee4 043e 2904 22bd 087c b6be 6339 4fbc
000001f0: e8d0 24be e5a5 e9bd 5cc2 c53d c15d 3f3b
00000200: 3c91 993d f5cb 023e d769 f8bd 89b7 6fbd
00000210: 1573 4ebd 19ac 45be 96b4 37be db73 05bd
00000220: 9c31 ad3b 121d 5dbe 4c0a 24bd 89a9 7ebc
00000230: 8eac dc3d f6c2 b33c 09b5 42be cbe8 a5bd
00000240: fafd 9a3d f72a b1bd 7588 433e 7b5e d1be
00000250: 8a34 c0be 7b49 053d 31c5 8f3d b70f f8be
00000260: ee06 bdbd 35d8 b6bd 76f4 b73e 868a e7bc
00000270: 80b7 a5be 2b55 6dbe 5d7f 1a3d 10b6 b5be
00000280: fe04 aa3e 0ccc 853e c97c 39be 3477 c83d
00000290: 7707 19be f35c c93d 2a4c 7d3e 9573 06bc
000002a0: 0d3d b93e 532e 6c3e 237b 9f3d ce88 23be
000002b0: 01d2 693e 457d 55be 20ea 573e ab60 7f3e
000002c0: 53d6 873c 5b97 6e3e aaf6 963d c0c7 303c
000002d0: 9d7a 47be 83f2 81be 1310 10be 50f1 e2bd
000002e0: b2e3 74be ea94 a4bc 5218 bebe 2605 a73d
000002f0: cb78 51bd 992e 72bd 70e9 943d 6e47 dcbd
00000300: 8765 8b3e b1b2 e73c 71fe 5bbe e95d 733e
00000310: 70d1 923d b579 19be b2e3 2e3e 2592 503d
00000320: e417 853d eb7e 8a3e 9d59 a53e e449 813e
00000330: ed01 163e cc6a 803e b44b 333d 8089 0cbc
00000340: ea94 4fbc 0959 1abe 2fc4 a13c f54e 01be
00000350: 89e7 da3d 89d7 353e 9b45 d03d b656 a7bd
00000360: 5e8c 31bd a073 993e ba5c 5f3d 9e74 d33c
00000370: 24a9 333e 1c89 223e 2521 48be b62c bb3d
00000380: 7e7d 65be b875 ae3d 38b9 a5be 917a 903e
00000390: 76b2 3a3e 1fa3 173d 6e9f 823e 0867 f63d
000003a0: ebdb 36bd 6fc4 083e 4410 a03c 6f6d f1bd
000003b0: c189 3bbe b72e eabd 3533 30be dab1 9abe
000003c0: 36e0 64be 897e a0bd 0796 19be 9940 1ebc
000003d0: 5a5f fbbd 0567 89be b90a afbd 8ab9 84bd
000003e0: 7d77 59be 54ec c6bd 1502 1d3e ee9e b8bc
000003f0: b95c 6d3c 7764 11bd 2fcc 5b3d fb30 67be
-0.03321301 0.058771625 0.036293015 0.22255422 -0.06186599 -0.30452088 0.2593697 -0.15269814
-0.030360484 0.1276222 -0.16016784 -0.4216822 0.00028210154 -0.26531243 -0.18586898 -0.07523798
0.11350815 -0.16367722 -0.09461124 0.15473832 0.3027337 -0.12764685 0.22064762 0.50811666
0.018262474 0.3815835 0.3040875 -0.08921412 0.049530864 0.3243925 -0.06831056 0.08304279
0.28608224 0.040643852 -0.04719154 0.099877246 0.120219186 0.20520757 -0.42794222 0.1042649
-0.19082697 -0.4720319 0.016008578 -0.031970344 -0.28678626 0.08566089 -0.041095708 0.24216545
-0.049437936 0.17434427 0.2837535 0.18808317 0.07037311 0.10185946 0.10315036 0.20411886
0.28327972 0.3439045 0.3847641 0.27271178 0.16421717 -0.033140786 0.11555059 -0.07318483
0.11420545 0.12111991 0.05812701 0.13252866 0.042402018 -0.0067410343 0.09346516 -0.040818844
-0.062321037 -0.16145957 0.0474137 -0.27566323 -0.25142005 -0.05326858 0.21742307 0.43028247
0.10746966 -0.19473247 0.09954175 -0.084219955 -0.3219367 -0.13140562 -0.10867599 -0.23561648
-0.04424722 0.2655472 0.072140895 0.104669556 -0.0029269946 0.32794103 0.103039175 0.11160389
0.1953019 -0.06440674 -0.04067963 0.17046751 0.10655799 -0.19137864 0.32556787 0.1077524
-0.057980068 0.12784185 -0.033234168 -0.19737445 -0.10052898 -0.028161203 -0.071291134 -0.18905456
-0.058037113 0.03183548 -0.34678733 0.21894728 -0.10100103 0.06860142 0.13951029 -0.0012607191
0.1297786 -0.03955475 -0.35641503 -0.012647959 -0.16095316 -0.11408595 0.09656212 0.0029200169
0.074984044 0.12773116 -0.12129562 -0.058524642 -0.05040272 -0.19303931 -0.17939982 -0.03258119
0.005285455 -0.2159312 -0.040048882 -0.01554335 0.107751 0.02194355 -0.19014372 -0.08101042
0.075679734 -0.08650773 0.19095023 -0.40892395 -0.37540084 0.03254078 0.07020033 -0.4844949
-0.09229837 -0.08927957 0.35928696 -0.028264295 -0.32366562 -0.2317702 0.03771912 -0.35490465
0.33206934 0.26132238 -0.18114008 0.09788361 -0.14944254 0.09832182 0.24736086 -0.008206268
0.3617939 0.23064546 0.07787158 -0.15970156 0.22834016 -0.20848568 0.21085405 0.2493922
0.01658169 0.23299925 0.07371266 0.010789812 -0.19480367 -0.25380334 -0.14068632 -0.11081183
-0.23914984 -0.020090539 -0.3712793 0.08155279 -0.051140588 -0.05912647 0.07271087 -0.10755812
0.27225897 0.028283449 -0.2148378 0.23766293 0.07168853 -0.14987834 0.17079046 0.050920624
0.064986974 0.27049956 0.32294932 0.25251687 0.14649172 0.2508148 0.043773368 -0.008577704
-0.012669781 -0.15073027 0.019746868 -0.12627776 0.10688693 0.17758001 0.10169526 -0.08170836
-0.043346755 0.29971027 0.05453179 0.025812443 0.17544991 0.15872616 -0.19543894 0.09139387
-0.22411153 0.08518547 -0.32367873 0.2821851 0.1823214 0.0370208 0.2551226 0.120313704
-0.044643324 0.13356183 0.019539006 -0.11788451 -0.18314268 -0.114346914 -0.17207034 -0.30213815
-0.22351155 -0.07836635 -0.14998637 -0.009658956 -0.12274046 -0.2683641 -0.08546967 -0.06480701
-0.21236987 -0.09713045 0.15332825 -0.022536721 0.014487439 -0.0354962 0.05366152 -0.22577278

decoder_conv.2.bias f4 [8]
00000000: a5c6 1d3f 71c4 7e3e 1850 283e 386c 2b3e
00000010: 8184 823e 8660 2c3d 66fc 4b3e f76b ef3d
0.6163123 0.24879624 0.16436803 0.16740501 0.25491717 0.04208424 0.19920501 0.116905145

decoder_conv.4.weight f4 [8, 1, 3, 3]
00000000: cca3 f13e 009c 8f3f 669c 333f fd75 6b3f
00000010: ee0f cd3f 9cd4 493f 9f7c 203f a755 543f
00000020: 4dd1 833e 366c 9f3e 01ca 463f 393d 0f3f
00000030: f54c 1e3f 2efe 8f3f f09a 243f 28cf c33e
00000040: 1c3a 073f ffd7 433e 9b05 86bd 9ab0 ffbe
00000050: 155c f7be afd3 0bbf 8910 9fbf 9962 44bf
00000060: ccd0 fbbd f143 67be ea01 c2bd 7dce 3dbe
00000070: 48e6 a83c f5ea b33d 467d 0dbf 2780 45be
00000080: bad5 19be fd20 1fbf d0b2 13bf bd2b 8abe
00000090: bca1 a43e 7caa 073f a4d7 e33e 8bdb 443f
000000a0: 8a10 833f 2211 373f b2fe f13e 7519 073f
000000b0: 9b3a 703e ba92 5abe b668 87be dc2c 10bf
000000c0: e8de 92be 4b79 85be e414 50bf a46b abbe
000000d0: 1913 dfbe 2183 1bbf e089 0b3c 6dd3 1abe
000000e0: 78a6 2c3c df38 5ebe 4e3b 59bf 4b6c 42be
000000f0: 645b 83be 953c 4cbf 23f6 97be e38b 02bf
00000100: 0967 04bf ef5a 9fbe d489 afbe cd91 0c3d
00000110: 584a babe 918c 9fbe 1e35 c0be 670e e4be
0.4719528 1.1219482 0.7016052 0.9197691 1.6020486 0.7884004 0.62690157 0.82943195
0.2574562 0.31137246 0.77651983 0.55952793 0.6183618 1.1249444 0.64298916 0.38243985
0.5282304 0.19125365 -0.06544038 -0.49939424 -0.4831244 -0.5461988 -1.2426921 -0.7671295
-0.12295684 -0.22584511 -0.09473021 -0.185358 0.02061762 0.08785049 -0.5526928 -0.19287167
-0.15022936 -0.6215971 -0.5769472 -0.26986495 0.32154644 0.52994514 0.44500458 0.76897496
1.0239422 0.7151052 0.4726463 0.5277322 0.23459856 -0.21345034 -0.26447076 -0.5631845
-0.2868569 -0.26069102 -0.81281877 -0.3348056 -0.43569258 -0.6074696 0.008516759 -0.15119715
0.010537736 -0.21701382 -0.84856117 -0.18986623 -0.25655663 -0.7977994 -0.29679975 -0.509947
-0.5171972 -0.31124064 -0.34284842 0.034318734 -0.36384845 -0.3116193 -0.37540525 -0.44542238
