decoder_paramsfold1.pth (torch, 102279 bytes, 9 tensors)

decoder_lin.0.weight f4 [64, 2]
0	0x3f2681ad	0.6504162
1	0xbeeef933	-0.466745
2	0x3eb44de7	0.35215685
3	0xbe692cb9	-0.22770967
4	0xbeacd9f3	-0.33760032
5	0xbcfe62a2	-0.031052891
6	0x3f01df57	0.50731415
7	0xbeb21074	-0.34778178
8	0x3ec95131	0.39319757
9	0xbf0b34ef	-0.54377645
10	0xbea5c57e	-0.32377237
11	0xbea8c27a	-0.32960874
12	0x3d3327c0	0.04373908
13	0x3e3dfef6	0.18554291
14	0xbcb76d4e	-0.022390988
15	0x3ee41ee5	0.4455482
16	0xbd82af32	-0.06381072
17	0x3eacfbb2	0.33785778
18	0xbeb3f34c	-0.35146558
19	0x3da5a10e	0.08087359
20	0xbcd512c9	-0.026009934
21	0xbeae0059	-0.3398464
22	0xbf08bab1	-0.5340987
23	0xbd11bb66	-0.035579108
24	0xbef7028e	-0.48244137
25	0xbe373ed8	-0.17895067
26	0xbed0b9ad	-0.4076666
27	0xbeccd9c1	-0.40009883
28	0xbc770678	-0.015077226
29	0x3e435382	0.19074824
30	0x3dfc0ccc	0.12307128
31	0x3ee19b78	0.44063926
32	0xbe58a3f7	-0.21156298
33	0xbea62584	-0.32450497
34	0xbeca89b5	-0.39558187
35	0xbee09c6f	-0.4386935
36	0x3dad5c3c	0.08464858
37	0x3dfc90df	0.123323195
38	0xbebdd880	-0.3707924
39	0xbd9df598	-0.07712859
40	0xbd1a3d6a	-0.037656225
41	0xbed9aa2b	-0.4251264
42	0x3c1a6e59	0.009425723
43	0xbb8f1152	-0.0043660784
44	0xbcb9fdc1	-0.022704007
45	0x3eb3920e	0.35072368
46	0xbe10a353	-0.14124803
47	0xbe3697af	-0.178313
48	0xbe94e07e	-0.29077524
49	0xbf34eb31	-0.70671374
50	0x3e8d2003	0.27563486
51	0xbf124a81	-0.57144934
52	0xbebe393b	-0.37153038
53	0xbbe57584	-0.0070025343
54	0xbedf0365	-0.43557277
55	0xbf093a22	-0.5360433
56	0xbeaf7c59	-0.34274557
57	0xbdbbf35b	-0.09177276
58	0x3eec5931	0.46161798
59	0xbf0a3804	-0.53991723
60	0xbef69f8a	-0.48168594
61	0xbf33f325	-0.70292884
62	0x3ef97313	0.48720607
63	0xbdd83634	-0.105572134
64	0x3ed56af9	0.41683176
65	0xbe9458e6	-0.28974074
66	0x3efe59f2	0.49677998
67	0xbdcb6c54	-0.09932771
68	0xbeb48322	-0.35256296
69	0x3e3019ea	0.17197385
70	0x3d607322	0.0547973
71	0x3d9b5e39	0.07586331
72	0xbeab9335	-0.33510748
73	0xbe8b00b2	-0.27148968
74	0xbe6282cb	-0.22120206
75	0xbd6e2fb9	-0.05815098
76	0x3d5665d8	0.05234322
77	0xbec37574	-0.38175547
78	0xbeb80132	-0.35938412
79	0xbf39a27c	-0.72513556
80	0x3dee4d20	0.11635804
81	0x3efa8a6f	0.4893374
82	0xbf1b782a	-0.6073023
83	0x3ecb1aa2	0.39668757
84	0xbeb66dfc	-0.35630786
85	0xbe00ba70	-0.1257112
86	0xbd5feee3	-0.05467118
87	0xbbe03dd0	-0.006843306
88	0xbf316dfa	-0.69308436
89	0x3ee05f4a	0.438227
90	0x3ba3c7d4	0.0049981866
91	0xbf498599	-0.7871948
92	0xbf0d5893	-0.5521328
93	0x3e930aa1	0.28719047
94	0xbed554c4	-0.41666234
95	0x3d0c012c	0.034180805
96	0x3ed780af	0.42090365
97	0xbe0eb83b	-0.13937466
98	0x3f1b0e31	0.6056853
99	0xbd3fcd40	-0.0468266
100	0xbf2b6f5c	-0.66966796
101	0x3ee98c0a	0.45614654
102	0xbf1527a6	-0.58263624
103	0xbefd9c08	-0.49533105
104	0x3e328cb5	0.17436488
105	0xbe29627d	-0.16541477
106	0xbeedeb5f	-0.46468636
107	0xbdcab37d	-0.09897516
108	0xbeb280c3	-0.34863862
109	0x3e2dc43f	0.16969393
110	0xbf0fff16	-0.56248605
111	0x3ebe1ea6	0.37132758
112	0x3f0a1554	0.53938794
113	0xbd557726	-0.052115582
114	0x3ecb5aae	0.3971762
115	0x3f11f1a6	0.5700935
116	0x3e9e2afc	0.3089217
117	0xbe8eb6f7	-0.27873966
118	0xbf0e5be6	-0.55608976
119	0xbf0d6d04	-0.5524447
120	0xbccc48ea	-0.024937112
121	0xbf21a854	-0.63147473
122	0x3ec580fe	0.38574976
123	0x3ede1d03	0.4338151
124	0xbedad02e	-0.42736953
125	0xbdd54d65	-0.104151525
126	0x3e403ac1	0.18772413
127	0xbee646d5	-0.44975916

decoder_lin.0.bias f4 [64]
0	0x3ecb9d8f	0.39768645
1	0x3e92fe14	0.2870947
2	0xbebfc4eb	-0.37454924
3	0xbe1fb141	-0.15594961
4	0x3eac208c	0.3361858
5	0xbeefb871	-0.46820405
6	0xbe4942fe	-0.19654462
7	0x3f08a35f	0.53374285
8	0x3fa416b0	1.2819424
9	0xbf764aa9	-0.9620767
10	0xbf166f06	-0.5876316
11	0xbe5c5107	-0.21515284
12	0x3d50ac3a	0.050945498
13	0xbe41abae	-0.18913147
14	0x3da252ee	0.07925974
15	0x3e832d53	0.25620517
16	0x3f2481e7	0.64260715
17	0xbf005855	-0.50134784
18	0x3f7a5df5	0.9779962
19	0xbebfa90e	-0.37433666
20	0xbf4069ed	-0.7516163
21	0x3fd8a53d	1.6925427
22	0x3dc3eb8f	0.095664136
23	0x3f808973	1.0041946
24	0x3e3619a5	0.1778322
25	0x3ede3c40	0.43405342
26	0xbf1d98e8	-0.6156144
27	0x3f2b035a	0.6680199
28	0x3ec42384	0.38308346
29	0x3e94f26f	0.29091212
30	0xbe7579db	-0.23972265
31	0xbea80106	-0.3281328
32	0xbe14de86	-0.14538011
33	0xbe9992f5	-0.29994932
34	0x3f23ee3b	0.64035386
35	0x3e586afa	0.21134558
36	0x3ee4fb6f	0.4472308
37	0x3f95688f	1.1672534
38	0x3f405aed	0.7513874
39	0xbe6ca66e	-0.23110363
40	0x3e5bf7e3	0.2148128
41	0x3ddfddf3	0.10931005
42	0xbe39e21d	-0.18152662
43	0x3feb5d18	1.8387785
44	0xbeec234a	-0.46120673
45	0xbd9763e0	-0.073920965
46	0xbbd9ac10	-0.006642826
47	0x3db630d8	0.08896035
48	0xbf0ab75b	-0.5418603
49	0xbbf56583	-0.007488908
50	0xbe18bcfd	-0.14915843
51	0xbee65255	-0.4498469
52	0x3f9669f4	1.1751084
53	0x3f31bf2f	0.6943235
54	0x3f3c8777	0.736442
55	0xbe4951d4	-0.19660121
56	0xbd6bf90a	-0.05761055
57	0x3d100c0a	0.03516773
58	0xbe873da3	-0.26414213
59	0x3eaf1ccb	0.34201655
60	0xbef561a1	-0.47926047
61	0xbe8cf1a5	-0.2752811
62	0xbf8200d0	-1.0156498
63	0x3ea835f4	0.32853663

decoder_lin.2.weight f4 [288, 64]
0	0xbc17a3cd	-0.009255362
1	0xbb687a65	-0.0035473343
2	0x3c892dc2	0.016745452
3	0xbc61a069	-0.013771155
4	0x3c312b34	0.010813523
5	0x3ce81f7f	0.028335331
6	0x3b8c11b3	0.004274571
7	0xbcb0db92	-0.021589074
8	0xbd626634	-0.05527325
9	0x3ceec96c	0.02914878
10	0x3c4d74f8	0.012540095
11	0x3c6899da	0.014196837
12	0x3c259e9c	0.010108616
13	0x3cd436b2	0.025904987
14	0xbb2ee625	-0.002668747
15	0xbb10b9ea	-0.002208347
16	0x3ba98f45	0.0051745498
17	0x3d0a6b25	0.033793587
18	0xbd2ecc6a	-0.042675413
19	0x3c992ad2	0.018697176
20	0x3c88b8a2	0.016689602
21	0xbd56c89e	-0.052437417
22	0xbba565f4	-0.005047554
23	0xbc854063	-0.016266054
24	0x3d304c3c	0.043041453
25	0x3c9adb47	0.018903388
26	0x3cd07f10	0.025451213
27	0x3d19c057	0.037536945
28	0x3a0d3406	0.0005386475
29	0x3c09b840	0.008405745
30	0x3d4fc1b5	0.050721843
31	0xbbcf930a	-0.006334667
32	0xbc34c1fe	-0.0110325795
33	0xbbd85067	-0.0066013816
34	0xbc9da902	-0.019245628
35	0xb9cd17ab	-0.0003911828
36	0xba1dfd63	-0.0006026832
37	0xbcd1535e	-0.025552448
38	0xbbb09f47	-0.005390081
39	0x3d59dbdf	0.0531882
40	0xbb2f93fd	-0.0026791089
41	0xbc775cd7	-0.015097818
42	0x3c6893c6	0.014195388
43	0xbd57ffa0	-0.052734017
44	0x3c89985f	0.016796289
45	0x3cde0fb1	0.027107092
46	0xbba819a7	-0.005130011
47	0x3b915c70	0.0044360682
48	0xbb82220c	-0.003971344
49	0xbc1b4e36	-0.009479096
50	0xbc41df25	-0.011832987
51	0x3d03363d	0.032034148
52	0xbcd28fc6	-0.025703322
53	0xba9dc316	-0.001203629
54	0xbca8e459	-0.020616697
55	0xbb014167	-0.001972282
56	0xbc0ee53e	-0.008721648
57	0x3a209f97	0.00061272964
58	0xbc2dc43d	-0.010605869
59	0x3c8e40ff	0.017364977
60	0x3cecfc77	0.028928978
61	0x3a815312	0.0009866676
62	0x3d01136c	0.031512663
63	0x3c34a8b6	0.011026552
64	0xb54cd44c	-7.6304855e-07
65	0xaeb64882	-8.289282e-11
66	0x0ffc7055	2.4892387e-29
67	0xb1595279	-3.1624536e-09
68	0xb29b028c	-1.8045533e-08
69	0xa5c89440	-3.4794928e-16
70	0x0007df3e	7.22933e-40
71	0x08227e0f	4.8898283e-34
72	0x10c71ff6	7.8540904e-29
73	0x81131988	-2.7017954e-38
74	0x8b57a934	-4.1534788e-32
75	0xa89924de	-1.7002401e-14
76	0xab2eae02	-6.20587e-13
77	0xacda8756	-6.210958e-12
78	0x00030704	2.78023e-40
79	0x03dd81ae	1.3018986e-36
80	0xa98a9673	-6.15453e-14
81	0xab03cbd2	-4.6823407e-13
82	0x9fb76f0e	-7.768724e-20
83	0x9a215d3f	-3.3369343e-23
84	0x99895c39	-1.4202716e-23
85	0xa711d64a	-2.0238959e-15
86	0x8005e945	-5.42859e-40
87	0xa02ff477	-1.4903963e-19
88	0xb12a7bd4	-2.4808644e-09
89	0xb21aadf0	-9.003529e-09
90	0x12247724	5.1896128e-28
91	0xb23f6b46	-1.1142054e-08
92	0xa5ecaa34	-4.1054808e-16
93	0xb329f29d	-3.9569034e-08
94	0xb1dfb425	-6.5106343e-09
95	0xaee9cf8a	-1.06324796e-10
96	0xaeb4604b	-8.2025574e-11
97	0xaf3550b5	-1.6490527e-10
98	0x034d0054	6.024446e-37
99	0x80030eb0	-2.80775e-40
100	0xacf66016	-7.002408e-12
101	0xa4b22888	-7.726386e-17
102	0xac61659d	-3.203083e-12
103	0xb0f1a136	-1.7580877e-09
104	0x86d142af	-7.8715045e-35
105	0x9ae8af0f	-9.6235773e-23
106	0xa0ac25e7	-2.9163015e-19
107	0xa3878e02	-1.4696872e-17
108	0x9fa00ab8	-6.778037e-20
109	0xaff99cc9	-4.540424e-10
110	0x9dfea154	-6.740005e-21
111	0xa5a7914a	-2.9068334e-16
112	0xab4cb887	-7.273144e-13
113	0xb2015b1c	-7.529504e-09
114	0x9ee391fa	-2.4094934e-20
115	0xb09977e3	-1.1166289e-09
116	0xae6be3b9	-5.3635072e-11
117	0xac01a90a	-1.8425838e-12
118	0x8c3e5628	-1.4662994e-31
119	0x95f377a6	-9.833569e-26
120	0xb0b5c7bf	-1.3226255e-09
121	0xa214e3f4	-2.0178418e-18
122	0xabb7fc99	-1.3073042e-12
123	0xb28f161e	-1.6657449e-08
124	0xaa11d4b0	-1.2952378e-13
125	0x9ba1a366	-2.674081e-22
126	0x9c5430df	-7.020808e-22
127	0xae313e05	-4.0300225e-11
128	0x8005c989	-5.31475e-40
129	0x2d1a13ca	8.7582806e-12
130	0x3cdaa1f0	0.026688546
131	0x800cb7a6	-1.167907e-39
132	0xbcfdadf5	-0.030966738
133	0x3d1cb3f4	0.038257554
134	0xbd1cdc3e	-0.038295977
135	0xbe973467	-0.29532167
136	0xbe0057ed	-0.12533541
137	0x3d545d2e	0.051846676
138	0xbe2041e2	-0.15650132
139	0x3d11f421	0.03563321
140	0x3b9bf86e	0.0047598397
141	0xbb067f22	-0.0020522554
142	0xbdff1b99	-0.12456436
143	0xbe1fbf41	-0.15600301
144	0xbb04e0fd	-0.0020275705
145	0x3d036081	0.032074455
146	0xbe4f200c	-0.20227069
147	0x3ce64553	0.028109228
148	0xbe5635b3	-0.20918922
149	0xbc55999a	-0.01303711
150	0xbe3ea7d8	-0.18618715
151	0x3cfe1031	0.03101358
152	0x3cc65525	0.024210522
153	0xbd858387	-0.065192275
154	0x3d2a9d3f	0.041653868
155	0x3d97e936	0.07417528
156	0x3ca393d9	0.01996796
157	0xbb553e1c	-0.003253824
158	0x3d8296b2	0.06376399
159	0x800b23a6	-1.022979e-39
160	0x800628ae	-5.65606e-40
161	0x80065e97	-5.84945e-40
162	0x3d40d1db	0.047075134
163	0xbd86b887	-0.065781645
164	0xbd1d322a	-0.03837792
165	0x3ca09536	0.0196024
166	0xbdd74fa1	-0.10513235
167	0x3c929521	0.017893376
168	0xbe2792b0	-0.1636455
169	0x3d81b150	0.06332648
170	0x3d3e9d4d	0.046536732
171	0xbc4e6df3	-0.012599456
172	0x3d688cce	0.056774907
173	0xbe8c3668	-0.2738526
174	0x3d137c04	0.036006942
175	0x3d97633d	0.07391975
176	0x8013930d	-1.797626e-39
177	0x0004e951	4.5104e-40
178	0x3dcf68ef	0.10127436
179	0x3d958769	0.07301218
180	0xbcf9f079	-0.030510174
181	0x3d8887ee	0.066665515
182	0x3ccd55da	0.025065351
183	0x3d5b9a06	0.053613685
184	0x80110fdf	-1.566897e-39
185	0xbc925e0f	-0.017867116
186	0x000f2f61	1.394529e-39
187	0xbd374322	-0.044741757
188	0xbea0ec0a	-0.31430084
189	0x3b233c6c	0.002490784
190	0x3d3bd5ee	0.045858316
191	0xbd47f8eb	-0.04882137
192	0xb9c716e6	-0.00037973298
193	0xb7624d8f	-1.3488708e-05
194	0x00009462	5.323e-41
195	0xb86c6e6d	-5.6369627e-05
196	0xb9a5fba0	-0.00031658728
197	0xb30f6959	-3.3390595e-08
198	0x800841d6	-7.58301e-40
199	0x8004f33e	-4.54601e-40
200	0x0001016e	9.2348e-41
201	0x8006afc5	-6.14067e-40
202	0xb369cd2b	-5.443614e-08
203	0x8004c871	-4.39247e-40
204	0xad03f46b	-7.5007596e-12
205	0xb5c04e3d	-1.4327885e-06
206	0x8003099b	-2.78952e-40
207	0x00043290	3.8548e-40
208	0xb6228545	-2.4217454e-06
209	0xb5c17646	-1.4414043e-06
210	0x0006eaab	6.35196e-40
211	0x8005d167	-5.34297e-40
212	0xb43bd85f	-1.7494447e-07
213	0xaec75c01	-9.0658155e-11
214	0x0006cf1f	6.25314e-40
215	0xb3d71a14	-1.0016461e-07
216	0xb91bd3a6	-0.00014860797
217	0xb9c06e6e	-0.0003670337
218	0x0006e19b	6.31945e-40
219	0xb8a3cbba	-7.810393e-05
220	0xa3ac3bc2	-1.8673586e-17
221	0xb9b1f6d1	-0.00033943963
222	0xb88c5822	-6.692136e-05
223	0xb5da19eb	-1.6249809e-06
224	0xb78c37e9	-1.6715336e-05
225	0xb600ece5	-1.9211377e-06
226	0x8005450a	-4.83944e-40
227	0x0006b6a0	6.16526e-40
228	0xb3efc3d7	-1.1164928e-07
229	0xacfa0959	-7.106465e-12
230	0xb8499a1e	-4.8065667e-05
231	0xb8ae03a1	-8.2976425e-05
232	0x80046881	-4.04831e-40
233	0x8002c286	-2.53453e-40
234	0x9d3faeaf	-2.5368949e-21
235	0xae2508f5	-3.7524612e-11
236	0x00009999	5.51e-41
237	0xb9ad89b2	-0.00033099722
238	0x0007837d	6.90018e-40
239	0x8001ab50	-1.53291e-40
240	0xb4d2a947	-3.9238714e-07
241	0xb6ff2ef6	-7.605059e-06
242	0x0003e27e	3.56757e-40
243	0xb692ae9c	-4.3714663e-06
244	0xb6a7b003	-4.9974783e-06
245	0xa614012d	-5.134941e-16
246	0x80044d5d	-3.95095e-40
247	0x00050e02	4.64203e-40
248	0xb655a926	-3.183793e-06
249	0x0798ed55	2.300991e-34
250	0xb6a52414	-4.9215832e-06
251	0xb7fd8ea0	-3.0226365e-05
252	0xb84fba56	-4.9526185e-05
253	0x8006c645	-6.22139e-40
254	0x00079c27	6.98865e-40
255	0xb8f1a65e	-0.00011522764

decoder_lin.2.bias f4 [288]
0	0xbd0bcac2	-0.03412891
1	0x9b3ca0dd	-1.5602973e-22
2	0xbc7efcbf	-0.015563189
3	0xa306677d	-7.286069e-18
4	0xb62739f2	-2.4918668e-06
5	0xb962e6e1	-0.00021639049
6	0xbd2cbb7b	-0.042170983
7	0x3dd82ff5	0.10556022
8	0xbb542bb4	-0.0032374682
9	0x3d8f7a35	0.07005731
10	0x3d3170a1	0.043320302
11	0x3e5222a0	0.20521021
12	0x9ba3b632	-2.708383e-22
13	0x3e5118ca	0.20419613
14	0xbdc1998e	-0.09453116
15	0x3dcb91d3	0.09939923
16	0x3e2629b6	0.16226849
17	0x3df59d23	0.11992862
18	0xbd4f61dc	-0.050630435
19	0xb658eef6	-3.2325602e-06
20	0x3b975a8e	0.0046189493
21	0x800760cb	-6.77571e-40
22	0xbcb2c1b1	-0.021820875
23	0x3e33c2a7	0.17554723
24	0x3d99f8a5	0.07518128
25	0x3e40de4e	0.18834803
26	0x3d28de9e	0.04122793
27	0x3cd47047	0.025932444
28	0x3e3b394e	0.18283579
29	0xbd80e9ec	-0.06294617
30	0x80071170	-6.49104e-40
31	0x80013a47	-1.12741e-40
32	0x3dbaa786	0.09113984
33	0x3d81d867	0.063401036
34	0xb42b0180	-1.5926162e-07
35	0xbd30f77e	-0.043204777
36	0x3d35e0b0	0.04440373
37	0x3d937c65	0.07201461
38	0x3d5ce1d1	0.053926293
39	0xbbffc12e	-0.0078050112
40	0x3db83f9a	0.08996506
41	0x3eada330	0.33913565
42	0xaf71ec94	-2.2002872e-10
43	0xba412a38	-0.0007368657
44	0xac1385ed	-2.09643e-12
45	0x96afb80d	-2.8388927e-25
46	0x3d431e9e	0.04763662
47	0x14799b23	1.2601883e-26
48	0xbc55cbac	-0.013049047
49	0xb3636ba7	-5.2950465e-08
50	0xa83d4d7b	-1.05084085e-14
51	0x3d8143d1	0.06311763
52	0x3e32efc7	0.1747428
53	0xbdc61bdb	-0.09673282
54	0xbd0507fa	-0.03247831
55	0xbd0a9734	-0.033835605
56	0xbd5c7f6a	-0.05383245
57	0xbc8f971f	-0.017528115
58	0xb87ebc55	-6.0733717e-05
59	0xb9a66fa5	-0.0003174517
60	0xbd91c917	-0.07118433
61	0x3d5ac837	0.053413596
62	0xb6d29c45	-6.27668e-06
63	0xb8bae5f6	-8.912005e-05
64	0x0005a60f	5.18748e-40
65	0x9680ba9b	-2.079728e-25
66	0xbd3cbaff	-0.04607677
67	0xa446c5e7	-4.3102036e-17
68	0xbd15b8bf	-0.03655314
69	0x3dbf3cb2	0.093377486
70	0x3d8a1a87	0.06743341
71	0x3dc13eaa	0.0943578
72	0x3c6ac6f0	0.014329657
73	0xbd4b1149	-0.04957703
74	0x3b33b2bc	0.0027419766
75	0x3d9b5dd0	0.07586253
76	0x80073e2f	-6.65156e-40
77	0xbe38cf4f	-0.18047832
78	0xa5d27dbf	-3.6514402e-16
79	0xbde60e06	-0.112331435
80	0xbc137107	-0.008999116
81	0xbaa1c82e	-0.0012342983
82	0x3cedaa5e	0.029011901
83	0x3e08b93f	0.13351916
84	0xb60146f1	-1.9263791e-06
85	0x3e5617a4	0.20907456
86	0x3e444f89	0.19170965
87	0x8ad99ddc	-2.095572e-32
88	0xb884964d	-6.322246e-05
89	0xbe544d24	-0.20732552
90	0x3d617a52	0.055048294
91	0x3dcbf804	0.099594146
92	0x3e1b136d	0.15144129
93	0xbcf165ab	-0.029467424
94	0x3875af7b	5.857598e-05
95	0xba60cec2	-0.0008575731
96	0x3d954328	0.072882
97	0xb47921e4	-2.3202261e-07
98	0xbe403c44	-0.1877299
99	0x3d5c2253	0.05374367
100	0x3d963d5b	0.073359214
101	0x3db5e37c	0.0888128
102	0x3d8d50d9	0.06900186
103	0x00076b22	6.8128e-40
104	0x9c691648	-7.712203e-22
105	0x3e1c72b3	0.1527813
106	0xba22f9c4	-0.00062170275
107	0x3e007897	0.12546001
108	0xba6686c6	-0.00087938865
109	0x9ab95d7e	-7.666525e-23
110	0x00060fdd	5.56704e-40
111	0x3da78509	0.08179671
112	0x800cad5b	-1.164214e-39
113	0xae719b42	-5.4934952e-11
114	0x3cd8804e	0.026428368
115	0xbb0e47ad	-0.0021710203
116	0x3d7252ab	0.05916087
117	0x3d0d09e1	0.03443325
118	0x86f1da29	-9.097468e-35
119	0xbca3d6fc	-0.019999973
120	0x3ce7b184	0.028282888
121	0x0b5b3ca3	4.2223484e-32
122	0xbc96e028	-0.018417433
123	0xbd40bc17	-0.047054376
124	0x2bfda9f0	1.8023898e-12
125	0xbd597459	-0.053089473
126	0xb90649f1	-0.00012806781
127	0x3e75a13f	0.23987292
128	0xb9bcd56d	-0.0003601717
129	0x3c07f843	0.008298936
130	0x3e24815c	0.16064972
131	0x3e17a742	0.14809898
132	0xa9c9ace8	-8.9561876e-14
133	0x3e983d41	0.29734233
134	0x3da82cf9	0.08211703
135	0x3cc377b3	0.023860788
136	0x02bbbef4	2.7586782e-37
137	0xbb245bd6	-0.0025079153
138	0x3e27f36c	0.16401452
139	0x80098475	-8.74036e-40
140	0x80057909	-5.02597e-40
141	0x3dda9e22	0.10674693
142	0xa55baa9a	-1.9053024e-16
143	0x3e5e53fe	0.21711728
144	0xbd329da6	-0.043607377
145	0x3e4853a8	0.19563162
146	0x3e2039b1	0.15647008
147	0xb4ae9da0	-3.2524713e-07
148	0x3e8049a2	0.25056177
149	0x3dfed455	0.12442843
150	0xbc760b84	-0.015017394
151	0xbd0a4ea5	-0.033766408
152	0xbdc28d9e	-0.094996676
153	0x3d4887ae	0.04895752
154	0x3e63db3f	0.22251604
155	0x3dee7320	0.11643052
156	0x3db8d89b	0.09025689
157	0xba158726	-0.00057040376
158	0x80010ce6	-9.6463e-41
159	0x3d077d80	0.03307867
160	0x951ad0e1	-3.126483e-26
161	0x3d8749b2	0.06605853
162	0x3bdf8bda	0.0068220915
163	0x3d948aa7	0.07253008
164	0xbc2f2cce	-0.010691835
165	0x3dc5c0b0	0.09655893
166	0x3dc69b26	0.09697561
167	0xbe0b701f	-0.1361699
168	0x3d597b8d	0.053096343
169	0xb80f892e	-3.4221615e-05
170	0xbe32b7d2	-0.17452934
171	0x3c988ddf	0.018622337
172	0xb60d4cd0	-2.1055348e-06
173	0x3ccd7115	0.025078336
174	0x3d92299c	0.071368426
175	0x3e9a9687	0.30192968
176	0xbf0d4992	-0.55190384
177	0xbb72e757	-0.0037064159
178	0xbd5c6088	-0.053802997
179	0xb3523669	-4.894392e-08
180	0x3c479eef	0.012183889
181	0xad71f45c	-1.3753523e-11
182	0xbc5cdd6f	-0.013480528
183	0x8002b066	-2.46951e-40
184	0x3e356307	0.17713557
185	0x9283cf11	-8.318308e-28
186	0x3d7f2d2b	0.062298935
187	0x3e20c48d	0.15699978
188	0xbe121690	-0.1426642
189	0xb971d6ac	-0.00023063523
190	0x3e4f1d9a	0.20226136
191	0x056538cb	1.07779595e-35
192	0x3d59ba02	0.053155906
193	0xa97a6d54	-5.5605978e-14
194	0xbc8d97b9	-0.017284261
195	0x3dfa75b7	0.122294836
196	0x3d3c2a8b	0.04593901
197	0x15ddd0a7	8.9590385e-26
198	0x3d171237	0.036882605
199	0x3d95d35d	0.07315705
200	0x3de49e23	0.11162975
201	0xac08d317	-1.944394e-12
202	0x3e20cee9	0.1570393
203	0xba04297f	-0.0005041584
204	0x3e53f72d	0.20699759
205	0x0000f91a	8.9361e-41
206	0xbc9fca14	-0.019505538
207	0x3e1b02d2	0.15137795
208	0x9c856ed1	-8.829847e-22
209	0xbdde2488	-0.108468115
210	0x3e101a90	0.14072633
211	0xba643168	-0.0008704872
212	0x3dcc7a95	0.09984318
213	0x3e1a1a07	0.15048991
214	0x3e300366	0.17188796
215	0x3dc9b458	0.09848851
216	0x3cbb51d0	0.02286616
217	0xbc914f64	-0.017738052
218	0x3dd5548d	0.104165174
219	0x3d377d89	0.044797454
220	0x3da94b29	0.08266289
221	0x8006319a	-5.68807e-40
222	0x3dc58370	0.0964421
223	0x3e8ef37c	0.2792014
224	0xb034724c	-6.5646044e-10
225	0xa926cf33	-3.703912e-14
226	0x2aa57555	2.9391303e-13
227	0x80079492	-6.96145e-40
228	0x3dd6b95d	0.10484574
229	0xb76c7066	-1.4092866e-05
230	0x8006d5ed	-6.27755e-40
231	0x3bc7f662	0.006102369
232	0xbd9446bf	-0.07240056
233	0xbd690177	-0.056886163
234	0x3cd6b659	0.026209997
235	0x38da93b9	0.000104225655
236	0xbdc68a05	-0.09694294
237	0xbca5465f	-0.020175157
238	0xbe08f50d	-0.1337473
239	0xbe0fc279	-0.14039029
240	0xbd782cc3	-0.060589563
241	0xbd12ab7b	-0.035808068
242	0x3d4753c6	0.048663877
243	0x3d2df678	0.04247138
244	0x0002be29	2.51888e-40
245	0x3cb45c77	0.022016747
246	0xaf321de2	-1.6199622e-10
247	0xb3a35ce4	-7.607176e-08
248	0x8004c21c	-4.36975e-40
249	0xbbaf43cf	-0.0053486596
250	0x3f0ed9b9	0.5580097
251	0xbe6600bd	-0.22461219
252	0x3d557a93	0.05211885
253	0x3c7b42ac	0.01533572
254	0x800105c1	-9.39e-41
255	0x3d352b35	0.04423066

decoder_conv.0.weight f4 [32, 16, 3, 3]
0	0xbd34c672	-0.044134565
1	0xbcfcb738	-0.030849084
2	0x3b9c2d23	0.004766123
3	0x3e3b2230	0.1827476
4	0xbe948d62	-0.29014117
5	0x3d7ef140	0.062241793
6	0xbdd6ff75	-0.10497943
7	0xbcab553c	-0.020914666
8	0xbd99d366	-0.07511024
9	0x3b531978	0.0032211225
10	0x3db426a1	0.087964304
11	0x3dd6a98a	0.10481556
12	0x3d43471c	0.047675237
13	0x3e39676d	0.1810586
14	0xbdcf373b	-0.10117956
15	0xbc687bdb	-0.014189686
16	0x3c059ed7	0.008155546
17	0xbce23ae4	-0.027615972
18	0xbef26f41	-0.47350505
19	0xbd7dc5e2	-0.061956294
20	0x3d573ab7	0.05254623
21	0xbe080d6f	-0.13286375
22	0xbddbad39	-0.10726399
23	0xbe26703b	-0.1625375
24	0x3d819567	0.06327324
25	0x3dded054	0.10879579
26	0x3cc22af1	0.023702117
27	0xbc8317b5	-0.016002515
28	0xbcf6f82b	-0.030147633
29	0x3d15a72a	0.036536373
30	0x3e22a14c	0.15881842
31	0x3da152c2	0.07877113
32	0x3d6c5e9f	0.057707425
33	0xbe188982	-0.14896205
34	0x3cbc56da	0.022990633
35	0xbe341acf	-0.17588352
36	0xbc56408e	-0.0130769145
37	0xbb465127	-0.0030260773
38	0xbe4af944	-0.1982165
39	0xbcc50eb3	-0.02405486
40	0x3b048ae9	0.0020224398
41	0xbe11406f	-0.14184736
42	0xbc3cc4ed	-0.01152156
43	0xbd0b1d5e	-0.033963554
44	0xbcb54f44	-0.022132523
45	0xbcb2f976	-0.021847468
46	0x3e2aaa31	0.16666485
47	0xbc3db224	-0.011578117
48	0xbe044899	-0.12918319
49	0xbc639d81	-0.013892532
50	0xbc9500fb	-0.018188944
51	0xbcef4ec2	-0.02921236
52	0x3d505db9	0.05087063
53	0xbd81949d	-0.06327174
54	0x3e439a07	0.19101726
55	0xbe2864b6	-0.16444668
56	0x3c7b9b06	0.015356785
57	0x3c9d6c0b	0.019216558
58	0x3d174074	0.0369267
59	0xbdda481a	-0.106582835
60	0xbd50da29	-0.050989304
61	0x3d15e7a4	0.036597863
62	0xbddd1754	-0.10795465
63	0x3ce24f0a	0.02762558
64	0xbda1482f	-0.07875096
65	0xbddd439e	-0.108039126
66	0x3d1e6d92	0.038678713
67	0x3e1ed71e	0.15511748
68	0xbbc6d964	-0.0060683955
69	0x3dadd85e	0.084885344
70	0xbdfc0ce3	-0.123071454
71	0x3cb38d3e	0.021917935
72	0xbcd3cffc	-0.02585601
73	0x3d7a7890	0.061150134
74	0x3db35352	0.087561265
75	0x3d827931	0.06370772
76	0xbc9b66c6	-0.018969905
77	0x3db6e729	0.08930809
78	0x3caa177d	0.020763153
79	0x3d54de09	0.05196956
80	0x3d7a8256	0.061159454
81	0x3c0704a1	0.00824085
82	0x3d058842	0.03260065
83	0xbcf5b150	-0.029991776
84	0xbea0602c	-0.31323373
85	0x3dd935ca	0.106059626
86	0xbdf491aa	-0.11941846
87	0xbdd5a682	-0.104321495
88	0x3d459062	0.048233397
89	0xbcba8a70	-0.02277109
90	0xbc9918b1	-0.018688532
91	0x3b80dde8	0.0039327033
92	0xbc9abc39	-0.01888858
93	0xbe93c43b	-0.2886065
94	0xbea3574a	-0.31902534
95	0xbe22b05a	-0.15887585
96	0xbc91edd7	-0.017813606
97	0xbe213ec6	-0.15746602
98	0x3ca4b6e2	0.020106737
99	0x3c9d93ef	0.01923558
100	0xbd469cf9	-0.048489545
101	0x3dc491d9	0.09598131
102	0x3de1b17b	0.1102018
103	0x3e12fc26	0.14354
104	0x3c17cf29	0.009265699
105	0xbe2a9693	-0.16659002
106	0xbd8423ae	-0.06452118
107	0x3c1b17f4	0.00946616
108	0x3e6b2b4f	0.2296574
109	0xbe1018b1	-0.14071919
110	0x3d703d0b	0.058651965
111	0x3dd769ca	0.105182245
112	0xbe302359	-0.17200984
113	0xbd8d4330	-0.068975806
114	0x3cc2214e	0.023697522
115	0x3e478f17	0.19488178
116	0xbc76c4e5	-0.015061592
117	0xbc93221e	-0.017960604
118	0xbd5ffcd7	-0.054684486
119	0x3d84701f	0.06466698
120	0xbb57dcc3	-0.003293798
121	0xbdee9ea5	-0.11651353
122	0x3dbd9001	0.09255982
123	0xbd8d1643	-0.06889012
124	0xbdd9ab0c	-0.10628328
125	0xbcda933a	-0.026681531
126	0xbc7c2d40	-0.015391648
127	0x3e16046e	0.14650127
128	0x3da3f1c6	0.08005099
129	0xb3155ada	-3.4774395e-08
130	0xbc7285d6	-0.014802417
131	0xb10d41b5	-2.055555e-09
132	0x3e0afcd6	0.13573012
133	0x3e41b54f	0.1891682
134	0x3d4b0598	0.04956588
135	0x3d68caba	0.05683396
136	0xbc7897b3	-0.015172887
137	0xbcfcafc3	-0.030845528
138	0xbe890d8d	-0.2676815
139	0x3e4d836b	0.20069663
140	0x3de7de61	0.11321712
141	0xbdca0264	-0.09863737
142	0xbdd03490	-0.101662755
143	0xbe08a277	-0.13343225
144	0xbc864f42	-0.016395215
145	0x3e05ab80	0.13053703
146	0xbe150919	-0.14554252
147	0xbec233b6	-0.37930077
148	0x3e065481	0.13118173
149	0x3e2a2dae	0.16618988
150	0x3ce7d243	0.028298503
151	0xbac41b86	-0.0014961816
152	0x3db7765b	0.089581214
153	0xbd441462	-0.047871
154	0x3e623c1e	0.22093245
155	0x3e0123f3	0.1261137
156	0xbcb24950	-0.021763474
157	0x3e483fb9	0.19555558
158	0x3d735b90	0.059413493
159	0x3a7b05ca	0.0009575753
160	0x3e927ed0	0.28612375
161	0x3e12d7af	0.1434009
162	0xbde5f51c	-0.112283915
163	0xbda21367	-0.07913857
164	0x3d9eed97	0.077601604
165	0xbd493492	-0.0491224
166	0x3e6691d6	0.2251657
167	0x3e42b2ed	0.19013567
168	0xbe8d46b4	-0.27593005
169	0x3e0b222b	0.13587253
170	0x3d9e4fb9	0.0773005
171	0x3c18a198	0.009315871
172	0x3d97440b	0.07386025
173	0x3d465f0e	0.048430495
174	0x3d74bb59	0.05974898
175	0xbd8a9b8d	-0.0676795
176	0x3d871bf6	0.0659713
177	0xbd368927	-0.044564392
178	0xbe87a379	-0.26491907
179	0x3cce3327	0.025170876
180	0xbc6797fc	-0.014135357
181	0xbdfe4fbe	-0.12417553
182	0xbdabab0c	-0.08382234
183	0xbdbd5250	-0.092442155
184	0xbd07bd1b	-0.03313933
185	0x3d9b42ce	0.07581101
186	0x3dd260b1	0.10272349
187	0x3e9b8f5d	0.30382815
188	0xbd999414	-0.07498947
189	0xbe1ed79d	-0.15511937
190	0xbb37a6cd	-0.0028023005
191	0xbd09b052	-0.033615418
192	0xbebfc13e	-0.3745212
193	0x3b9e3215	0.0048277476
194	0x3e54d37d	0.20783801
195	0x3d158ac6	0.036509298
196	0x3d5410f0	0.051773965
197	0xbd1e15c9	-0.038594995
198	0x3bf46b9a	0.007459116
199	0x3d9e5b80	0.07732296
200	0x3dd1566e	0.10221563
201	0xbbbdc80f	-0.005791671
202	0x3e0d5a0b	0.1380388
203	0xbc541162	-0.0129435975
204	0xba2ddfe9	-0.00066327915
205	0xbcb6e17f	-0.022324322
206	0x3c60beb6	0.013717344
207	0x3e0c2e5d	0.13689561
208	0x3cb97165	0.022637079
209	0x3cae3469	0.021265225
210	0x3d3c5f0e	0.04598909
211	0xbca3d962	-0.020001117
212	0xbd1351b8	-0.035966605
213	0x3e53348f	0.20625518
214	0x3e87e1f4	0.26539576
215	0xbd8332d4	-0.06406179
216	0x3b1777b4	0.002311212
217	0xbcfc1712	-0.03077272
218	0xbcb78461	-0.02240199
219	0xbdddf9d8	-0.108386695
220	0x3e370806	0.17874154
221	0xbd78b2f1	-0.060717527
222	0x3e399daf	0.18126558
223	0x3e26b397	0.16279446
224	0x3e32a663	0.17446284
225	0x3d74cbae	0.059764557
226	0x3df2c80f	0.118545644
227	0xbe44a35b	-0.1920294
228	0xbcc4e625	-0.024035523
229	0x3b5448eb	0.0032392095
230	0x3e8fbf3c	0.28075588
231	0x3c6d346a	0.0144778285
232	0x3e089bd8	0.133407
233	0x3cbdd647	0.023173464
234	0xbc95f2eb	-0.018304309
235	0x3d9d624d	0.07684765
236	0x3d3da88e	0.046303324
237	0xbe5f0868	-0.2178055
238	0xbd032b86	-0.03202393
239	0xbe065ba0	-0.1312089
240	0x3deae20f	0.114688985
241	0x3e8613f8	0.2618711
242	0x3dc95789	0.09831149
243	0x3e00ae16	0.12566409
244	0x3dbcddfa	0.09222026
245	0x3c94b33e	0.018151876
246	0x3ea88b4b	0.32918772
247	0x3dc396f7	0.09550279
248	0x3e1b1c43	0.151475
249	0x3e01b789	0.1266767
250	0xbdfa2044	-0.122131854
251	0x3d6a2b22	0.05717004
252	0x3df0feb1	0.117673285
253	0x3dc97eb6	0.09838621
254	0x3d2562f8	0.040377587
255	0x3def058c	0.1167098

decoder_conv.0.bias f4 [16]
0	0x3e5a8cb0	0.2134273
1	0xbf1be81a	-0.60901034
2	0x3dbd282d	0.092361785
3	0x3e9d95d1	0.30778363
4	0xbd8c6d9f	-0.06856846
5	0x3de535ad	0.111918785
6	0x3e3024ca	0.17201534
7	0x3e58f52a	0.21187273
8	0x3d06ff49	0.032958303
9	0x3e1295fe	0.1431503
10	0x3dfd8ee7	0.12380772
11	0x3f21c509	0.63191277
12	0x3f3b4bce	0.73162544
13	0x3ee1040f	0.4394841
14	0x3dff3228	0.124607384
15	0x3ecadaae	0.39619964

decoder_conv.2.weight f4 [16, 8, 3, 3]
0	0x3d8d1eab	0.06890615
1	0x3d6d4084	0.057922855
2	0x3d27455a	0.040837623
3	0x3e23d32f	0.15998529
4	0xbd8f84b2	-0.070077315
5	0xbc8c8d1d	-0.017157132
6	0x3d5da5a7	0.054113057
7	0xbd2c2af5	-0.042033155
8	0xbc1b7dd5	-0.00949045
9	0x3dff6024	0.12469509
10	0x3de3be9c	0.1112034
11	0x3c176fc1	0.009242953
12	0x3e2324ad	0.1593196
13	0x3db4dfa6	0.0883172
14	0x3ca41294	0.02002839
15	0x3dfb32b4	0.1226553
16	0x3e2e290d	0.17007847
17	0x3de91ab4	0.11382046
18	0x3d17751a	0.03697691
19	0x3dab70aa	0.08371098
20	0x3ea3bdb5	0.31980672
21	0x3e7d33d5	0.24726804
22	0x3e883881	0.2660561
23	0x3db678c9	0.08909757
24	0xbe353bb4	-0.17698556
25	0xbdb618c2	-0.08891441
26	0xbd9d4fe0	-0.076812506
27	0xbd8ee972	-0.0697812
28	0x3d88966f	0.06669318
29	0x3e24f608	0.16109478
30	0x3d055210	0.032548964
31	0x3e1f958e	0.15584394
32	0x3e0460d6	0.12927565
33	0x3dc087d9	0.09400911
34	0x3e79f260	0.24408865
35	0x3e30801c	0.1723637
36	0xbc8a9316	-0.01691584
37	0xbae268a5	-0.0017273618
38	0xbe06bbaa	-0.13157526
39	0xbe2daf62	-0.16961434
40	0xbe903f75	-0.28173414
41	0xbea7e408	-0.32791162
42	0xbe7ee3f4	-0.24891645
43	0xbed5591f	-0.41669556
44	0xbe52529c	-0.20539325
45	0x3dcbb5b2	0.09946765
46	0x3e95312b	0.29139075
47	0x3e38ea7f	0.18058203
48	0x3ea3b9a7	0.3197758
49	0x3f05af6e	0.5222081
50	0x3ed345a4	0.4126407
51	0x3e890827	0.26764032
52	0x3e0f8aa4	0.14017731
53	0x3e79ae2b	0.24382846
54	0xbd731695	-0.059347708
55	0x3e27b9e6	0.16379508
56	0x3d1f5bed	0.038906027
57	0x3e5b202a	0.21398988
58	0xbe7711c7	-0.24127875
59	0xbe0cbaee	-0.13743183
60	0x3e9e18ef	0.30878398
61	0xbeb123ff	-0.34597775
62	0xbd65e749	-0.056128774
63	0x3cbc9051	0.023018034
64	0x3d90c775	0.070692934
65	0x3e4bd736	0.19906315
66	0x3d7ca895	0.06168421
67	0xbbb8566a	-0.0056255357
68	0x3ddc611d	0.107607104
69	0xbcb453e0	-0.022012651
70	0x3e337367	0.17524491
71	0x3d915b26	0.07097463
72	0x3e05d6c9	0.13070215
73	0x3ce314a3	0.027719801
74	0x3dd49a37	0.10380977
75	0x3da29de8	0.079402745
76	0xbceac9de	-0.02866071
77	0x3e2c9252	0.16852692
78	0x3c69430a	0.014237175
79	0xbb04dedf	-0.0020274443
80	0x3d872417	0.065986805
81	0x3d8232f5	0.063573755
82	0x3db22301	0.08698083
83	0xbe471c5e	-0.19444415
84	0x3e54a27c	0.20765108
85	0x3cde5b2a	0.02714308
86	0xbe9e03ee	-0.30862373
87	0x3e248aca	0.16068569
88	0x3d4ef281	0.05052424
89	0xbe132dfc	-0.1437301
90	0x3d81692b	0.06318887
91	0x3d02e7e2	0.031959422
92	0x3d15208e	0.036408
93	0xbbad8c9e	-0.005296304
94	0x3dc3a7e7	0.09553509
95	0xbea4f5a2	-0.32218653
96	0x3da06ff9	0.07833857
97	0x3e7a2c02	0.2443085
98	0x3cc81350	0.024423271
99	0xbc730dc5	-0.014834826
100	0x3e87682c	0.26446664
101	0x3e2b0c66	0.16703948
102	0x3e5c8d90	0.21538377
103	0x3da07646	0.07835059
104	0xbdf2e70a	-0.118604735
105	0x3e73a5ba	0.23793688
106	0x3ea3fe87	0.32030126
107	0x3d121a44	0.03566958
108	0xbe0147f6	-0.12625107
109	0xbe409d8a	-0.18810096
110	0x3e1fefa1	0.15618755
111	0xbeaa5a8d	-0.3327221
112	0xbebeb8f3	-0.3725048
113	0x3caf0873	0.021366334
114	0xbeb5ad3a	-0.35483724
115	0xbe216b58	-0.15763605
116	0x3cb00952	0.02148882
117	0x3d0a7c0f	0.033809718
118	0x3e28aeda	0.1647295
119	0xbdd23df8	-0.10265726
120	0x3e8b9a9f	0.27266404
121	0x3ea638d1	0.32465222
122	0xbe22ab28	-0.15885603
123	0x3dd27f81	0.10278226
124	0x3c89453f	0.016756652
125	0xbdd8d8a8	-0.10588199
126	0x3e20034b	0.15626256
127	0x3ca585d0	0.020205408
128	0xbe2ca769	-0.16860737
129	0x3a105b29	0.0005506748
130	0xbe497974	-0.19675237
131	0xbdde321e	-0.10849403
132	0xbe74d8a0	-0.23910761
133	0x3e2b3211	0.16718318
134	0x3ec1aeb3	0.37828597
135	0x3e2a4fbd	0.1663198
136	0x3ed7260f	0.42021224
137	0xbdba9e71	-0.091122515
138	0x3ebf82e2	0.37404543
139	0x3e8e7950	0.2782693
140	0xbd83dd17	-0.06438654
141	0x3e496437	0.19667135
142	0x3e44f8b5	0.19235499
143	0x3c03f5f9	0.00805425
144	0x3da702ed	0.08154855
145	0x3deec5d4	0.116588265
146	0x3dea38a1	0.11436582
147	0x3e1e5d2b	0.15465228
148	0x3cdfe3df	0.027330337
149	0x3df63a0d	0.12022791
150	0xbab14857	-0.0013525587
151	0x3dc4c35c	0.09607574
152	0x3e42af73	0.19012241
153	0x3cbe6ec0	0.02324617
154	0x3e4523b1	0.19251896
155	0xbe2660b6	-0.1624783
156	0x3e18ed52	0.1493428
157	0x3d9e4684	0.077282935
158	0xbc1a5772	-0.009420263
159	0x3c13f224	0.009029899
160	0xbcedfa0b	-0.029049894
161	0x3de0f5cd	0.10984383
162	0x3dfabb39	0.12242741
163	0x3de4a5f2	0.11164464
164	0x3ebc4b5e	0.3677625
165	0x3d338249	0.04382542
166	0x3eb04df1	0.34434465
167	0x3e16d9fb	0.1473159
168	0x3e7bf94b	0.24606816
169	0x3ec1eef8	0.3787763
170	0xbdeaf7b8	-0.1147303
171	0x3d622662	0.055212386
172	0x3dd3f651	0.103497155
173	0x3de5a071	0.112122424
174	0xbce8d9b1	-0.028424116
175	0x3e8f15fa	0.27946454
176	0x3e188cc6	0.14897451
177	0x3d47903a	0.04872153
178	0x3e76371d	0.24044462
179	0x3e5c979d	0.21542211
180	0xbd89c2bc	-0.06726596
181	0xbe406b88	-0.1879102
182	0xbe102a7f	-0.14078711
183	0xbe9dc54b	-0.30814585
184	0xbed0e569	-0.40800026
185	0xbe719d9e	-0.23595282
186	0xbe9ad965	-0.30243984
187	0xbed474cb	-0.41495356
188	0xbe25c5ac	-0.16188687
189	0xbd21a13e	-0.039460413
190	0x3e636ad1	0.22208716
191	0xbe18104e	-0.1484997
192	0x3e8e351d	0.27774897
193	0x3f1654b6	0.5872301
194	0x3eb2bca7	0.34909555
195	0x3ea41e80	0.3205452
196	0x3ebd891d	0.37018672
197	0x3e1a7330	0.15083003
198	0x3e7bc097	0.24585186
199	0xbe8aed04	-0.27133954
200	0xbebc176d	-0.36736622
201	0xbdc975bb	-0.098369084
202	0xbec3abcb	-0.38217005
203	0x3e304918	0.17215383
204	0xbd2aac8f	-0.04166847
205	0x3dfca02c	0.12335238
206	0xbe8a6f05	-0.27037826
207	0x3dbac534	0.09119645
208	0x3e232e71	0.15935685
209	0x3e8be6a2	0.27324396
210	0xbd2b23af	-0.041782077
211	0x3e35a2c7	0.17737876
212	0x3bd1c71a	0.0064019086
213	0x3d8e3649	0.06943948
214	0x3e068940	0.13138294
215	0x3cebca46	0.028782975
216	0xbda5ea66	-0.081013486
217	0xbd5298d4	-0.05141528
218	0xbdee0dac	-0.116237015
219	0x3d493152	0.0491193
220	0x3db29d10	0.087213635
221	0x3d8338ec	0.06407341
222	0x3d5935ff	0.05303001
223	0x3e5caef5	0.21551116
224	0x3d02eb80	0.03196287
225	0xbd0b38b8	-0.033989638
226	0xbdbb2398	-0.09137648
227	0xbddd9cd5	-0.10820929
228	0xbcaa2be0	-0.020772874
229	0x3d966912	0.07344259
230	0x3e06e53a	0.1317338
231	0x3bcbc26d	0.0062182457
232	0x3d12dc64	0.035854712
233	0x3cdb68dd	0.026783401
234	0xbdfe2a1f	-0.12410378
235	0xbe055811	-0.13021876
236	0xbd673af3	-0.056452703
237	0xbe2796ed	-0.16366167
238	0xbdb0fe73	-0.08642282
239	0x3c85da8e	0.016339567
240	0x3d9cb1a4	0.0765107
241	0xbd714904	-0.058907524
242	0x3e3c47a7	0.18386708
243	0x3e41f590	0.18941331
244	0x3db6bfaf	0.089232795
245	0xbe50b362	-0.20380929
246	0x3d16fe05	0.036863346
247	0x3df354ce	0.118814096
248	0xbd1b3f5d	-0.037902225
249	0x3ce91217	0.028451009
250	0xbde8a243	-0.11359074
251	0x3e134630	0.14382243
252	0x3da6c6c7	0.081433825
253	0x3dbb18bd	0.09135578
254	0x3e29a29a	0.16565934
255	0x3e982021	0.29712012

decoder_conv.2.bias f4 [8]
0	0x3e8413a4	0.25796235
1	0x3e5212ce	0.20514986
2	0x3c840ff0	0.01612088
3	0x3ddc0b8b	0.10744389
4	0x3eeee4bd	0.46658888
5	0x3f11afb9	0.56908756
6	0xbea80c8d	-0.32822075
7	0x3e056257	0.13025795

decoder_conv.4.weight f4 [8, 1, 3, 3]
0	0x3eb5e3bf	0.3552532
1	0x3dce3af2	0.10069837
2	0x3e85d9f5	0.2614285
3	0x3f0894da	0.5335213
4	0xbe3bf29f	-0.18354271
5	0x3ebf5cf6	0.3737561
6	0x3da1c105	0.07898144
7	0xbf015a9a	-0.5052887
8	0xbce3df9b	-0.027816584
9	0x3d95f2f1	0.07321728
10	0x3e4d0ef0	0.2002523
11	0xbe22bb6c	-0.15891808
12	0xbe1b44e0	-0.15162992
13	0xbd54bed7	-0.05193981
14	0xbf15a1d4	-0.58450055
15	0xbe9142bf	-0.28371236
16	0xbe9e1f22	-0.30883127
17	0xbee8a901	-0.4544144
18	0x3e16a82a	0.14712587
19	0xbceb0411	-0.028688462
20	0xbe3db656	-0.18526587
21	0xbec522ea	-0.385032
22	0xbf5e01b4	-0.8672135
23	0xbf3677f6	-0.71276796
24	0xbeaf424e	-0.34230274
25	0xbf263084	-0.6491778
26	0xbed66ed6	-0.41881436
27	0xbeacdc90	-0.33762026
28	0xbf087d6f	-0.53316396
29	0xbe3a3254	-0.18183261
30	0xbef74997	-0.48298332
31	0xbf32a03c	-0.6977575
32	0xbdf09996	-0.11748044
33	0xbd2b8664	-0.04187621
34	0x3d8d33eb	0.06894668
35	0x3e5b0fc9	0.2139274
36	0x3f07545c	0.528631
37	0x3f90a590	1.1300526
38	0x3f2bf3ac	0.6716869
39	0x3f8506a7	1.0392655
40	0x3fe90f30	1.820776
41	0x3f61c6f7	0.8819422
42	0x3f2bd8ba	0.67127573
43	0x3f859dc6	1.0438774
44	0x3ecb579f	0.39715287
45	0xbed87eec	-0.42284334
46	0xbf740ab7	-0.9532885
47	0xbf24772d	-0.6424435
48	0xbf83e183	-1.0303196
49	0xbff970d3	-1.9487556
50	0xbf94fa76	-1.1638935
51	0xbf33dbce	-0.7025727
52	0xbf95a6d7	-1.169154
53	0xbf17bb16	-0.59269845
54	0x3ede1d60	0.43381786
55	0x3f5437b3	0.8289749
56	0x3ef57303	0.4793931
57	0x3f6e17de	0.9300517
58	0x3fb2ced4	1.3969369
59	0x3f2254d1	0.6341067
60	0x3f1d8d1e	0.6154345
61	0x3f542312	0.82866013
62	0x3ea3a7c2	0.31963927
63	0xbe1d999b	-0.15390627
64	0xbe2bbfc4	-0.16772372
65	0xbe53f9fd	-0.20700832
66	0xbeb11888	-0.34589028
67	0xbe975bf8	-0.29562354
68	0xbec04189	-0.3755
69	0xbe9319ed	-0.28730717
70	0xbeacaefb	-0.3372725
71	0xbea26549	-0.317179
