decoder_params.pth (torch, 104327 bytes, 9 tensors)

decoder_lin.0.weight f4 [64, 10]
0	0xbe1853f1	-0.14875771
1	0x3db57489	0.08860118
2	0x3e289f45	0.16467007
3	0xbe2d92f3	-0.16950588
4	0x3e0dbf70	0.13842559
5	0xbc09b63e	-0.008405266
6	0xbc60aa08	-0.013712414
7	0x3dfbef14	0.1230146
8	0xbe76b6ed	-0.24093218
9	0xbe271d5f	-0.16319798
10	0xbe7ec152	-0.24878433
11	0xbe2ac50f	-0.16676734
12	0xbd051ae7	-0.03249636
13	0xbe68d574	-0.22737676
14	0xbcf5678f	-0.029956607
15	0xbd79b042	-0.06095911
16	0xbe54d197	-0.20783077
17	0x3e921497	0.28531334
18	0x3ebfa261	0.37428573
19	0xbebfa085	-0.37427154
20	0x3b6bc10b	0.0035973217
21	0xbdfbbd5b	-0.12291976
22	0xbda03823	-0.07823207
23	0x3e395c09	0.18101515
24	0x3da0330d	0.07822237
25	0x3e4f6397	0.20252834
26	0xbd7e40f4	-0.062073663
27	0x3e203813	0.1564639
28	0xbe80eefc	-0.2518233
29	0xbe46da54	-0.19419223
30	0x3bcd2094	0.006259987
31	0x3cc127bf	0.023578523
32	0x3c85b3b6	0.016321044
33	0x3cc2e267	0.023789598
34	0xbcf5bc16	-0.029996913
35	0xbcc08158	-0.023499176
36	0x3c56aa4b	0.013102124
37	0x3c96c80c	0.018405937
38	0x3cac76d0	0.021052748
39	0x3bf8c651	0.0075920005
40	0x3e09e2d2	0.13465431
41	0x3f05ede4	0.5231612
42	0xbdf159b2	-0.11784686
43	0x3e49e2e7	0.19715463
44	0xbe9e43ce	-0.30911106
45	0x3c74b5fd	0.0149359675
46	0x3e04434c	0.12916297
47	0xbee48752	-0.4463449
48	0xbd229fbd	-0.03970312
49	0xbeec2525	-0.4612209
50	0x3df3289e	0.118729815
51	0xbe27f7c3	-0.16403107
52	0x3de2b281	0.11069203
53	0x3e89e07c	0.2692908
54	0x3e3c6a0b	0.18399827
55	0xbda16723	-0.07881
56	0x3d8cfcbe	0.06884144
57	0x3e86806b	0.2626985
58	0xbd99c98a	-0.07509144
59	0xbec5d733	-0.38640746
60	0xbe2aa8a7	-0.16665898
61	0xbded96d9	-0.116010375
62	0xbe10d93b	-0.14145367
63	0xbe11cd5d	-0.14238496
64	0x3e37887c	0.17923158
65	0x3dd4503b	0.10366865
66	0x3d7bb8ff	0.061455723
67	0x3d722641	0.059118513
68	0xbccbd911	-0.024883779
69	0xbdb5ea2d	-0.08882556
70	0xbca0589b	-0.0195735
71	0x3d15f8b2	0.036614127
72	0x3e2ba66c	0.16762704
73	0x3cc19bb0	0.023633808
74	0x3ebbbffa	0.36669904
75	0xbe4bd769	-0.19906391
76	0x3ea10d1b	0.3145531
77	0xbe26b461	-0.16279747
78	0xbe94ddc0	-0.29075432
79	0x3e7a1ae0	0.24424314
80	0x3b67a296	0.0035344712
81	0x3d3c6ee2	0.046004184
82	0x3ea24d94	0.31699812
83	0x3e597e18	0.21239507
84	0x3eafd1cf	0.3433976
85	0xbd432b73	-0.04764886
86	0xbe4085c6	-0.1880103
87	0x3d469663	0.048483264
88	0x3ec6a9f7	0.38801548
89	0xbd4b52db	-0.049639564
90	0xbdcb1f9f	-0.099181406
91	0xbecf3593	-0.4047056
92	0x3e0a99a0	0.13535166
93	0x3d101508	0.035176307
94	0xbd3e277e	-0.04642438
95	0xbdba9f84	-0.091124564
96	0xbec36724	-0.38164628
97	0x3d72317e	0.05912923
98	0xbe5d1702	-0.21590808
99	0xbcc826db	-0.02443259
100	0x3e1f7936	0.15573582
101	0xbe042726	-0.12905559
102	0xbdd4e0a2	-0.10394408
103	0xbe800eb4	-0.25011218
104	0xbe5a1f8c	-0.21301097
105	0x3e521c29	0.20518555
106	0xbe55508b	-0.20831506
107	0xbd3ec586	-0.04657509
108	0xbdba5cef	-0.09099757
109	0xbe2bfd5a	-0.16795865
110	0xbe2584b5	-0.16163905
111	0xbe612071	-0.21985032
112	0xbce09b9d	-0.027417952
113	0xbe4f516e	-0.20245907
114	0x3df25a59	0.11833639
115	0xbe30e626	-0.17275295
116	0xbdbed4ac	-0.09317908
117	0x3daa75ea	0.083232716
118	0xbe3e9887	-0.18612872
119	0x3d8bbeb7	0.06823485
120	0x3d2e3535	0.04253121
121	0x3d1edbe3	0.03878392
122	0xbe3a0e2d	-0.1816947
123	0x3c130ddc	0.008975472
124	0xbe43a12a	-0.19104448
125	0x3e9e77a1	0.30950645
126	0xbe102588	-0.14076817
127	0xbd2b3118	-0.041794866
128	0xbe9f43c5	-0.31106392
129	0xbdd6030e	-0.104498014
130	0xbe044ebf	-0.12920664
131	0xbd84c394	-0.06482616
132	0xbcacaee5	-0.02107949
133	0xbd805035	-0.06265298
134	0x3e00269a	0.12514725
135	0x3e530f39	0.20611276
136	0x3e85e575	0.26151624
137	0xbe24b003	-0.16082768
138	0x3e20c0bf	0.15698527
139	0xbe778fab	-0.24175899
140	0xbdb85906	-0.09001355
141	0x3d9025d8	0.07038468
142	0x3f1a89d0	0.60366535
143	0xbd8c5670	-0.06852424
144	0xbd6329ab	-0.05545966
145	0x3d7165e9	0.05893508
146	0x3e51c76e	0.20486233
147	0xbd8943cb	-0.067023836
148	0xbe8242cb	-0.25441584
149	0x3c20913f	0.009800254
150	0x3e81da31	0.2536178
151	0x3c107d5a	0.008818949
152	0xbc6f8611	-0.014619366
153	0xbc95e20f	-0.01829627
154	0x3e8c624e	0.2741875
155	0x3df0041e	0.11719535
156	0xbe2bb824	-0.16769463
157	0xbb188988	-0.0023275334
158	0xbe9a3080	-0.30115128
159	0xbe711a29	-0.23545136
160	0xbdc7d242	-0.097569
161	0xbe071a06	-0.13193521
162	0xbd98b23f	-0.07455873
163	0xbdbf202b	-0.093323074
164	0x3c790f68	0.015201427
165	0x3ca65ee3	0.020308917
166	0xbdf8f910	-0.1215688
167	0xbe102c46	-0.14079389
168	0x3d6a2417	0.057163324
169	0x3d502451	0.050815884
170	0xbd32f995	-0.04369505
171	0xbdeae8f5	-0.11470214
172	0xbe6c0ef9	-0.23052587
173	0xbe8eb5e0	-0.27873135
174	0xbd05d32b	-0.03267209
175	0xbe7764d7	-0.24159561
176	0xbc6254d8	-0.013814174
177	0x3e97f342	0.29677778
178	0xbec01e4a	-0.3752311
179	0x3e912bf9	0.2835386
180	0x3dc653f7	0.09683984
181	0x3d0cea1f	0.034402963
182	0xbeb2c3d0	-0.34915018
183	0xbe400049	-0.18750109
184	0x3d400498	0.04687938
185	0xbf191fbd	-0.59814054
186	0x3e8d3aa8	0.27583814
187	0x3e50384d	0.20333977
188	0x3ec5b21f	0.38612458
189	0xbe9f5056	-0.3111598
190	0xbeeb5991	-0.4596677
191	0x3ed0677e	0.40703958
192	0xbc36aa6e	-0.011149032
193	0x3e4b80ad	0.19873305
194	0x3de5ffbc	0.11230418
195	0x3e870653	0.26372012
196	0x3cc5d495	0.024149219
197	0x3ead0b60	0.3379774
198	0x3d8e9d92	0.06963648
199	0xbdecd812	-0.1156465
200	0xbe4fbdb3	-0.20287208
201	0xbe308562	-0.17238382
202	0xbea4d86c	-0.32196367
203	0x3e485e08	0.1956712
204	0x3e93b61a	0.2884987
205	0xbded73a0	-0.11594319
206	0xbe36d62d	-0.17855139
207	0xbd8abd7b	-0.06774422
208	0x3e606ec8	0.2191726
209	0x3d447463	0.047962558
210	0xbdbec3c8	-0.09314686
211	0x3c09ef3b	0.008418853
212	0xbd90223e	-0.07037781
213	0xbe803d0a	-0.2504657
214	0x3e867bdc	0.26266372
215	0xbdd5c468	-0.10437852
216	0x3e9a1b67	0.3009903
217	0x3c13a004	0.009010319
218	0x3e0cd131	0.13751675
219	0x3e83a43b	0.25711235
220	0xbea44b26	-0.32088584
221	0xbde50c52	-0.111839905
222	0xbdb150ee	-0.08658014
223	0x3ce42778	0.027850851
224	0x3e017b4f	0.12644695
225	0x3e58a294	0.21155769
226	0x3d67f94a	0.056634225
227	0xbe660e03	-0.22466283
228	0x3e1c2b16	0.15250811
229	0xbd7eff33	-0.062255096
230	0x3dd7f20a	0.10544212
231	0xbe23f0e2	-0.16009858
232	0xbe2d93e9	-0.16950954
233	0xbe26face	-0.16306612
234	0x3e14a42a	0.14515749
235	0xbe0a6a38	-0.13517082
236	0x3e316474	0.17323476
237	0xbe5041b9	-0.20337571
238	0xbe46ac7a	-0.19401732
239	0xbe653ce6	-0.22386512
240	0x3d8f2f01	0.06991387
241	0xbdf761bb	-0.120791875
242	0xbed63321	-0.41835883
243	0xbe5e264a	-0.21694294
244	0xbe805f4e	-0.25072712
245	0xbda62f38	-0.08114475
246	0x3dbf098d	0.093279935
247	0x3ed1b23c	0.40956295
248	0x3e0caee8	0.13738596
249	0xbee2ed51	-0.44321683
250	0x3da455e4	0.08024195
251	0x3e870718	0.263726
252	0x3e75bb88	0.23997319
253	0xbcc8c92b	-0.024509987
254	0x3e05add3	0.1305459
255	0xbdade8fb	-0.08491703

decoder_lin.0.bias f4 [64]
0	0x3bebb28c	0.0071929153
1	0x3d7c3495	0.061573584
2	0xbd1f3ea9	-0.038878117
3	0x3723357c	9.72801e-06
4	0x3daa5376	0.083167
5	0x3c1a1f10	0.00940682
6	0xbce4224b	-0.027848383
7	0xbe4a5a52	-0.19761017
8	0x3dfed051	0.12442077
9	0xbd5098a8	-0.050926834
10	0xbc050079	-0.0081177885
11	0x3daea0ef	0.085267894
12	0xbd440b0b	-0.047862094
13	0x3c10e1fb	0.00884294
14	0x3d4c7c73	0.04992337
15	0x3dd02e9c	0.1016514
16	0xbc41a204	-0.011818413
17	0xbcf124a6	-0.02943642
18	0x3bda7343	0.0066665723
19	0xbdb6794c	-0.08909854
20	0x3d53dde4	0.051725283
21	0x3d075976	0.0330443
22	0xbb8c869f	-0.004288509
23	0xbc7069a0	-0.01467362
24	0xbc8f62d3	-0.017503178
25	0x3d1079de	0.03527247
26	0x3d6e442b	0.05817048
27	0xbc8bc52c	-0.017061792
28	0xbd948bbb	-0.07253214
29	0x3e061181	0.13092615
30	0x3d9b3c94	0.07579914
31	0x3d53c32a	0.051699795
32	0xbdc43f92	-0.095824376
33	0xbdff02ce	-0.12451707
34	0xbcaa20fa	-0.020767678
35	0xbd9124e5	-0.07087115
36	0xbbb2956e	-0.0054499423
37	0xbe32dddf	-0.1746745
38	0x3d447e8a	0.04797224
39	0xbd4d10f5	-0.050065
40	0x3c2e25db	0.010629143
41	0x3d3f9702	0.04677487
42	0x3cac43f1	0.02102849
43	0x3beb81ed	0.007187119
44	0xbe0bcaf1	-0.13651635
45	0x3e7d9653	0.24764375
46	0x3cf98d8f	0.030463008
47	0xbda26aa8	-0.07930499
48	0x3c20f86c	0.009824853
49	0x3dbb4e5e	0.09145807
50	0x3d63702d	0.0555269
51	0xbdc2bfa5	-0.095092095
52	0x3c8e0c54	0.017339863
53	0x3d0d3079	0.034470055
54	0x3db78631	0.08961142
55	0xbd3423f6	-0.043979608
56	0xbc6fe54a	-0.014642069
57	0x3a257bbe	0.00063126895
58	0xbc2127f8	-0.009836189
59	0x3e330eed	0.17486162
60	0xbc193d96	-0.009353062
61	0xbdf5f605	-0.12009815
62	0xbd423b63	-0.047419917
63	0x3e68d304	0.22736746

decoder_lin.2.weight f4 [288, 64]
0	0x9b9e3b96	-2.6177414e-22
1	0xa54ee2a2	-1.7944438e-16
2	0xa763111d	-3.1511855e-15
3	0x800b5e23	-1.04396e-39
4	0x80027073	-2.2401e-40
5	0x94068613	-6.7917126e-27
6	0xabaf1f50	-1.2443189e-12
7	0x9a985420	-6.300164e-23
8	0x8006f6f2	-6.396e-40
9	0xab0c0c5d	-4.975515e-13
10	0xae2237ad	-3.6883985e-11
11	0xaf4b1ee4	-1.8473717e-10
12	0xac09d009	-1.9584354e-12
13	0xa0d593bf	-3.6181374e-19
14	0x8006e092	-6.31574e-40
15	0xaff68a3d	-4.4845364e-10
16	0xa6a1af8b	-1.12192e-15
17	0xaa254e92	-1.4682203e-13
18	0x8da64068	-1.0246045e-30
19	0x07985867	2.2922376e-34
20	0xa27a02dc	-3.3882832e-18
21	0xa5cf5af1	-3.59704e-16
22	0xa64c6e71	-7.0926394e-16
23	0xb2a88141	-1.9616552e-08
24	0x82895c60	-2.0183361e-37
25	0x80011da6	-1.02471e-40
26	0x80042bfd	-3.83122e-40
27	0x2b097f58	4.88489e-13
28	0xa917b081	-3.3681828e-14
29	0x9bbdae47	-3.138005e-22
30	0xafb5397e	-3.296456e-10
31	0xa9dbe76a	-9.7656976e-14
32	0xa7bc2226	-5.2217506e-15
33	0x24f5c057	1.0657765e-16
34	0xabcfb7aa	-1.4759212e-12
35	0xa47edccb	-5.526449e-17
36	0x9648788e	-1.6193912e-25
37	0xa1d7fd9c	-1.4636097e-18
38	0x9e831e2c	-1.3882643e-20
39	0xa1919726	-9.865591e-19
40	0xa04183f2	-1.6391393e-19
41	0xa693e1ac	-1.0261343e-15
42	0x94829cf0	-1.3188546e-26
43	0xb01bd01e	-5.6684424e-10
44	0x93ebc7b2	-5.9519255e-27
45	0xaa5dd80b	-1.9703698e-13
46	0xad937c52	-1.6767174e-11
47	0x80032a98	-2.90786e-40
48	0x8497d573	-3.569595e-36
49	0x932be4dd	-2.1696073e-27
50	0xa0895871	-2.3267228e-19
51	0x22f766b3	6.705822e-18
52	0xa5939024	-2.5598109e-16
53	0xac10f01b	-2.0596916e-12
54	0xab0660d8	-4.774076e-13
55	0xa4817fa2	-5.616105e-17
56	0xa50e1517	-1.2323682e-16
57	0xa8a69fa4	-1.8498935e-14
58	0x0ad16ce6	2.0166931e-32
59	0xa0339d9f	-1.5214042e-19
60	0xab90b05e	-1.0280767e-12
61	0xa0cb38cd	-3.4427125e-19
62	0xac4bcddf	-2.8962316e-12
63	0xa8f60606	-2.7314099e-14
64	0xbb594c05	-0.0033156883
65	0xbc5ccf1f	-0.013477116
66	0xbc31017e	-0.010803578
67	0x000484de	4.15006e-40
68	0xba4ba39b	-0.00077682146
69	0xbb5eff45	-0.0034026664
70	0xbc553cb7	-0.013014964
71	0xbc2d225a	-0.010567272
72	0xbc5cb18b	-0.013470064
73	0xbc520f55	-0.012821038
74	0xbc6c3375	-0.014416565
75	0xbbf92725	-0.0076035433
76	0xbc6072ef	-0.013699277
77	0xbc4f0445	-0.012635295
78	0x348a97d3	2.581497e-07
79	0xbc4cc8f0	-0.012499079
80	0xbc5a2436	-0.013314297
81	0x0007b43e	7.07507e-40
82	0xbc6b1e59	-0.014350497
83	0x3a15c734	0.00057135825
84	0xbc5edd02	-0.013602497
85	0xbc5636f9	-0.01307463
86	0xbc6211f2	-0.013798224
87	0xbc4d43b4	-0.012528349
88	0xbc400222	-0.0117192585
89	0xbc53ed3e	-0.012934981
90	0xbbf712aa	-0.0075400667
91	0xbc6dc6d3	-0.014512735
92	0xbc5ea309	-0.013588675
93	0xbc07694a	-0.008264849
94	0xbc4db319	-0.012554907
95	0xbc4e2d73	-0.012584078
96	0xbc663971	-0.014051781
97	0xbc63a5b2	-0.013894485
98	0xbc47961e	-0.012181787
99	0xbc5b40ce	-0.01338215
100	0xbc282fc8	-0.010265298
101	0xbc3dc087	-0.011581547
102	0xbc54ab2c	-0.012980264
103	0xbc29d6fe	-0.0103662
104	0xbc5baa30	-0.013407275
105	0xbc0bfe9f	-0.008544593
106	0xbc4623b6	-0.012093475
107	0xbc592cd2	-0.013255315
108	0xbc59d328	-0.0132949725
109	0xbc4a6560	-0.012353271
110	0xbc5c8c0d	-0.013461125
111	0xbc638a58	-0.013887964
112	0xbc2d68f6	-0.010584107
113	0xbb85a822	-0.004078881
114	0xbc0b38d3	-0.008497435
115	0xbc4e55a8	-0.012593664
116	0xbc667342	-0.014065566
117	0xbc656771	-0.014001713
118	0xbc5e7bdf	-0.013579338
119	0xbc345c0b	-0.011008273
120	0xbc16214b	-0.009163211
121	0xbc5f8a1b	-0.013643767
122	0xbc202979	-0.009775513
123	0xbc1bb3ec	-0.009503346
124	0xbc59da53	-0.013296681
125	0xbc4eef0f	-0.012630238
126	0xbc280cf8	-0.010256998
127	0xbb19cff2	-0.0023469892
128	0x3da38825	0.07984952
129	0x3e864c35	0.26230016
130	0xbda87b34	-0.08226624
131	0xb46e5eb1	-2.2199926e-07
132	0xbd7771ee	-0.060411386
133	0xbc66eeb7	-0.014095
134	0x3bb80778	0.0056161247
135	0xbc4b0cbd	-0.012393174
136	0x3cc3317f	0.023827313
137	0x3c8203f3	0.015871024
138	0x3d6808fd	0.056649197
139	0x3d68e557	0.05685934
140	0xbcbc7732	-0.023006056
141	0x3c596e5e	0.0132709425
142	0x3df2f829	0.11863739
143	0xbcd39c4c	-0.025831364
144	0x3cea84e9	0.02862783
145	0x3ccac853	0.024753725
146	0x3d9a510c	0.0753499
147	0x3e044f21	0.1292081
148	0xbbedcdc0	-0.0072571933
149	0xbd8c6715	-0.06855599
150	0xbbf709ba	-0.0075390013
151	0x3cbc4cce	0.022985842
152	0x3db9cb61	0.090719946
153	0xbca8b208	-0.020592704
154	0x3c8ba781	0.017047646
155	0x3db9b3a9	0.090674706
156	0x3e05ff7d	0.13085742
157	0x3c51a17a	0.012794847
158	0x3d8adfbf	0.067809574
159	0x3c14bdce	0.009078456
160	0x3dae8762	0.08521916
161	0xbe70a5d3	-0.23500757
162	0x3c09b3de	0.0084047
163	0x3db30d94	0.08742824
164	0xbd03183b	-0.03200553
165	0xbdc1f788	-0.09471041
166	0xbc7f7092	-0.015590804
167	0x3e2c5aa6	0.16831455
168	0xbcc0ae07	-0.023520483
169	0xbd4822fa	-0.04886148
170	0xbd7bc751	-0.06146938
171	0xbd58fa95	-0.05297335
172	0xbd28fc9f	-0.041256543
173	0xbd04751c	-0.032338247
174	0xbde4424a	-0.11145456
175	0x3d82144b	0.06351527
176	0x3dcbe60f	0.099559896
177	0x3b9de76d	0.004818848
178	0xbe0030df	-0.12518643
179	0x3de7df05	0.113218345
180	0x3d879a53	0.06621232
181	0xbdd33d2a	-0.103144005
182	0xbd649a4e	-0.05581122
183	0xbd1cffe8	-0.03832999
184	0x3dfb4cb8	0.12270492
185	0x3d073a35	0.033014495
186	0xbc9bac96	-0.019003194
187	0xbe0796a4	-0.13241059
188	0xbcafb762	-0.021449748
189	0xbd1434bc	-0.036183104
190	0xbdd65746	-0.10465865
191	0x3da9d3ef	0.08292376
192	0xb34d9aed	-4.7871186e-08
193	0xb556fb0c	-8.0086534e-07
194	0xb6061034	-1.9976987e-06
195	0x800546c2	-4.8456e-40
196	0x00c5c601	1.8162623e-38
197	0xb44d82ba	-1.9139671e-07
198	0xb829e1bb	-4.0502968e-05
199	0xb785bcba	-1.5942718e-05
200	0xb45909f7	-2.0213325e-07
201	0xaf59473a	-1.976134e-10
202	0xb403948b	-1.2254365e-07
203	0xb673369d	-3.624161e-06
204	0xb09653dc	-1.0937771e-09
205	0xb7246856	-9.799454e-06
206	0xa360f8c2	-1.2195741e-17
207	0xb9629ddc	-0.00021611847
208	0xb25d6b33	-1.2888267e-08
209	0xb0b7cd1d	-1.3373299e-09
210	0xa738b180	-2.5631353e-15
211	0xb07d9290	-9.224914e-10
212	0xb5d7e333	-1.6084872e-06
213	0xb522d6bd	-6.066219e-07
214	0xb6c12e60	-5.757247e-06
215	0xb8a0a848	-7.660739e-05
216	0xb4fb859b	-4.6849604e-07
217	0xb08ff015	-1.0472855e-09
218	0xb410289e	-1.3425822e-07
219	0xb5f18447	-1.7994397e-06
220	0xb78a3df4	-1.6479731e-05
221	0xaf22c386	-1.4803278e-10
222	0xb74e6be0	-1.2303673e-05
223	0xb9215b91	-0.00015388268
224	0xb68810a6	-4.055054e-06
225	0xb7f73b3e	-2.9472281e-05
226	0xb5df6924	-1.6645395e-06
227	0xae936303	-6.702374e-11
228	0xb2c55f45	-2.2977142e-08
229	0xafdb8764	-3.993207e-10
230	0xb33242c1	-4.1504567e-08
231	0xb3393b90	-4.312784e-08
232	0xb8716d60	-5.756074e-05
233	0xb5054e86	-4.966063e-07
234	0xb61e97fa	-2.3632297e-06
235	0xb64330cd	-2.908567e-06
236	0xae548523	-4.832147e-11
237	0xa434ad4f	-3.9178076e-17
238	0xb60d1606	-2.1023457e-06
239	0xad754278	-1.3941397e-11
240	0xa9ca7b18	-8.9919554e-14
241	0xaf20ea24	-1.4635099e-10
242	0xb8341687	-4.2936324e-05
243	0xad4e4b13	-1.1726414e-11
244	0xb09bacb2	-1.1326817e-09
245	0xb94cceb5	-0.0001953196
246	0xb82dd31d	-4.144303e-05
247	0xb300aa2b	-2.995709e-08
248	0xaab26915	-3.1692067e-13
249	0xb6f30aad	-7.243207e-06
250	0xad897d49	-1.5630735e-11
251	0xa9aa32b7	-7.558314e-14
252	0xb63b88e9	-2.7944864e-06
253	0xabdd9620	-1.5744663e-12
254	0xb49cd999	-2.9215587e-07
255	0xb5164b46	-5.598889e-07

decoder_lin.2.bias f4 [288]
0	0x0003639d	3.11241e-40
1	0xbc27a49a	-0.010232115
2	0x3c21e254	0.009880621
3	0xa3e38ac1	-2.4670154e-17
4	0xbcc18a45	-0.023625502
5	0xb0f69d41	-1.794355e-09
6	0xbcc48448	-0.023988858
7	0xbd39b5e6	-0.045339487
8	0xbd5a616a	-0.053315558
9	0xbd75664e	-0.05991202
10	0x3d5052fb	0.050860386
11	0x0007630a	6.78377e-40
12	0x3bbccc3a	0.0057616504
13	0x26a8bc96	1.1708458e-15
14	0x800938b8	-8.46866e-40
15	0xbca4c4bb	-0.02011334
16	0x0005366e	4.78703e-40
17	0xa0b64021	-3.0874436e-19
18	0x3d2ce835	0.042213637
19	0x00000ae0	3.901e-42
20	0x3d8d0a38	0.06886715
21	0x8e434864	-2.407046e-30
22	0x8008e17d	-8.15574e-40
23	0x3e02fa48	0.12790787
24	0x3bd21bf2	0.0064120227
25	0x00062096	5.62703e-40
26	0xbda12205	-0.07867817
27	0xbc0bfd1c	-0.008544233
28	0xbd42f067	-0.047592547
29	0x3d880a22	0.06642558
30	0xa28238c2	-3.5296665e-18
31	0x8001b070	-1.5513e-40
32	0x3e6430d1	0.22284247
33	0x3ca4b3a5	0.020105192
34	0xbc5e9c59	-0.013587081
35	0x3d3be0db	0.045868736
36	0x39b919e1	0.0003530523
37	0xbe10e0eb	-0.141483
38	0x3c8e4e41	0.017371299
39	0x8003ce0d	-3.49424e-40
40	0xbdd40402	-0.10352327
41	0x3d834011	0.06408704
42	0x3c17fc95	0.009276529
43	0xbd485b12	-0.048914976
44	0x3c24410f	0.010025277
45	0x0c476923	1.5362041e-31
46	0xbe13e054	-0.14441043
47	0x3d4bdaa8	0.049769074
48	0xa1318fdc	-6.016033e-19
49	0x3dfa040f	0.12207805
50	0x3afbed03	0.0019220415
51	0x3b4977a1	0.003074147
52	0x9ad244b0	-8.6964935e-23
53	0x3d7623a9	0.060092602
54	0x3cfecfa7	0.031104876
55	0x800b45c3	-1.035216e-39
56	0x00079a7f	6.98271e-40
57	0x3d391566	0.045186423
58	0xbe01c974	-0.12674505
59	0x8005e205	-5.40258e-40
60	0xa63df8ca	-6.590972e-16
61	0x3cf36097	0.029709144
62	0xbc7b288b	-0.01532949
63	0xbd268b28	-0.040660053
64	0x9f73c992	-5.1623987e-20
65	0xbd92276b	-0.07136425
66	0x3e115d7f	0.14195822
67	0xbe2150d3	-0.15753488
68	0x00054080	4.82316e-40
69	0x3d851ef4	0.065000445
70	0xbb32a1b4	-0.0027257027
71	0x3bd57574	0.0065142456
72	0xbde99210	-0.11404812
73	0xbb2b27e5	-0.0026116308
74	0x9588a7b6	-5.5194564e-26
75	0x3da09b0f	0.07842075
76	0xbac2309e	-0.0014815514
77	0xbe166689	-0.14687552
78	0xb6499ad7	-3.0041463e-06
79	0xbe0f7745	-0.14010341
80	0xbc976003	-0.0184784
81	0x3bd1335d	0.006384297
82	0xae8dc06a	-6.446117e-11
83	0x3dae502b	0.085113846
84	0xbd131a35	-0.035913665
85	0x3e23fd9e	0.16014716
86	0xbd873a7a	-0.066029504
87	0x3d9ba6d7	0.076001815
88	0x80038eea	-3.26774e-40
89	0x3c841996	0.016125482
90	0x3d9ab26e	0.07553564
91	0x82bba384	-2.7571034e-37
92	0xbc0413e7	-0.008061386
93	0xbcec7647	-0.028864993
94	0x0006e4d3	6.331e-40
95	0xa6d78415	-1.4954423e-15
96	0x0004b805	4.33356e-40
97	0x3e0bd362	0.13654855
98	0x3dda1775	0.10649005
99	0xbc96309b	-0.018333724
100	0xbddeb06f	-0.10873496
101	0xb3dbdaa6	-1.0237754e-07
102	0x00017e0f	1.37057e-40
103	0x059b9509	1.4630877e-35
104	0x28a7d017	1.8630969e-14
105	0x3e084dae	0.13310882
106	0x3d4af102	0.04954625
107	0x3d94ea02	0.07271196
108	0x3d86d1e4	0.06583002
109	0xb3318eca	-4.134089e-08
110	0x0009467e	8.51807e-40
111	0xbdb97409	-0.09055335
112	0xa99c8247	-6.950391e-14
113	0xb9ae590d	-0.00033254214
114	0xbcb8cc85	-0.02255846
115	0x80027c61	-2.2829e-40
116	0x3b7a6915	0.0038209606
117	0xbccc873a	-0.024966825
118	0xbcc66db9	-0.024222242
119	0xbda6cc64	-0.08144453
120	0xb6b859f5	-5.4940997e-06
121	0xa7706d93	-3.336609e-15
122	0x3cd1ae32	0.025595758
123	0xbc9048a3	-0.01761276
124	0x8003e0fe	-3.56218e-40
125	0x00091b27	8.3626e-40
126	0xbd46732d	-0.048449684
127	0x3d9039b1	0.07042254
128	0xbdfdf48d	-0.1240016
129	0x3dceaa1e	0.10091041
130	0xbe0d3cc8	-0.13792717
131	0x8008064d	-7.36944e-40
132	0x000002d2	1.012e-42
133	0xbdd3e0e5	-0.103456296
134	0x00010093	9.2041e-41
135	0xbcf1742d	-0.029474342
136	0xbd492803	-0.049110424
137	0xbe5c40d9	-0.21509112
138	0x3cd29f46	0.025710713
139	0xbde9d207	-0.11417013
140	0xbe32f7be	-0.17477319
141	0x3c740f87	0.01489628
142	0x8000b64b	-6.5394e-41
143	0xbe12decc	-0.14342803
144	0x00048612	4.15437e-40
145	0x0004f418	4.54906e-40
146	0xbbbbb8cd	-0.005728817
147	0xbdcb6871	-0.0993203
148	0x8003cd3d	-3.49132e-40
149	0xb88488af	-6.31971e-05
150	0x3c397753	0.011319953
151	0x3c68b92d	0.014204306
152	0x3d44c651	0.04804069
153	0x3d5744b5	0.05255576
154	0xbd55e750	-0.05222255
155	0x3b952a82	0.0045521865
156	0xbe003bc3	-0.12522797
157	0x0001f66f	1.80239e-40
158	0xbd729be4	-0.0592307
159	0xbd2ef9ed	-0.042718817
160	0x000635ff	5.70383e-40
161	0x0002bbde	2.51065e-40
162	0x3d885470	0.0665673
163	0x800071e2	-4.0853e-41
164	0xbb3d5abf	-0.00288932
165	0xbd0a9a51	-0.033838574
166	0x3c73f476	0.014889827
167	0x80005e68	-3.3867e-41
168	0x80c4efcc	-1.808578e-38
169	0xbcc7e377	-0.024400456
170	0x3dd237c0	0.1026454
171	0x80030e02	-2.80532e-40
172	0x3dc123ae	0.094306335
173	0xbdb9b913	-0.09068503
174	0x3c5f8adf	0.013643949
175	0xbd7fcac7	-0.062449243
176	0xbcb0a81c	-0.021564536
177	0xbdc85abc	-0.09782931
178	0xbd49a45d	-0.049229015
179	0xbde95619	-0.11393375
180	0x3c90a9e9	0.017659144
181	0x8f6d8e62	-1.1712424e-29
182	0x3d9532d4	0.07285085
183	0xbd060a77	-0.032724824
184	0xac03dbb0	-1.873817e-12
185	0xbc8bdae2	-0.017072145
186	0x3d036ece	0.032088093
187	0xbdb96296	-0.09052007
188	0x000962d8	8.61978e-40
189	0x3d6c0f84	0.057631984
190	0xbd5094ff	-0.050923344
191	0x3d204c63	0.039135348
192	0xaf96bd0e	-2.7419172e-10
193	0xbaf42348	-0.0018626237
194	0xb53c8d6f	-7.024127e-07
195	0xbc229127	-0.009922302
196	0x3dfb4e2f	0.12270772
197	0x3e21b050	0.15789914
198	0x3daa09fe	0.08302687
199	0xbc6bd45e	-0.014393894
200	0x3d5ef1de	0.05442988
201	0x9e206a0f	-8.492262e-21
202	0x0007403f	6.65896e-40
203	0x82f9c262	-3.6698832e-37
204	0xbb8940e8	-0.0041886456
205	0xbca0c331	-0.019624325
206	0xb4bba174	-3.4948937e-07
207	0x3d369d33	0.04458351
208	0x3d1017ef	0.035179075
209	0x3b1dd50f	0.0024083292
210	0x000797a1	6.97243e-40
211	0x3dae7069	0.08517534
212	0x85d4ecbb	-2.0023345e-35
213	0x0008ddec	8.14295e-40
214	0x80072cb5	-6.58886e-40
215	0x97b2ad91	-1.1546795e-24
216	0x3c82bdb0	0.01595959
217	0xbc288d7d	-0.01028764
218	0x3d6ac841	0.057319883
219	0xbcb6139f	-0.022226153
220	0xbcc476d1	-0.023982437
221	0xbdd15997	-0.10222166
222	0xbcaf856e	-0.021425929
223	0x3d92fd6b	0.07177242
224	0xb9c8e84b	-0.00038320044
225	0x800bda6d	-1.088547e-39
226	0x00049f5c	4.2451e-40
227	0x39e13dd2	0.00042961404
228	0x80051e6d	-4.70092e-40
229	0xbe69da7a	-0.22837248
230	0x3dca2975	0.098711886
231	0x800368bd	-3.1308e-40
232	0x00021e6b	1.94583e-40
233	0x3d95ed96	0.073207065
234	0x9fc5ad13	-8.371907e-20
235	0xbdee5adf	-0.11638426
236	0x000392d2	3.28176e-40
237	0x98bdcaee	-4.906026e-24
238	0x000246d1	2.09075e-40
239	0x0001eefe	1.7757e-40
240	0xbcfd5152	-0.030922566
241	0xb93c7527	-0.0001797272
242	0x0000ec5c	8.479e-41
243	0xbd5dcc4c	-0.05414991
244	0x800448a9	-3.93408e-40
245	0x800092b9	-5.2634e-41
246	0x3d7556f2	0.05989737
247	0x8ffa3e3c	-2.4675875e-29
248	0x924633c5	-6.2541595e-28
249	0xbd14e9a9	-0.03635565
250	0x00004444	2.4489e-41
251	0x1aad2abf	7.162018e-23
252	0xbd0b9836	-0.034080707
253	0x00017b04	1.35965e-40
254	0x00070f7c	6.48403e-40
255	0x36054860	1.9860672e-06

decoder_conv.0.weight f4 [32, 16, 3, 3]
0	0xbd12ea34	-0.035867885
1	0x3e3626ed	0.17788287
2	0x3db8a821	0.09016443
3	0x3db8daf6	0.090261385
4	0x3e8a4aa4	0.2701007
5	0x3ca414dc	0.020029478
6	0x3dc227fe	0.09480284
7	0x3d5ffa50	0.054682076
8	0x3d85450d	0.06507311
9	0x3d96e954	0.073687226
10	0x3e5f2603	0.21791844
11	0xbbe30bfb	-0.0069289184
12	0x3da52fc4	0.08065751
13	0xbde2a543	-0.110666774
14	0xbe30f8b8	-0.17282379
15	0xbd7bc4dd	-0.06146704
16	0xbd8305a1	-0.06397558
17	0x3d6b9681	0.05751658
18	0x3c741bca	0.014899204
19	0xbbf9e5c2	-0.007626266
20	0x3c24d802	0.010061266
21	0xbb764378	-0.0037576836
22	0x00022419	1.9662e-40
23	0x3b5dc133	0.003383708
24	0x3d81895d	0.06325028
25	0xbd10a097	-0.0353094
26	0x3ce322cf	0.027726559
27	0xbdc901dd	-0.098148085
28	0x3d3c397f	0.04595327
29	0xbde764f5	-0.11298553
30	0xbe0ebadf	-0.13938473
31	0x3b9e4f23	0.004831211
32	0x3c36fcc3	0.0111686615
33	0xbbaeedd1	-0.0053384085
34	0x3d9b7bf2	0.07592
35	0x3d49d57d	0.049275864
36	0x3d46f98d	0.048577834
37	0xbac08a56	-0.0014689665
38	0xbce13e97	-0.027495665
39	0xbd44a6b9	-0.04801056
40	0xbd926edc	-0.07150051
41	0x3d869a25	0.065723695
42	0xbdacf3e2	-0.084449545
43	0x3cbd6017	0.023117108
44	0x3dddac98	0.10823935
45	0xbe026609	-0.12734236
46	0x3d10b8c2	0.03533245
47	0x3db1d826	0.08683805
48	0xbd2e81dd	-0.042604316
49	0x3e784336	0.24244389
50	0x3d6d4fa2	0.057937272
51	0x3da71833	0.081589125
52	0xbc442dd0	-0.011973813
53	0xbcd9b3c5	-0.026574979
54	0xbd993e76	-0.074826166
55	0x3d78b265	0.060717005
56	0xbc59c76e	-0.013292177
57	0xbc59c278	-0.013290994
58	0xbbbbc196	-0.0057298644
59	0xbe1fb2ea	-0.15595594
60	0x3cbf2e45	0.023337493
61	0x3d269294	0.04066713
62	0x3d94a51a	0.07258053
63	0x3e3a0ab0	0.1816814
64	0x3de68631	0.11256064
65	0x3df07121	0.117403276
66	0x3d5be15e	0.053681724
67	0xbcfbda2d	-0.030743683
68	0x3d99c0e8	0.07507497
69	0xbe0c5119	-0.13702811
70	0x3e168ed7	0.14702927
71	0x3d070c4c	0.03297071
72	0xbd1079ca	-0.035272397
73	0x3d80fc7f	0.0629816
74	0xbcecd4e8	-0.028910115
75	0x3d252b91	0.04032475
76	0x3aad40d5	0.0013218174
77	0xbd265484	-0.040607944
78	0x3d97d433	0.07413521
79	0x3dc9b441	0.09848834
80	0xbd5498c7	-0.051903512
81	0xbd39dbe3	-0.045375716
82	0x3b9fdf54	0.0048789177
83	0x3dc1fa16	0.09471528
84	0xbd28257e	-0.04105138
85	0xbafc3840	-0.0019242838
86	0x3d86e842	0.065872684
87	0x3d049ed8	0.032378048
88	0x3e2750b8	0.16339386
89	0xbdbd8142	-0.092531696
90	0xbd461b77	-0.048366036
91	0x3d91d4c9	0.07120664
92	0x3d8f2d24	0.06991032
93	0x3c47c00b	0.012191783
94	0x3d8be326	0.068304345
95	0x3e2caf99	0.1686386
96	0x3dab3992	0.0836059
97	0x3e6b6157	0.22986351
98	0x3ddba5d1	0.10724986
99	0xbd4e293e	-0.0503323
100	0x3daec019	0.085327335
101	0x3d0474e1	0.032338027
102	0x3db3a838	0.087723196
103	0xbc780a0e	-0.015139116
104	0xbda804a0	-0.08204007
105	0x3dbe76d8	0.093000114
106	0x3ded48a6	0.11586122
107	0xbbe1219e	-0.0068704626
108	0x3d8bd677	0.06828015
109	0xbd7de5a5	-0.061986584
110	0xbc8e12e5	-0.017342994
111	0x3c7f2db6	0.015574863
112	0xbcbb02ee	-0.022828545
113	0x3dab5436	0.08365671
114	0xbacfdc7e	-0.0015858558
115	0x3e3a2526	0.18178234
116	0x3e0338af	0.12814592
117	0xbbda8324	-0.006668465
118	0xbd0a3ac7	-0.03374746
119	0x3d398d78	0.04530093
120	0xbd483604	-0.04887964
121	0xbe020b7e	-0.12699696
122	0x3d35a085	0.044342536
123	0x3dc4d6d2	0.09611286
124	0x3cde3821	0.027126374
125	0xbc5e58d1	-0.01357098
126	0x3ccb934b	0.024850508
127	0xbcb19bd8	-0.021680757
128	0xbcf56c82	-0.029958967
129	0xbd082651	-0.033239666
130	0xbb6d7160	-0.0036230907
131	0x3dc540dc	0.096315116
132	0x3c7d2bd1	0.015452341
133	0x3db59fda	0.0886838
134	0x3db04dab	0.08608564
135	0x3bfa8b85	0.0076460266
136	0x3d4464b7	0.04794761
137	0x3b4c9963	0.0031219355
138	0x3d019b1d	0.03164207
139	0xbd1f8058	-0.038940758
140	0x3d970765	0.07374457
141	0xbdf6c731	-0.120497115
142	0xbdb8211c	-0.0899069
143	0x3db31ca5	0.08745698
144	0x3db02e31	0.0860256
145	0x3e2e1af0	0.17002463
146	0x3d9d962f	0.07694661
147	0x3d80da83	0.06291678
148	0xbda281aa	-0.07934888
149	0x3d833bff	0.06407928
150	0x3d1e7160	0.03868234
151	0xbd853e7c	-0.065060586
152	0x3d41bab1	0.047297183
153	0x3bfaf8aa	0.0076590376
154	0x3da1c045	0.07898001
155	0xbd6cd98e	-0.057824664
156	0x3d701f9e	0.058623902
157	0x3d9913cc	0.07474479
158	0x3c2eabd5	0.010661085
159	0xbd88d7dc	-0.06681797
160	0xbd88cc40	-0.066795826
161	0x3db466e4	0.08808687
162	0x3d2bd2d1	0.041949097
163	0x3e219460	0.15779257
164	0x3c81607a	0.015793074
165	0xbd98e8a6	-0.07466249
166	0x0006c1a3	6.20477e-40
167	0xbd8d66d6	-0.0690438
168	0xbb65b37d	-0.003504961
169	0x3e62d6d4	0.22152263
170	0x3cec3549	0.028834002
171	0xbc00c00a	-0.007858286
172	0xbd945323	-0.072424196
173	0xbea8e0a1	-0.32983878
174	0x3de86050	0.11346495
175	0xbd67cb83	-0.05659057
176	0xbd158025	-0.03649916
177	0x3af231e5	0.0018478004
178	0xbd8e2c2f	-0.06942021
179	0x3d2cfe93	0.04223497
180	0x3d83effb	0.06442257
181	0xbc95543d	-0.018228645
182	0x3c8135c3	0.015772706
183	0x3cbd825b	0.023133447
184	0xbcb8cdbf	-0.022559045
185	0x3c318cd6	0.010836801
186	0x3caf23a0	0.021379292
187	0xbde62fff	-0.11239623
188	0xb97e8684	-0.00024273439
189	0x3c34dc4c	0.011038851
190	0xbd8b8015	-0.06811539
191	0x3da61c7b	0.08110901
192	0xbc9a5fa8	-0.01884444
193	0x3dab645f	0.08368754
194	0x3e193fd3	0.14965753
195	0xbd9498cb	-0.072557054
196	0xbd42cd05	-0.047558803
197	0xbdaba16a	-0.08380397
198	0x3d51a81d	0.051185716
199	0x3db3bc59	0.08776159
200	0x3d9c8c19	0.07643909
201	0x3bea5f39	0.0071524647
202	0x3d2a648e	0.041599803
203	0x3d1e125c	0.038591728
204	0x3ca426a3	0.020037955
205	0xbc2765a3	-0.010217103
206	0x3c2cd62a	0.010549108
207	0xbd1188a3	-0.035530698
208	0xbd5b5510	-0.05354792
209	0x3d67e809	0.05661777
210	0xbbd59ea4	-0.0065191556
211	0x3c36caed	0.01115678
212	0x3b9c12f2	0.0047630006
213	0xbb762b82	-0.0037562554
214	0xbd5c822b	-0.053835075
215	0x3c8911bc	0.01673209
216	0x3cc5ac36	0.024129968
217	0xbd0bdefe	-0.03414821
218	0x3bb979b0	0.0056602582
219	0x3bfc149a	0.0076928856
220	0x3c18ed64	0.009333942
221	0x3c4212c2	0.0118452925
222	0x3c9b08c0	0.01892507
223	0xbd22cb3e	-0.039744608
224	0xbc8c1b59	-0.017102884
225	0x3c23c2f7	0.009995214
226	0x3ccac6f2	0.024753068
227	0xbac6f7c6	-0.0015180043
228	0x3dc930db	0.098237716
229	0x3dd1bf03	0.10241511
230	0x3c72683e	0.014795361
231	0x3d6e82fb	0.05823038
232	0xbd32c54c	-0.04364519
233	0xbdc52f5e	-0.09628175
234	0xbd39fe52	-0.045408554
235	0x3d74bc56	0.059749924
236	0x3d6f9855	0.058494885
237	0x3c5037be	0.0127086025
238	0xbc159bfa	-0.009131426
239	0xbd8fc5fd	-0.07020185
240	0x399a38b2	0.0002941541
241	0xbd6c518a	-0.05769495
242	0xbdc869eb	-0.09785827
243	0x3c2d6e56	0.010585388
244	0xbc1c4148	-0.009537049
245	0x3de347ad	0.110976554
246	0x3de883ff	0.11353301
247	0x3d8e7121	0.069551714
248	0xbe08082a	-0.13284364
249	0x3da80fbc	0.08206126
250	0x3e2f1a9d	0.17099996
251	0xbdfdf222	-0.12399699
252	0x3a2f7d83	0.0006694423
253	0xbd819399	-0.0632698
254	0x3c9e277e	0.01930594
255	0x3b994ce5	0.004678356

decoder_conv.0.bias f4 [16]
0	0xbea915af	-0.33024356
1	0x3eaaaaa5	0.33333316
2	0xbf2711f9	-0.652618
3	0x3ed56468	0.41678166
4	0x3eb69682	0.35661703
5	0x3db2c621	0.08729196
6	0xbe5ee3ce	-0.21766588
7	0x3ee4a96d	0.44660512
8	0x3db42563	0.087961935
9	0x3e9ef714	0.3104788
10	0x3ed9f4a7	0.42569467
11	0x3ed3841d	0.41311732
12	0xbf865f71	-1.0497876
13	0x3e96d685	0.2946054
14	0x3efb4c20	0.49081516
15	0x3e873f8d	0.26415673

decoder_conv.2.weight f4 [16, 8, 3, 3]
0	0xbcd263cf	-0.025682358
1	0xbc4db9cd	-0.012556505
2	0xbda20f2f	-0.07913052
3	0x3d2d1da4	0.042264596
4	0xbd6fa699	-0.05850849
5	0xbc8a2043	-0.016861087
6	0x3d51fae6	0.051264666
7	0xbcf6a493	-0.030107772
8	0x3d3f19dc	0.04665552
9	0xbd1bb3c8	-0.03801325
10	0x3cf6707b	0.030082932
11	0x3d4dc5f1	0.0502376
12	0x3d900af1	0.07033337
13	0x3e14ed20	0.14543581
14	0x3e2050d8	0.1565584
15	0x3c7cd2be	0.015431104
16	0x3e06cbef	0.13163732
17	0x3d244ea7	0.04011407
18	0xbd0ad5dd	-0.033895362
19	0x3d1a3005	0.03764345
20	0x3d3e4295	0.046450216
21	0xbd77c10e	-0.060486846
22	0xbc771a85	-0.015082006
23	0xbe22a816	-0.15884432
24	0x3cd85e15	0.02641205
25	0x3cbab447	0.022791041
26	0xbe268883	-0.16263013
27	0xbd6d5c7f	-0.05794954
28	0xbda2c10a	-0.079469755
29	0xbdd389f7	-0.10329049
30	0xbdd6d988	-0.104907095
31	0xbe288233	-0.16455917
32	0xbd37a62b	-0.044836204
33	0x3d59c68e	0.053167872
34	0xbe085637	-0.13314138
35	0xbd8c8b93	-0.06862559
36	0xbc9e839f	-0.019349871
37	0xbe44bec2	-0.19213393
38	0xbd548ca1	-0.051891927
39	0x3d7af988	0.061273128
40	0xbd3509ed	-0.04419892
41	0x3cd7acbf	0.026327489
42	0x3d4d9c2d	0.05019777
43	0x3e54ce68	0.20781863
44	0x3d1d34f5	0.038380582
45	0xbc19d819	-0.009389901
46	0xbe008478	-0.12550533
47	0xbe419d5d	-0.18907686
48	0x3d7e1e73	0.062040757
49	0xbdb79776	-0.08964436
50	0xbe45dd2b	-0.1932265
51	0x3e069369	0.1314217
52	0x3cee6e7e	0.029105421
53	0xbbb85ef8	-0.0056265555
54	0xbcdd21ac	-0.026993595
55	0x3d3afe7d	0.045652855
56	0x3dc758d7	0.09733742
57	0x3d5985fa	0.053106286
58	0xbdc940a0	-0.09826779
59	0xbe4360f3	-0.19079952
60	0xbd879d83	-0.0662184
61	0xbdf089d4	-0.11745039
62	0x3da013d5	0.07816283
63	0xbda89f02	-0.08233453
64	0x3d0d13ef	0.03444284
65	0x3d949cc1	0.07256461
66	0xbe287e8d	-0.16454525
67	0x3e3adf08	0.18249142
68	0x3de5866d	0.1120728
69	0xbcce4bfd	-0.025182718
70	0x3d327cee	0.043576173
71	0x3e026a70	0.12735915
72	0xbdb9687d	-0.09053133
73	0xbd5d4864	-0.054024115
74	0x3cfc2f68	0.030784324
75	0x3e0934fe	0.13399121
76	0x3e3656a1	0.17806484
77	0xbe00e9ba	-0.1258916
78	0xbe514be5	-0.20439108
79	0x3d92314b	0.07138308
80	0x3db31fa6	0.08746271
81	0x3da52d06	0.08065228
82	0xbc2d461d	-0.010575798
83	0x3db12125	0.086489
84	0xbddbbb21	-0.107290514
85	0xbe472e05	-0.19451149
86	0xbd705dcb	-0.058683198
87	0xbd8c9d4b	-0.06865939
88	0xbe5a7dcd	-0.21337052
89	0xbda8ff3e	-0.082518086
90	0xbdbea88d	-0.09309492
91	0xbe2b70ab	-0.16742198
92	0xbdaf5cc0	-0.085626125
93	0xbd8a4c8d	-0.06752882
94	0xbd01aeda	-0.031660892
95	0x3eaf185e	0.34198278
96	0xbd982be4	-0.074302465
97	0x3e3b99d7	0.18320404
98	0x3e5e8863	0.21731715
99	0x3deac466	0.11463241
100	0x3de05e3d	0.109554745
101	0x3dc23ee7	0.09484654
102	0x3e886337	0.26638195
103	0x3e8efbdf	0.27926537
104	0x3cc0d905	0.023540983
105	0x3e651183	0.22369961
106	0x3e3b1768	0.18270648
107	0x3d9b35cf	0.075786225
108	0xbe22e9ce	-0.15909502
109	0x3e33d0bc	0.17560095
110	0x3e83a968	0.25715184
111	0x3db25bfa	0.087089494
112	0x3e96e2c7	0.29469892
113	0x3d4dc82b	0.050239723
114	0xbe0dcb33	-0.13847046
115	0x3d82ae29	0.06380875
116	0xbdef251a	-0.116769984
117	0xbd2c731c	-0.042101964
118	0xbdca2480	-0.09870243
119	0x3cbf1610	0.02332595
120	0x3e0c4a35	0.13700183
121	0xbcde5b3a	-0.02714311
122	0x3e7e3172	0.2482355
123	0x3e179bde	0.14805552
124	0x3e581c8e	0.21104643
125	0x3e700715	0.23440202
126	0x3c6b7d80	0.014373183
127	0xbe00db14	-0.12583572
128	0xbdf0c1d5	-0.117557205
129	0xbdb32bad	-0.08748565
130	0xbc83b9ae	-0.01607975
131	0x3e18ab24	0.14909035
132	0x3e157ff2	0.14599589
133	0xbdd5b124	-0.104341775
134	0xbe31dc89	-0.17369284
135	0xbcf8a1ed	-0.03035065
136	0xbd60c1b2	-0.054872222
137	0xbde66f4e	-0.112516984
138	0x3dd49cba	0.10381456
139	0xbd9052a7	-0.07047015
140	0x3d88285a	0.066483214
141	0xbde23b2c	-0.110464424
142	0x3c751267	0.014958001
143	0x3e1beba5	0.1522661
144	0x3a8dd390	0.0010820497
145	0xbc057cba	-0.008147413
146	0xbd2ed3f7	-0.042682614
147	0xbd73e4f5	-0.059544522
148	0xbd8012e7	-0.06253605
149	0x3d6790db	0.05653463
150	0x3dac5ad6	0.08415763
151	0x3c359701	0.011083365
152	0xbd853adc	-0.06505367
153	0x3dbc3c01	0.09191132
154	0x3e03a866	0.12857208
155	0x3cc51f26	0.024062704
156	0x3e01cbc0	0.1267538
157	0x3e56ccf8	0.20976627
158	0x3e1112e2	0.1416736
159	0x3dfeeee7	0.12447911
160	0x3e8adadc	0.271201
161	0x3de5c613	0.1121942
162	0x3d6d9dbc	0.058011755
163	0x3ced29e5	0.028950641
164	0xbd227061	-0.039657954
165	0x3e10c864	0.14138943
166	0x3d1c40d2	0.038147755
167	0xbdd0600b	-0.10174569
168	0x3d33fa56	0.04393991
169	0xbe104056	-0.14087042
170	0xbe19071c	-0.14944118
171	0xbd6a1cb7	-0.05715629
172	0xbda0c5d0	-0.0785023
173	0xbd079f63	-0.033110987
174	0xbde3b453	-0.111183785
175	0xbd907557	-0.07053631
176	0xbc830866	-0.015995216
177	0xbce59267	-0.028023912
178	0xbd4c56a1	-0.049887303
179	0x3cd63e00	0.02615261
180	0xbc93c8e0	-0.01804012
181	0xbe1ca234	-0.1529625
182	0xbd49cb27	-0.049266007
183	0xbd39a9c5	-0.04532792
184	0xbdd4896d	-0.103777744
185	0x3d3365d7	0.043798294
186	0x3b12e79a	0.0022415877
187	0xbb961390	-0.0045799688
188	0x3c1a37b4	0.009412695
189	0xbcf143f7	-0.029451353
190	0xbd0a5a42	-0.033777483
191	0x3da0e97a	0.07857032
192	0x3d51783d	0.05114006
193	0xbd889755	-0.06669489
194	0xbcd43de3	-0.025908416
195	0xbdd5ab23	-0.10433032
196	0xbdf80c61	-0.12111736
197	0x3d9a4749	0.07533128
198	0xbe1010b5	-0.14068873
199	0xbd1ca3f7	-0.038242307
200	0x3db23b86	0.087027594
201	0xbcbd9d63	-0.023146337
202	0xbdf6d77d	-0.1205282
203	0xbd4944c4	-0.049137846
204	0xbd621084	-0.05519153
205	0x3cb3eb5d	0.021962816
206	0x3d57c870	0.052681386
207	0xbc24f8c3	-0.010069075
208	0xbdd8460e	-0.10560237
209	0xbbfeb1fb	-0.007772682
210	0x3dc76f81	0.097380646
211	0x3e149c15	0.14512666
212	0xbd5f61e3	-0.05453671
213	0x3dc4f5cd	0.09617195
214	0x3d8f8281	0.070073135
215	0xbd9453e4	-0.07242563
216	0x3d32cf54	0.043654755
217	0xbd35cc21	-0.044384126
218	0xbd8c6c26	-0.06856565
219	0xbda12a37	-0.0786938
220	0xbb85ec98	-0.004087042
221	0xbdaa3b1b	-0.08312055
222	0xbcb55d75	-0.02213929
223	0x3e22f756	0.15914664
224	0x3c299b8b	0.010352026
225	0x3da396cf	0.07987749
226	0x3e0f9a36	0.1402367
227	0x3e24c11f	0.16089295
228	0x3c5277b8	0.012845926
229	0x3d2649dd	0.040597785
230	0xbcb4dc5b	-0.02207773
231	0xbdc30b91	-0.095236905
232	0xbd4bed12	-0.049786635
233	0xbd936b79	-0.07198233
234	0x3db3c663	0.08778074
235	0x3d0d6836	0.03452321
236	0xbd016678	-0.031591862
237	0xbe005eec	-0.1253621
238	0xbe4e6bdb	-0.20158331
239	0xbe114582	-0.14186671
240	0xbd6e7b6f	-0.058223184
241	0x3d01cba7	0.03168836
242	0x3e896762	0.26836687
243	0xbd5a93f4	-0.053363755
244	0xbdaf1751	-0.08549369
245	0xbd593b3e	-0.053035013
246	0x3d1dd1f6	0.038530312
247	0xbe295a0d	-0.16538258
248	0x3daf9c84	0.08574775
249	0x3e3cb230	0.18427348
250	0x3e70642d	0.23475714
251	0x3e71ab7f	0.23600577
252	0xbd85c683	-0.06532004
253	0x3dda061b	0.10645696
254	0x3c6d795d	0.014494267
255	0x3e0231b5	0.12714274

decoder_conv.2.bias f4 [8]
0	0x3e488923	0.19583564
1	0xbf1fecb8	-0.6247058
2	0x3e8c3a50	0.2738824
3	0x3f58009f	0.8437595
4	0x3f4b9811	0.7952891
5	0x3e4f505c	0.20245498
6	0x3f2b9a72	0.6703254
7	0xbf38f266	-0.7224487

decoder_conv.4.weight f4 [8, 1, 3, 3]
0	0xbee1f5ce	-0.44132847
1	0xbe9dd0fa	-0.308235
2	0xbd803ef7	-0.062620096
3	0xbf0bd419	-0.5462051
4	0xbebfab30	-0.37435293
5	0xbd52dde8	-0.051481158
6	0xbe8394bf	-0.25699422
7	0xbcd83b75	-0.026395539
8	0x3db95613	0.090496205
9	0x3ea39e30	0.31956625
10	0x3f29ecd8	0.6637702
11	0x3ec00638	0.37504745
12	0x3f09d19f	0.5383548
13	0x3f792a59	0.9733024
14	0x3ef7340f	0.48281905
15	0x3e9329cd	0.2874283
16	0x3ef9e079	0.48804072
17	0x3e4ab4d2	0.1979554
18	0xbedbe8f5	-0.4295117
19	0xbefe2f2b	-0.4964536
20	0xbd609cc2	-0.054836996
21	0xbf25a226	-0.64700544
22	0xbeeee952	-0.46662384
23	0x3dbddf91	0.092711575
24	0xbe7161a3	-0.23572402
25	0x3d5d266c	0.05399172
26	0x3e4faa33	0.2027977
27	0xbe3b3105	-0.18280418
28	0xbed04a0a	-0.40681487
29	0xbe3cefa7	-0.18450795
30	0xbee8a7cb	-0.45440516
31	0xbf802c19	-1.0013458
32	0xbef5110b	-0.47864565
33	0xbe7b38af	-0.24533342
34	0xbefdbd64	-0.49558556
35	0xbe14580b	-0.1448671
36	0xbdb834ba	-0.08994432
37	0xbe41df7c	-0.18932909
38	0xbe092a19	-0.13394965
39	0xbeeeb733	-0.46624145
40	0xbf655150	-0.895772
41	0xbf279ca9	-0.6547342
42	0xbf0ee13f	-0.5581245
43	0xbf7eb9e0	-0.9950237
44	0xbf219147	-0.631123
45	0xbddd698b	-0.10811146
46	0xbe6cacd9	-0.23112811
47	0xbe64d853	-0.22348146
48	0xbe75d800	-0.24008179
49	0xbf1321eb	-0.5747363
50	0xbedf3d13	-0.43601283
51	0xbe6cb283	-0.23114972
52	0xbeeac4f9	-0.45853403
53	0xbeb8bb37	-0.36080334
54	0xbe769806	-0.2408143
55	0xbf154a84	-0.58316827
56	0xbee86a3e	-0.45393556
57	0xbeea769a	-0.4579361
58	0xbf82b027	-1.0210007
59	0xbf426b88	-0.7594533
60	0xbe9a2638	-0.30107284
61	0xbf2c77d4	-0.67370343
62	0xbee84fac	-0.45373285
63	0x3ec16e93	0.37779674
64	0x3eec04b3	0.46097335
65	0x3e9f7647	0.31144926
66	0x3f2903a2	0.6602117
67	0x3f4e8262	0.806677
68	0x3ef35b6c	0.47530687
69	0x3e8804d2	0.26566178
70	0x3e388180	0.1801815
71	0x3d84af1f	0.06478714
