decoder_params10.pth (torch, 104327 bytes, 9 tensors)

decoder_lin.0.weight f4 [64, 10]
000000 6a f1 7f 3c 50 1b 42 3e ce 79 9e 3e 5b 9f f2 bd
       0.015621522 0.18955731 0.30952305 -0.11846801
000010 b4 80 2e 3e c3 5d e2 bd b2 62 42 be 84 b3 ee 3d
       0.17041284 -0.1105304 -0.18982962 0.11655334
000020 70 07 76 be 3d ef 98 bc 3d 50 6c be 54 ca d9 be
       -0.24026275 -0.018668765 -0.23077483 -0.42537177
000030 f8 2b 1d be ae a3 fa 3c 55 6f 3d be 7b fd 88 3e
       -0.15348804 0.030595627 -0.18499501 0.2675589
000040 dc e5 4a be 34 e9 49 3e 49 0d 87 3e 1d c5 c1 3d
       -0.19814247 0.19717866 0.26377323 0.094614245
000050 d5 c1 25 be 65 0c 9f bd 58 8c d1 3d fe b3 aa 3d
       -0.16187222 -0.07766036 0.102318466 0.08335112
000060 6d 89 cf bc ab 98 8f 3e 64 9c ca bd 53 e1 e2 3d
       -0.025334084 0.28046164 -0.098931104 0.110781334
000070 34 f3 42 be ac 4f 7a be 73 1f ff bc 17 6c fc 3d
       -0.19038087 -0.24444455 -0.031142926 0.12325304
000080 6c 0c c8 be 86 89 ad bd 7e f6 b1 be 0b 5e 50 3d
       -0.39071977 -0.08473496 -0.3475837 0.050870936
000090 c7 6a aa 3e 3d f9 64 be 22 2f 3f 3e 21 46 a3 3d
       0.3328459 -0.22360702 0.18670323 0.079723604
0000a0 50 55 f6 3d 9f ba b2 bd ed 27 80 be e2 bb cd 3d
       0.12027991 -0.087270014 -0.2503046 0.100456014
0000b0 58 d6 18 bf fb 22 17 3e b5 89 e0 3e 5c de b1 3c
       -0.5970206 0.14759438 0.43855062 0.021712475
0000c0 21 b7 bc 3d d1 d3 33 be 6c 69 bb 3b c7 61 a1 be
       0.092146166 -0.1756127 0.0057193544 -0.3151991
0000d0 95 1a 2c 3d 65 d5 7e 3d d2 ff 07 3e 96 e7 9e bd
       0.042017538 0.062215228 0.13281181 -0.07759015
0000e0 9b 3c aa 3d c1 78 8d 3e 5e 72 26 be 05 72 d6 bd
       0.08312341 0.2763119 -0.16254565 -0.10470966
0000f0 e2 6d 9b bd fc 74 0f 3d d9 7e 62 bd 28 4e 4d be
       -0.07589318 0.035023674 -0.055296753 -0.20049345
000100 91 86 75 3e 35 6c 07 3e 2e 4d 84 bd d1 9c 2d be
       0.23977114 0.13224871 -0.06460033 -0.16954352
000110 4c c4 0b bc 34 f5 d4 be 3a 4d 2c bc f5 b2 a2 3c
       -0.008530688 -0.41593325 -0.010516459 0.019860724
000120 fa c7 cc 3d 5b e8 ca bc 1b b1 58 3e a2 f3 b5 3d
       0.0999908 -0.024768999 0.2116131 0.0888436
000130 35 b5 10 3e 12 5e c0 3d d1 e4 93 be ce b7 86 3e
       0.14131625 0.093929425 -0.2888551 0.26312107
000140 eb 1b f0 bc 53 2b 30 be da 42 84 be 0c 05 89 bd
       -0.029310187 -0.17204027 -0.25832254 -0.06690416
000150 18 a4 81 3e 0c 53 93 3e 12 a5 2a bd d6 5e 46 3d
       0.25320506 0.28774297 -0.04166133 0.048430286
000160 3b 1a 8d 3e 54 de 80 3e 93 bd 00 be ee f8 aa be
       0.27559075 0.25169623 -0.12572317 -0.33393043
000170 22 f4 e7 3d 53 17 e8 3d 83 89 59 bd 35 20 0b be
       0.113258615 0.11332574 -0.053109657 -0.13586505
000180 11 76 a9 be 15 83 a1 3d 0f 17 14 be f3 35 b5 3b
       -0.3309789 0.0788633 -0.14461921 0.005530113
000190 63 6c d3 3d f9 52 b1 bd b1 f7 03 bd 9d cb b6 be
       0.103234075 -0.08658404 -0.03221864 -0.3570222
0001a0 dd e0 4c be b4 54 ed 3c df 21 a6 bc c3 56 01 be
       -0.20007654 0.028971054 -0.020279823 -0.12630753
0001b0 31 cb a9 bd eb 76 81 be 96 9c 69 be 1c 30 03 be
       -0.08290709 -0.2528604 -0.22813639 -0.12811321
0001c0 f0 4d 95 ba 8c 76 00 be ad c6 70 3d cd d7 0f be
       -0.0011391025 -0.12545222 0.058783222 -0.14047165
0001d0 4d 2e a4 bd f3 d7 5d 3d ae 1e 32 be ce 38 9d 3e
       -0.08016644 0.054161023 -0.17394516 0.307074
0001e0 53 50 84 3d a8 52 0a 3d 97 8a b3 bd a5 b1 10 bd
       0.06460633 0.033770233 -0.08766668 -0.035325665
0001f0 aa b2 1f be 82 28 89 3e 7f 2e 9b bd dd 63 34 bc
       -0.15595499 0.26788718 -0.07577228 -0.011010137
000200 ad 09 c0 be 85 62 1c 3d 77 12 7f be 2b 33 58 be
       -0.37507382 0.038179893 -0.24909388 -0.21113269
000210 f8 a8 52 3e 6f c8 68 be c2 42 7a 3e ae 34 a4 3e
       0.20572269 -0.2273271 0.24439529 0.3207144
000220 78 a6 f3 3d e7 93 64 bc a9 bd a0 3e 96 5c 90 be
       0.11896986 -0.013951278 0.313947 -0.28195637
000230 9c 30 a1 3e 84 e8 59 3e 81 52 da bd af 4a 4d 3e
       0.314824 0.21280104 -0.106602676 0.20048021
000240 eb 9f 20 3e 6a 2e e8 3c c5 7e 95 3e 93 16 c8 bd
       0.15686004 0.028342444 0.2919828 -0.09769931
000250 97 95 ac bd cb 8d 36 be ae 9c 88 3e f3 76 fe bc
       -0.084269695 -0.17827527 0.26682037 -0.031062579
000260 8c a9 d4 3d e9 a4 0c 3e d5 43 6d 3e fd 1d 71 3e
       0.10383901 0.13734783 0.23170407 0.23546596
000270 bf 9e 3c be e6 6d 08 3d 93 f0 52 be d0 34 5c be
       -0.18419932 0.033307932 -0.20599584 -0.21504521
000280 5d f1 73 be 26 ea 9d bd 2c 77 a3 3d 1e 71 15 bd
       -0.23822542 -0.07710676 0.079817146 -0.03648483
000290 d4 e7 6f bb 81 6f d3 3d 62 87 77 be 59 c3 30 be
       -0.0036606686 0.10324002 -0.24172738 -0.17262019
0002a0 10 67 91 3d 6c 78 eb 3d 3c 25 08 3e f9 90 a9 be
       0.07099736 0.11497578 0.13295454 -0.33118418
0002b0 36 4a 05 be c9 00 a5 be 35 9f d8 bc 3d 59 57 be
       -0.1301659 -0.32227162 -0.026443103 -0.21030135
0002c0 5d 6f 11 3e 80 44 88 3e 6d ec 89 be ea 98 ce 3e
       0.14202638 0.2661476 -0.2693819 0.4035104
0002d0 21 8a 21 be ff bc 73 3d 9a 82 8d be 78 c9 02 3e
       -0.15775348 0.059506413 -0.27638704 0.12772167
0002e0 bc c1 40 3e 67 b3 05 bf 90 6c 86 3e 22 88 3b be
       0.18823904 -0.5222687 0.26254702 -0.1831365
0002f0 39 18 67 bb b2 a1 20 be 62 9a b5 be ff e1 b1 bd
       -0.003526224 -0.15686682 -0.35469347 -0.086856835
000300 2c 31 90 3e f7 8c 41 3d 1c a8 0a bd 53 b5 a1 be
       0.28162515 0.047253575 -0.033851728 -0.31583652
000310 f9 d3 48 3e a9 30 6b 3e 5e d5 4f 3e 3a 0e f5 be
       0.19612111 0.22967781 0.20296237 -0.47862417
000320 05 eb 1f bd 0f ff a5 be 5b 30 8e be b1 c7 97 bd
       -0.03904249 -0.32421157 -0.27771267 -0.07411135
000330 43 91 bc 3e 75 1b 8a be dc 5c 0f be d4 8b 07 3e
       0.36829576 -0.26974073 -0.14000267 0.13236934
000340 2f 50 2d 3e 83 d7 c6 bd 24 6a c0 bd 40 d1 c8 bc
       0.16925119 -0.09709074 -0.09395245 -0.02451384
000350 cd 1e 8e bd 55 34 ae be d8 26 db 3e a5 47 04 be
       -0.069394685 -0.340243 0.42803073 -0.12917955
000360 03 93 bf 3d de 4a ea 3c 70 42 c8 3c da c6 e9 3d
       0.09354212 0.028600153 0.024445742 0.11414881
000370 50 15 0a bf f7 ca 98 3d 0b f2 a5 3d 46 cd 5f bd
       -0.5393877 0.074605875 0.08102807 -0.054639123
000380 ae 24 2d 3e 2c 6f 18 3e 70 1a fb bc fc 75 67 bd
       0.16908523 0.14886159 -0.030652255 -0.056509003
000390 0f 11 a6 3d 6b 78 79 3e a6 c8 07 bb 09 7a bd bd
       0.081087224 0.24362342 -0.002071896 -0.09251792
0003a0 77 c2 57 be 1c 35 4a bd 6a 53 ad 3d 7e 8d 6e bd
       -0.21070276 -0.049367055 0.084631756 -0.058240406
0003b0 ed 7e 1a 3e 18 11 04 be 48 38 8a be b3 d1 1c be
       0.15087481 -0.12897146 -0.26996064 -0.15314369
0003c0 77 bc 81 3e 40 d7 f3 3d 68 b1 09 bf 44 7a c2 bd
       0.253391 0.1190629 -0.53786325 -0.094959766
0003d0 e5 1d f5 bc ca 20 94 be 70 0c 94 bd e7 0f 1d 3e
       -0.029921481 -0.28931266 -0.07228935 0.15338098
0003e0 fa 28 13 be b2 7b 4b be de 95 8d 3d 36 34 ce bd
       -0.143711 -0.19871405 0.069133505 -0.10068552
0003f0 9b fe 84 be ba b0 e3 3d 75 2b 57 3b dd a4 94 bd
       -0.259755 0.11117692 0.00328323 -0.07258008

decoder_lin.0.bias f4 [64]
000000 fd 42 1e bb fc 3c 97 bd 43 24 3b bd e0 c6 1c 3e
       -0.0024148815 -0.07384679 -0.04568888 0.1531024
000010 e3 c6 8c 3d 62 85 1f 3e 9f cf ad bc 91 f6 1d bc
       0.06873872 0.15578225 -0.021217166 -0.009641306
000020 db c2 48 bd 1c 0e 73 3c 1d 28 2a bc 95 92 b9 ba
       -0.049013954 0.014834907 -0.01038554 -0.0014158065
000030 6a f2 da bd 6e 89 bf 3c 9d bb 2f bc f8 be c1 3d
       -0.10690768 0.023380961 -0.010725883 0.094602525
000040 7b f5 93 bc f4 63 d8 3c a1 1e 40 3d 29 74 bf bc
       -0.01806139 0.026414849 0.04690421 -0.02337082
000050 f0 8a 0b bd 68 fb aa 3b 05 a8 25 bd 26 d6 2a bc
       -0.034068048 0.0052179582 -0.04044344 -0.0104270335
000060 66 55 a5 bd 63 ae e7 bc 28 04 61 bd 23 7d 7c 3c
       -0.08072929 -0.028281396 -0.054935604 0.015410694
000070 75 8d 82 bb 7e 95 02 3d f8 23 86 bd 36 ee 2f bc
       -0.003984148 0.031880848 -0.06549829 -0.010737946
000080 d5 88 3a 3c e4 92 ba 3c 1e bf 6e 3d fe a6 18 3d
       0.011385162 0.022775121 0.058287732 0.03726863
000090 ef 58 29 bd a5 70 45 3c fa d7 1f 3d 1b 0f 3b 3d
       -0.04134458 0.012050782 0.03902433 0.045668703
0000a0 8e 32 16 3d 4b 5e 30 3b 9d 77 59 3d 70 2e 21 bd
       0.036669306 0.0026911672 0.053092588 -0.039350927
0000b0 96 c7 02 bd 27 fe 88 3d d9 95 36 bb a6 04 8d bc
       -0.03192862 0.06689101 -0.0027860312 -0.01721413
0000c0 3e cd 2b 3d fe 17 10 3e 09 20 32 3b b4 47 87 3b
       0.04194378 0.14071652 0.002717974 0.0041284207
0000d0 1b 2d e1 3c 0e ea dc 3d 9e e1 07 3e 62 bc e8 3c
       0.027487328 0.1078683 0.1326966 0.02841014
0000e0 69 5c 35 bd f1 26 4a 3c 3d c2 24 bd d2 7b 85 3d
       -0.044277582 0.012338386 -0.040224303 0.065177575
0000f0 16 3d 7f 3c 38 a0 45 bc e9 6b 33 bd 9b ab 97 3c
       0.015578529 -0.012062125 -0.043804083 0.018514445

decoder_lin.2.weight f4 [288, 64]
000000 b6 41 77 99 4e f5 28 91 a6 e4 b2 1b 29 40 06 00
       -1.2782871e-23 -1.3328454e-28 2.959539e-22 5.7403e-40
000010 1b 73 07 80 9a 9d 97 09 8c a7 03 80 a1 66 05 80
       -6.8414e-40 3.6500135e-33 -3.35611e-40 -4.95994e-40
000020 63 7c 00 80 e8 4f 30 0a 6c 0a 15 9d 97 1f a2 ab
       -4.4622e-41 8.4891205e-33 -1.9725374e-21 -1.151956e-12
000030 ef 5c 0c 91 c2 f3 05 00 27 46 07 80 a1 33 9d 0a
       -1.107269e-28 5.46621e-40 -6.68014e-40 1.513797e-32
000040 5b f4 03 00 0a f1 04 a3 4b bc 70 83 cf ec c3 81
       3.63165e-40 -7.206776e-18 -7.074581e-37 -7.197149e-38
000050 fd 1c 88 0a 44 db d3 97 0c 2e 00 80 75 d6 4b ab
       1.3107228e-32 -1.3690906e-24 -1.6519e-41 -7.2417707e-13
000060 47 e6 04 80 66 47 04 80 97 5c 02 00 cf 03 01 00
       -4.4995e-40 -3.92955e-40 2.16886e-40 9.3202e-41
000070 16 2e 45 95 9c 7e 80 a2 d6 a5 0c 9b 0d 0f 99 98
       -3.982019e-26 -3.4828522e-18 -1.1634113e-22 -3.956477e-24
000080 c2 4f 7e 99 b5 a8 aa 93 fd 39 8b a2 1a d4 fc 81
       -1.3147599e-23 -4.308039e-27 -3.7737423e-18 -9.287453e-38
000090 35 2b 05 00 40 76 25 95 6a 32 e9 0f 55 4c 6e 96
       4.74677e-40 -3.3414767e-26 2.2994993e-29 -1.9249573e-25
0000a0 b0 1d 03 80 4b 85 5d a0 e3 2a 07 00 82 77 01 09
       -2.86156e-40 -1.8763531e-19 6.58233e-40 1.5584002e-33
0000b0 61 d4 c3 90 76 f6 ac aa 8f 0b 1d 9d de 70 05 80
       -7.724116e-29 -3.0724354e-13 -2.0784753e-21 -4.99667e-40
0000c0 9d 8a 07 80 e1 37 59 8e 94 87 01 00 e5 7a 01 00
       -6.92574e-40 -2.677422e-30 1.40472e-40 1.35922e-40
0000d0 78 33 00 00 0e 5b d4 07 c0 30 05 00 00 4c b9 8c
       1.8464e-41 3.1951732e-34 4.76666e-40 -2.8549504e-31
0000e0 07 b7 cb 9c f4 c5 86 97 ad 21 04 80 21 7b 00 80
       -1.3480725e-21 -8.709517e-25 -3.79423e-40 -4.417e-41
0000f0 4a fb 4c 94 74 87 00 00 78 22 82 0a 45 f3 fb 9f
       -1.0348926e-26 4.8591e-41 1.253151e-32 -1.0670509e-19
000100 38 c4 47 bb 54 d1 02 80 15 b9 4c ba 59 cb b9 37
       -0.0030481946 -2.58764e-40 -0.0007809562 2.214841e-05
000110 cc 3b af 37 c8 48 80 b9 34 68 96 bb 6e 29 7a bb
       2.088947e-05 -0.0002446829 -0.0045900587 -0.0038171667
000120 a9 85 06 00 d4 e8 c3 ba 1e 19 60 bb fb 37 1f bb
       5.98961e-40 -0.0014946708 -0.0034194659 -0.0024294842
000130 d3 d6 81 b9 77 be 09 bc bd 61 62 b9 51 cf 21 3a
       -0.00024764854 -0.008407227 -0.0002158945 0.0006172555
000140 d8 52 95 ba 17 1d 8e ba 6e 85 e8 34 aa ed 7c 38
       -0.0011392487 -0.001084241 4.331045e-07 6.0302824e-05
000150 e1 d7 46 38 42 50 89 bb c2 4a ee b9 0d 06 89 bb
       4.740793e-05 -0.0041904757 -0.00045450596 -0.0041816295
000160 12 08 06 00 24 b8 00 00 18 93 1f 39 c8 73 08 00
       5.53908e-40 6.6057e-41 0.00015218218 7.76218e-40
000170 05 e1 96 bb 9c bf 06 80 33 eb 00 80 b8 c2 07 00
       -0.004604461 -6.1975e-40 -8.4374e-41 7.127e-40
000180 5f 3a 02 80 88 20 5e 3a f2 3b 7c bb 3c 72 80 bb
       -2.0461e-40 0.00084734755 -0.0038487879 -0.003919868
000190 26 59 9a 3a 34 4d 51 36 a6 fc 9c 3a a6 41 66 bc
       0.0011775836 3.1188365e-06 0.001197715 -0.014053738
0001a0 25 9c aa 3a ee 16 6b b9 7f 71 10 bc c7 08 0a bb
       0.0013016505 -0.00022419888 -0.008816122 -0.002106236
0001b0 ab fb 2c ba 51 77 64 bb d4 a0 67 bb ea 59 08 00
       -0.0006598781 -0.0034861157 -0.0035343664 7.66939e-40
0001c0 e7 f1 41 bc 31 32 88 38 03 91 bd 3a 59 85 cc bb
       -0.011837459 6.494334e-05 0.0014462773 -0.006241482
0001d0 06 9b 00 80 4c e5 a2 bb 3b fb e1 b6 1a ba 08 bc
       -5.5612e-41 -0.004971182 -6.7347696e-06 -0.008345151
0001e0 71 d8 8e bb e7 66 01 00 22 dd ca ba 4e ce f0 35
       -0.004359298 1.2875e-40 -0.001547728 1.7941436e-06
0001f0 0a a0 80 bb 9b 29 19 3a bd 50 38 bb 34 68 8c bb
       -0.003925328 0.00058426865 -0.0028124296 -0.004284883
000200 c6 b3 e4 bb 81 38 36 3c 39 f5 0a 3d e4 a5 c2 bd
       -0.0069794385 0.01112187 0.03392527 -0.095042974
000210 f2 c2 d9 3d 11 9b 84 bd fe 3c 44 3d c2 af c4 bd
       0.10632886 -0.06474889 0.04790973 -0.09603836
000220 8f 68 c9 bd 47 60 c5 3c b9 ff 31 bd 00 1c 8b 3d
       -0.09834396 0.02409376 -0.043456767 0.0679245
000230 76 ae cf 3a c1 4e db bd db 68 9b 3c 49 ae c4 bc
       0.001584484 -0.107083805 0.018970897 -0.024008887
000240 46 22 b2 3d ec c7 1b be 3f f3 f8 3d 02 11 48 bb
       0.086979434 -0.15212983 0.121557705 -0.0030527716
000250 25 32 28 3e 82 67 a5 3d 40 22 f3 3b 50 11 5c 3b
       0.16425379 0.08076383 0.0074198544 0.0033579655
000260 9f 2c 5a bc d7 09 1b bd 88 d2 6c bc 87 d9 2f bd
       -0.013316303 -0.03785118 -0.014454491 -0.04293206
000270 82 79 0b 3e 90 c5 1b 3e be ee 55 3d e9 84 af bd
       0.1362057 0.15212083 0.052229635 -0.085702725
000280 3d ac 09 3e 57 b1 70 bc 94 4d 36 3d d8 25 55 bc
       0.1344461 -0.014690719 0.044507578 -0.013009511
000290 41 0d 03 bd 99 77 4a be 93 62 ad 3c 5b 0d 7c 3d
       -0.03199506 -0.19772185 0.021165168 0.061536174
0002a0 9f 76 c9 bc 87 06 a1 3c 72 7c 87 3c ba ee 27 3d
       -0.024592696 0.019656433 0.016538832 0.04099915
0002b0 42 c4 82 3d 2b 47 b0 3d 25 57 fa bd 6d 5e 4e 3d
       0.063850895 0.08607324 -0.12223653 0.05038302
0002c0 ef 3e 69 3c ca 31 b5 bc 46 6f 0a be 1d 09 d8 3d
       0.014236196 -0.022118468 -0.1351901 0.10548613
0002d0 62 83 2e 3e 19 cb af bd 7c 29 1c 3d d9 bd d1 bd
       0.17042306 -0.0858366 0.0381255 -0.10241289
0002e0 20 14 28 3d af da 8e 3d c8 35 16 bc 7e cb 22 bd
       0.041034818 0.06975304 -0.009168096 -0.039744847
0002f0 26 89 dc 3c da 26 29 bd 21 92 9e bc 98 59 ab 3c
       0.026920866 -0.041296817 -0.019356789 0.020916745
000300 4b e4 ab 3c 03 77 63 bd 86 4e 9e bc 8b 42 d6 3d
       0.020982882 -0.05553342 -0.019324552 0.10461911
000310 28 aa 69 bd d9 c2 1e bd f1 97 94 3d 42 b4 06 3c
       -0.05704704 -0.03876004 0.07255543 0.008221688
000320 76 3c aa 3d fe 49 f1 bc ea 25 ef 3d 0b fc 71 bd
       0.08312313 -0.029454228 0.116771534 -0.059078258
000330 35 ee 96 3d 64 d2 3c be 73 b4 36 bd 6a 58 0f 3c
       0.07369653 -0.18439633 -0.044605684 0.008749107
000340 3d dc 6e 3d b1 ec f6 bc de c5 8a bd 36 ee ba ba
       0.058315504 -0.03014216 -0.067760214 -0.0014261666
000350 37 5d 90 3c f1 86 5f bd 9f 88 07 3d 16 5e a6 3c
       0.017622573 -0.05457205 0.033089276 0.020308536
000360 e8 8b 1e 3d 0b 16 ff bd f5 37 b2 3d 9f d4 9a 3d
       0.038707644 -0.12455376 0.08702079 0.075600855
000370 85 13 cd bd 9f cb 3e 3d a0 04 91 3d a7 5c 4a bd
       -0.10013489 0.046580907 0.0708096 -0.049404766
000380 7b 67 25 be 70 c3 11 bd e2 9c e1 3b 3c d5 f3 3c
       -0.16152756 -0.035586774 0.006885157 0.029764764
000390 55 62 c8 3c fe f5 8f 3c 8a 01 60 bd 1d 4e 9e bd
       0.02446095 0.017573353 -0.054688968 -0.07729743
0003a0 dd 44 70 bb 3f e1 73 3a b1 36 d9 bd 9e 3d 0b bd
       -0.003666214 0.00093032786 -0.10606135 -0.03399431
0003b0 e9 f6 84 3c 18 85 5e bc ec f7 fc 3c a4 0f da bd
       0.016231017 -0.013581537 0.030879937 -0.106475145
0003c0 91 67 b0 bd 75 bb fc bb 45 0d 2c 3e db 70 19 3d
       -0.08613504 -0.0077127763 0.16801937 0.037461143
0003d0 97 c6 f6 3c b1 30 43 3d 70 b2 9a bd 27 00 4e 3c
       0.030123992 0.047653858 -0.075535655 0.0125732785
0003e0 e7 75 9a 3d 98 a0 2a be 00 a5 38 3d 92 40 b1 3d
       0.07542019 -0.16662824 0.04507923 0.08654894
0003f0 c2 af 8b ba d5 48 af bd 45 bc e5 bd f9 6e b1 3c
       -0.0010657238 -0.085588135 -0.1121755 0.021659361

decoder_lin.2.bias f4 [288]
000000 ce f1 07 80 46 71 ac 39 79 43 f0 bc 24 8c 63 bd
       -7.29592e-40 0.00032890792 -0.029329048 -0.05555357
000010 d4 c4 0a 80 db 1a 01 00 aa fa 38 3d 11 55 1e be
       -9.88964e-40 1.0147e-40 0.045160927 -0.15462138
000020 30 e9 ca bc d3 60 a0 bc 5b 44 c8 3d 4d fd cc b9
       -0.024769396 -0.01957742 0.09778663 -0.00039098636
000030 c9 67 65 bb 13 ab 78 ac b7 3a 4c 38 14 b9 7a bd
       -0.0035004488 -3.5337885e-12 4.8692073e-05 -0.06121166
000040 d8 6b 00 00 ea 7d 39 82 5e 29 64 3d 56 46 06 00
       3.8687e-41 -1.3627789e-37 0.055703513 5.76245e-40
000050 10 e4 36 3d 56 c9 c7 92 67 0a 4e 3e 21 bc 7c 3c
       0.04465109 -1.2608299e-27 0.20121156 0.015425713
000060 68 ed cb 9b c1 d2 e1 3d 39 18 a4 bd 97 e0 78 bc
       -3.3736953e-22 0.11026526 -0.080124326 -0.015190265
000070 ff b3 03 80 31 fb de bc 84 65 0e bd 66 85 06 00
       -3.40077e-40 -0.027219387 -0.03476478 5.98867e-40
000080 6b 3c bb 3c dd 06 f6 87 8d d1 43 bb ad 33 b5 bd
       0.022855958 -3.7018e-34 -0.002987954 -0.08847747
000090 f7 d9 cc bc 97 1c fa bd 3e 11 06 be 3f d6 06 80
       -0.025006277 -0.12212484 -0.13092515 -6.2787e-40
0000a0 67 2e 8a b4 d9 cd 7b bc aa 81 aa 3c ee 34 1b 90
       -2.5738265e-07 -0.015368902 0.020813782 -3.0609136e-29
0000b0 cd 1c 02 bd 9c b5 05 80 7d 13 60 3d 67 fc 26 bd
       -0.031765748 -5.24327e-40 0.054706085 -0.040768053
0000c0 19 76 c6 bb 38 9d f6 3d 30 92 9e bd ca 98 db af
       -0.006056559 0.12041706 -0.07742727 -3.994443e-10
0000d0 f1 4a a1 9f f1 02 66 bc 0b c2 68 3a 73 8c 46 bd
       -6.831013e-20 -0.014038787 0.00088790123 -0.048473787
0000e0 02 35 03 00 91 f1 4f bc fb 03 03 80 e9 bc 47 b8
       2.94522e-40 -0.012691871 -2.76934e-40 -4.7621234e-05
0000f0 87 e9 0c 99 2d 4f 5b 3d 32 a5 2d 3e 43 2e 59 bd
       -7.284991e-24 0.053542305 0.16957548 -0.053022634
000100 d8 14 fa ab f5 a8 f3 bc 16 d2 80 bd ff 47 e4 b7
       -1.7769354e-12 -0.02974365 -0.06290071 -2.7213244e-05
000110 d7 28 ba 3d 45 f1 0a 3d 55 f2 0e bc f8 c1 a0 3a
       0.09089821 0.0339215 -0.008724769 0.0012264838
000120 10 bd 80 bd c8 12 3e bd b8 0a 65 bb 71 3b 43 bd
       -0.06286061 -0.04640463 -0.0034949016 -0.04766411
000130 32 0c 02 80 04 77 e2 bd f4 e9 8b a8 e0 79 c4 bd
       -1.88046e-40 -0.11057857 -1.5533561e-14 -0.09593558
000140 43 5c 7c bd 48 30 0d bb 35 c1 01 00 22 bc 8e 3d
       -0.061611425 -0.002154367 1.61145e-40 0.06969477
000150 85 80 a7 3d ff 25 d1 3b 0c 63 00 00 93 64 50 3d
       0.0817881 0.0063827033 3.5531e-41 0.050877165
000160 92 44 07 80 d3 0f c8 3d 8a cf 6d 3c 89 28 96 bb
       -6.67447e-40 0.09768643 0.014514813 -0.004582469
000170 bf 18 06 00 b5 aa f1 bb 97 c9 90 bd 00 88 ec b2
       5.5989e-40 -0.007375086 -0.070697 -2.7535862e-08
000180 6e d3 36 bc 0b d8 db 3a 54 be 7d bc 55 d3 25 bc
       -0.011158807 0.001677276 -0.015487272 -0.010121186
000190 54 32 00 80 d1 71 a5 aa c0 bc 09 80 9e 73 77 bd
       -1.8054e-41 -2.9388864e-13 -8.9423e-40 -0.060412996
0001a0 b2 9a e6 a9 54 5d fb 3d aa a1 07 80 53 ac 5c 3d
       -1.0240887e-13 0.1227366 -7.00843e-40 0.05387528
0001b0 a2 99 3b 3d c5 c0 00 80 02 9e ca 3d 7e 95 09 3c
       0.045800813 -6.9153e-41 0.09893419 0.008397458
0001c0 55 49 c5 96 19 e6 03 00 5c 52 62 3d 23 ed 03 00
       -3.1873346e-25 3.5805e-40 0.055254325 3.60575e-40
0001d0 1e d6 7d bb fd 3f 88 bd d7 71 94 bd 4a 8f 55 ba
       -0.003873236 -0.0665283 -0.07248276 -0.0008146657
0001e0 d7 dd 2c 9f 7d ca 1d 89 5b 81 36 3d 27 af 89 3c
       -3.6605918e-20 -1.8993397e-33 0.044556957 0.016807152
0001f0 7e 5e 9f 93 aa b3 05 00 55 ea ba bc 66 d4 17 bc
       -4.023042e-27 5.23629e-40 -0.022816816 -0.009266948
000200 23 5d 34 3d e4 52 e5 bb 71 c7 4a 3e f1 97 07 00
       0.044034135 -0.0069984067 0.19802643 6.97355e-40
000210 db 6d 02 80 50 ae 3e bd aa aa 65 b8 36 81 06 00
       -2.2308e-40 -0.046552956 -5.4756798e-05 5.97365e-40
000220 e9 d7 64 be 0b ad 07 80 33 1f 63 bd 44 1c b3 3c
       -0.22347988 -7.04925e-40 -0.055449676 0.021864064
000230 78 74 a3 bc 94 61 06 80 8f bc c4 ae 70 cb 11 be
       -0.019952998 -5.86017e-40 -8.946543e-11 -0.14237761
000240 86 74 4e bc ee 37 ba ba 13 0d fa bd 5f 13 af bd
       -0.012601024 -0.0014207342 -0.12209525 -0.085486166
000250 68 db 06 00 80 42 00 80 0d 8f a9 3d 16 96 04 00
       6.29721e-40 -2.3856e-41 0.08279238 4.21183e-40
000260 15 bb 1a 3e 49 cc a1 3d 2a cb e9 bd a1 fb 8c 1b
       0.15110429 0.079002924 -0.114157036 2.3323669e-22
000270 2b fd b1 3d 22 87 cf b9 4c 2d 02 80 f9 89 24 3d
       0.08690866 -0.00039582798 -1.9992e-40 0.040170643
000280 76 11 35 3b 26 fe 06 80 37 5d 58 bb ea d1 09 be
       0.0027628816 -6.42184e-40 -0.0033014545 -0.13458982
000290 2a b4 08 00 ba 40 df 3d 20 5e a1 aa 2f 4e 01 00
       7.99315e-40 0.109010175 -2.8664657e-13 1.19882e-40
0002a0 a9 19 d0 3c 95 81 02 00 65 14 00 00 19 d1 01 80
       0.02540286 2.30156e-40 7.316e-42 -1.66846e-40
0002b0 f8 6d f5 bc 9c 96 97 bd ad e2 d3 bc 9d ab 90 3e
       -0.029959664 -0.07401773 -0.025864923 0.2825593
0002c0 d3 22 01 bb 43 be 2b bc 73 e4 0b be 4a 43 87 bd
       -0.0019704595 -0.010482374 -0.13661365 -0.06604631
0002d0 fc 82 9f 3c ae cd 20 a9 46 4e a8 3c bc f7 e6 bc
       0.019471638 -3.5705535e-14 0.020545136 -0.0281943
0002e0 66 f7 26 94 72 a5 cc bc 6a 3b be 3c 6e 69 20 3d
       -8.429649e-27 -0.024981234 0.02322169 0.039163046
0002f0 5d a6 83 bd b0 34 b7 3c ff 80 39 bd c7 4d f3 bc
       -0.06428216 0.02236399 -0.045289036 -0.029700173
000300 88 9b 94 3b 2a 09 01 80 64 3d 03 00 60 12 03 00
       0.0045351423 -9.5123e-41 2.97529e-40 2.82098e-40
000310 f4 9a d9 bc 1d 39 0d 3c 7b 96 80 3d 7f 9d 57 3c
       -0.026563145 0.008619574 0.06278702 0.013160109
000320 03 8b 02 bd 93 32 79 3d 99 04 0b be c0 e8 81 ad
       -0.031870853 0.060839247 -0.13575973 -1.4768964e-11
000330 50 41 a0 a8 26 5a 08 80 71 a7 01 00 3f a2 9b 3d
       -1.7791893e-14 -7.67023e-40 1.51902e-40 0.07599305
000340 b5 12 2e 3e 57 d9 1c 3e b4 9b 3c a3 35 91 6b 3d
       0.16999324 0.15317284 -1.0224472e-17 0.057511527
000350 37 12 ba 99 a3 7e 08 00 2d 82 03 80 9d e6 00 a9
       -1.9239306e-23 7.80113e-40 -3.22205e-40 -2.8621735e-14
000360 0c 9d 94 3b fc 3e 57 bc b3 62 ae bd e5 bf 25 bd
       0.004535323 -0.013137575 -0.08514919 -0.040466208
000370 13 01 0b 80 0b bf 81 95 73 ea 06 bd 0d 99 c3 3b
       -1.010576e-39 -5.24041e-26 -0.032938432 0.005969173
000380 c9 fc 26 bd 7f 3b 08 80 58 7b 07 80 0a 99 04 00
       -0.04076842 -7.56027e-40 -6.87096e-40 4.22242e-40
000390 04 11 44 bd d9 34 8f 3b 4e b7 74 3d c6 53 07 00
       -0.04786779 0.0043703136 0.059745125 6.72901e-40
0003a0 d2 fe 23 a8 d2 f5 53 bd 79 0a 84 bc c1 f8 11 3c
       -9.103573e-15 -0.051748104 -0.016118275 0.008909405
0003b0 77 9a 98 98 07 07 fb a3 48 6c 00 00 6a a3 ea 0b
       -3.944705e-24 -2.721645e-17 3.8844e-41 9.03794e-32
0003c0 6e 1c e6 bc 7e aa 31 be 3b 0a 71 bb 24 26 ca bc
       -0.028089728 -0.17350194 -0.003677978 -0.02467639
0003d0 19 51 05 00 7a 37 04 00 08 ba fe 3a fa ce 8b 9b
       4.8827e-40 3.87243e-40 0.0019434104 -2.3129376e-22
0003e0 3c 8c af 3d d2 35 c8 bc 05 42 47 be 47 f2 3d 3e
       0.085716695 -0.024439726 -0.19458778 0.18549453
0003f0 a6 f1 90 3c 77 7a fd 02 32 22 c0 3c 36 21 02 00
       0.017693352 3.72453e-37 0.023453806 1.95585e-40

decoder_conv.0.weight f4 [32, 16, 3, 3]
000000 93 75 18 bd 93 0f 62 bd 3c 24 62 3d ac 36 17 3d
       -0.037221503 -0.055190634 0.055210337 0.036917374
000010 e2 75 ec 3d 49 41 ad bd 85 db 6f 3d 74 be fc 3d
       0.11545922 -0.08459718 0.05855896 0.123410136
000020 20 04 84 bb 9c fa 02 be b4 5e 12 3e 30 24 69 bc
       -0.004028812 -0.12790912 0.14293939 -0.014229819
000030 72 a6 d3 3c a1 2a 8b 3c 3b 46 7d 3d d1 d3 a4 3c
       0.025836203 0.0169881 0.061834555 0.020120533
000040 5c 7e d2 3d bc 6c aa 3d b1 94 12 be 0d 1f be bd
       0.102780074 0.08321521 -0.14314534 -0.09283266
000050 ba 43 99 3d b5 33 51 3d e7 a1 07 00 72 5f 27 3d
       0.07483621 0.051074702 7.00928e-40 0.040862508
000060 db ba d2 3d bc b9 a4 bd 72 c6 9f 3c 72 51 a8 bd
       0.10289546 -0.080432385 0.019503806 -0.082186595
000070 72 7b 92 bd 6b aa fe bd e7 0a 95 bd 7b 02 a1 3c
       -0.071524516 -0.124348484 -0.0727747 0.019654503
000080 85 f7 c3 3c 11 69 eb bd b3 cf fe 3c 9a 43 90 bc
       0.023921737 -0.11494649 0.031104898 -0.01761036
000090 09 62 14 bd 37 79 c5 bd 6b 90 c7 3d 1a ec 01 3d
       -0.036226306 -0.096422605 0.097443424 0.031719305
0000a0 5d 9b e9 bc 09 29 be bc 25 cd ec bd 6f 21 a3 3d
       -0.028516466 -0.023212926 -0.11562566 0.07965361
0000b0 d1 7f 7f b9 8b 4e e2 bc 85 ce 27 be cd cf 37 3c
       -0.0002436631 -0.027625343 -0.16387375 0.011218977
0000c0 75 9f d8 bc 04 54 99 3d 41 a0 08 3d 4d fb ef 3c
       -0.026443223 0.07486728 0.033355955 0.029294634
0000d0 76 ff 9e 3d 30 15 b5 3d 28 1a 36 3d 71 b8 9c 3d
       0.07763569 0.08841932 0.04445854 0.07652367
0000e0 16 90 1e 3d 15 a1 8e be bc 31 9f 3c c3 a4 1e 3d
       0.03871163 -0.2785727 0.019432895 0.038731348
0000f0 6b b0 60 3d e7 78 1d bd 29 07 cd bd b9 c3 43 3e
       0.054855745 -0.03844538 -0.10011131 0.19117631
000100 b0 53 e9 bd da 8c f0 3c 89 3b 84 bc 64 85 33 be
       -0.11392915 0.029364038 -0.01614167 -0.17531353
000110 e8 3a b0 bd d4 8d 2c bd 65 0d b9 bc 7a cc 9e bd
       -0.086049855 -0.042127445 -0.022589395 -0.077538446
000120 23 a3 b5 3a 79 d6 04 be 8c f1 3d 3d b6 10 fd bd
       0.0013857823 -0.1297244 0.046372935 -0.12356703
000130 ac db 98 3d 90 06 84 bc 4e f0 e6 bd 10 49 a0 bd
       0.07463774 -0.01611641 -0.11276303 -0.078264356
000140 fd 9a de 3d a7 db 53 be 34 36 d7 bd 36 c3 ea bd
       0.108694054 -0.2068926 -0.10508385 -0.11463015
000150 35 31 73 bd cf e3 4d be 53 d4 f4 bd b2 68 9a 3b
       -0.0593731 -0.20106433 -0.1195456 0.0047121877
000160 fe c6 c0 3c f3 e9 de bd 53 17 00 3d 4c 96 96 3d
       0.023532387 -0.10884466 0.031272244 0.073528856
000170 77 6e 50 bc 7b 2e a0 bd 95 4e 0c 3e be 2d 83 be
       -0.012721649 -0.078213654 0.13701852 -0.25620836
000180 44 6e 2a 3d f5 d4 66 3d 44 dd 70 3e 19 48 a4 3d
       0.041609064 0.056355435 0.23521906 0.08021564
000190 0a a3 27 bd fb 4a 2e 3c 12 6b da 3c 0a 5e 6e bd
       -0.04092697 0.010637994 0.026662383 -0.05819515
0001a0 9a a6 dd bd 45 f6 ae bb 16 ed 0f 3e ff d6 63 3e
       -0.10822792 -0.005339416 0.14055285 0.22249983
0001b0 df e0 19 bc b3 7c af bd d1 af 1d bd 00 c9 29 bd
       -0.009391992 -0.08568706 -0.03849775 -0.041451454
0001c0 4b 80 79 3d f1 5a de 3d ba 52 b9 3d 2a 21 6d 3d
       0.060913365 0.108571894 0.09048982 0.057892956
0001d0 4e 29 87 3d 10 06 0b 3d 93 db 94 3c c8 42 09 bc
       0.06599675 0.03394133 0.018171107 -0.008377738
0001e0 7b 0d 5b bd 13 b3 04 3d d9 24 7d bd 54 4f 97 bc
       -0.053479653 0.03239734 -0.06180272 -0.018470444
0001f0 d5 34 84 bc e5 0a 52 3d 2c 33 6a bd 63 3b 8a 3d
       -0.016138474 0.05127992 -0.057177708 0.06749608
000200 ca 0e 11 bc fe 10 65 3d 37 38 cf bd 89 4d 61 3d
       -0.008853624 0.05592441 -0.10118144 0.055005584
000210 7b 33 e6 bc 22 50 e3 bc 37 fa ee 3d a2 9d 53 3e
       -0.02810072 -0.027748171 0.116688184 0.20665601
000220 cc cf 2a 3e 21 71 bb 3c a4 68 2f 3d f2 9d 01 3e
       0.1668083 0.022881093 0.042824402 0.12657908
000230 06 82 90 3d 8c 65 64 3c 53 2d 1e bd a1 20 35 3c
       0.0705605 0.013940226 -0.038617443 0.011055143
000240 4f bc 83 bb 57 6c 2f 3e 0b 14 1d bc b6 16 b7 bd
       -0.004020251 0.17131172 -0.009587298 -0.08939879
000250 c0 6f 89 bd 26 e9 41 3e 5a ad 9c 3d 2c a1 1e 3d
       -0.06710768 0.18936595 0.07650252 0.038727924
000260 27 00 9f 3b 03 e6 c2 bd 3d 2b 09 3e 28 e6 54 3d
       0.004852313 -0.095165275 0.133954 0.051977307
000270 00 98 36 be 58 a5 53 bd d5 9a a6 bd 29 1a 91 bd
       -0.17831421 -0.051671356 -0.081350006 -0.07085068
000280 09 51 81 3c ac d8 46 bc ad 08 18 3c d5 ec c7 3d
       0.01578571 -0.01213662 0.009279412 0.09761969
000290 5c 2a cd 3d c2 ea 87 3d 65 c3 04 00 a0 46 20 be
       0.10017845 0.066365734 4.37436e-40 -0.15651941
0002a0 c8 b4 98 3d 7e 7d 95 3d 7e a1 a3 bc 29 5c d9 bc
       0.07456356 0.07299326 -0.019974466 -0.026533203
0002b0 64 50 70 3d 99 4a ca bd 04 56 0c be b3 4f 0f 3d
       0.058670416 -0.098775096 -0.13704687 0.034988116
0002c0 10 f0 05 3a ae f1 96 bd 9e 9f 40 3d cd 5c 0e 3d
       0.00051093195 -0.073703155 0.047027223 0.03475647
0002d0 7a 50 bf bd 2d 80 49 bd b2 c2 64 3d 46 12 98 3d
       -0.093415216 -0.049194504 0.05584974 0.074253604
0002e0 b2 24 a9 3c 49 9f 5a 3c aa 1f ec bd f1 56 8c bd
       0.02064738 0.013343641 -0.11529477 -0.0685252
0002f0 f0 12 51 3d 05 d0 ed bc 5b 32 eb bc 49 9f 9e bc
       0.05104345 -0.029029856 -0.028710535 -0.019363062
000300 51 d2 6f 3d f6 61 8c 3d c4 2b 69 3d 58 f7 40 3b
       0.058550183 0.06854622 0.056926504 0.0029444303
000310 02 3e d4 bd 3a 30 65 bd 5e 9c 24 3d ba 5a a3 3c
       -0.103633896 -0.055954196 0.040188186 0.019940723
000320 4c d8 52 3d 86 a8 73 be 36 0b cf 3d cd 19 af 3c
       0.051475808 -0.23794755 0.1010956 0.021374607
000330 a9 1d 04 bd b9 8f c9 bd ff 83 a4 bd a6 bf 0d be
       -0.03225485 -0.09841866 -0.08032989 -0.1384264
000340 24 57 78 3d 2b 77 f2 3d 7b 81 69 3e 06 24 9e 3c
       0.06062998 0.11839136 0.22803299 0.019304287
000350 70 da 32 be f2 6d 9f 3d 3b c1 62 3c ae e6 95 bc
       -0.1746614 0.07784642 0.013840015 -0.018298473
000360 83 42 4f bd 6f ca ae 3a bd 3a b3 bc a6 9f 3d bc
       -0.05060054 0.0013335476 -0.021878595 -0.011573708
000370 31 59 3f 3d 3a 2b 93 3a 85 56 b5 bc 63 d7 fb bd
       0.04671592 0.0011228092 -0.022135982 -0.12296941
000380 c4 30 f5 bd 5b 0b 17 3c f6 06 d4 3d 75 5a a5 bd
       -0.11972192 0.009219016 0.1035289 -0.08073894
000390 c9 82 99 3c 18 f4 16 3d 6c ac ca 3d 9a e9 c6 3c
       0.018739121 0.03685388 0.09896168 0.024281312
0003a0 10 89 0a be 9c 4e b4 bd 21 42 de 3d 8d 14 86 3e
       -0.13528848 -0.08804056 0.10852457 0.26187554
0003b0 ee 68 02 3e 33 6e a5 3c 3e 3e 0b be ff bf 77 bd
       0.1273534 0.020194149 -0.13597962 -0.060485836
0003c0 36 6a ce bc e4 50 54 bc 51 20 89 bc e9 15 1e 3d
       -0.02519713 -0.012958739 -0.016739042 0.038595114
0003d0 ff 47 c0 3d b5 d2 fb 3d 01 b3 d7 3d f5 5a f4 3d
       0.09388732 0.122960486 0.10532189 0.11931411
0003e0 76 b6 af bd de 3b 07 3d ab 13 bc bd 1f f3 a4 bd
       -0.085797235 0.03301608 -0.09183439 -0.08054184
0003f0 a2 b6 dc 3d e2 50 12 3e 6c 9e 60 bd d2 da aa 3d
       0.10777022 0.14288667 -0.054838583 0.08342518

decoder_conv.0.bias f4 [16]
000000 4e 72 20 bf b3 6f 52 3e 14 b2 02 bf d2 46 40 3c
       -0.62674415 0.20550422 -0.51052976 0.011735635
000010 19 a0 cf 3e 84 51 40 3e 55 f8 6b be c3 38 ae 3e
       0.40551832 0.18781096 -0.2304395 0.3402768
000020 3f 26 81 bd df 49 c2 3e c4 ee f5 3d 06 5c b5 3e
       -0.06306123 0.37946984 0.120084316 0.3542177
000030 f1 27 3f bf 1b 6b 6f 3e 09 95 ab 3e 20 75 93 3e
       -0.7467032 0.23380701 0.33512142 0.28800297

decoder_conv.2.weight f4 [16, 8, 3, 3]
000000 99 6f a3 3d d4 ad 11 bd 62 3c a9 bd b6 a9 1c be
       0.0798027 -0.035566166 -0.0826347 -0.15299115
000010 4a 76 b8 3b 23 17 a4 3d d4 d0 5b bd 58 c4 8e bc
       0.0056293355 0.080122255 -0.05366595 -0.017427608
000020 74 11 b6 bd b0 19 1a bd 45 05 de 3d 00 b0 f3 3d
       -0.08890048 -0.037622154 0.10840849 0.11898804
000030 41 8d 1d 3e b1 71 87 3e f5 c0 29 3e 4f 61 fa 3d
       0.15385915 0.26453927 0.16577514 0.122255914
000040 83 95 f6 3d 0c ac cc 3c ae 7e 93 3d 53 92 fc 3d
       0.12040236 0.024984382 0.072018966 0.12332597
000050 fb 20 91 3d 19 18 de 3d ef 30 92 3c 53 c4 96 bd
       0.07086369 0.1084444 0.017845599 -0.073616646
000060 af 0a 3a 3d 73 6b 8f 3a 0e da 0f 3d a1 71 14 bd
       0.045420345 0.0010942057 0.035120063 -0.036241177
000070 38 46 6c bd 97 ad c5 bd 8b 97 87 bd 87 f0 ad bd
       -0.057684153 -0.0965225 -0.066207014 -0.084931426
000080 d5 75 08 be 37 d8 38 3d 27 c9 74 bb b8 fc 4d bd
       -0.133262 0.045128074 -0.0037351341 -0.05028984
000090 cf ab 83 bd df 0b 47 be a3 74 0a be 4c 57 ca bd
       -0.06429254 -0.19438122 -0.13521056 -0.09879932
0000a0 66 4b 22 bd 36 21 e2 3d 80 c8 d3 3d a0 52 22 3e
       -0.039622687 0.11041491 0.10340977 0.15851831
0000b0 af 03 26 3e 05 b4 91 bd 09 4b f3 bd 5d 8c 0a be
       0.16212343 -0.07114414 -0.11879546 -0.13530107
0000c0 65 06 b0 3d d6 0f d4 bd de 4f 2d be ec 0a 05 3e
       0.0859497 -0.10354583 -0.16924998 0.12992448
0000d0 53 46 8c 3d 4c fe 93 3c 15 0b 74 bd 2e 00 dd bd
       0.06849351 0.018065594 -0.05958088 -0.1079105
0000e0 37 b1 80 3d 34 fc 52 3d 43 86 bf bd c7 b7 d4 bd
       0.06283801 0.05151005 -0.0935178 -0.10386615
0000f0 a7 ea 60 bb 99 6e e5 3d 5e f1 9e 3d fc 48 9e 3b
       -0.0034319551 0.112027355 0.07760881 0.0048304778
000100 24 60 ba 3c 09 44 e7 bc 4b ba b5 bb f5 d7 47 3e
       0.022750922 -0.028230684 -0.0055458895 0.19515975
000110 53 dd 02 3d e7 53 8d 3d da 6f 18 3e 82 30 2c 3d
       0.031949352 0.06900769 0.14886418 0.04203845
000120 dc 42 7c bd b5 b5 cf 3c dd 42 97 3d 92 6f 29 3d
       -0.0615872 0.0253552 0.073858 0.041366167
000130 c2 6b 42 3e 14 33 d1 bd 5d 42 6d be 31 6c d1 3d
       0.18986419 -0.102148205 -0.23169847 0.10225714
000140 b1 16 95 3d 8e e8 a0 3d b3 65 4e 3e 4a 64 b6 3d
       0.07279719 0.07856856 0.20155983 0.08905847
000150 85 e7 84 bc 37 da 0f 3e 32 67 0d 3e b1 0d 84 be
       -0.016223678 0.14048086 0.13808897 -0.25791696
000160 cc 11 b7 be d3 4b 9d bd 43 2e 12 bd 20 82 8d 3c
       -0.35755765 -0.07680478 -0.03568865 0.017273962
000170 da f7 b9 bd 92 05 24 bd 12 f1 ae bb fe 5e 8c bd
       -0.09080477 -0.040044375 -0.0053387964 -0.06854056
000180 73 33 96 3d ab 7e 02 3e cd 02 8d 3d 3b cf 6e bb
       0.07334032 0.12743632 0.068853 -0.0036439437
000190 89 50 8e 3d 27 bf 65 bc 42 06 76 3e 67 ea 28 3e
       0.069489546 -0.014022625 0.24025825 0.16495667
0001a0 4e c1 f7 3d a4 71 89 3d 81 5c 9a 3d 2d e5 10 3e
       0.12097417 0.06711128 0.07537175 0.14149924
0001b0 b8 40 00 3d 87 a5 b4 bb 29 1d 96 3c 4e e8 f3 3d
       0.03131172 -0.0055128965 0.018324452 0.11909543
0001c0 2a 5d fd 3d cb 5e 2c 3d 05 75 7f 3e ab 38 81 3e
       0.12371285 0.04208259 0.24946983 0.25238547
0001d0 e0 d7 fd 3d 5e fc a5 3c 42 71 09 be 0e a0 38 bd
       0.123946905 0.02026194 -0.1342211 -0.045074515
0001e0 2a 58 fe 3d 21 32 d3 3d d0 d0 44 3e 58 e5 4d 3e
       0.1241916 0.10312296 0.1922028 0.20107019
0001f0 1e bb 30 3e 85 e9 5f 3e 20 17 02 bd f6 d4 d9 bd
       0.1725888 0.21866424 -0.031760335 -0.10636322
000200 01 95 06 bd b4 d7 85 bd 63 37 33 3e 28 45 54 3e
       -0.032856945 -0.06535283 0.17501597 0.20729506
000210 99 c1 02 3e b8 f7 ee bd e4 6e dd bd 4e fc 45 bd
       0.12769164 -0.11668342 -0.10812166 -0.04833632
000220 be 2b 15 bd b1 45 0d 3d a1 2d 64 bd 21 53 07 be
       -0.03641867 0.03449029 -0.055707578 -0.13215305
000230 fe bf 89 3e 98 e4 24 bd d8 1f 51 3d b8 0f e2 3c
       0.2690429 -0.040257066 0.05105576 0.027595386
000240 d4 1d 0f 3d 17 51 31 3d 85 1a 05 be b8 46 8e bd
       0.034940556 0.043290224 -0.12998398 -0.06947082
000250 69 6a 8d bd b4 e6 2d bd b3 bf b9 3d db 64 0a 3d
       -0.06905062 -0.042456344 0.09069767 0.03378759
000260 90 72 eb bd 2c 1e bb 3d 26 77 27 3e 61 7b e3 3d
       -0.114964604 0.09136614 0.16354045 0.11107517
000270 b8 85 ef 3c a9 5d ac 3d 0b 7a 95 3d 31 f4 c9 3d
       0.029238567 0.08416302 0.072986685 0.09861029
000280 49 2f 50 3e 6b 80 21 3d c9 46 6e 3d 13 6e 83 bd
       0.20330538 0.03942911 0.058172975 -0.06417479
000290 bb e7 ac bd 7e 56 74 bd 24 5c eb bc 96 47 7c bd
       -0.084426366 -0.059652798 -0.02873046 -0.061591707
0002a0 c8 92 9c 3c a7 45 98 bd 1c e9 15 bd aa fc 4b 3c
       0.01911296 -0.0743516 -0.036599264 0.0124503765
0002b0 da 10 9b bd d5 06 17 3d 0b f0 c2 bd 78 d6 ff bd
       -0.075715736 0.03687175 -0.09518441 -0.124920785
0002c0 a4 da 74 3d c2 71 3c bd 04 46 fa bd 67 a6 23 bd
       0.059778824 -0.046006925 -0.12220386 -0.039953616
0002d0 3b 4a b4 bd 60 7f e5 bd 7b 79 8b 3d 08 1d d0 bd
       -0.08803221 -0.112059355 0.0681028 -0.10161787
0002e0 49 05 5e bd b9 cc 36 3d d6 f3 bb 3c 13 a7 41 bc
       -0.05420426 0.044628832 0.022943418 -0.011819619
0002f0 81 93 54 3d 8a 44 a2 bd 50 05 25 be 6d f5 2c bd
       0.051898483 -0.07923229 -0.16115308 -0.042226244
000300 64 d1 9a 3c 27 42 ce bd d5 f4 9e b9 cd 49 3d be
       0.018898673 -0.10071211 -0.00030318522 -0.18485184
000310 79 fd 07 be f8 65 8f 3d 9c 11 12 be ad 9c 22 be
       -0.13280286 0.07001871 -0.1426453 -0.1588008
000320 4f cf 54 bd f8 1b ac bd 40 48 a6 bd 4e 9a 29 bd
       -0.051955517 -0.08403772 -0.08119249 -0.041406922
000330 cb 3f 12 be aa fd 99 bc 03 25 cc 3a 0f c9 82 3d
       -0.14282148 -0.018797714 0.0015574995 0.06386005
000340 00 2d 0d be d5 34 a1 bd 89 24 13 3d a0 26 84 3d
       -0.13786697 -0.07871405 0.035923515 0.0645268
000350 e2 16 15 be 12 bc bb 3d 42 15 13 bd 88 85 a6 bd
       -0.1455951 0.09166731 -0.035908945 -0.08130938
000360 ae f2 29 3e d0 af 12 bd b0 e4 d8 bd 2e 52 ad bd
       0.16596481 -0.0358122 -0.10590494 -0.0846294
000370 03 fc 13 bd f8 41 88 3c 62 e1 d2 3d 28 d4 53 3d
       -0.03612901 0.016633019 0.102968946 0.051716
000380 24 ca 48 3d f4 7a 9e 3d 1c 62 28 3e a8 09 a7 3d
       0.0490209 0.07738295 0.16443676 0.08156139
000390 ca 0f f2 3d 57 59 a7 3e 47 93 9f 3d 3e 29 b2 ba
       0.11819418 0.32685348 0.07791763 -0.0013592613
0003a0 03 fb 15 3a ae e4 d3 bd 47 e4 a3 3d 53 66 ad bd
       0.00057213026 -0.103463516 0.08002525 -0.084667824
0003b0 d2 d9 46 3c 89 48 e2 bd 4d a2 93 bd 66 88 39 3d
       0.012136893 -0.11048991 -0.07208691 0.045296095
0003c0 ac 12 04 bd 3c 71 99 3b 01 af 95 3d ee b4 c7 bd
       -0.03224437 0.004682688 0.0730877 -0.097513065
0003d0 9b ae b2 bd ad 3c 71 bc 14 0d 54 be 47 82 24 bd
       -0.087247096 -0.014723939 -0.20708114 -0.040163305
0003e0 d3 70 85 3c 60 eb ff bc 77 92 ef 3d f9 c1 22 3e
       0.01628915 -0.031240165 0.11697858 0.15894307
0003f0 a9 4f 59 bd 20 43 af bd 49 31 9b 3d af c0 17 be
       -0.053054485 -0.08557725 0.0757776 -0.14819597

decoder_conv.2.bias f4 [8]
000000 4a fd b3 3e 20 59 09 bf 59 24 4c 3e 20 22 24 3f
       0.35154182 -0.5365162 0.1993574 0.6411457
000010 66 37 39 3f 08 3f 39 3e c1 ca 24 3f 07 c0 0e bf
       0.72350156 0.18090451 0.6437188 -0.5576176

decoder_conv.4.weight f4 [8, 1, 3, 3]
000000 09 06 db be 05 7d 91 be db 62 a9 3b d6 1e 3d bf
       -0.42778042 -0.28415695 0.005169255 -0.73875177
000010 d0 f4 f6 be 67 6c 69 bd 12 30 c0 be 6c ed 0e be
       -0.48233652 -0.056988146 -0.37536675 -0.13957757
000020 aa bd 3b 3d eb 8f d9 3e 0c 61 3e 3f 0a 33 a3 3e
       0.045835175 0.42492613 0.7436683 0.31874877
000030 13 9a 10 3f 94 1f 73 3f b0 ff a4 3e 5f 62 87 3e
       0.564851 0.9497006 0.32226324 0.2644224
000040 05 54 da 3e cd db a6 3d 8c ef e3 be fa e8 ea be
       0.42642227 0.081473924 -0.44518697 -0.45880872
000050 ff b2 3b be bf 23 03 bf 24 5d 8e be 45 d3 15 3c
       -0.1833 -0.5122642 -0.27805436 0.009144609
000060 ac d6 60 be a2 84 bf b9 ba 7a 95 3d 01 f2 01 be
       -0.21956891 -0.00036529178 0.07298799 -0.12689973
000070 28 7c 9f be b9 62 3c bd 2e 51 d7 be d7 43 77 bf
       -0.3114941 -0.045992587 -0.42054123 -0.9658789
000080 af 6a ad be c7 cd 24 be ae 8f c9 be 2c 40 94 bd
       -0.33870456 -0.16094123 -0.3936743 -0.07238802
000090 55 6b 11 3d d8 a2 85 be 97 13 98 be d2 44 4e be
       0.03550275 -0.26100802 -0.29702446 -0.2014344
0000a0 62 17 5c bf 69 d9 47 bf fa db b5 be 9d a1 70 bf
       -0.8597318 -0.78066117 -0.3551939 -0.939966
0000b0 fd 72 25 bf 68 56 83 be 4a d5 9b be 45 95 88 be
       -0.64628583 -0.2565186 -0.30436164 -0.26676384
0000c0 b9 bd df be aa cd 22 bf 14 e8 e6 be 9d d3 81 be
       -0.43699434 -0.6359507 -0.45098937 -0.2535676
0000d0 5e 43 d1 be 38 f0 a7 be 35 77 28 be 79 1a 07 bf
       -0.4087171 -0.3280046 -0.16451724 -0.5277477
0000e0 e2 69 d1 be b1 11 d8 be 12 f7 84 bf d2 b1 41 bf
       -0.40901095 -0.42200997 -1.03879 -0.7566196
0000f0 05 ff bb be 1d bc 4a bf fa 59 08 bf 3c 06 91 3e
       -0.36718002 -0.7919329 -0.53262293 0.2832507
000100 b1 ae 28 3e b1 9a a0 3e f9 59 21 3f c8 09 01 3f
       0.1647289 0.3136802 0.6302791 0.5040555
000110 2f de 18 3f 5f 07 79 3e b6 2b ca 3d 71 e9 3d 3e
       0.59714025 0.24319218 0.098716184 0.18546082
