decoder_paramsfold5.pth (torch, 102279 bytes, 9 tensors)

decoder_lin.0.weight f4 [64, 2]
0	0xbe9acb1b	-0.30233082
1	0xbea0c5e8	-0.3140099
2	0xbef66b2c	-0.4812864
3	0xbf0184b0	-0.5059309
4	0xbddee5e2	-0.108836904
5	0x3f16aeaa	0.58860266
6	0x3f16ced4	0.58909345
7	0x3dfaa9bd	0.12239406
8	0xbc539f67	-0.012916422
9	0xbec56201	-0.38551334
10	0x3c731aad	0.014837903
11	0x3c9764c5	0.018480668
12	0xbebbfabd	-0.36714736
13	0xbe9ede93	-0.31029186
14	0xbef5dcaf	-0.4801993
15	0xbed03ab9	-0.40669802
16	0xbed1edf0	-0.41001844
17	0xbeb81862	-0.35956103
18	0xbec0c00c	-0.3764652
19	0xbe810d3a	-0.25205404
20	0xbec41aed	-0.38301793
21	0xbec2996a	-0.3800767
22	0xbce965f6	-0.028491002
23	0xbec58e6f	-0.3858523
24	0xbee972c0	-0.4559536
25	0xbf08c462	-0.53424656
26	0xbec6e4e9	-0.3884652
27	0xbeb833a8	-0.3597691
28	0x35942323	1.1037085e-06
29	0x35c16ec3	1.4411856e-06
30	0xbe82b0f4	-0.2552563
31	0x3e921f54	0.28539526
32	0xbf2349c0	-0.6378441
33	0x3d0b4be6	0.03400793
34	0x3f4c4d17	0.7980513
35	0xbe3d1195	-0.18463738
36	0x3f266001	0.6499024
37	0x3eaa0ac6	0.33211344
38	0xbe1def47	-0.15423308
39	0xbe001014	-0.12506133
40	0xbe03213d	-0.12805648
41	0xbece7051	-0.40320066
42	0x3d4e24a8	0.050327927
43	0x3dd36182	0.103213325
44	0x3da4da26	0.08049421
45	0xbeffc6fa	-0.49956495
46	0x3ead7669	0.33879402
47	0xbf0f91d0	-0.5608187
48	0xbec1dcac	-0.37863672
49	0xbeb00b12	-0.34383446
50	0x3f4947ec	0.7862537
51	0xbe4c5674	-0.19954854
52	0x3e863c21	0.2621775
53	0x3f47c9b4	0.7804215
54	0xbededd38	-0.43528152
55	0x3f35b9b2	0.70986474
56	0xbc9c2748	-0.0190617
57	0xbce1ef06	-0.027579796
58	0x3e2e3b1a	0.17014733
59	0xbe870f41	-0.26378825
60	0xbf145a0f	-0.5794992
61	0x3e0b780e	0.13620016
62	0x3c7f14ed	0.015568954
63	0xbb530677	-0.0032199898
64	0xbe982bd7	-0.29720947
65	0x3f069c0e	0.5258187
66	0xbf07e640	-0.5308571
67	0x3d8f2e93	0.06991305
68	0x3cf2a1ec	0.029618226
69	0xbf12aa64	-0.57291245
70	0x3de624c6	0.11237483
71	0xbe4e8097	-0.2016624
72	0xbeea2d39	-0.45737627
73	0xbef0068c	-0.46879995
74	0xbd80e252	-0.06293167
75	0xbd2f6f47	-0.04283073
76	0xbefd65f0	-0.49491835
77	0xbdeeb57c	-0.11655709
78	0xbf046164	-0.51711106
79	0xbe3b91dc	-0.1831736
80	0xbf25688f	-0.6461267
81	0x3df90bc4	0.12160447
82	0xbeba273e	-0.36358064
83	0xbe686602	-0.22695163
84	0x3e40412b	0.1877486
85	0xbea9bce9	-0.3315194
86	0x3b177fd8	0.0023116972
87	0xbc219c52	-0.00986393
88	0x3c8d0c79	0.017217861
89	0x3e8aad94	0.27085555
90	0xbeb9c612	-0.36283928
91	0x3c071f35	0.008247186
92	0xbef32c7c	-0.47494876
93	0xbed7bcc9	-0.4213622
94	0xbe2037a1	-0.1564622
95	0x3f06eca3	0.5270483
96	0x3d4ff7a8	0.050773293
97	0xbe350bf8	-0.17680347
98	0x3e901f58	0.28148913
99	0xbee3896c	-0.44440782
100	0xbeb0525e	-0.3443784
101	0x3e7002f3	0.23438625
102	0xbed491ea	-0.41517574
103	0xbecb751d	-0.39737788
104	0xbecc566b	-0.39909682
105	0xbec89b64	-0.39181054
106	0x3f5941df	0.84866136
107	0xbe5b3c4a	-0.21409717
108	0x3b823633	0.003973746
109	0x3ed87778	0.42278647
110	0xbeb118d1	-0.34589246
111	0x3eff547b	0.4986914
112	0xbeef50ca	-0.46741325
113	0x3f47c4ca	0.7803465
114	0xbede44aa	-0.43411762
115	0x3eda728d	0.4266552
116	0x3df5df0d	0.12005434
117	0xbf23a2eb	-0.6392047
118	0xbe85d361	-0.26137832
119	0xbe553282	-0.20820048
120	0x3e03db7f	0.128767
121	0x3f17840a	0.5918585
122	0x3f06c7d3	0.5264866
123	0x3e41f38e	0.18940565
124	0xbe929e38	-0.28636336
125	0xbe0f6ab0	-0.14005542
126	0x3902b330	0.00012464519
127	0xb992ed56	-0.0002802412

decoder_lin.0.bias f4 [64]
0	0xbea5608c	-0.32300222
1	0xbeee393b	-0.46528038
2	0x3f3691cb	0.7131621
3	0xbf23f8a8	-0.64051294
4	0x3ec92f7e	0.39294046
5	0x3fe8dcb8	1.8192358
6	0x3f6e92c0	0.9319267
7	0x3eb13ec8	0.3461821
8	0x3f4259e9	0.7591844
9	0x3d106fc4	0.035262838
10	0xbecdc48f	-0.40189025
11	0x3ead83a9	0.3388951
12	0x3d37b31d	0.04484855
13	0xbee75866	-0.4518463
14	0xb7732cd4	-1.4494366e-05
15	0x3f9e5fa6	1.237294
16	0xbe1d9499	-0.15388717
17	0x3f2ed316	0.6829084
18	0x3f1ee04b	0.62060994
19	0x3f01d892	0.50721085
20	0xbef78238	-0.48341537
21	0x3fa562f2	1.2920821
22	0xbea85fcc	-0.32885587
23	0x3ecc6d34	0.39927065
24	0x3ea351fb	0.31898484
25	0x3e1f43c9	0.15553202
26	0xbdeddbb8	-0.11614174
27	0xbe998a6b	-0.29988417
28	0x3fdb9502	1.7154849
29	0x3f33e099	0.70264584
30	0x3f02bfcf	0.51073927
31	0x3f954aca	1.1663449
32	0x3f05784a	0.5213667
33	0xbdeeff2e	-0.116697654
34	0xbe94f0de	-0.29090017
35	0xbdd07f62	-0.10180546
36	0xbcf2bb88	-0.029630437
37	0x3e85a66d	0.26103535
38	0xbf4afe74	-0.79294515
39	0xbed3cf11	-0.41368917
40	0xbca2d69b	-0.019877722
41	0x3d9b2877	0.075760774
42	0xbdcb2a18	-0.09920138
43	0x3fa1b66c	1.2633796
44	0x3ec67786	0.38763064
45	0x3eb56545	0.35428825
46	0x3ec7f2f2	0.3905254
47	0x3e22cd8f	0.15898727
48	0x3f4b7e46	0.7948955
49	0x3f0c8520	0.5489063
50	0x3f439991	0.764062
51	0xbf5493e9	-0.83038193
52	0xbc48d1b9	-0.012257033
53	0x3e04d92f	0.12973474
54	0x3ecc6e30	0.39927816
55	0xbf81662d	-1.0109307
56	0xbcf0b12d	-0.029381359
57	0x3e9bf2ee	0.30458778
58	0x3d63ea56	0.055643402
59	0x3f415a49	0.7552839
60	0xbe444405	-0.19166572
61	0x3f39fec5	0.7265437
62	0x3f375c6d	0.71625406
63	0xbaa94192	-0.0012913218

decoder_lin.2.weight f4 [288, 64]
0	0xbc9a8c74	-0.018865801
1	0xbc9513fb	-0.018198004
2	0xbc2f4080	-0.01069653
3	0xbc884e5f	-0.016638933
4	0x3ce4c13b	0.02792417
5	0x3bffc237	0.0078051346
6	0xbc9fb02f	-0.01949319
7	0xbceab254	-0.028649487
8	0xbcefa65c	-0.029254131
9	0xbd36535f	-0.044513103
10	0xbcda13be	-0.026620742
11	0x3cc9e260	0.024644077
12	0xbce2236c	-0.027604781
13	0xbd0911e0	-0.033464313
14	0xb1dc80e1	-6.4174945e-09
15	0xbb7fd52e	-0.0039036977
16	0xbab6e654	-0.0013954141
17	0x3d2eb2fd	0.042651165
18	0xbd909361	-0.0705936
19	0xbc875ebf	-0.01652467
20	0x3c05e117	0.008171341
21	0xbd096409	-0.033542667
22	0x3d2b1239	0.041765425
23	0x3d59cca0	0.05317366
24	0xbce5c18f	-0.028046397
25	0x3d539a23	0.051660668
26	0xbd89658c	-0.06708822
27	0x8003de66	-3.55288e-40
28	0x3be37b10	0.0069421604
29	0x3d226ec2	0.039656408
30	0xbc750877	-0.014955631
31	0x3bb763e3	0.005596624
32	0x3b1f6a4d	0.0024324835
33	0x3751108c	1.2461223e-05
34	0x3d268d1d	0.04066192
35	0x3ceb386c	0.028713427
36	0xbccf8b88	-0.025335088
37	0xbc088232	-0.008331822
38	0xbdbac85c	-0.09120247
39	0xbdf454a9	-0.1193021
40	0xb847ffbb	-4.7683465e-05
41	0xbd3722a4	-0.04471077
42	0x3d2742d2	0.04083521
43	0x3b8ddfa5	0.004329639
44	0xbc9ef904	-0.01940585
45	0xbca81412	-0.020517383
46	0xbd04d533	-0.032429885
47	0x3974b033	0.00023335293
48	0x3cb91c68	0.022596553
49	0x3d3de3bf	0.046359774
50	0xbc863a77	-0.0163853
51	0xbd63c667	-0.055609133
52	0xbc9f90af	-0.01947817
53	0x3ced3b1c	0.02895885
54	0xbc9dbe2d	-0.019255722
55	0x80004d58	-2.7746e-41
56	0x0003ca55	3.4809e-40
57	0x39264b7c	0.00015859114
58	0x3d434978	0.047677487
59	0xbcbb74b0	-0.02288279
60	0xbcf5b167	-0.029991819
61	0xbd9d94a4	-0.076943666
62	0xbc89b0c5	-0.016807923
63	0xb827d5be	-4.0014966e-05
64	0x00028e32	2.34681e-40
65	0x8059c7f3	-8.245087e-39
66	0x986b62be	-3.042289e-24
67	0x80033b53	-2.96788e-40
68	0x80064eb6	-5.79249e-40
69	0x8001e438	-1.73705e-40
70	0x9b21c1b6	-1.3380199e-22
71	0xa041a186	-1.640118e-19
72	0xa2041b93	-1.7903934e-18
73	0x99b4772b	-1.8659695e-23
74	0x0005ed1d	5.44238e-40
75	0x80073f7e	-6.65625e-40
76	0x9c72c773	-8.0328865e-22
77	0x0002076c	1.86333e-40
78	0x800c2556	-1.11542e-39
79	0x9c37423f	-6.063524e-22
80	0xa580aab7	-2.2320141e-16
81	0x944c559d	-1.0316252e-26
82	0x0002ba08	2.50406e-40
83	0x80065652	-5.81979e-40
84	0x80021115	-1.89799e-40
85	0x80011036	-9.7651e-41
86	0x80015a9d	-1.24341e-40
87	0x07276eaa	1.2596205e-34
88	0x9a5e3d4f	-4.595805e-23
89	0x8e8a7d6f	-3.4140415e-30
90	0x0003afe4	3.38604e-40
91	0xa627163b	-5.796989e-16
92	0x80054052	-4.82251e-40
93	0x00010063	9.1974e-41
94	0xa998279d	-6.757028e-14
95	0x80014420	-1.16274e-40
96	0xa32df252	-9.429662e-18
97	0x9d86f098	-3.5718273e-21
98	0x0002ab0f	2.45035e-40
99	0x80054ef8	-4.87506e-40
100	0x9c8d8284	-9.364335e-22
101	0x0002a363	2.42283e-40
102	0x80033067	-2.9287e-40
103	0x98ae78a2	-4.5099754e-24
104	0xa59335fe	-2.5537022e-16
105	0x93e5c2a9	-5.7999677e-27
106	0x80014c52	-1.19214e-40
107	0x0006e420	6.32849e-40
108	0x0002f986	2.73183e-40
109	0x99215b3e	-8.341931e-24
110	0xa26b0d95	-3.185563e-18
111	0x971e7bf6	-5.1209014e-25
112	0x8004f1d8	-4.54099e-40
113	0x80009a15	-5.5274e-41
114	0xa6d21a2c	-1.4578771e-15
115	0x000031c7	1.7857e-41
116	0x938f5791	-3.6184622e-27
117	0x93a8705a	-4.251995e-27
118	0x0001a44b	1.50773e-40
119	0x00041e19	3.78139e-40
120	0xa9a9da17	-7.54294e-14
121	0xa3688423	-1.2604726e-17
122	0x00039d42	3.3192e-40
123	0x9767e6d8	-7.493149e-25
124	0x800360b6	-3.102e-40
125	0x8007efe0	-7.289e-40
126	0x90ceb3ac	-8.15295e-29
127	0x80028e82	-2.34793e-40
128	0xbb4474e5	-0.00299769
129	0x3ca01539	0.01954137
130	0x3cc639e1	0.02419752
131	0x3d48e3d6	0.049045406
132	0x3dab7ea1	0.08373762
133	0x3d48b6b2	0.049002357
134	0x3d64050f	0.055668887
135	0x3cf28ad8	0.029607221
136	0x3b036ef5	0.002005515
137	0xbbafdf6b	-0.0053672097
138	0x3c944ec8	0.018103972
139	0x3dfd87ea	0.12379439
140	0x3cef42e6	0.029206704
141	0x3c340bcf	0.0109891435
142	0xb556a341	-7.995878e-07
143	0x3dc0207f	0.09381198
144	0x3c886b2d	0.016652668
145	0x3c8ef56b	0.017451009
146	0xbdc15c59	-0.09441442
147	0x3c7b649e	0.015343813
148	0x3d888d27	0.06667548
149	0xbc704bc4	-0.014666501
150	0xbd00d940	-0.031457186
151	0x3e0561b7	0.13025557
152	0x3acb913e	0.0015530956
153	0x3ceaac43	0.028646594
154	0x3df13ed5	0.117795624
155	0x3dad5b46	0.08464675
156	0x3d279478	0.040913075
157	0x3dc6076f	0.096693866
158	0xbcef836c	-0.029237472
159	0x3d121868	0.035667807
160	0x3d8f66ba	0.070020154
161	0x3d2e8c8e	0.042614512
162	0xbdae164f	-0.08500349
163	0x3d40c163	0.047059428
164	0xbbc54002	-0.006019593
165	0x3d034426	0.032047413
166	0xbdbe0fae	-0.092803344
167	0xbcb9c999	-0.022679137
168	0xbce6140b	-0.02808573
169	0x3d13fda2	0.036130555
170	0x3d8abc53	0.06774201
171	0x3ce886f1	0.028384658
172	0xbd931362	-0.07181431
173	0x3d2b7ca3	0.04186691
174	0x3d177ce9	0.036984358
175	0x3c823a01	0.015896799
176	0x3e0c4a33	0.1370018
177	0x3e2a9b63	0.16660838
178	0x3d14c431	0.036319915
179	0xbcb2f02c	-0.021843038
180	0xbd93746f	-0.07199942
181	0x3d5925db	0.053014617
182	0xbddf946f	-0.10916983
183	0x3daa3f01	0.08312798
184	0x3d8dd30f	0.06925022
185	0xbad9d2e0	-0.0016618632
186	0xbbf928cb	-0.00760374
187	0x3cb526b1	0.022113176
188	0x3d925c7c	0.07146546
189	0xbdf561f5	-0.119815744
190	0x3d282cd4	0.041058376
191	0x390c348a	0.00013371013
192	0x0b4b8a09	3.9200224e-32
193	0xa025e324	-1.4051198e-19
194	0x800384e7	-3.23183e-40
195	0xa6857130	-9.259408e-16
196	0xa0d66968	-3.6322762e-19
197	0x8893c053	-8.892456e-34
198	0xa7314b28	-2.4604427e-15
199	0xa57b0e79	-2.1775683e-16
200	0xa7ae55c7	-4.83877e-15
201	0x9a0b410c	-2.879707e-23
202	0x959c1c83	-6.305288e-26
203	0x9ed520ae	-2.2565768e-20
204	0xa69cb360	-1.0873294e-15
205	0x944fc16c	-1.0488975e-26
206	0x0000ea5f	8.4077e-41
207	0x000af1bd	1.005074e-39
208	0x00013115	1.09443e-40
209	0xb0ab3423	-1.2456706e-09
210	0xaa0b2cb9	-1.2361196e-13
211	0x0604aa3f	2.4951518e-35
212	0x90705346	-4.7395806e-29
213	0x8003c650	-3.46648e-40
214	0xa0e0b9ca	-3.807002e-19
215	0xacb36143	-5.098284e-12
216	0xa14618ce	-6.711784e-19
217	0xafc8eed3	-3.6549483e-10
218	0x80057d8d	-5.04217e-40
219	0x00097416	8.68163e-40
220	0x0fcfc654	2.0488169e-29
221	0x9fa91200	-7.160406e-20
222	0x000481a1	4.13844e-40
223	0x800174ab	-1.33688e-40
224	0x800556c3	-4.90302e-40
225	0x80087832	-7.77802e-40
226	0xa3c9a18d	-2.1860883e-17
227	0x00495e8b	6.737907e-39
228	0xa3851c2a	-1.4431817e-17
229	0x0007336e	6.61298e-40
230	0x80041376	-3.74323e-40
231	0x80f3d40d	-2.2392095e-38
232	0x8001b9b5	-1.58455e-40
233	0x968c75f8	-2.2692669e-25
234	0x9ab674ff	-7.546245e-23
235	0x0001b280	1.55869e-40
236	0x00080bf9	7.38979e-40
237	0x000381ad	3.22025e-40
238	0xa61207d9	-5.066456e-16
239	0x8000c151	-6.9349e-41
240	0x0bf56fc0	9.453871e-32
241	0xa96e6769	-5.293631e-14
242	0x8000e063	-8.0495e-41
243	0x83860580	-7.877075e-37
244	0x9face5eb	-7.32252e-20
245	0xb0b9a644	-1.3507777e-09
246	0x8008e6be	-8.17459e-40
247	0x00034092	2.9867e-40
248	0x8006b466	-6.15728e-40
249	0x000839f1	7.5547e-40
250	0xa9e598dc	-1.019616e-13
251	0x9badc226	-2.8745915e-22
252	0x00020648	1.85924e-40
253	0xa12e3959	-5.902939e-19
254	0x9429d360	-8.574006e-27
255	0x0010c2ee	1.539296e-39

decoder_lin.2.bias f4 [288]
0	0x3b27e1fe	0.002561688
1	0x80009d97	-5.6533e-41
2	0x3ceeadb0	0.029135555
3	0x00077879	6.86066e-40
4	0x3d619324	0.055071965
5	0x3da0605b	0.07830878
6	0xbdec41b5	-0.1153597
7	0xbe4b1971	-0.19833924
8	0x3d393cfe	0.045224182
9	0xbc8ff647	-0.017573489
10	0x3db02004	0.085998565
11	0x3d57de8c	0.05270247
12	0xbcab2f6b	-0.020896634
13	0x9896d337	-3.8987364e-24
14	0xabb67026	-1.2963005e-12
15	0xb76a3d7d	-1.3961803e-05
16	0x3db1dbb2	0.08684482
17	0xad48cf08	-1.1414654e-11
18	0x3d82290b	0.063554846
19	0x3c618f05	0.013767009
20	0xb7674018	-1.3783596e-05
21	0x3d589d6c	0.052884504
22	0x00075783	6.74242e-40
23	0x3e32881f	0.17434739
24	0x8003986e	-3.30188e-40
25	0xafab7553	-3.1188083e-10
26	0x8005c384	-5.29315e-40
27	0xbc0c8c19	-0.008578324
28	0x39f98266	0.00047590135
29	0x3d7874fc	0.06065844
30	0x93db1c0c	-5.531103e-27
31	0x3d17d507	0.037068393
32	0x3e618bc0	0.22025967
33	0x3dc706ba	0.0971808
34	0x3e60742b	0.21919315
35	0x3c7edeb1	0.015556023
36	0xa58d9a79	-2.4564276e-16
37	0x00059a0d	5.1444e-40
38	0xb953c94d	-0.00020197518
39	0x23e84ab0	2.5185122e-17
40	0xad86180a	-1.5244712e-11
41	0xb331cc66	-4.1396923e-08
42	0xb9919a3c	-0.0002777147
43	0xb7c70258	-2.372374e-05
44	0x3e217dcb	0.15770642
45	0x3d0608d8	0.032723278
46	0x3c82514b	0.015907904
47	0x3b24b0c2	0.002512977
48	0x099330aa	3.5434726e-33
49	0xbaf5a590	-0.0018741358
50	0x0ac1e9c5	1.8673158e-32
51	0xbe4fdaf2	-0.20298365
52	0x97ac4162	-1.1131744e-24
53	0x3e4b80e5	0.19873388
54	0x3d494ae2	0.04914368
55	0xbc0630a5	-0.008190309
56	0x3d07f509	0.033192668
57	0xbc3dcf48	-0.011585064
58	0x8003c111	-3.44766e-40
59	0xbd4dea59	-0.05027232
60	0xb5ecd23a	-1.7644554e-06
61	0xb30d108b	-3.2844166e-08
62	0x3c797f40	0.015228093
63	0x3dc3a604	0.09553149
64	0x963b3930	-1.5123785e-25
65	0x3dbfb52e	0.09360729
66	0x9660f817	-1.8172859e-25
67	0x3e38f097	0.18060528
68	0x3dd80acc	0.10548934
69	0x3d4f355d	0.050588
70	0x3d4c9198	0.049943537
71	0x3d5f6c87	0.05454686
72	0x00060933	5.54313e-40
73	0x8003ca8a	-3.48164e-40
74	0x3e44877a	0.19192305
75	0x3e4082d0	0.18799901
76	0x8001d497	-1.68098e-40
77	0x3da1f910	0.07908833
78	0x3e211210	0.15729547
79	0xba2e03e1	-0.0006638151
80	0x3dea6e83	0.1144686
81	0xbc104450	-0.0088053495
82	0x3dce8255	0.100834526
83	0x3d156883	0.036476623
84	0x00012d37	1.08056e-40
85	0xbb739db6	-0.003717286
86	0x3d9f7ce6	0.07787494
87	0xa03a43a9	-1.57772e-19
88	0xb4ec4610	-4.4009403e-07
89	0x3cde7207	0.027153982
90	0x00057916	5.02615e-40
91	0xaa45be06	-1.7563042e-13
92	0xbaaac6c3	-0.0013029206
93	0x3de85d76	0.11345951
94	0x21519181	7.1004527e-19
95	0x9d3afc30	-2.4747273e-21
96	0x3e017b3b	0.12644665
97	0x3eca1be3	0.394744
98	0x3d55278f	0.05203968
99	0x3d30b02a	0.043136753
100	0x3dce7446	0.10080771
101	0x3d76cc2c	0.060253307
102	0x3e52aacc	0.20572966
103	0x9cefe8e3	-1.5875893e-21
104	0xbb654dd9	-0.0034989028
105	0xb94add5a	-0.00019346681
106	0xbaf15d26	-0.0018414601
107	0xa2c9a050	-5.4650897e-18
108	0x3cb2d99f	0.021832285
109	0x80012c07	-1.0763e-40
110	0xbc4966e0	-0.012292594
111	0xbd43af9a	-0.04777489
112	0x3e517bdd	0.20457406
113	0xbe4e8508	-0.20167935
114	0x80065e57	-5.84856e-40
115	0xbc4d6593	-0.012536424
116	0x3da7e849	0.08198602
117	0x800130cb	-1.09339e-40
118	0x3e54fad0	0.20798802
119	0xbdb252ba	-0.08707185
120	0x80042ead	-3.84086e-40
121	0x3de1032a	0.109869316
122	0x3dd8bd03	0.10582926
123	0x3d32d59e	0.043660752
124	0x0001faa0	1.81743e-40
125	0x3e0f0d0e	0.13969824
126	0x3d03ba8b	0.032160323
127	0x3e0070f6	0.12543091
128	0x3de72236	0.11285822
129	0x3c99ab6c	0.018758498
130	0xbcf52694	-0.029925622
131	0x3d57c170	0.05267471
132	0xbc86f4d4	-0.016474165
133	0xbddaee3a	-0.10689969
134	0x3d8be421	0.068306215
135	0x3d0dd666	0.034628294
136	0x3edb452c	0.4282621
137	0x00043a05	3.88155e-40
138	0xbc0dff26	-0.008666789
139	0x3d750f28	0.059828907
140	0x3c313e99	0.010818147
141	0x3bff6c81	0.007794917
142	0x3c5596dd	0.013036457
143	0x3e43144a	0.19050708
144	0xbc4e08e9	-0.0125753665
145	0x3dd62ce7	0.10457783
146	0x3d3b1891	0.045677725
147	0x3e081537	0.13289343
148	0x80054ae2	-4.8604e-40
149	0x981baa11	-2.0119142e-24
150	0x3e574987	0.21024142
151	0x3e278c39	0.16362084
152	0xbb824bb2	-0.0039763087
153	0xb0499791	-7.3338763e-10
154	0x800216f1	-1.91901e-40
155	0x3c897138	0.01677762
156	0x80026319	-2.1922e-40
157	0x3e8f924d	0.28041306
158	0xbafaa245	-0.0019121846
159	0xbd8a7a12	-0.06761564
160	0x800bac5a	-1.072019e-39
161	0x3d1840f4	0.03717132
162	0x3d53b545	0.051686544
163	0x80070c24	-6.47204e-40
164	0x3c94667f	0.01811528
165	0xb3200bc5	-3.7263607e-08
166	0x8001493d	-1.18108e-40
167	0x3e0bdb67	0.13657914
168	0x80011e9a	-1.02813e-40
169	0x80dd3df3	-2.0317868e-38
170	0x2fe92788	4.2410542e-10
171	0x3d9938d1	0.0748154
172	0x0005f690	5.47627e-40
173	0x3c4072ac	0.01174609
174	0xbd522e8e	-0.05131393
175	0xbbdea303	-0.006794335
176	0xbce43ca6	-0.02786095
177	0x3d316b27	0.04331508
178	0xbdfcd2bf	-0.12344884
179	0x3e19ec9c	0.15031666
180	0x3bde97c8	0.006792996
181	0xb43303d2	-1.6672064e-07
182	0x800340f4	-2.98807e-40
183	0x3c349676	0.011022201
184	0x3d6765bb	0.056493502
185	0xbda1afa9	-0.07894833
186	0x000254ed	2.14137e-40
187	0x0005baa5	5.26133e-40
188	0x9f09a29e	-2.9145392e-20
189	0x3da72895	0.08162037
190	0xae97682e	-6.885191e-11
191	0x3da50065	0.08056716
192	0xb5c8cfcb	-1.4961637e-06
193	0xb948b86f	-0.00019142193
194	0x3e10b5bd	0.14131828
195	0xae4650d1	-4.5091767e-11
196	0x3e2b3d36	0.16722569
197	0x3d3cb703	0.04607297
198	0xbbb23ff0	-0.005439751
199	0x3dbb031b	0.09131452
200	0x3cf8bc99	0.030363368
201	0x3e24d781	0.16097833
202	0x0004e7c9	4.50491e-40
203	0x3e46f1c6	0.19428167
204	0xb6231e2f	-2.4306462e-06
205	0x3cdcc0f2	0.026947472
206	0xbe70050c	-0.23439425
207	0xbda68c6e	-0.081322536
208	0x3d141384	0.036151424
209	0x3d7d5f78	0.061858624
210	0x3dbcbd1b	0.092157565
211	0xb9584630	-0.00020625512
212	0xb59d0f64	-1.1701891e-06
213	0xbd2addd4	-0.041715458
214	0x3e038d23	0.12846808
215	0xa22662da	-2.2549527e-18
216	0xbd23328d	-0.03984313
217	0x3e10299c	0.14078373
218	0x8006d292	-6.26551e-40
219	0x3d926c49	0.0714956
220	0xba6e107e	-0.0009081437
221	0x9667c327	-1.8721611e-25
222	0xbd106617	-0.03525361
223	0xb0e3c2f6	-1.6571835e-09
224	0xbbbb81d3	-0.0057222634
225	0x3c594662	0.0132614095
226	0xbca22f4d	-0.019797945
227	0x2da7407b	1.9014337e-11
228	0x3d882ee3	0.06649568
229	0x3d7fc3a3	0.062442433
230	0x0064b0a9	9.246923e-39
231	0x3de1ddbd	0.11028621
232	0xba6e5b63	-0.0009092597
233	0x250875c2	1.1836018e-16
234	0x3d2ceca6	0.042217873
235	0xbc54c61d	-0.012986687
236	0xb41c0d2f	-1.4533428e-07
237	0x3d758a8b	0.059946578
238	0x3dd4a7f6	0.103835985
239	0xb20dd86b	-8.256488e-09
240	0x3dc87c4d	0.097893335
241	0x3e068cfd	0.1313972
242	0x3de7d9cb	0.113208376
243	0x3c9da6ac	0.019244514
244	0x8005a668	-5.18873e-40
245	0xb0bb68cd	-1.3635827e-09
246	0x8006a1fc	-6.09122e-40
247	0xba852577	-0.001015826
248	0x827dd40b	-1.8648358e-37
249	0x3e1e1030	0.15435863
250	0xb94a2f79	-0.00019281906
251	0x3e230c8b	0.15922754
252	0x3d5fbaae	0.05462139
253	0x3de82a05	0.113361396
254	0x3dc5e23c	0.096622914
255	0x3e0a59bc	0.13510793

decoder_conv.0.weight f4 [32, 16, 3, 3]
0	0xbd07a467	-0.03311577
1	0xbe2a6f52	-0.16644028
2	0x3c8f12f1	0.017465087
3	0xbe3e44aa	-0.18580881
4	0xbe55a917	-0.20865284
5	0xbbb750d6	-0.005594353
6	0xbe93ae18	-0.2884376
7	0x3d2b0446	0.041752122
8	0xbd1695b1	-0.03676385
9	0x3de8d042	0.11367847
10	0xbe6e7fab	-0.23290889
11	0xbe2cee1f	-0.16887711
12	0xbd3af09d	-0.045639623
13	0xbe82e0b9	-0.25562075
14	0xbd9f6bdd	-0.07784245
15	0xbd02321b	-0.031786066
16	0x3cab081a	0.020877887
17	0x3e4a24d3	0.1974061
18	0xbd2f00a0	-0.042725205
19	0xbdbcdf4f	-0.0922228
20	0x3dd66c66	0.10469894
21	0xbd5e969a	-0.054342844
22	0x3c1b5248	0.009480067
23	0xbc94a788	-0.018146291
24	0x3d8dfe46	0.069332644
25	0x3db96dfe	0.090541825
26	0x3d17b9c0	0.03704238
27	0xbcff9d7e	-0.031203028
28	0x3dcfc484	0.10144904
29	0xbc3554db	-0.011067594
30	0x3d0af718	0.033927053
31	0xbe4cbc03	-0.19993596
32	0xbd5edf11	-0.05441195
33	0xbe36c55e	-0.17848727
34	0xbd85e7e1	-0.06538368
35	0xbd257aa8	-0.040400177
36	0x3d6dfd56	0.058102928
37	0xbda4db6e	-0.080496654
38	0x3bafbc6b	0.0053630373
39	0xbd7a2fb4	-0.06108065
40	0xbe2b8a1f	-0.16751908
41	0x3e5b6d4c	0.21428412
42	0xbd73319d	-0.059373487
43	0xbd736d53	-0.05943043
44	0x3e4525bc	0.19252676
45	0x3c096aca	0.008387277
46	0xbd0bb1cc	-0.034105107
47	0x3dfc948f	0.12333023
48	0x3dd2497a	0.10267921
49	0xbecb2b50	-0.39681482
50	0xbe4059a8	-0.18784201
51	0xbe1106e8	-0.14162791
52	0x3d87cdd4	0.066310555
53	0x3d2b736d	0.041858125
54	0x3d742666	0.059606932
55	0xbd9863d3	-0.07440915
56	0x3cc16bca	0.023610968
57	0xbd687d5f	-0.05676019
58	0xbd9824cc	-0.074288934
59	0x3e55a5b9	0.20864
60	0xbe921a4f	-0.28535697
61	0x3dc20b6c	0.09474835
62	0x3d94775e	0.0724933
63	0xbc26b767	-0.010175562
64	0xbdfb371d	-0.122663714
65	0x3d5b866e	0.053595
66	0x3d44e88f	0.048073348
67	0xbe331b18	-0.17490804
68	0xbd8aad78	-0.06771368
69	0xbd9a0fd5	-0.07522551
70	0x3c575e5a	0.013145054
71	0x3dc8d36f	0.09805953
72	0xbc242aa6	-0.010019934
73	0x3d836469	0.06415636
74	0xbc97a383	-0.018510586
75	0x3e19104f	0.14947627
76	0x3d855de0	0.06512046
77	0xbd070345	-0.032962102
78	0xbe22541b	-0.15852396
79	0xbd47ebe9	-0.048808966
80	0x3d9f9b18	0.07793254
81	0xbd518903	-0.051156055
82	0xbcc80f50	-0.024421364
83	0x3d93d039	0.0721745
84	0xbbe2e955	-0.006924788
85	0x3d9a333d	0.07529304
86	0x3d2293b1	0.03969163
87	0xbd8d4d1f	-0.06899475
88	0xbe1eda75	-0.15513022
89	0xbe57cf46	-0.21075162
90	0x3dd23d92	0.1026565
91	0xbd21faaf	-0.03954571
92	0x3d6e214a	0.058137216
93	0x3d142298	0.036165804
94	0xbe5ca64d	-0.21547814
95	0xbdb8cf50	-0.09023917
96	0x3dc38d1a	0.09548397
97	0x3d80212e	0.062563285
98	0x3cc476f6	0.023982506
99	0x3ccb1834	0.024791814
100	0xbd661ab8	-0.056177825
101	0x3b132062	0.0022449722
102	0xbd815e5d	-0.063168265
103	0xbddaf83e	-0.1069188
104	0x3c08b3f6	0.008343687
105	0xbcdce83c	-0.026966207
106	0xbd7ea43a	-0.062168337
107	0x3ddec369	0.10877115
108	0xbe1f8089	-0.15576376
109	0xbe52b481	-0.2057667
110	0x3dbbceee	0.09170328
111	0xbc59d3a3	-0.013295087
112	0xbca4e0e7	-0.020126773
113	0x3e77fabd	0.24216743
114	0xbe9293ce	-0.2862839
115	0x3c0e5e00	0.0086894035
116	0xbc6a0070	-0.014282331
117	0xbc31e59f	-0.010857969
118	0xbe77b082	-0.24188426
119	0xbd361123	-0.044449937
120	0x3e22cc8b	0.1589834
121	0x3d8c0ea6	0.068387315
122	0xbdeab078	-0.1145944
123	0x3c2db2f9	0.010601752
124	0x3db18531	0.08667982
125	0xbc0c073e	-0.008546649
126	0xbd00c341	-0.03143621
127	0xbd91fda6	-0.07128458
128	0xbdda1069	-0.10647661
129	0xbe2f96ce	-0.17147371
130	0xbe1f2b71	-0.15543915
131	0x3c92941d	0.017892892
132	0xbe0944a2	-0.13405088
133	0xbe7171a1	-0.23578502
134	0xbe52a500	-0.20570755
135	0xbe05ed60	-0.13078833
136	0x3cfe4626	0.031039309
137	0x3e02ea1f	0.12784623
138	0xbd6c09e0	-0.057626605
139	0xbe56e62e	-0.20986244
140	0xbd3b079c	-0.045661554
141	0xbc851f49	-0.01625027
142	0x3e0fccd9	0.14042987
143	0xbd160967	-0.03663006
144	0xbe0ed8eb	-0.13949935
145	0x3d960145	0.07324461
146	0x3e195b91	0.14976336
147	0x3b9678f9	0.004592058
148	0xbe002fc4	-0.12518221
149	0x3d9d6c8b	0.076867186
150	0xbe3529e3	-0.1769176
151	0xbc117bae	-0.008879585
152	0xbdf0a0bd	-0.117494084
153	0x3c223ab9	0.009901696
154	0x3d788ea9	0.060682926
155	0x3df59cde	0.11992811
156	0x3d53b376	0.05168482
157	0xbdb7120d	-0.0893899
158	0xbd28cef9	-0.04121301
159	0xbdf5d969	-0.12004358
160	0xbdcb6369	-0.0993107
161	0xbd7292b7	-0.05922195
162	0x3d49d0fb	0.049271565
163	0x3db42c3c	0.087974995
164	0x3e1048ee	0.1409032
165	0xbd46f046	-0.048568986
166	0xbd2644dc	-0.040593013
167	0xbd10d7e3	-0.035362136
168	0xbddb5c96	-0.10711019
169	0x3d912487	0.07087045
170	0xbcd598de	-0.02607387
171	0xbcef32c9	-0.029199021
172	0x3e33abd9	0.17546023
173	0x3e07543b	0.13215725
174	0xbcd38095	-0.025818149
175	0xbd61565c	-0.055014
176	0x3d78ef17	0.06077489
177	0x3c8644bc	0.016390197
178	0xbdd97296	-0.10617559
179	0xbe1cc476	-0.15309319
180	0x3c669540	0.01407367
181	0x3e03f1ce	0.1288521
182	0x3ddbcfba	0.1073298
183	0xbded49d9	-0.11586351
184	0xbcd7a3c2	-0.026323203
185	0xbb07c85e	-0.0020718793
186	0xbde33e3c	-0.11095855
187	0xbe0cc032	-0.13745192
188	0xbe07e51a	-0.13270989
189	0x3d761fdd	0.06008898
190	0x3e38af57	0.18035637
191	0x3e58630b	0.21131532
192	0xbda2a324	-0.07941273
193	0x3d2d5eb5	0.042326648
194	0x3dda7561	0.106669195
195	0xbe136148	-0.14392579
196	0xbe5e6787	-0.2171918
197	0xbca76399	-0.020433234
198	0x3df8d7fa	0.12150569
199	0x3eaae3a4	0.333768
200	0x3dd7bd9c	0.10534212
201	0xbd28db5b	-0.04122482
202	0x3d40c948	0.047066957
203	0x3cf15d4a	0.029463429
204	0xbe322ef3	-0.17400722
205	0xbdfc4d45	-0.123194255
206	0x3c1b7419	0.009488129
207	0x3d836bff	0.06417083
208	0x3e220dd5	0.15825589
209	0xbd501231	-0.0507986
210	0xbd3bd5bf	-0.04585814
211	0xbcef0257	-0.02917592
212	0x3de62306	0.11237149
213	0xbd8797fe	-0.06620787
214	0xbe8b4266	-0.27199095
215	0xbe0486d7	-0.12942062
216	0xbc2e5c86	-0.0106421765
217	0xbe489ee9	-0.1959187
218	0xbca4bdab	-0.020109972
219	0x3dcc3079	0.09970183
220	0x3dc8c277	0.09802716
221	0x3c2a43ac	0.010392111
222	0x3b882ede	0.0041559776
223	0x3e0633e2	0.13105729
224	0xbcce0eef	-0.025153605
225	0x3d831e68	0.06402284
226	0xbda03aa9	-0.078236885
227	0x3df7e145	0.12103514
228	0x3caec41e	0.02133375
229	0xbe746ead	-0.23870344
230	0x3e66f3d2	0.22553948
231	0xbc146e95	-0.009059568
232	0xbde0f687	-0.10984521
233	0x3bbefd17	0.0058285105
234	0xbcb27b74	-0.021787383
235	0x3d05d989	0.03267816
236	0x3ddc2782	0.10749723
237	0x3d35aca5	0.0443541
238	0xbbefd722	-0.007319347
239	0xbc87c204	-0.016572006
240	0x3c977da9	0.018492537
241	0xbe1734e8	-0.14766276
242	0xbd0be2ef	-0.034151968
243	0x3d8d6e67	0.06905823
244	0x3d0cc35a	0.03436599
245	0x3cfdf145	0.030998835
246	0x3e1d1c97	0.15342937
247	0xbc16999c	-0.009191897
248	0x3c2bcd15	0.010485907
249	0xbdc713a6	-0.097205445
250	0xbcbec75c	-0.023288421
251	0x3d1addcf	0.03780919
252	0x3c846d8d	0.01616552
253	0xbcd6a3a6	-0.02620108
254	0x3e0e7378	0.13911235
255	0xbd917a41	-0.07103396

decoder_conv.0.bias f4 [16]
0	0x3f194705	0.5987399
1	0xbdbb6b76	-0.09151356
2	0x3e7de96f	0.24796079
3	0x3e316db0	0.17326999
4	0x3d8bc829	0.06825287
5	0x3f203362	0.62578404
6	0x3f42e6ad	0.76133233
7	0x3e9bb1ad	0.30408993
8	0x3eb14a34	0.34626925
9	0xbf00ddc0	-0.50338364
10	0x3ec0dcee	0.37668556
11	0x3ecf3851	0.40472654
12	0x3d857dd7	0.06518143
13	0x3e9ce4cd	0.3064331
14	0x3e10bdb0	0.1413486
15	0x3de72658	0.1128661

decoder_conv.2.weight f4 [16, 8, 3, 3]
0	0xbe6d20d5	-0.23157056
1	0xbe84e24d	-0.25953904
2	0xbccc7a97	-0.0249608
3	0xbe5b8e75	-0.21441062
4	0xbf1e4744	-0.6182749
5	0xbe31a6bd	-0.17348762
6	0x3bab432b	0.005226513
7	0x3d5f8920	0.054574132
8	0x3dbaaf55	0.09115473
9	0x3ddefcf0	0.10888088
10	0x3ebcb515	0.36856905
11	0x3e2143b3	0.15748481
12	0x3eb30a74	0.34968913
13	0xbe7326ec	-0.23745316
14	0x3e1ee938	0.15518653
15	0xbe2ca259	-0.16858806
16	0xbd51bcea	-0.051205553
17	0xbc893676	-0.016749602
18	0x000505be	4.61237e-40
19	0xbe3197a3	-0.17343001
20	0x800745bb	-6.67863e-40
21	0xbe5c93f2	-0.21540812
22	0xbea0d9f1	-0.31416276
23	0x3d11f324	0.035632268
24	0x000b893c	1.059421e-39
25	0xbe7c4ed8	-0.24639452
26	0x80009e3f	-5.6768e-41
27	0x3e68e93b	0.2274522
28	0x3ee53c96	0.44772786
29	0x3ef15405	0.47134414
30	0xbdd0ec3b	-0.102013074
31	0x3eb3d670	0.3512454
32	0xbdeea7ce	-0.116531
33	0x3d9432a0	0.072362185
34	0xbdceba88	-0.10094172
35	0xbe19ed8d	-0.15032025
36	0xbe346cf6	-0.1761969
37	0xbed5fb32	-0.4179321
38	0xbe9617b5	-0.29314962
39	0x3e32494d	0.17410775
40	0x3c04e155	0.008110364
41	0x3e7b9740	0.24569416
42	0xbd8d81ea	-0.06909545
43	0x3e139f81	0.14416315
44	0x3e4bd491	0.19905306
45	0xbde4796c	-0.11155972
46	0x3cb328bf	0.021870015
47	0x3e45fcd4	0.19334728
48	0xbc97d2e1	-0.018533172
49	0x3e30b25b	0.17255537
50	0x3db7618c	0.089541525
51	0xbddb1f49	-0.106993265
52	0x3dd550b6	0.10415785
53	0x3b9106ac	0.004425844
54	0x3e0006cb	0.12502591
55	0x3e7f9333	0.24958496
56	0x3e268383	0.16261105
57	0x3f1b5575	0.6067727
58	0x3ea1fa7c	0.31636417
59	0x3eb362b0	0.3503623
60	0x3e1f0c29	0.15531982
61	0x3e626c6a	0.22111669
62	0x3d05f5e3	0.0327052
63	0xbd2300da	-0.039795734
64	0x3e1a8869	0.15091099
65	0x3e1c833b	0.15284435
66	0x3dd9ee2e	0.10641132
67	0xbcb31250	-0.021859318
68	0xbd98b286	-0.07455926
69	0xbd39c922	-0.04535783
70	0xbddda4f2	-0.108224764
71	0x3cb33de0	0.02188009
72	0xbd6572c8	-0.056017667
73	0x3cd2bba1	0.025724234
74	0x3e5e9105	0.21735008
75	0xbdaeada2	-0.085292116
76	0xbe04bb23	-0.12962012
77	0xbf140aac	-0.57828784
78	0x3c7c67b9	0.015405589
79	0xbe759bdc	-0.23985237
80	0xbe2fba39	-0.17160882
81	0xbe1a0dcb	-0.15044324
82	0xbd371537	-0.044697966
83	0xbdf1a9f8	-0.11799997
84	0x3ea9d520	0.33170414
85	0x3d7b93f8	0.06142041
86	0xbcb84d93	-0.022497928
87	0x3d99e7a8	0.07514888
88	0x3d0eccde	0.034863345
89	0x3cf64ccf	0.030065922
90	0x000169a5	1.29734e-40
91	0xbea510b2	-0.322393
92	0x00075594	6.73548e-40
93	0x3dbe4f24	0.092924386
94	0xbd1ca2d6	-0.03824123
95	0x3e34f50e	0.17671606
96	0x8006e5f2	-6.33502e-40
97	0x3e10e878	0.1415118
98	0x00055928	4.91161e-40
99	0x3cd1a5c8	0.025591746
100	0xbcb499e6	-0.02204604
101	0x3d3814c4	0.04494168
102	0x3e66518d	0.22492047
103	0x3e9a0946	0.300852
104	0xbcd86c59	-0.026418852
105	0x3e3acf87	0.18243228
106	0x3e87afd8	0.26501346
107	0xbe78538f	-0.24250625
108	0x3d4858f0	0.048912942
109	0xbc9f6be3	-0.019460624
110	0x3dc26bb0	0.09493196
111	0xbe88b986	-0.26704043
112	0xbefd2119	-0.49439314
113	0xbc36b38a	-0.011151204
114	0xbe86ad6a	-0.2630418
115	0xbeed93bd	-0.46401778
116	0xbc1d5182	-0.0096019525
117	0xbc7aa848	-0.01529891
118	0xbd4ea5d4	-0.050451115
119	0xbd775ba4	-0.06039013
120	0xbed3836b	-0.413112
121	0x3db330cf	0.08749544
122	0x3e07adad	0.13249846
123	0xbdba8fda	-0.09109469
124	0x3e05d5e4	0.13069874
125	0x3e1b7f9a	0.15185395
126	0x3e0155b6	0.12630352
127	0x3de55391	0.1119758
128	0x3e2796ec	0.16366166
129	0x3eb26512	0.34842736
130	0x3e69902a	0.228089
131	0xbdb9b4ad	-0.09067664
132	0x3e780d78	0.24223888
133	0x3e94dac9	0.2907317
134	0xbdd11d41	-0.10210658
135	0xbdd6ae33	-0.104824446
136	0x3d8e2622	0.06940867
137	0xbe0404df	-0.12892483
138	0x3d1191c0	0.03553939
139	0xbaca2c76	-0.0015424627
140	0xbdb916e7	-0.090375714
141	0x3cbbf817	0.022945447
142	0x3de4a18d	0.11163626
143	0x3c0063d4	0.007836301
144	0xbe979b22	-0.29610544
145	0xbe05885e	-0.13040301
146	0xbd496815	-0.049171526
147	0xbcec1665	-0.028819272
148	0xbd9fd2d5	-0.07803885
149	0xbdf513c0	-0.11966658
150	0xbe04c7e3	-0.12966876
151	0xbede9882	-0.4347573
152	0xbcf1a377	-0.029496891
153	0xbd9089e4	-0.070575505
154	0x3db2b399	0.08725662
155	0x3a83572c	0.0010020486
156	0x3ded20eb	0.11578544
157	0x3d342a22	0.043985493
158	0x3dd84546	0.10560088
159	0x3e834aea	0.25643092
160	0x3e5c8419	0.21534766
161	0x3d9fadf4	0.07796851
162	0x80078d96	-6.9364e-40
163	0xbdea3295	-0.11435429
164	0x80044754	-3.9293e-40
165	0x3e2894ad	0.16462965
166	0x3bd7d851	0.006587066
167	0xbeb61a88	-0.35567117
168	0x00015b1f	1.24524e-40
169	0x3e783a08	0.24240887
170	0x0000ceb9	7.4158e-41
171	0xbbdfb87a	-0.0068274112
172	0x3e03e73b	0.12881176
173	0x3e11bc84	0.14232069
174	0xbc871747	-0.016490592
175	0x3dba2ec4	0.09090951
176	0x3dae062a	0.084972695
177	0xbd39fe7d	-0.045408715
178	0x3ec3c47d	0.38235846
179	0x3ec9412b	0.39307532
180	0xbca18cfa	-0.019720543
181	0xbbd2f0a2	-0.006437377
182	0xbdb0316f	-0.08603179
183	0xbecb6e0c	-0.39732397
184	0xbed68957	-0.41901657
185	0xbe83472d	-0.2564024
186	0x3b8e9050	0.0043506995
187	0x3dcbaaf1	0.09944714
188	0x3e25870c	0.16164798
189	0x3c832b2f	0.016011802
190	0x3db0c358	0.08631009
191	0x3cb712e0	0.022347867
192	0xbc087f8c	-0.008331191
193	0x3db5743e	0.08860062
194	0xbcd4f4d4	-0.02599565
195	0xbdcdc04c	-0.10046443
196	0x3dff2364	0.12457922
197	0x3e54bb97	0.20774685
198	0xbd214c22	-0.039379247
199	0xba3d56fd	-0.000722274
200	0x3e588d7c	0.21147722
201	0xbcd2c1d2	-0.025727186
202	0x3da24dd9	0.079250045
203	0x3e54c6e4	0.20778996
204	0x3e50da08	0.20395672
205	0x3e3c650a	0.18397918
206	0x3e04b982	0.1296139
207	0xbc30e50b	-0.010796796
208	0x3b7a774c	0.003821808
209	0x3dbb0a9e	0.091328844
210	0xbd1e2526	-0.038609646
211	0x3ceb8bae	0.028753128
212	0x3d6be3b0	0.057590187
213	0x3df4c385	0.11951355
214	0x3e6edda9	0.23326744
215	0xbc24c330	-0.010056302
216	0xbe2d2b14	-0.16910964
217	0x3d74fd02	0.0598116
218	0x3e6db85c	0.23214859
219	0xbe2948af	-0.16531633
220	0xbd10fb4d	-0.03539591
221	0x3e866e2d	0.26255932
222	0xbe041b2b	-0.12900989
223	0xbb0e6981	-0.0021730366
224	0x3c34bdd8	0.01103159
225	0x3bafa1ad	0.0053598494
226	0x3cb694b2	0.0222877
227	0xbd8039ff	-0.06261062
228	0x3d15023e	0.03637909
229	0x3d36680e	0.044532828
230	0x3e03e2c7	0.12879477
231	0x3d7c4275	0.061586816
232	0xbbaf0f20	-0.005342379
233	0x3dad46b3	0.084607504
234	0x00013290	1.09974e-40
235	0xbb985028	-0.0046482272
236	0x00038234	3.22215e-40
237	0xbdce8a10	-0.10084927
238	0xbd44e8bd	-0.04807352
239	0xbcf94385	-0.030427704
240	0x0004866c	4.15563e-40
241	0xbcde120f	-0.02710822
242	0x00080862	7.37691e-40
243	0x3dbb91ab	0.09158643
244	0xbe140bbd	-0.14457603
245	0xbdbe4e0d	-0.09292231
246	0x3dbf2ce2	0.093347326
247	0x3e7afea2	0.24511197
248	0xbe81a86c	-0.25323808
249	0xbe1dd2aa	-0.15412393
250	0x3d04a9f3	0.03238864
251	0xbcea81d0	-0.028626353
252	0xbd19a70f	-0.037512835
253	0xbe769c09	-0.2408296
254	0xbd14e5cc	-0.036351964
255	0xbebeac6c	-0.37240922

decoder_conv.2.bias f4 [8]
0	0x3f409912	0.75233567
1	0x3e12a67a	0.14321318
2	0xbe57c469	-0.21071018
3	0x3ec7065f	0.38872048
4	0x3eddb61c	0.43303
5	0x3e05a77d	0.13052173
6	0xbca74d9f	-0.020422755
7	0x3e2aba0c	0.16672534

decoder_conv.4.weight f4 [8, 1, 3, 3]
0	0x3ee30c56	0.4434535
1	0x3f80cb16	1.0061977
2	0x3f2dcda1	0.6789189
3	0x3f4ac939	0.7921329
4	0x3fbe7703	1.488007
5	0x3f67142a	0.9026514
6	0x3f0856b3	0.5325729
7	0x3f5c0bf5	0.85955745
8	0x3ed853bf	0.42251393
9	0xbdc29fce	-0.095031366
10	0xbf11cf6c	-0.56957126
11	0xbe46e5dd	-0.19423623
12	0x3d9e5ab8	0.07732147
13	0xbf086f57	-0.5329489
14	0xbd79efe2	-0.061019786
15	0xbe3eb9ac	-0.18625516
16	0xbf0d6e41	-0.5524636
17	0xbe51e795	-0.20498498
18	0x3eaa5867	0.3327057
19	0x3f1d973f	0.6155891
20	0x3ef468dd	0.47736254
21	0x3f37b370	0.71758175
22	0x3f89a96c	1.0754828
23	0x3f3d993b	0.74061936
24	0x3ee0db14	0.43917143
25	0x3f15b927	0.58485645
26	0x3e9f710e	0.3114094
27	0xbe54de0b	-0.20787828
28	0xbef521ed	-0.47877446
29	0xbefacdd9	-0.48985174
30	0xbf30fefe	-0.6913909
31	0xbf96d740	-1.1784439
32	0xbf75ac0e	-0.9596566
33	0xbf16ed7e	-0.58956134
34	0xbf7dd5b4	-0.9915421
35	0xbf17081b	-0.5899674
36	0x3ed4f224	0.4159099
37	0x3f5db2b8	0.8660083
38	0x3f26139f	0.6487369
39	0x3f5c4e29	0.8605676
40	0x3fbce1bf	1.4756392
41	0x3f72362c	0.9461391
42	0x3f1e617d	0.61867505
43	0x3f5ea39e	0.8696841
44	0x3ede37a4	0.43401825
45	0xbef1dcc4	-0.47238743
46	0xbf46f7b0	-0.7772169
47	0xbe291ece	-0.16515657
48	0xbf12e407	-0.5737919
49	0xbf2dbefc	-0.67869544
50	0x3e16e4df	0.14735745
51	0xbe0d62e4	-0.13807255
52	0xbab240ab	-0.0013599595
53	0x3e8b29e1	0.2718039
54	0xbdf7a4d6	-0.12091987
55	0xbe9370ad	-0.28796902
56	0xbe2fbe93	-0.17162542
57	0xbf15241f	-0.5825824
58	0xbf73833e	-0.95122135
59	0xbee68b18	-0.45027995
60	0xbe9c8af5	-0.30574766
61	0xbed18cf6	-0.40927857
62	0xbe0d64df	-0.1380801
63	0xbe8a35f0	-0.26994276
64	0x3db2c197	0.087283306
65	0xbdcb1f70	-0.099181056
66	0xbeee703c	-0.46570003
67	0x3d19ca20	0.037546277
68	0xbe410957	-0.18851219
69	0xbe8e2a9f	-0.27766892
70	0xbe027e3e	-0.1274347
71	0xbe4e978b	-0.20174997
