decoder_paramsfold4.pth (torch, 102279 bytes, 9 tensors)

decoder_lin.0.weight f4 [64, 2]
0.3615032 -0.28177798 0.06420014 -0.2933786 0.020619588 -0.1635095 -0.0627149 0.7857391
0.097934306 -0.5668048 0.022396907 -0.3925384 0.5232011 -0.039890718 0.5281311 -0.434324
0.3998022 0.518853 0.7041254 0.6616303 0.33898336 -0.16950394 0.41532743 -0.1950657
-0.17153814 -0.4572655 -0.33422944 -0.3043123 0.29663974 0.25911412 0.19489004 0.38104054
0.61700135 -0.4956723 0.49471903 -0.30927905 0.63453275 0.67828274 0.06405651 0.7010149
0.023711387 -0.21940205 -0.22389609 -0.24167779 0.00026095632 0.00035323223 -0.06685476 -0.40671316
0.71095943 -0.6369463 0.041642625 0.6834881 -0.1595384 0.64177793 -0.18000706 0.4860838
-0.27467263 -0.27123472 -0.29622415 -0.34000623 0.32282892 -0.2664356 0.010661073 0.0035860073
0.34683356 0.32064697 0.1862919 0.5694822 -0.02160769 -0.015692234 -0.27159926 -0.27729657
0.53094417 -0.44566038 -0.43537274 0.43365613 0.45752457 0.51117873 0.70671976 0.35260013
-0.01924923 0.002932377 0.8889029 0.3675438 0.7531214 0.015363304 0.600956 -0.39515048
0.014239135 -0.0463912 -0.34210643 -0.5387484 -0.29974684 0.34545904 0.1664374 0.47530168
0.51575506 -0.6896661 -0.37812915 0.24905966 0.29203048 0.26793972 0.102402814 -0.45125923
0.7511191 0.014999966 -0.45453006 0.14857008 0.751442 0.20925955 -0.26565102 0.46002007
0.27816135 0.38200212 -0.054584704 -0.44228673 0.22893915 -0.12746596 0.2087792 0.0070535764
0.015341327 -0.45278057 0.15444896 -0.3364645 -0.3717834 0.24136825 0.64687747 0.08257317
00000000: f316 b93e 3445 90be 5d7b 833d b835 96be
00000010: 69ea a83c 096f 27be ab70 80bd 3326 493f
00000020: c891 c83d 1f1a 11bf b879 b73c cbfa c8be
00000030: 82f0 053f 7364 23bd 9a33 073f b75f debe
00000040: e0b2 cc3e 8dd3 043f 9041 343f 9a60 293f
00000050: 3a8f ad3e 7192 2dbe cca5 d43e 4ebf 47be
00000060: b2a7 2fbe b41e eabe 1f20 abbe d2ce 9bbe
00000070: 2ae1 973e 9baa 843e 4191 473e bf17 c33e
00000080: cdf3 1d3f c2c8 fdbe d04b fd3e d359 9ebe
00000090: bd70 223f f0a3 2d3f 0f30 833d b675 333f
000000a0: 623e c23c eeaa 60be 0445 65be 627a 77be
000000b0: f7d0 8839 0732 b939 26eb 88bd b53c d0be
000000c0: 7001 363f ea0e 23bf 7591 2a3d 13f9 2e3f
000000d0: 095e 23be 8f4b 243f c553 38be fadf f83e
000000e0: e4a1 8cbe 47df 8abe b1aa 97be 4c15 aebe
000000f0: d549 a53e 3f6a 88be c8ab 2e3c 3803 6b3b
00000100: 2b94 b13e d72b a43e 4ec3 3e3e 96c9 113f
00000110: 9c02 b1bc 008d 80bc 0f0f 8bbe d1f9 8dbe
00000120: f5eb 073f 992d e4be 2de9 debe 2d08 de3e
00000130: a940 ea3e 9cdc 023f 96eb 343f 0188 b43e
00000140: 90b0 9dbc 1f2d 403b 248f 633f b32e bc3e
00000150: 90cc 403f 5eb6 7b3c 41d8 193f 2a51 cabe
00000160: 434b 693c b304 3ebd 9328 afbe 6aeb 09bf
00000170: 6b78 99be 02e0 b03e 916e 2a3e be5a f33e
00000180: 8608 043f f58d 30bf 259a c1be 7f09 7f3e
00000190: 0585 953e 652f 893e 91b8 d13d 730b e7be
000001a0: 5749 403f 6bc2 753c 2ab8 e8be c122 183e
000001b0: 815e 403f 2348 563e 6903 88be c087 eb3e
000001c0: 2a6b 8e3e c895 c33e 3694 5fbd 6873 e2be
000001d0: 066f 6a3e 7086 02be 37ca 553e b021 e73b
000001e0: 305a 7b3c dbd2 e7be de27 1e3e 1345 acbe
000001f0: 655a bebe 3d29 773e c399 253f 1f1c a93d

decoder_lin.0.bias f4 [64]
-0.68964934 0.22991626 0.48927313 0.097229324 -0.094382346 0.118343495 0.7244259 0.37571156
0.3083098 0.6084583 0.5564727 0.62965053 0.4669351 0.2136139 -0.4320415 1.3634939
-0.7184743 0.21818139 0.40337598 -0.024077667 0.5779643 -0.18491904 -0.0021017292 -0.08965978
-0.20740545 0.34258333 0.18350065 -0.4378454 0.043976724 0.21624269 -0.7886772 1.3814617
-0.43870437 -0.11685725 1.5492083 -0.060261346 0.12170318 -0.37568748 0.56176347 -0.3588642
1.7374018 -0.14472204 0.102474876 -0.3223198 1.0728432 -0.123251505 0.14283638 0.30301914
-0.45980147 0.6347808 -0.39783683 0.089057975 0.09982526 0.6623745 -0.5909689 -0.40118387
0.9974458 0.3802595 0.038602836 0.7087837 0.36361444 0.41841274 0.32531673 0.6321943
00000000: dc8c 30bf 2b6f 6b3e 0282 fa3e 2b20 c73d
00000010: 884b c1bd 135e f23d fa73 393f 445d c03e
00000020: c8da 9d3e ecc3 1b3f ff74 0e3f c730 213f
00000030: 1e12 ef3e 9abd 5a3e 8b34 ddbe f886 ae3f
00000040: efed 37bf f16a 5f3e 4c87 ce3e 873e c5bc
00000050: 78f5 133f 6b5b 3dbe 2abd 09bb 8c9f b7bd
00000060: 1862 54be 1567 af3e 98e7 3b3e 462d e0be
00000070: f020 343d b96e 5d3e c0e6 49bf bdd3 b03f
00000080: dc9d e0be db52 efbd 754c c63f 9ad4 76bd
00000090: 843f f93d 1c5a c0be bbcf 0f3f 0cbd b7be
000000a0: 2f63 de3f 0432 14be 59de d13d 1a07 a5be
000000b0: ed52 893f 496b fcbd b343 123e 5325 9b3e
000000c0: 196b ebbe ff80 223f 45b1 cbbe 0764 b63d
000000d0: 3071 cc3d 6091 293f bd49 17bf f967 cdbe
000000e0: 9c58 7f3f 60b1 c23e 021e 1e3d d972 353f
000000f0: ac2b ba3e 323a d63e ea8f a63e 7cd7 213f

decoder_lin.2.weight f4 [288, 64]
0.016793879 -0.0021391038 0.0127308685 0.04332037 0.05752644 0.025285 -0.042829182 0.09711665
0.03663849 0.037079625 -0.018665731 0.008993576 0.007737971 -0.02631478 0.0068706563 -0.089067385
0.051713977 -0.0024147914 0.06868193 0.04638708 0.038191702 -0.0249761 -1.109729e-05 0.016479267
0.090102434 0.035167146 0.019338317 -0.0014744002 -0.01922707 -0.02836544 -0.01742209 0.013018413
0.0077695963 0.045409884 0.0020029813 -0.018442795 0.08794293 -0.0046012513 0.021560758 -0.011586331
-0.00558354 -0.011264851 -0.033974696 0.064518705 0.02323923 -0.032933004 0.00034201588 0.016930187
0.064025216 -0.022672806 0.005438427 0.06598474 -0.032852735 -0.09372023 -0.033447664 -0.0025799735
-0.043760374 -0.011114383 0.009932261 -0.025590401 0.058612198 0.032580663 -0.020302696 -0.03680442
0.047694482 -0.024553388 -0.052323103 0.016773267 0.0011883181 0.0023145017 0.04069535 -0.021507818
0.057305314 0.03242255 0.014402978 0.025720162 0.039544124 -0.091405705 -0.008601617 -0.025076566
0.025569322 -0.008106036 0.00020308266 0.075308934 -0.062086582 -0.055658083 0.00013565994 0.03603496
-0.007631183 0.074721865 0.0011342604 -0.020648355 -0.07613678 -0.06197393 0.0505482 -0.033843353
-0.004750767 0.092801854 -0.039698876 -0.07293337 -0.015259752 -0.0830723 0.046656486 0.0873371
-0.04038077 0.09374195 0.0616595 0.009622577 -0.03440777 -0.041574012 -0.03325451 0.08983257
0.006450325 0.0037662024 -0.006970129 -0.01528097 0.06078098 0.0038754141 0.075077586 -0.040434413
0.018654631 0.008505197 0.0033800784 0.0074612307 -0.025575142 -0.061898585 -0.06518836 0.055527873
-0.034932524 0.037892442 0.04500528 0.014000975 0.0072732316 0.00941681 -0.04079164 0.05939492
-0.04334532 0.07555308 0.0019763918 -0.010467629 -0.0059235124 0.078624524 -0.01259822 0.11047476
-0.03155037 0.04473008 0.038947534 -0.009981091 0.0659389 0.028904941 5.7069396e-05 -0.020252332
0.05097431 0.0051205023 0.09098485 0.05818973 0.044684984 0.015951943 0.028546996 0.03265042
-0.033651393 -0.059879653 0.05334449 0.04442648 0.012740383 0.092722766 0.032284763 -0.081908025
0.05241185 -0.07428603 0.04735277 -0.01436201 0.027332375 -0.0060891123 0.052560832 -0.08661654
0.049632322 0.042546332 -0.022810012 -0.008419496 0.033122495 0.06387345 -0.06691641 0.084917955
0.075166404 0.048303597 -0.023386708 -0.0003065671 0.045147467 0.07372747 0.024163932 0.032305185
-0.015194182 -0.017428502 -0.016698327 -0.028080104 -0.020126002 -0.019376086 -0.015142841 -0.020057814
-0.018764563 -0.015685275 -0.0181434 -0.018660923 -0.02144585 -0.02425697 -0.012560287 -0.017655527
-0.01934023 -0.019163912 -0.017986502 -0.025990112 -0.017799709 -0.021719009 -2.6790847e-10 -0.020525156
-0.019820085 -0.028737333 -0.0212287 -0.0067437515 -0.02294854 -0.022738356 -0.013879166 -0.017318426
-0.0152148595 -0.02204729 -0.018225752 -0.02287392 -0.019444976 -0.008915494 -0.015789393 -0.012619027
-0.018580839 -0.011137062 -0.013619343 -0.018639805 -0.017771367 -0.024033615 -0.00769652 -0.022750283
-0.0190436 -0.016201846 -0.01305207 -0.018651266 -0.0136803845 -0.023608452 -0.011377557 -0.0067712064
-0.013932629 -0.020139914 -0.014055471 -0.0121846935 -0.019431295 -0.018475749 -0.010107676 -0.01409509
00000000: 5193 893c 3530 0cbb 2295 503c b370 313d
00000010: d8a0 6b3d 7d22 cf3c a76d 2fbd 18e5 c63d
00000020: 3e12 163d cee0 173d e0e8 98bc cb59 133c
00000030: ce8e fd3b 1892 d7bc 3e23 e13b f668 b6bd
00000040: 09d2 533d 7a41 1ebb 1da9 8c3d 6100 3e3d
00000050: e76e 1c3d ae9a ccbc 7f2e 3ab7 87ff 863c
00000060: a087 b83d 6d0b 103d 646b 9e3c a940 c1ba
00000070: 1782 9dbc a45e e8bc c5b8 8ebc 2f4b 553c
00000080: 1998 fe3b b7ff 393d 7344 033b 5815 97bc
00000090: 6c1b b43d 18c6 96bb 30a0 b03c 98d4 3dbc
000000a0: 21f6 b6bb 3690 38bc 0d29 0bbd 6222 843d
000000b0: 3360 be3c c2e4 06bd 9850 b339 2db1 8a3c
000000c0: a71f 833d 52bc b9bc d534 b23b 0223 873d
000000d0: 9790 06bd 64f0 bfbd 6b00 09bd c614 29bb
000000e0: 143e 33bd 1a19 36bc ecba 223c f6a2 d1bc
000000f0: 5813 703d 4d73 053d d751 a6bc 3bc0 16bd
00000100: 4a5b 433d 3024 c9bc c050 56bd 1768 893c
00000110: 57c1 9b3a e5ae 173b 2bb0 263d 2a31 b0bc
00000120: fab8 6a3d 82cd 043d 78fa 6b3c 17b3 d23c
00000130: 05f9 213d ea32 bbbd cced 0cbc 5f6d cdbc
00000140: c176 d13c 2ecf 04bc 96f2 5439 923b 9a3d
00000150: 804e 7ebd bbf9 63bd f03f 0e39 6599 133d
00000160: 010f fabb c707 993d 77ab 943a bd26 a9bc
00000170: 9aed 9bbd 60d8 7dbd a10b 4f3d 549f 0abd
00000180: 52ac 9bbb e60e be3d 4a9b 22bd 175e 95bd
00000190: 0a04 7abc cf21 aabd df1a 3f3d cbdd b23d
000001a0: 4e66 25bd c8fb bf3d ac8e 7c3d 03a8 1d3c
000001b0: 29ef 0cbd 8349 2abd e235 08bd 23fa b73d
000001c0: 3f5d d33b 64d2 763b ae65 e4bb 095d 7abc
000001d0: 7af5 783d a9fa 7d3b 47c2 993d 8e9e 25bd
000001e0: 99d1 983c 6259 0b3c 4e84 5d3b 577d f43b
000001f0: f682 d1bc 5f89 7dbd 7a81 85bd 3271 633d
00000200: 6815 0fbd 1b35 1b3d 7557 383d 5864 653c
00000210: 4a54 ee3b f748 1a3c 2215 27bd 1648 733d
00000220: dd8a 31bd 93bb 9a3d 5a86 013b 6b80 2bbc
00000230: 061a c2bb e505 a13d c468 4ebc 9740 e23d
00000240: f63a 01bd e336 373d 7387 1f3d bb87 23bc
00000250: f90a 873d 0eca ec3c cc5d 6f38 38e8 a5bc
00000260: 70ca 503d e3c9 a73b 4456 ba3d 5b58 6e3d
00000270: 9a07 373d a6ad 823c 64db e93c 72bc 053d
00000280: 0bd6 09bd 5e44 75bd c07f 5a3d 8af8 353d
00000290: 0abd 503c 6fe5 bd3d 073d 043d 65bf a7bd
000002a0: cfad 563d 4623 98bd faf4 413d a34e 6bbc
000002b0: 25e8 df3c 2d87 c7bb 074a 573d 0364 b1bd
000002c0: 434b 4b3d 1045 2e3d 10dc babc edf1 09bc
000002d0: 74ab 073d 15d0 823d 790b 89bd 77e9 ad3d
000002e0: d8f0 993d fed9 453d 7b95 bfbc bdba a0b9
000002f0: 8dec 383d 6efe 963d 70f3 c53c 7152 043d
00000300: 05f1 78bc 38c6 8ebc eeca 88bc 3f08 e6bc
00000310: 49df a4bc 99ba 9ebc ae19 78bc 4950 a4bc
00000320: 24b8 99bc 687e 80bc 78a1 94bc cbde 98bc
00000330: 35af afbc 8eb6 c6bc a9c9 4dbc 53a2 90bc
00000340: 676f 9ebc a3fd 9cbc 6e58 93bc 37e9 d4bc
00000350: b2d0 91bc 10ec b1bc c448 93af 5f24 a8bc
00000360: bb5d a2bc 8e6a ebbc d0e7 adbc b0fa dcbb
00000370: 94fe bbbc ca45 babc 7165 63bc 5fdf 8dbc
00000380: bf47 79bc 859c b4bc 2c4e 95bc 1662 bbbc
00000390: 124b 9fbc 4b12 12bc c258 81bc 09c0 4ebc
000003a0: d836 98bc 3978 36bc aa23 5fbc 81b2 98bc
000003b0: 4295 91bc 25e2 c4bc 1733 fcbb cd5e babc
000003c0: 5301 9cbc bcb9 84bc 59d8 55bc 8aca 98bc
000003d0: b123 60bc 8366 c1bc ef68 3abc ffe0 ddbb
000003e0: ae45 64bc 76fc a4bc eb48 66bc 4fa2 47bc
000003f0: 612e 9fbc 745a 97bc aa9a 25bc 18ef 66bc

decoder_lin.2.bias f4 [288]
0.013503664 -0.024093177 0.022941342 -0.015488334 -2.6894056e-06 0.15829308 -0.006306357 -7.225852e-05
0.07929692 0.030166969 0.16440833 0.18722698 -5.690234e-21 -0.00038455808 -1.2201953e-19 0.041585542
-0.022642383 -0.017242093 0.049522176 0.090265945 -1.5297224e-05 -0.058918342 -0.03724745 -0.007777331
-2.0198092e-35 0.055796996 0.035387374 0.01197443 -7.22058e-40 1.20763e-40 -0.13113928 -2.4079e-40
0.18280776 8.3187e-41 -0.12224586 -0.031633932 0.03676875 0.037304703 0.027652405 0.05294968
2.545431e-38 0.15497985 -0.011356889 -1.2056774e-08 -0.038144864 0.035832457 0.09432362 0.019174473
0.079438426 0.0949943 -6.70156e-40 0.05011086 -0.005679876 -0.21253936 0.048113633 0.11308028
0.14093453 0.022843126 -0.07038832 0.3031582 0.044188693 -5.932822e-11 0.14515746 0.10329906
-9.0771406e-05 0.1241251 0.13027264 0.04773263 0.030673966 0.029472327 1.391323e-31 0.13951595
0.051859826 -7.2744005e-19 0.108950354 -0.024015995 0.12370855 5.83553e-40 -2.4067559e-08 1.584782e-39
-0.052052114 -0.00018933126 -6.642544e-05 0.13623416 -1.31701e-40 -1.6117084e-18 0.27303094 -4.4868548e-10
-6.51204e-40 0.16074227 0.051009174 0.012648447 0.10554019 -0.068744585 1.5401255e-16 0.0030854344
-0.02695825 -0.14018464 0.05896124 5.26231e-40 0.017556285 0.13824825 -2.8761248e-08 -1.6394207e-09
0.040569045 0.024546873 0.22729582 0.086490095 0.05646429 -0.0644556 0.0641942 0.08748877
-0.009201561 -0.0003921865 -9.599349e-05 -1.05518225e-08 -0.15594865 0.02216732 0.16050594 -6.495932e-28
0.035499398 2.748066e-13 -7.5617015e-07 0.057523116 0.09128692 -0.0009829539 -0.018541967 -0.16115974
-0.0287942 0.17097254 1.6761223e-28 -0.12420729 0.09993049 -2.2220152e-07 -2.9301775e-05 0.032523483
0.1306705 -0.0011606548 0.080690086 0.06722814 0.06690154 0.06600267 0.018233376 0.077779375
8.839022e-34 5.9606e-41 -0.006229763 0.00091296283 0.091296665 -0.11372845 0.12360322 -1.5024417e-09
0.10299801 -1.4235158e-06 1.879302e-26 -2.9655897e-16 0.044373102 -1.8580708e-11 -0.006279212 -0.12044689
0.13439526 0.027088778 0.016087975 -2.6517125e-25 -0.07909248 -1.7038959e-14 0.010597877 0.08986371
-0.012033697 -0.018681858 0.0031269605 0.021733534 -9.404903e-19 0.049964834 0.048673645 -0.04539301
-0.00011617403 0.07709507 0.32176542 0.009047351 0.0057659457 -0.0034328934 -3.0552735e-18 -3.2040496e-06
-2.268903e-21 0.04630102 0.07387185 0.3355095 0.097579345 0.010463801 0.05772411 0.11477836
0.034566756 -3.27056e-40 0.26019785 0.0020523507 -2.1243668e-08 -2.356532e-07 0.026250018 -0.02537017
-6.54538e-40 0.003417472 3.21878e-40 -1.6937264e-30 0.14147614 0.3141274 0.05482897 0.045861624
0.06505614 0.11127532 0.026258778 -1.1829122e-31 -6.34879e-40 1.101733e-22 0.039749548 -0.06982636
0.030827902 -9.081672e-11 1.14133e-40 -0.011248706 0.03181385 -1.273034e-16 0.031773213 -0.002413605
-0.354638 0.04506653 0.14882149 0.061248254 -2.441463e-22 4.9464e-40 0.123750344 -0.0041747247
0.24976623 -5.7566986e-23 0.0030088348 0.14265765 0.05482798 -0.028653992 0.0031524545 -1.0740614e-17
0.08263266 0.42009756 0.09873752 -0.00014346477 0.041507605 0.026316965 -1.071384e-14 -4.260978e-09
0.00281548 6.4924e-41 -0.20822749 0.16908534 0.030496575 -0.061524596 0.0043460806 0.013790246
00000000: 793e 5d3c 0e5f c5bc 7bef bb3c c8c2 7dbc
00000010: a37b 34b6 9517 223e 8fa5 cebb 7f89 97b8
00000020: 6c66 a23d b820 f73c a85a 283e 6eb8 3f3e
00000030: 91f8 d69d 839e c9b9 240e 10a0 9a55 2a3d
00000040: 857c b9bc 4a3f 8dbc c4d7 4a3d 5add b83d
00000050: 8a52 80b7 5c54 71bd c890 18bd fbd8 febb
00000060: 70c8 d685 648b 643d 5af2 103d 6630 443c
00000070: cedc 0780 a350 0100 6049 06be 399f 0280
00000080: f531 3b3e e4e7 0000 0a5c fabd 9592 01bd
00000090: d49a 163d d1cc 183d 4c87 e23c c3e1 583d
000000a0: 2196 0a01 0ab3 1e3e 3f12 3abc 4122 4fb2
000000b0: ca3d 1cbd 0ec5 123d be2c c13d c913 9d3c
000000c0: 9db0 a23d 5f8c c23d 1f4c 0780 0c41 4d3d
000000d0: 411e babb eba3 59be cd12 453d a296 e73d
000000e0: 2451 103e 8221 bb3c c027 90bd 8d37 9b3e
000000f0: 34ff 343d d276 82ae 28a4 143e 758e d33d
00000100: 875c beb8 4d35 fe3d 3166 053e 4a83 433d
00000110: f847 fb3c f36f f13c a39a 340c 45dd 0e3e
00000120: f86a 543d d1b3 56a1 5d21 df3d 31bd c4bc
00000130: e95a fd3d b55a 0600 1fbd ceb2 ba41 1100
00000140: 9934 55bd 3987 46b9 e34d 8bb8 f880 0b3e
00000150: 216f 0180 9fd8 eda1 b6ca 8b3e deaa f6af
00000160: 4b17 0780 9f99 243e ffee 503d 6f3b 4f3c
00000170: 7525 d83d f6c9 8cbd 7b90 3125 0035 4a3b
00000180: 8cd7 dcbc 908c 0fbe 5781 713d ebba 0500
00000190: 33d2 8f3c f390 0d3e a70e f7b2 fd51 e1b0
000001a0: ba2b 263d 8616 c93c 3cc0 683e b821 b13d
000001b0: 1947 673d 4c01 84bd 4078 833d 502d b33d
000001c0: 25c2 16bc 629e cdb9 1d50 c9b8 6847 35b2
000001d0: 01b1 1fbe 3d98 b53c ab5b 243e 43dd 4d92
000001e0: d167 113d ceb3 9a2a 9efb 4ab5 5c9d 6b3d
000001f0: a3f4 ba3d 76d6 80ba 53e5 97bc 0f07 25be
00000200: d0e1 ebbc 6d13 2f3e 4779 5411 6460 febd
00000210: 5ba8 cc3d 4a96 6eb4 15cd f5b7 5837 053d
00000220: 7dce 053e 1d21 98ba d840 a53d e8ae 893d
00000230: ad03 893d 682c 873d 295e 953c cb4a 9f3d
00000240: 0bdd 9208 28a6 0000 0a23 ccbb e653 6f3a
00000250: bff9 ba3d 76ea e8bd af23 fd3d 787e ceb0
00000260: 9ff0 d23d a10f bfb5 f71d ba14 61f4 aaa5
00000270: 92c0 353d 0970 a3ad d9c1 cdbb dcac f6bd
00000280: e99e 093e 49e9 dd3c eeca 833c 1022 a496
00000290: 3dfb a1bd 2a79 99a8 b8a2 2d3c 770a b83d
000002a0: fc28 45bc b20a 99bc b1ed 4c3b 860a b23c
000002b0: b8ca 8aa1 eda7 4c3d 045e 473d 05ee 39bd
000002c0: 75a2 f3b8 05e4 9d3d 70be a43e 573b 143c
000002d0: 42f0 bc3b 65fa 60bb 7c70 61a2 2705 57b6
000002e0: f76e 2b9d 23a6 3d3d 204a 973d e7c7 ab3e
000002f0: aed7 c73d 5d70 2b3c 1e70 6c3d eb10 eb3d
00000300: df95 0d3d b38f 0380 a738 853e bb80 063b
00000310: 527b b6b2 dc07 7db4 470a d73c 1ad5 cfbc
00000320: 9620 0780 aaf7 5f3b 4481 0300 5269 098e
00000330: 1fdf 103e 4ed5 a03e 5894 603d 66d9 3b3d
00000340: 273c 853d 51e4 e33d a61c d73c 008d 198c
00000350: c9e9 0680 fc30 051b 6cd0 223d 1f01 8fbd
00000360: cc8a fc3c 45b5 c7ae 283e 0100 7e4c 38bc
00000370: 3d4f 023d 55c5 12a5 a124 023d 932d 1ebb
00000380: 1d93 b5be af97 383d a964 183e 73df 7a3d
00000390: cf93 939b db62 0500 d270 fd3d 21cc 88bb
000003a0: b8c2 7f3e 3d30 8b9a df2f 453b d914 123e
000003b0: 4e93 603d c7bb eabc 6999 4e3b 1e21 46a3
000003c0: 503b a93d 0717 d73e e636 ca3d 086f 16b9
000003d0: e103 2a3d ad96 d73c de00 41a8 f567 92b1
000003e0: eb83 383b fbb4 0000 9639 55be b524 2d3e
000003f0: f4d3 f93c 3701 7cbd 9169 8e3b 7cf0 613c

decoder_conv.0.weight f4 [32, 16, 3, 3]
-0.0700536 -0.03908096 0.020925837 -0.072086096 0.13189375 0.068813875 -0.0015380518 -0.03011959
0.035017062 -0.005340727 -0.041847236 -0.016963923 -0.06311918 -0.026796006 -0.0054258774 -0.006751094
-0.08478506 0.0097354865 -0.028385963 0.026573922 0.054892655 0.038665537 -0.030830303 0.14489865
-0.08861747 0.050034735 0.15084267 0.0559007 0.011211582 0.048838656 -0.11490142 -0.34090692
0.0134841055 -0.13753635 -0.18483722 -0.010212787 0.020959899 0.09087168 -0.0072091063 0.07979023
0.07613049 -0.28995416 0.00767862 -0.043294698 -0.053071875 -0.040344387 0.034851514 0.14815095
0.031952966 0.055725534 0.05071647 -0.063517 -0.048611134 0.046849314 0.023442972 -0.047085334
0.047076844 -0.0824631 -0.05172514 0.11124186 -0.13046397 -0.035156064 0.078084916 -0.061804473
-0.036498997 0.020397587 -0.04225811 -0.027702784 0.06037366 -0.0007033187 0.04569856 -0.10382346
-0.013247826 0.0834877 -0.005501973 -0.16389023 0.040831376 -0.02063555 -0.12873198 0.07628997
0.075347185 0.0063500796 -0.04098181 0.039102875 -0.031218734 0.08162556 0.16759634 -0.06584665
-0.010404671 -0.016928187 0.022020258 0.054059543 -0.013751278 0.011173633 0.010070464 0.14625706
-0.14128807 -0.045636468 0.0008386167 0.035207894 0.0601305 0.060266603 -0.23505902 -0.080724634
0.049939256 -0.10160111 -0.09476002 -0.038159464 0.064707965 -0.08811945 0.053459786 -0.15299742
-0.013412208 0.20038016 -0.043658838 -0.07234808 -0.027548637 0.00753717 -0.055121914 0.12172559
-0.090479724 -0.0850973 0.2451159 0.0018937067 -0.00022988107 -0.114571854 0.03818426 -0.16721243
0.008727699 -0.059253458 -0.17501743 0.043362863 -0.03504601 0.024672179 -0.05219709 0.10531915
0.03580695 0.09194984 0.12085262 0.016921034 -0.19737233 -0.0487483 0.026321888 -0.18509366
0.018048162 0.05268782 0.008569383 -0.0032944789 -0.0015168121 -0.023608083 -0.05455197 -0.07746747
0.051896267 -0.010348334 -0.03967696 -0.007838847 -0.016961299 0.08198889 -0.01027729 -0.009483327
-0.11718616 0.0029892772 0.025381887 0.001315687 -0.075386874 0.03494627 0.082890995 0.17218924
-0.22759031 -0.036214434 -0.030004147 0.11772458 0.055915963 0.109148294 -0.0528106 -0.10612015
0.14198151 0.019790279 -0.06841901 -0.09235875 0.030236755 0.08936341 -0.010473464 -0.09391906
-0.17254944 -0.18404247 0.01014285 -0.025545988 0.040346067 -0.00065325643 0.049008634 0.02472692
-0.07016168 0.16850105 -0.057126306 -0.14047791 0.10209394 -0.06776286 0.032242116 -0.022496896
0.041625895 0.062161524 -0.06350342 0.09247523 -0.09683702 -0.046058398 0.082765386 -0.18267621
0.02789492 0.03667004 -0.052867606 -0.037904736 0.013461035 0.026920062 0.004652342 -0.16466509
0.021000365 0.1007141 -0.0058053173 0.08302619 0.12497679 0.26803514 0.12752804 0.026048904
0.12335932 -0.012104754 0.018163236 0.1521108 0.023282815 -0.15731011 0.07062768 -0.042494163
-0.023981957 -0.08400823 0.012228984 0.009566095 0.034465313 0.0034992404 0.08764679 0.15507084
0.14742535 -0.10565652 -0.01600804 -0.006119108 0.09318254 0.048266 0.038545467 0.13729508
0.09181839 0.099476114 0.08051623 0.06404402 0.01638711 -0.05869862 0.07707216 0.028324626
00000000: 4378 8fbd 5b13 20bd a96c ab3c e0a1 93bd
00000010: 280f 073e 4aee 8c3d 7498 c9ba 5cbd f6bc
00000020: 0d6e 0f3d 4401 afbb 0268 2bbd edf7 8abc
00000030: a144 81bd 4c83 dbbc 8fcb b1bb 4838 ddbb
00000040: caa3 adbd 9781 1f3c ae89 e8bc 8eb1 d93c
00000050: 1fd7 603d c15f 1e3d d58f fcbc 5060 143e
00000060: 137d b5bd 39f1 4c3d 8076 1a3e 22f8 643d
00000070: c9b0 373c 0b0b 483d 7051 ebbd 5a8b aebe
00000080: 70ec 5c3c 54d6 0cbe f845 3dbe 8953 27bc
00000090: 18b4 ab3c ee1a ba3d 5e3a ecbb 0f69 a33d
000000a0: 4dea 9b3d df74 94be ef9c fb3b c855 31bd
000000b0: e561 59bd 2840 25bd 76c0 0e3d e2b4 173e
000000c0: 1de1 023d 7540 643d 13bc 4f3d 3315 82bd
000000d0: 781c 47bd 11e5 3f3d 7a0b c03c 8ddc 40bd
000000e0: a6d3 403d 6ae2 a8bd bedd 53bd c6d2 e33d
000000f0: 5998 05be ceff 0fbd fcea 9f3d b026 7dbd
00000100: f97f 15bd d718 a73c d716 2dbd f3f0 e2bc
00000110: 5f4a 773d eb5e 38ba 6a2e 3b3d 65a1 d4bd
00000120: 690d 59bc 99fb aa3d e549 b4bb d7d2 27be
00000130: cd3e 273d e30b a9bc 51d2 03be ea3d 9c3d
00000140: a04f 9a3d 5414 d03b 8bdc 27bd 562a 203d
00000150: 6ebe ffbc 4d2b a73d 609e 2b3e 9cda 86bd
00000160: 5a78 2abc fbac 8abc d463 b43c 8a6d 5d3d
00000170: 0a4d 61bc 9d11 373c 96fe 243c 69c4 153e
00000180: d2ad 10be 4eed 3abd 9dd6 5b3a 2736 103d
00000190: 664b 763d 1dda 763d 50b3 70be f552 a5bd
000001a0: 1b8d 4c3d 3e14 d0bd 8b11 c2bd 194d 1cbd
000001b0: 9c85 843d f877 b4bd a6f8 5a3d 5bab 1cbe
000001c0: e1be 5bbc 7530 4d3e 9cd3 32bd 3b2b 94bd
000001d0: aead e1bc 5dfa f63b 84c7 61bd 444b f93d
000001e0: 6f4d b9bd 7e47 aebd aaff 7a3e 4136 f83a
000001f0: 3b0c 71b9 a6a4 eabd 1967 1c3d bc39 2bbe
00000200: 9ffe 0e3c c1b3 72bd c537 33be 429d 313d
00000210: 688c 0fbd 4f1d ca3c 9ecc 55bd 91b1 d73d
00000220: 4faa 123d 3350 bc3d 9481 f73d fb9d 8a3c
00000230: f91b 4abe 4cac 47bd 00a1 d73c 3189 3dbe
00000240: bdd9 933c 2fcf 573d 9966 0c3c 2fe8 57bb
00000250: c5cf c6ba bd65 c1bc e371 5fbd 44a7 9ebd
00000260: 2e91 543d 0f8c 29bc 4f84 22bd 826e 00bc
00000270: 6cf2 8abc cbe9 a73d 1462 28bc f55f 1bbc
00000280: 4cff efbd c0e7 433b aded cf3c 2173 ac3a
00000290: 6f64 9abd d223 0f3d c1c2 a93d 6052 303e
000002a0: 6f0d 69be 9655 14bd 42cb f5bc 9619 f13d
000002b0: 2308 653d 2489 df3d ed4f 58bd 8555 d9bd
000002c0: 9a63 113e 391f a23c 441f 8cbd 9626 bdbd
000002d0: 12b3 f73c 2a04 b73d e498 2bbc a358 c0bd
000002e0: cdb0 30be a175 3cbe 322e 263c d245 d1bc
000002f0: eb41 253d 4c3f 2bba 47bd 483d 1c90 ca3c
00000300: edb0 8fbd 8a8b 2c3e 46fd 69bd 71d9 0fbe
00000310: a116 d13d 41c7 8abd 4f10 043d 694b b8bc
00000320: ea7f 2a3d 159d 7e3d 150e 82bd a763 bd3d
00000330: 7d52 c6bd bba7 3cbd e680 a93d 790f 3bbe
00000340: e383 e43c 5333 163d b48b 58bd ff41 1bbd
00000350: ac8b 5c3c 7687 dc3c ac72 983b f79d 28be
00000360: f508 ac3c 3243 ce3d 883a bebb a309 aa3d
00000370: d5f3 ff3d e73b 893e b696 023e 8364 d53c
00000380: d0a3 fc3d 0553 46bc 11cb 943c efc2 1b3e
00000390: 9abb be3c e715 21be 3fa5 903d 5c0e 2ebd
000003a0: cf75 c4bc 820c acbd 145c 483c 1cbb 1c3c
000003b0: 802b 0d3d 8353 653b 2980 b33d e4ca 1e3e
000003c0: acf6 163e 7262 d8bd 4b23 83bc cc82 c8bb
000003d0: 7dd6 be3d 92b2 453d dae1 1d3d 1597 0c3e
000003e0: 480b bc3d 22ba cb3d b1e5 a43d 8329 833d
000003f0: 433e 863c f76d 70bd 02d8 9d3d 0c09 e83c

decoder_conv.0.bias f4 [16]
0.23128776 0.33238298 0.08443933 0.34936467 0.055623975 -0.09783944 0.06583534 0.59125686
0.18046032 0.24593078 0.099240586 0.12926747 0.014517285 0.16476442 0.37259054 0.44259295
00000000: b3d6 6c3e 1a2e aa3e 87ee ac3d eddf b23e
00000010: f7d5 633d 0b60 c8bd aed4 863d 9c5c 173f
00000020: 97ca 383e 47d5 7b3e a63e cb3d b15e 043e
00000030: e8d9 6d3c 01b8 283e 30c4 be3e 8b9b e23e

decoder_conv.2.weight f4 [16, 8, 3, 3]
-0.06516587 -0.11009612 -0.24277827 -0.07101157 -0.16309358 -0.23865846 0.1856864 0.3242731
-0.22249626 -0.06096204 -0.09674554 -0.099115096 -0.047021143 -0.118274964 -0.19725274 0.012499325
-0.20699239 -0.32880053 -0.119484454 0.12658936 -0.092879266 0.2924199 0.24397053 -0.026776206
0.14967716 0.289905 -0.07281551 0.033837214 0.009538495 0.17957856 -0.16707943 0.085156284
0.0958103 0.07134148 0.39942813 0.33966768 0.18318042 0.07141968 -0.08043493 0.11769361
0.20074229 0.10014871 0.11105037 0.19968295 -0.22516145 0.09081037 0.110844605 0.06523999
0.14132765 0.06835478 0.0023011705 -0.078772604 -0.023072341 0.080990605 -0.1030049 -0.013363187
-0.030881448 -0.24866188 -0.33220217 -0.15162675 0.0126848575 0.3115371 0.042745106 -0.031726852
-0.09865751 -0.12284806 -0.049251042 -0.12735513 -0.12863335 -0.036381174 0.12347523 0.016414437
-0.0126697505 0.04160778 -0.20696183 -0.12407857 -0.20246997 -0.29776436 -0.10822171 -0.1767614
0.1484718 -0.053751055 -0.087906264 -0.13723773 -0.0874887 -0.09515871 -0.29594302 -0.13631105
-0.24320428 -0.10310629 -0.103010006 0.25799823 0.21630885 0.028592866 0.31024384 0.38218355
0.17872742 0.25337806 -0.051684283 -0.051122926 -0.05266341 0.27966297 -0.345318 0.0058611906
-0.015338015 -0.06281823 -0.048231937 0.022914486 -0.08048782 -0.062242575 0.2252323 -0.22041139
0.20868129 0.14525679 0.19458988 0.18829294 0.2901028 -0.23146409 -0.13036929 0.052386384
-0.12690924 0.24726278 0.09951227 -0.13149677 0.055409126 -0.077941366 -0.07639201 -0.16904712
-0.004784427 -0.09026831 0.040764116 0.11902054 -0.027186234 -0.14933172 -0.04821644 -0.057681512
-0.061825 -0.38529122 -0.07550948 -0.14532344 -0.15831335 0.00954886 -0.16520701 -0.1442839
-0.11923668 -0.09045505 0.01504893 -0.07796123 0.0029826383 0.1977488 -0.04389842 0.014537257
0.20875476 -0.22319448 -0.050832402 0.03707298 -0.07888676 -0.061361782 0.1623949 -0.09072598
0.09445018 0.16713782 0.07651184 0.16662243 -0.14854744 -0.13254912 0.26855806 0.003468886
-0.041484796 -0.056118555 0.012799266 0.024288166 -0.11823351 -0.11759235 0.11594534 0.06924458
-0.002703532 0.15354268 -0.044724457 -0.06892449 0.09290837 0.0683797 -0.012289136 0.45831946
-0.14125426 -0.3270374 0.2091064 0.064747505 -0.28584504 0.096498765 -0.2267399 -0.18284716
0.11076764 -0.04373745 -0.08074137 0.24158318 0.039792337 -0.003023255 0.09960173 -0.023523206
-0.06703743 -0.039848056 0.08798142 -0.022353081 0.096013635 0.23334435 -0.0067533352 -0.11027877
-0.09783435 -0.07698929 0.00038123396 0.024614034 0.028385816 -0.12502542 0.20810716 0.15779898
-0.18038754 -0.10316998 0.10329865 -0.053880807 0.1462301 0.31043258 0.23532636 0.33007255
0.33834714 -0.05190259 0.10146919 0.14361128 -0.1361952 0.13018674 0.01405143 0.26074895
0.31989524 0.28638768 0.10439984 -0.46713716 -0.2233406 0.20216075 -0.008685333 -0.11306702
0.13299039 -0.24371716 -0.055956434 0.069974124 -0.011974567 -0.2912622 0.027921792 0.024590237
-0.09928176 0.29669335 0.27232486 -0.02364435 0.024337532 0.4252879 0.14318104 0.31805322
00000000: af75 85bd 137a e1bd de9a 78be 846e 91bd
00000010: 0102 27be e262 74be 9324 3e3e 2007 a63e
00000020: 0fd6 63be 55b3 79bd 8722 c6bd dbfc cabd
00000030: 3e99 40bd 253a f2bd 9ffc 49be f8c9 4c3c
00000040: d0f5 53be 8b58 a8be 44b4 f4bd a4a0 013e
00000050: 7c37 bebd 10b8 953e 69d3 793e c659 dbbc
00000060: f844 193e 6e6e 943e 4c20 95bd e498 0a3d
00000070: 5947 1c3c 71e3 373e df16 2bbe 6b66 ae3d
00000080: 3138 c43d 7b1b 923d d881 cc3e ece8 ad3e
00000090: a693 3b3e 7b44 923d 12bb a4bd 5909 f13d
000000a0: 638f 4d3e c41a cd3d 606e e33d b079 4c3e
000000b0: b990 66be cafa b93d 7f02 e33d 8b9c 853d
000000c0: 32b8 103e 97fd 8b3d 3ccf 163b 8853 a1bd
000000d0: 3502 bdbc 67de a53d 3cf4 d2bd 45f1 5abc
000000e0: 17fb fcbc 38a1 7ebe 6716 aabe 0b44 1bbe
000000f0: 26d4 4f3c ca81 9f3e 7e15 2f3d 04f4 01bd
00000100: f30c cabd c497 fbbd 76bb 49bd 6269 02be
00000110: 76b8 03be 6d04 15bd 95e0 fc3d 9277 863c
00000120: c994 4fbc eb6c 2a3d cded 53be e81c febd
00000130: 4a54 4fbe 9274 98be 58a3 ddbd f100 35be
00000140: fe08 183e 112a 5cbd 3308 b4bd 0c88 0cbe
00000150: 472d b3bd 92e2 c2bd d885 97be 2095 0bbe
00000160: 8b0a 79be 6429 d3bd e9f6 d2bd 5818 843e
00000170: 1180 5d3e 963b ea3c 48d8 9e3e 90ad c33e
00000180: 5204 373e c5ba 813e e6b2 53bd 4666 51bd
00000190: 96b5 57bd fc2f 8f3e 85cd b0be 3b0f c03b
000001a0: 4c4c 7bbc d8a6 80bd da8e 45bd 29b7 bb3c
000001b0: ccd6 a4bd 12f2 7ebd 4ca3 663e 86b3 61be
000001c0: 8cb0 553e 32be 143e 9242 473e ddcf 403e
000001d0: 5b88 943e ec04 6dbe 877f 05be 1b93 563d
000001e0: 7ff4 01be 7432 7d3e 17cd cb3d 17a7 06be
000001f0: aef4 623d b99f 9fbd 6a73 9cbd b01a 2dbe
00000200: afc6 9cbb 97de b8bd 46f8 263d 0ac1 f33d
00000210: aab5 debc 6aea 18be 9a7e 45bd 7343 6cbd
00000220: 363c 7dbd e444 c5be b7a4 9abd abcf 14be
00000230: e51c 22be d272 1c3c 072c 29be 29bf 13be
00000240: 5c32 f4bd 7f40 b9bd ca8f 763c 23aa 9fbd
00000250: 5e78 433b a97e 4a3e d4ce 33bd ad2d 6e3c
00000260: cfc3 553e 188d 64be a335 50bd d6d9 173d
00000270: 628f a1bd 7e56 7bbd d94a 263e 8bce b9bd
00000280: 196f c13d 2d26 2b3e 3db2 9c3d 129f 2a3e
00000290: d21c 18be f5ba 07be 7180 893e 4056 633b
000002a0: f6eb 29bd 92dc 65bd 03b4 513c faf7 c63c
000002b0: 6924 f2bd 42d4 f0bd c074 ed3d 1ad0 8d3d
000002c0: be2d 31bb 4b3a 1d3e fe30 37bd 4828 8dbd
000002d0: be46 be3d a80a 8c3d 5f58 49bc d9a8 ea3e
000002e0: f5a4 10be 7271 a7be fd1f 563e 579a 843d
000002f0: 485a 92be 25a1 c53d 812e 68be 493c 3bbe
00000300: 25da e23d 0a26 33bd bb5b a5bd 9561 773e
00000310: 4afd 223d cd21 46bb fefb cb3d bdb3 c0bc
00000320: ec4a 89bd b737 23bd 9a2f b43d cf1d b7bc
00000330: cca2 c43d d2f1 6e3e 154b ddbb d6d9 e1bd
00000340: 605d c8bd 90ac 9dbd 5be0 c739 5fa3 c93c
00000350: 5f89 e83c aa06 00be 0b1a 553e 0e96 213e
00000360: 83b7 38be c84a d3bd 3e8e d33d 1fb2 5cbd
00000370: 58bd 153e 05f1 9e3e 65f9 703e 45ff a83e
00000380: d63b ad3e cf97 54bd 14cf cf3d d60e 133e
00000390: c176 0bbe ac4f 053e f837 663c e380 853e
000003a0: 4fc9 a33e 68a1 923e 95cf d53d 9a2c efbe
000003b0: 66b3 64be 3a03 4f3e ed4c 0ebc af8f e7bd
000003c0: a22e 083e fe90 79be 9332 65bd 984e 8f3d
000003d0: f930 44bc 5220 95be 3ebc e43c 7771 c93c
000003e0: 3c54 cbbd 31e8 973e 2a6e 8b3e ccb1 c1bc
000003f0: 815f c73c 56bf d93e 0d9e 123e dfd7 a23e

decoder_conv.2.bias f4 [8]
0.1467078 0.16293539 0.13139546 0.13390467 0.16694166 0.17960185 -0.29087982 0.09950296
00000000: 923a 163e 89d8 263e 888c 063e 4e1e 093e
00000010: c1f2 2a3e 8ce9 373e 33ee 94be 35c8 cb3d

decoder_conv.4.weight f4 [8, 1, 3, 3]
-0.13953689 -0.5202267 -0.43045288 -0.43354273 -0.945181 -0.639651 -0.44278157 -0.8391733
-0.43433475 -0.2478795 -0.41110882 -0.39971498 -0.64696765 -1.0197338 -0.5783334 -0.23299171
-0.15932009 -0.00049132557 0.3859746 0.8469566 0.56091183 0.82155365 1.4011174 0.7249822
0.5249042 0.8553746 0.25294647 0.4491844 0.071169116 -0.32568082 0.88554424 0.2877674
-0.48615667 0.39009988 -0.3167646 -0.72545356 0.40098628 0.8304568 0.6046261 0.8093415
1.3444896 0.7568577 0.5671999 0.867799 0.35026756 0.043183945 0.39481354 0.53797436
0.30268827 0.85873723 0.85087144 0.1737723 0.51930267 0.4373085 -0.2686284 -0.61505514
-0.50237364 -0.6347527 -1.2142015 -0.73925066 -0.44676048 -0.769461 -0.32129693 0.108559676
-0.30213577 -0.03382165 -0.1287353 -0.8145756 -0.34941617 -0.21074553 -0.7006358 -0.38469115
00000000: c2e2 0ebe 942d 05bf 5264 dcbe 50f9 ddbe
00000010: 62f7 71bf 2bc0 23bf 44b4 e2be 10d4 56bf
00000020: 2061 debe 20d4 7dbe db7c d2be 71a7 ccbe
00000030: ac9f 25bf a386 82bf a80d 14bf 6195 6ebe
00000040: ce24 23be 4dcc 00ba 769e c53e 26d2 583f
00000050: eb97 0f3f 5751 523f d157 b33f 6f98 393f
00000060: 1f60 063f d4f9 5a3f 3382 813e 7ffb e53e
00000070: 1dc1 913d a3bf a6be 07b3 623f 4056 933e
00000080: 87e9 f8be 2cbb c73e f82e a2be 53b7 39bf
00000090: 134e cd3e d198 543f c7c8 1a3f 0131 4f3f
000000a0: 3c18 ac3f 6dc1 413f 0334 113f 1328 5e3f
000000b0: 4556 b33e a6e1 303d 0025 ca3e b0b8 093f
000000c0: f5f9 9a3e 34d6 5b3f b6d2 593f 5ef1 313e
000000d0: 05f1 043f e6e6 df3e a989 89be 4174 1dbf
000000e0: 8f9b 00bf 277f 22bf f46a 9bbf 883f 3dbf
000000f0: cabd e4be 65fb 44bf 0881 a4be 8954 de3d
00000100: 8ab1 9abe 9288 0abd 30d3 03be 0788 50bf
00000110: ade6 b2be adcd 57be de5c 33bf 3df6 c4be
