decoder_paramsfold0.pth (torch, 102279 bytes, 9 tensors)

decoder_lin.0.weight f4 [64, 2]
00000000: 87b1 403e 49bd 3c3f b228 adbe 53ba 8bba
00000010: 92bd fbbe 07dc d8bd 4ba3 de3d f2e0 5bbe
00000020: fe2a 1bbf 9a91 0dbf dbd8 aabe 61de e53e
00000030: 8ff5 9e3e 52a3 0ebf 3209 98be 901a b33e
00000040: 9025 ddbe d050 603d 414c 603e 1a7d b4be
00000050: f9c4 44bf dc54 36be 915f 24be b949 223e
00000060: d9d6 a7be 4200 a33e 1e83 cbbe fbc8 8abe
00000070: 5595 03bf 8e0a eb3e b1b5 73be 4946 f7bc
00000080: 5e26 d83e 3437 50be 949b 463e 099c 92be
00000090: d16d 98bc 0edb 63bd 4352 dbbe 3dea 0fbf
000000a0: d2f4 34bf 3948 19bf a280 e13e 868e 293e
000000b0: fbd9 053e 607a 30be d715 3dbe 2e27 303e
000000c0: 175f 48bf 9421 0bbe b0e0 e33e 9338 b1be
000000d0: ce1c eebb 36d6 1dbc eb72 8a3e f3ba 16be
000000e0: 6728 32bd 22c2 0abf 5437 51be b380 543e
000000f0: ed81 733e c3e0 e4be 35a2 2fbf b465 f3bd
00000100: 2447 b9be 6d89 8fbe 533a 05bf 37d0 cdbd
00000110: afa8 a13e 4eb3 87bd 6960 173f e317 353f
00000120: ecff 91bd f36d 59bd 024a 01be 1c6a 593e
00000130: 436d b7bc 02e5 2c3f 42dd 0a3e 8c67 36be
00000140: 7e99 103e f4f9 3abe 1651 813d e543 ba3e
00000150: 1c41 423f 8313 a4bd 15e7 4fb8 78a6 24b9
00000160: 234b f3be baa6 cb3e 8dcd b1be 8ac9 093f
00000170: 1503 593e 3163 1cbe 6334 f63d 7679 27bf
00000180: 63e7 debe 12de a3bf 6cf3 533e a591 a4be
00000190: 9eee eebe f500 0bbe f21c 063e ff18 5dbe
000001a0: c726 3a3e b34f 5dbd e387 0c3f a6d1 683c
000001b0: 2fce 923e 3c4d 1a3f ca8c 9ebe 8445 da3e
000001c0: 5cda 3e3e e440 ff3d 8e9e 14bf 3d14 203e
000001d0: 92e9 b3be 5f00 533b 01a4 a0ba 4390 28bf
000001e0: 43e4 e43c c267 30bf 4bc2 83be e4bf d63c
000001f0: 3c24 fbbe 9770 4bbd e968 b7be df9a db3e
0.18817721 0.73726326 -0.3382011 -0.0010660387 -0.49168068 -0.10588842 0.108709894 -0.21472529
-0.60612476 -0.55300295 -0.33368573 0.44896224 0.3104672 -0.5571796 -0.29694515 0.34981203
-0.4319272 0.05476457 0.21904089 -0.35251695 -0.76863056 -0.17805809 -0.1605208 0.15848435
-0.32781103 0.31836134 -0.39748472 -0.2710646 -0.5139974 0.4590649 -0.23799779 -0.030184882
0.42216772 -0.20333558 0.19395286 -0.2863467 -0.018607052 -0.05562883 -0.42836198 -0.56216794
-0.70686066 -0.5987583 0.44043452 0.16558275 0.13071434 -0.17234182 -0.18465362 0.17202446
-0.78270096 -0.13587028 0.4450736 -0.34613475 -0.0072666174 -0.009633591 0.270408 -0.14719753
-0.043495562 -0.54202473 -0.20431262 0.2075222 0.23780032 -0.4470273 -0.68606883 -0.11884633
-0.36187088 -0.28034535 -0.5204212 -0.100494795 0.31574008 -0.066259965 0.59131485 0.70739573
-0.07128891 -0.05308337 -0.12625888 0.21231884 -0.022390967 0.6753694 0.13560966 -0.17812937
0.14121053 -0.18259412 0.06314294 0.36379924 0.758806 -0.08011534 -4.9567858e-05 -0.00015702273
-0.47518262 0.3977564 -0.34727135 0.5382315 0.21192582 -0.15272214 0.12021711 -0.6541971
-0.4353591 -1.2802145 0.20698327 -0.32142368 -0.46666425 -0.13574584 0.1309698 -0.21591567
0.18178855 -0.054031085 0.54894847 0.01421014 0.2867293 0.602741 -0.3096679 0.4263116
0.18637985 0.12463549 -0.58054435 0.1563272 -0.35139138 0.0032196266 -0.0012255908 -0.65845126
0.027940875 -0.6890832 -0.2573417 0.026214547 -0.49051082 -0.04966792 -0.35822228 0.42891595

decoder_lin.0.bias f4 [64]
00000000: 6cc4 db3e 8509 523f edf9 9dbc 43dd 59be
00000010: f05a 5ebc 652a 5fbe 7d36 1ebe 3f10 45bf
00000020: c9ec 493e fe05 303e 26cc 99bd ba5e 36be
00000030: 9cf9 07bf e6e4 2a3f 2aa9 773e 8162 dc3e
00000040: 3f60 593e 6a25 c63e f88f df3f c67c 613f
00000050: 0a87 f7be 2739 2fbf 1597 4d3f 5aaa 823f
00000060: 56bb b6be a55b 6d3e b394 9f3f 740b 10be
00000070: 0dcf 16bf 5e03 6abe cea1 8abe 07be 86be
00000080: 55c3 48bf 7692 d7bd c7fb 423f 2324 1e3e
00000090: 74c9 5e3f 0934 8f3c 7e3c 383f 9407 74be
000000a0: 8c7b 13be 87b3 8f3f 97fb 1e3e d183 20bb
000000b0: c082 f4be b730 003e 63f6 12be d0bd 133f
000000c0: 2b07 98bd 519a a93e 2ea4 f53d 3db1 80be
000000d0: 512a 013e a495 10bf 92d1 28bd da51 44be
000000e0: 699a 423e bb09 babe c03d 9abe 90de 483e
000000f0: 7958 26be f1ee 6c3f dfcd f0be 678d 303d
0.42923295 0.82045776 -0.019284213 -0.21275811 -0.013571486 -0.21793516 -0.15450473 -0.76977915
0.19719233 0.17189786 -0.07509641 -0.17809573 -0.5311525 0.6675552 0.24185625 0.43043903
0.21228121 0.3870042 1.7465811 0.88081014 -0.48345214 -0.6844658 0.8030866 1.0208237
-0.356898 0.23179491 1.2467254 -0.14066869 -0.58909684 -0.22852847 -0.27076572 -0.26316854
-0.78423053 -0.10525982 0.7616543 0.15443473 0.87026143 0.017480867 0.71967304 -0.23831016
-0.14402598 1.1226662 0.15525661 -0.0024492631 -0.47756004 0.12518583 -0.14351802 0.57711506
-0.07423242 0.33125547 0.119942054 -0.25135222 0.12613799 -0.56478333 -0.041215487 -0.19171849
0.19004215 -0.3633555 -0.30125237 0.19616151 -0.16244687 0.92552096 -0.47032067 0.0431036

decoder_lin.2.weight f4 [288, 64]
00000000: 09f5 e3bb 3f9f ea3c 5527 aebb a770 97bb
00000010: 8eec 4a3d c35c 98bc 3fe2 38bc 2f10 62bc
00000020: 2ef7 16bc ba71 7eba 5737 823a 4fc9 58bc
00000030: a084 c6bc f6e7 f03c 32b9 c6bb ce47 1b3c
00000040: 5529 063c 41a8 a03b 56c8 333d b943 ec3d
00000050: 9fa9 103d a918 1bbc f774 073d 37df 913c
00000060: 3f0c 9cbb d468 f23b 93c3 003d 95dd 5f3b
00000070: 2388 1dbc c024 83bc fcbf 09bc 5a57 c9bb
00000080: ed83 bf3c a2e2 1abc d0c9 063d f6e4 7b3d
00000090: 119b d63c b7fd 4bbc 4565 863b 6e97 47bb
000000a0: 3f71 3fbb 24ae 853c 456e 74bc 2ddf 5e34
000000b0: 72fd 8abc a839 d9ba bd43 923a 2d1e 29bc
000000c0: ddcf 553d f344 9e3b 13b5 4d3b 5f6b 8bbb
000000d0: 0f8c b53b c1fe 48bc 0be2 ad3c 4540 94bc
000000e0: edf7 ea3b e703 9cbc ebea 65bc 7d19 83bc
000000f0: 2d41 a3bc c51a a43c 7498 e7bb bb27 f4bb
00000100: ff14 293c 1aaa 3c3d 01ef 03bc 33c7 e1bc
00000110: ac07 44bd 5b17 513d b182 06bd cdb9 82bd
00000120: f321 2a3d bc5a 903c ee08 16bb 93fe 903c
00000130: f309 bf3b a819 fa3c 5824 493d c067 013d
00000140: 38cf 7c3d dbe5 febc d7ab 0e3e 6ab8 2f3c
00000150: 3ed4 78bc 62f0 d2bc b1b5 02bd a9b1 063e
00000160: 0f73 8bbc 9384 1b3d 9644 f53d 5232 c3bb
00000170: 4efd 45bd 2be2 b73c 1330 18bd 7fef 173c
00000180: 7cae b0bc 2372 e93b 6694 8a3d 096e ec3c
00000190: c005 153d e870 983c 4362 6fbc f730 efbc
000001a0: 6f28 9fbc 7f15 983d 5a01 493d dc92 8a33
000001b0: 0ae0 fe3c 8618 0c3d 6cb2 4abc 39f7 03be
000001c0: cece 31be efea 9cbb fda4 41bc 1425 ffbc
000001d0: e6bc 7a3d 8cce a4bc b884 a0bd 2775 453d
000001e0: 35ee e93c a235 1d3d 6395 043d 0588 babd
000001f0: 895b 733c 079a 6c3d 6908 463c 2c18 373d
00000200: adab 5dbe 6d49 7e3d 21f4 ba3b f891 51ba
00000210: f856 f73d 8029 b4bd 0ff1 6ebd 8b22 0cbe
00000220: b6f1 513d 5764 013d eeb6 a73c 40a0 6fbd
00000230: 0fe1 f7bd a546 ce3d f06e 733d d0a6 093d
00000240: 55e9 ae3d 8d94 87bd f693 293e 9f3e fa3d
00000250: 6762 b5bc 0b03 6d3d 2091 3cbc d13c f13d
00000260: c087 9b3d 08fa ca3d 1c60 f93d 5afc 373d
00000270: abeb 36bd 0329 93bd a381 52bd 1cef 81bc
00000280: dc71 0ebe f692 6fbc 14fc c3bb 68a2 ea3c
00000290: f735 e33d fd93 5cbd f436 72bd 6ee2 df3c
000002a0: 790b 1a3d 5f25 8ebd d503 ef3d 9aad d637
000002b0: bff0 85bd 21e8 6dbc 50a8 3f3d 16b9 bf3c
000002c0: 6e1a 0d3d 36cf 7dbd 5909 e93d a818 313c
000002d0: c747 613c 84e4 6c3d f83e a7bd 4eca aabd
000002e0: d125 a4bc 5a6b 6cbc a823 69bc b4c6 06bc
000002f0: 39ee 80bc 3ba9 193e 636a 3cbd 10a6 f03b
00000300: 3205 333d 8365 7f3d 2036 903b 4505 2dbb
00000310: d337 99bc dbae 0cbd 26ae 11bd 01c7 d5ba
00000320: 934e ba3b b60c 96bb cbad 05bd 6d8d c7bc
00000330: 35e3 09bd 85b3 9a3b 03c8 e93a ec35 d13b
00000340: 80e6 ae3c 1756 d13c 4730 6c3d f9c0 3bbd
00000350: 9af3 fabc a782 b9bc 0be7 653b 21a4 113d
00000360: 9f42 3c3b 44e6 813c ec46 573d 30b4 d2bb
00000370: e4bb 3dbd 5626 e7bc d93e d6bc e532 37bc
00000380: 642a 7fbd 4ef0 b63b dcf3 6d3c abe1 b6bd
00000390: 57ff 123d dc5b 3abc cefc a53b a554 643b
000003a0: af14 483b 2eb5 813d a68b d03a dd18 f12f
000003b0: b221 22bd 37b5 93bc 4122 a3bb d38f e2bc
000003c0: e7d0 bcbb 4724 6f3c a309 47bc daf6 fb3a
000003d0: f481 a93b 8bb8 bebc 6e5e eabc e973 03bd
000003e0: b384 d7bc 14eb 5d3b 3564 e6bb 1d36 06bd
000003f0: 714c 4ebc b62e 0c3d b95f 2ebc b1b0 30bc
-0.0069567007 0.028640388 -0.0053147473 -0.0046215835 0.049542002 -0.01859892 -0.01128441 -0.013797804
-0.009214206 -0.00097062776 0.0009934705 -0.013231589 -0.024233162 0.029407483 -0.0060645575 0.009477569
0.008188565 0.00490287 0.043892227 0.115363546 0.035318013 -0.009466329 0.03307053 0.017806632
-0.004762202 0.0073977504 0.031436514 0.0034159173 -0.009614977 -0.016008735 -0.008407589 -0.0061444463
0.023378337 -0.009453448 0.032907307 0.06149765 0.026196988 -0.012450627 0.0041014277 -0.003045525
-0.0029211787 0.016318388 -0.014918868 2.0756552e-07 -0.016966555 -0.0016572969 0.0011159104 -0.010322136
0.052200187 0.0048299967 0.0031388446 -0.004254743 0.005540378 -0.012267769 0.02122595 -0.018097052
0.0071706683 -0.01904483 -0.01403306 -0.016003365 -0.01992854 0.020032296 -0.0070677344 -0.0074510253
0.010319947 0.04606066 -0.008052588 -0.027560806 -0.04785888 0.051047664 -0.03283948 -0.06383095
0.041536283 0.01762139 -0.0022893506 0.017699515 0.0058300435 0.030529812 0.049106926 0.031593084
0.061721057 -0.031115463 0.13932739 0.01072512 -0.015187321 -0.02574939 -0.031911556 0.1315371
-0.017022638 0.03796823 0.11975972 -0.0059569264 -0.048337273 0.022446712 -0.037155222 0.009273409
-0.021567576 0.007124202 0.06766586 0.028861063 0.036382437 0.018608525 -0.01461083 -0.029198153
-0.01942846 0.07425975 0.049073555 6.452839e-08 0.03111269 0.034203075 -0.012371641 -0.12887277
-0.17364046 -0.0047887485 -0.011819121 -0.03114561 0.061215304 -0.02011802 -0.07837814 0.04820743
0.028555969 0.038381226 0.03236903 -0.09107975 0.014853367 0.05776408 0.012086966 0.044700786
-0.2164752 0.062081743 0.005705372 -0.00079944683 0.12077135 -0.08796978 -0.05833536 -0.13685052
0.051255904 0.031589832 0.02047297 -0.058502436 -0.121034734 0.10072068 0.05943197 0.03360635
0.08540598 -0.06620131 0.16560349 0.12218975 -0.022141648 0.05786423 -0.01150921 0.11779178
0.07594252 0.09910971 0.121765345 0.044918396 -0.044658344 -0.07185557 -0.051393162 -0.015861087
-0.13910621 -0.014622441 -0.005980978 0.028641894 0.11094277 -0.05385207 -0.05913444 0.02732965
0.037608597 -0.06940722 0.11670653 2.5591627e-05 -0.06540059 -0.014520676 0.046791375 0.023403686
0.034449033 -0.06196519 0.11378736 0.010809101 0.013750023 0.057835117 -0.08166307 -0.08339368
-0.020037564 -0.0144298915 -0.0142296925 -0.008226085 -0.015738593 0.15005963 -0.045999896 0.007344015
0.043706127 0.06235267 0.0044009835 -0.0026400846 -0.018703377 -0.034346443 -0.03556647 -0.0016309918
0.0056856363 -0.004579152 -0.032636445 -0.02435943 -0.033663947 0.0047211074 0.0017836097 0.006384602
0.021350145 0.025553746 0.05766323 -0.04583833 -0.030633736 -0.022645308 0.003508034 0.035556916
0.0028726233 0.01585687 0.05255787 -0.0064301714 -0.046321765 -0.028216522 -0.026153015 -0.011181568
-0.062296286 0.005582846 0.014523473 -0.089297615 0.035888042 -0.01137444 0.005065537 0.003484049
0.0030529907 0.063333854 0.0015910759 4.385531e-10 -0.039582916 -0.018030746 -0.0049784486 -0.027656471
-0.005762208 0.014596052 -0.012148294 0.0019223348 0.0051729623 -0.023281356 -0.02860948 -0.032092962
-0.026308393 0.0033862041 -0.0070309886 -0.03276645 -0.012591467 0.034224235 -0.010642939 -0.010784314

decoder_lin.2.bias f4 [288]
00000000: a385 db3c 3b5c d73d 009b 0c3e fa39 323d
00000010: 1e02 5ebc 642f 0180 124e 27bd 2f27 bd3d
00000020: dc9c 82be b5ec 193d 91de 8c3e 5891 843d
00000030: 8d57 bf3d 2ec4 e2b7 aa99 4bb7 c5a1 0400
00000040: c3fd dbb7 fe2a f7b7 f9ed a23c bd00 fb3d
00000050: 2c47 9dbc e931 3fb0 f0d8 3bb5 5a78 1dbb
00000060: a8c1 aa81 2abe fe3d 1e64 a53d 63d7 313d
00000070: 91fd d5bd 1b3e 313e 9fdc 7cba afce 943d
00000080: 63de 833d 815d 003e 9e1e 923e 7a54 2e3e
00000090: 4038 d4b6 9d83 93b0 fd3f 813d aff6 7dbb
000000a0: e1e8 0380 c7d5 9ebc 52fe dd3d b19e fabc
000000b0: ad35 79be d53c 3d3d a9cb 8b3c 4dde 093e
000000c0: d073 303d a12a 33b7 7537 3a37 ee23 553d
000000d0: c3da 4b3c 70cd 93bc c431 76bc d2c9 cb3d
000000e0: 25c7 d7bd 5e3f 823d a1bb 171e 25ae a4b9
000000f0: 3d8f 3d3d 5b1b 09be 4999 0100 3b66 cf3b
00000100: 2872 9dbc a779 df3c 896e a33d 84ed aea2
00000110: eb2a 03ad 4255 e2bc 8f26 9a3e 6de7 ff3c
00000120: 0750 edbb c630 083d da45 c53d 9639 133e
00000130: cca4 26be f936 7d3d fb8c ebbb a706 0280
00000140: f0f0 fe3d f580 f1b7 6287 173d bba1 48b0
00000150: 4811 c2b1 2f2a aa3d dd74 183e 1def d83c
00000160: b969 fc3d 8b52 563e 8447 3dbc cf87 cebb
00000170: 7305 efbc 8b1c aaa9 cd8c a33e 6e1b 85b0
00000180: 77bf 5b3d 8ab6 1c3e c628 45bc a3d4 743d
00000190: 0a47 11b7 1eca 29be 52ce 5a3d 08bc 5ebd
000001a0: 87b9 27be d450 48bd b23a 8791 1b4b 173d
000001b0: d1ba d83c 1eb2 263c 266e d63b 8065 6dae
000001c0: 7d8d 94ab 9ccf 283e 1639 adbd 32e5 013d
000001d0: 26cb 14b2 0bd8 14bc 4cd5 39a4 1d93 8fa1
000001e0: 133a a7bc 8aff 6431 e63c 67bd f0e9 e93c
000001f0: b0f9 b03d a03a 0300 85bb ecb7 f19e 8d09
00000200: 6df5 863c db6e 32ac b509 0180 52b1 dc07
00000210: 4d65 0500 4a39 8d3e 8e6c 513d 007a 68bd
00000220: 67b3 523d 0aa9 8bbd 6b1e 723d 6243 393e
00000230: 3407 ddb8 6c93 283e 5210 0cab a8e1 dfb7
00000240: 71cc 6c3c b59a 133c 869f 3fbb f0af 553d
00000250: 0a00 1ebe fc35 1cac 8e8a 753c 0ec9 9fa6
00000260: acaf 0080 c15a 883c eb4f 0480 8695 523d
00000270: 9cae 693d 6f26 203d fdcf fa3d 86c0 f33d
00000280: af4c cab8 d77e cc3b a9d0 8bba 59da 653d
00000290: 2cc7 dd3d 384b a6bc 9f4d 7191 6f5a b93d
000002a0: b928 14ba 60a9 d53e 7c14 18b9 8f86 383c
000002b0: 78ec 94bc 39dd 98b7 cb23 1d3d 71f8 503d
000002c0: 8043 933d 4042 78bd 75be 9f3e 53b0 0280
000002d0: 1dad 543d a403 713b 9f73 083d 91e7 6a3d
000002e0: 71ca 8eaf 4d5b 5ebb edfa 083e 7c70 393e
000002f0: 350c 6ebe 4d79 833d 26e6 f13d 8838 2c3e
00000300: aedb 9b3d fc89 6caa cf44 38bb ac1f ee3d
00000310: 4523 743e 8ff0 909a c5bc f4a9 2f9a 523c
00000320: f71c 53b5 a992 98b3 0371 a5bd 66f9 2f3d
00000330: 074b 83bb 45ac c796 c3b1 383e f858 5a3d
00000340: 75f4 353e ce0f 2aa8 0cff 2f3e 3da6 2eb9
00000350: af6e 51a2 5381 7c80 4854 45b4 0acc aaba
00000360: 226c c8ad 8822 8731 e6dd 933d b161 bb3d
00000370: 8bcc 033e f950 7ab1 bb19 beb1 5c4c 793e
00000380: a4d3 45bd a3d4 a23d 71d4 4b3e f79b 423d
00000390: 8e88 b63d 3a46 c0bb 06d6 083e d972 2b3e
000003a0: 180b 0780 2abb 6a3e c2f8 5d3d 62cb 6c3d
000003b0: e3c7 213e bcd6 133c b391 a43d 39e3 ab3d
000003c0: ea1c 5dab 5cff 29ba efa7 53be 7160 093d
000003d0: e4b6 483e daf9 bb3d 89b9 3e3d 02d7 873d
000003e0: b003 03b7 65ff b43d 7d37 fd3e b19b a33d
000003f0: 4c12 c23d f6dd 0600 05d1 70bb 36a0 1dbd
0.026797121 0.105156384 0.13731003 0.043512322 -0.013550309 -1.08836e-40 -0.040845938 0.09235989
-0.255103 0.037579257 0.27513555 0.064730346 0.09342871 -2.7032653e-05 -1.2135521e-05 4.25374e-40
-2.6225001e-05 -2.9464714e-05 0.019888865 0.12256 -0.019198976 -6.955632e-10 -6.9978614e-07 -0.0024028034
-6.272602e-38 0.12438615 0.080757365 0.0434183 -0.104487546 0.17308848 -0.0009645912 0.07265984
0.06438901 0.12535669 0.28538984 0.17024413 -6.3246407e-06 -1.0733064e-09 0.06311033 -0.0038751771
-3.59048e-40 -0.019389046 0.108395234 -0.030593248 -0.24336882 0.046200592 0.017064886 0.13463707
0.043079197 -1.0679157e-05 1.1099376e-05 0.05203622 0.012442294 -0.018042296 -0.0150265135 0.099506035
-0.10536031 0.063597426 8.032674e-21 -0.00031410265 0.04627918 -0.13389342 1.46824e-40 0.0063293255
-0.019219473 0.027279688 0.07980067 -4.7414274e-18 -7.456018e-12 -0.027628545 0.30107543 0.031238282
-0.007242206 0.03324964 0.09632464 0.14377436 -0.16273803 0.061820004 -0.007188437 -1.86057e-40
0.12448299 -2.8789489e-05 0.036994345 -7.298941e-10 -5.6481078e-09 0.08308827 0.1488833 0.026481206
0.123248525 0.20929925 -0.011552695 -0.0063028107 -0.029177403 -7.554468e-14 0.3194336 -9.68482e-10
0.053649392 0.15304008 -0.012033647 0.0597731 -8.659214e-06 -0.16581008 0.05341942 -0.05437854
-0.16379367 -0.04890521 -2.1335418e-28 0.03693686 0.026456269 0.010174302 0.0065438924 -5.397771e-11
-1.0555303e-12 0.16485447 -0.08458154 0.03171272 -8.660924e-09 -0.009084712 -4.029615e-17 -9.728997e-19
-0.020413434 3.3323624e-09 -0.05645456 0.028553933 0.08641374 2.96537e-40 -2.8220713e-05 3.4093983e-33
0.01647445 -2.5356859e-12 -9.5318e-41 3.320614e-34 4.95517e-40 0.2758277 0.051128916 -0.056756973
0.051440623 -0.06819351 0.05911104 0.18092111 -0.00010539443 0.16462487 -4.976064e-13 -2.6688751e-05
0.0144530395 0.009009053 -0.002923937 0.05216974 -0.15429702 -2.21989e-12 0.014986647 -1.1087337e-15
-6.3019e-41 0.016644837 -3.96011e-40 0.051412128 0.057051286 0.039099153 0.12246702 0.11901955
-9.646394e-05 0.0062407064 -0.0010667044 0.056116436 0.10829005 -0.020299539 -1.9035467e-28 0.09050452
-0.000565182 0.41730785 -0.0001450348 0.01126255 -0.018179163 -1.8222827e-05 0.038364213 0.051018182
0.07190609 -0.060610056 0.31199995 -2.46924e-40 0.051922906 0.0036775852 0.03331339 0.057349745
-2.5973493e-10 -0.0033928931 0.1337697 0.18109316 -0.23246844 0.06419621 0.118114755 0.1681844
0.0761026 -2.1008884e-13 -0.0028117185 0.11627135 0.2384158 -5.994565e-23 -1.0868523e-13 0.012854143
-7.8645775e-07 -7.104729e-08 -0.08078196 0.042962454 -0.0040067467 -3.2258901e-25 0.1803656 0.053307503
0.17769034 -9.440323e-15 0.17187136 -0.00016655862 -2.8383377e-18 -1.1433994e-38 -1.8377716e-07 -0.0013030779
-2.2785388e-11 3.932943e-09 0.07220058 0.091494925 0.12870996 -3.6425816e-09 -5.532653e-09 0.24345535
-0.04829754 0.079507135 0.19905259 0.04751202 0.089127645 -0.0058677467 0.13362893 0.1674303
-6.46828e-40 0.2292296 0.054192312 0.05781115 0.15798907 0.009023365 0.080356024 0.08392949
-7.85551e-13 -0.000648489 -0.2066953 0.03353924 0.19601017 0.09178515 0.04656366 0.06632806
-7.809067e-06 0.08837775 0.49456397 0.0798868 0.09476146 6.30638e-40 -0.003674568 -0.038482867

decoder_conv.0.weight f4 [32, 16, 3, 3]
00000000: bdd8 a93d 5e9a 943d 5d4c b83d 6cf8 7dbc
00000010: bc84 8b3d 2676 cdbc 867c 42be dcf4 ac3b
00000020: e9fb 213c 09ee 2dbe 623e 2e3d 4690 bfbc
00000030: 5887 cc3d 3448 423e 63a6 e8bd 1080 83be
00000040: 5224 c1bd b8a2 27be 7efe 8fbd c859 243c
00000050: e934 1fbe 0bab 9cbd 38a7 05bd c844 d23d
00000060: ecb2 f8bd e715 18be 5458 c73d 7437 e5bd
00000070: 2b4c 423e 1bba 1d3e c264 cd3d dbc5 713c
00000080: 54c1 e3bd 35a5 89bd 9bd6 7d3d cb0c 883d
00000090: fd91 79bc c7a4 3e3d be11 713c 2bc7 043e
000000a0: c63f 973b 51a7 02be 0617 933d 7cd4 91be
000000b0: 3737 10bd a210 bb3d 3897 0dbe 04ce 70be
000000c0: 1dcf b23d a9d2 90be 6e58 bbbd 5e36 8fbe
000000d0: 59be 083e aaad 11bd e9c0 1b3c 1e93 5ebe
000000e0: 699e 7dbd 5566 ccbc 2998 2cbe 21ce 15be
000000f0: 6ac6 523d 2fbb 93bb 67e9 9cba c218 5abc
00000100: 2fcf c13d bc9b 3dbc 4f16 e4bc ba83 cfbc
00000110: 9ac5 b33b 3023 8dbb 0759 8c3d 2a86 deba
00000120: 2a59 c4bb a084 89bd d7e2 cc3d e6e2 d9bb
00000130: b070 0ebe 598e 8b3d 64af 0bbd 8290 043d
00000140: 1b0f 1bbc bebd 8b3d 4dcf 43be 7c1e d5bc
00000150: df06 253e 5f29 503e 28b8 0c3c 9f9d dabc
00000160: bfad 4ebc 2f83 46bd 644a a7bd 812a fcbb
00000170: 68a3 2cbe efed 163e 5510 2c3d 7895 db3d
00000180: 0adf 4dbc 48a7 32bd 554c d4bd 3e0b a43c
00000190: 8beb 673b c9cf a93c 049a 8aba bbcc de3d
000001a0: 9793 ac3d 9d9a 693e f6f3 32bb bdc2 6a3d
000001b0: 8e5d ad3d de9d 21bd e607 b53c c1ac 90bd
000001c0: 725f d53d c24e 27be af1d d5bc 9e17 453d
000001d0: 9d14 b4bc 058e 553d a65d 40bd c0b1 ee3c
000001e0: 227a c23d 3298 b1be 4cf6 853e 3edc 4cbb
000001f0: 2e7e 963d d23b bebc ff9b 9f3d 1d6d 143e
00000200: 2453 d3bd f478 f5ba 6d68 163d 8331 d2bc
00000210: c0bf 0fbd 613a 913d efc7 38bd 10f3 4b3d
00000220: 9430 ab3d d6c3 533c c3c9 c1bc 6e58 d1bc
00000230: ad98 e8bd 7c14 80be 3878 8b3d 1864 243d
00000240: 3d91 adbc d3fb c4bd da2a a53d ed32 c5bc
00000250: 6ef6 133e 2445 523d e3bf 2bbd 25f9 9cbd
00000260: d438 1abc be74 a03d c7ed 303e 9d03 c73d
00000270: a565 143c 7ec0 3b3d fd65 c63d 42ee a1bd
00000280: dee6 d8bd 24a0 96bc 0edf f0bc fecf 4a3d
00000290: 5f96 9e3d c0e3 6fbc 7f92 98be 2e86 47bc
000002a0: 59aa 103c 11c2 d93d 5777 223e 501c 0cbd
000002b0: 26d0 233e a3d8 b83c 7dc7 003d c266 d43b
000002c0: f24a 2fbd d614 d3bd b047 abbe 309b 02bf
000002d0: afdc c23d 579b 473d d80b 4f3d 2cb0 02bc
000002e0: 6a63 cdbc 9c59 c4ba 4f38 0b3e ffc3 c23d
000002f0: 1733 2fbd 1bf6 ddbb 7ddb 0bbc 687e fbbb
00000300: 4260 37bd f9e4 79be 5ae4 a83d a988 3ebc
00000310: 1bba 8e3d 7034 023d 4440 473d 5a0c 083d
00000320: 8bb9 c2bd 3769 ebbd 329b 113e 4479 0dbd
00000330: de55 6dbd 9235 84bc 4488 f1bd f85c 8bba
00000340: e1e1 863d 68be b43b d969 5a3d 6bcc 573e
00000350: c780 dc3e 7779 1dbc 5cbc e2bd 6407 5e3b
00000360: 42bb 86bc bb16 3d3d 1448 293d 79e8 80bd
00000370: 3b83 05be 55b1 0c3e 6684 203a ff63 41be
00000380: 672d 7f3d 6526 6bbd 1fec b63d fb75 adbc
00000390: bbbc 8f3d 358a adbd 5912 b2bc 2448 31bb
000003a0: e755 6e3c d4bc 72be b5a7 77b4 6f8c 20be
000003b0: f732 d13b d5ec 1f3c 1f16 153e 01d3 b63b
000003c0: 76f1 4ebd 8e3c c7bd d3a0 003d 298f bc3d
000003d0: c51a b13d e386 bf3d 104c 353d 7e2c c03d
000003e0: 0907 bb3c 31b8 39be 8427 9e3c 05f7 1ebe
000003f0: 2246 8e3d 2891 3f3d 9e77 0bbd 8c03 dd3d
0.08293293 0.07256006 0.0899894 -0.015501123 0.068124264 -0.025080752 -0.18992814 0.005278213
0.00988672 -0.16985334 0.04253996 -0.023384225 0.09986752 0.18972856 -0.11359861 -0.2568364
-0.09430756 -0.16370666 -0.070309624 0.010031171 -0.15547527 -0.07649811 -0.032630175 0.10267025
-0.12143502 -0.14852105 0.09733644 -0.111922175 0.18974368 0.15403025 0.10028984 0.014756645
-0.11120859 -0.06720964 0.06197224 0.06643065 -0.01523256 0.046543863 0.014713703 0.12966602
0.0046157567 -0.12759139 0.07182126 -0.28482425 -0.035208907 0.09134032 -0.13827217 -0.23516089
0.0873091 -0.2828572 -0.09147726 -0.27971166 0.13353862 -0.03556601 0.009506443 -0.21735808
-0.06191865 -0.02495114 -0.1685492 -0.14629413 0.051458754 -0.004508398 -0.0011971415 -0.013311567
0.09463345 -0.0115727745 -0.027842669 -0.025331367 0.0054862024 -0.004307173 0.06852918 -0.001697724
-0.0059920745 -0.06714749 0.10004204 -0.006649363 -0.13910174 0.0681426 -0.034102812 0.032364376
-0.009464051 0.068233 -0.19122048 -0.026015513 0.16115902 0.20328282 0.008588828 -0.026686488
-0.0126146665 -0.04846495 -0.08168486 -0.0076954965 -0.1685921 0.14739202 0.042007763 0.10721868
-0.012565384 -0.043616563 -0.10366122 0.020024892 0.0035388197 0.020728962 -0.0010574465 0.10878893
0.08426588 0.22812887 -0.0027306057 0.057314623 0.0846511 -0.039457195 0.022098493 -0.070642
0.104185954 -0.16338637 -0.02601513 0.048118226 -0.021982485 0.052137394 -0.04696431 0.029137492
0.09495951 -0.34686428 0.26164472 -0.0031259204 0.073482856 -0.023221884 0.07793426 0.14494748
-0.10318592 -0.0018728063 0.036720682 -0.025658375 -0.035094976 0.07091213 -0.045112547 0.04979235
0.08358875 0.012925109 -0.023655778 -0.025554862 -0.113572456 -0.25015628 0.06810039 0.04013452
-0.02118742 -0.09618344 0.08064814 -0.024072135 0.14449474 0.05133547 -0.041931044 -0.07664708
-0.009412963 0.07834767 0.17278205 0.09717486 0.009057437 0.04583787 0.096874215 -0.07906772
-0.105909094 -0.018386908 -0.029403236 0.049514763 0.07743525 -0.014641702 -0.29799268 -0.012177987
0.008829677 0.10632718 0.15865837 -0.03420669 0.15997371 0.022564238 0.031440247 0.0064819762
-0.042796083 -0.103067085 -0.3345313 -0.5101805 0.09514748 0.048732128 0.050548404 -0.007976573
-0.025071818 -0.0014980319 0.13595699 0.095100395 -0.042773332 -0.006773723 -0.008536217 -0.007674981
-0.044769533 -0.24403752 0.082466796 -0.011629262 0.069690906 0.03178829 0.048645273 0.033214904
-0.09508046 -0.114946775 0.14219359 -0.034539476 -0.057943217 -0.016138826 -0.11793569 -0.0010632565
0.06586052 0.0055158623 0.0533236 0.21074073 0.43067 -0.009611479 -0.11071083 0.0033878917
-0.016446713 0.046164256 0.041328505 -0.06294341 -0.13038342 0.13739522 0.00061232445 -0.18885802
0.06229916 -0.057409663 0.08931755 -0.021174422 0.07018419 -0.084736265 -0.021737264 -0.0027051056
0.014546848 -0.23704845 -2.3064679e-07 -0.15678571 0.0063842493 0.009761055 0.1455922 0.005579353
-0.050523244 -0.09728347 0.031403374 0.09206993 0.08647684 0.093518995 0.044261992 0.09383486
0.022830503 -0.1813667 0.019305952 -0.15523918 0.069469705 0.04676929 -0.034049623 0.10791692

decoder_conv.0.bias f4 [16]
00000000: c3f7 f13c 5eef 163e 553b 193e 9fbf 773e
00000010: 1e90 193e d1d0 6b3e 925e 223f 13d9 1b3d
00000020: 2872 593e 4822 e1bb 6bdf 843e 0670 283e
00000030: d92a 353d 9620 c03d 1087 913e 5977 7e3d
0.029537087 0.14739749 0.1496404 0.24194191 0.14996383 0.23028876 0.6342555 0.038048815
0.21234953 -0.0068705417 0.25951704 0.16448984 0.044230316 0.09381215 0.28423357 0.062125538

decoder_conv.2.weight f4 [16, 8, 3, 3]
00000000: d65c 1d3e 6195 ab3e 7c39 1bbd cb5a 3d3e
00000010: 20da b83e ac59 cabd 5923 77bd 1389 b8bd
00000020: d9e8 bdbe d1c2 0ebd b0ba 10be cc2b 243e
00000030: f4b2 3abe 97de 0200 46d0 ac3e b0cb 73bd
00000040: e421 04be aaaf 343e 512a debd 0581 44be
00000050: c813 2f3d d747 92bd 9dea 863d 98a9 893d
00000060: df86 90bc dd6f 9bba 3a12 033e edfa 11bd
00000070: f91f a7be 2ea7 a0bd 012d 28bd 8ee4 63be
00000080: d871 8cbc d2c4 193b fa74 cc3c 7281 093e
00000090: 0589 0fbd 9513 a9be 4f64 86be 0473 2abc
000000a0: 3217 f23c 79f0 c23c 0ccf a93d b79e bcbd
000000b0: 3d4c 3e3d f484 bd3c 1288 b63d a14f 503d
000000c0: 5eac 7abd 9d94 a83d a695 87bc 6f06 69be
000000d0: 7930 72bd 433e c2bd 8c46 31be d3b4 d4be
000000e0: befd 173e 2894 2ebe 9df1 9ebb 185f 153e
000000f0: 0803 b1bd a0d3 573d b5c8 1f3e 050a 50be
00000100: b3be ce3d 1b8a 353d a494 d0bd d785 2cbe
00000110: e3a5 a03e a5fd b83d ffce 193d 41a8 053f
00000120: bc96 bb3d 99f4 15bf 6748 81be c0a0 4d3d
00000130: c99b 1ebf 0c03 61bd 8a22 e2bc e9e2 e13d
00000140: a962 89bc e59f 7f3e 34ca 713e 0df5 aabb
00000150: edb6 d23e e469 0400 31ce 04bd 28cf 943d
00000160: f6f5 b23b 0134 ffbd 39f8 d6bd 94fd 02bc
00000170: 845a 8abc eb9a b7bc 374f fb3c 46d2 423e
00000180: 89a4 8abd 6e4c ea3d 9408 6b3c f1da fcbc
00000190: aef2 1b3e f252 d93d fa91 323e 701a 283e
000001a0: 8319 413e ea41 a33c a0a9 4c3e a295 cb3d
000001b0: e5b9 c03c 49d7 363e 91e4 3b3e e9b1 04bd
000001c0: a293 dc3d b130 563e 4369 023d 1aa9 2a3c
000001d0: fcc3 ab3d d8cc 8bbd 6b1f 64be bcd6 01be
000001e0: c5eb 0abd 9951 2dbc fa38 6f3d 406e fc3c
000001f0: 6a37 023e 3bc9 99bd 04d7 3e3e 7a75 703e
00000200: 52f5 33be 38c0 613e fa29 72bb 1d9a c13c
00000210: 280f f83c eb50 35be 4692 28bd 4f50 423d
00000220: ea32 e73d c63c 6d3e 0f2b 073e 8199 e93e
00000230: 1200 183e 6cec c0bd c902 5e3e 434e 953d
00000240: 751b 363d 6c69 3abe 402d be3c 48fc a93e
00000250: a888 d2bd 7c3a 2fbe 3fbf aa3d e5b6 22be
00000260: 31ab 18be 5203 fdbc a1aa 253d ce6b 093e
00000270: 07d5 a33d 1b6d 1280 5f90 993d bb3f 9f3c
00000280: 89d0 bd3e 57c4 1b3d 99cc a9bd 4c4a 16be
00000290: d5b9 0abe d4ae 61bd 7af1 273b de9e e33d
000002a0: 0992 a53a 1fad 913e 78d6 563e cdd4 cc3b
000002b0: ef28 1dbe fd5d 9c3d 7f3a 3fbe 5a01 823e
000002c0: 4e8d 133e 3738 20bc 552d 983e 6bbd b73d
000002d0: 0f33 21bd 0f45 6c3d 5efc 5abd 3426 8c3c
000002e0: 93c0 383e 517e 583e 8c4c 833c f8a6 f63e
000002f0: 7261 8a3e 8f03 9fbd dbd5 243d 77bc 11be
00000300: e60d 79bd 8e54 483b c142 17be 6dbb f5bd
00000310: c133 9fbd 930e bd3d bdd7 e5bd aef8 2dbe
00000320: d254 e8bd eb65 56bd 6f2b 723e 58d8 2e3e
00000330: 4826 1b3a 4417 5d3e b0dd bf3d 86bf 01be
00000340: 56a6 b03d 313f 103e 02a2 bc3d 1cdd 3f3e
00000350: f7b1 fb3e 099c 4e3e 73eb ce3d d152 113f
00000360: f01d b03d 2204 1dbd 2acd fcbc 3322 64bd
00000370: 4463 debe 6ba4 0a3e 124a 1bbd a903 423e
00000380: 6395 483d dcbd 9e3e 6d56 cf3d d1e1 69ba
00000390: cd9b 963e 2547 0f80 fadd 943d 73a7 893e
000003a0: e89e a53e e645 2d3e 2395 babd 8d25 3dbe
000003b0: 943e 04be 2236 32be aada 343c 812f e23d
000003c0: 08c6 673d 783f e9bd 9956 b1bd 88c8 8b3d
000003d0: b295 273d 0ec3 b23d e174 63bd 84c2 a23e
000003e0: 432d 303e 76ed 073e f9b0 4c3e 3410 f93d
000003f0: 334c d6bd 6598 803c 10f9 c13d ad54 98bc
0.15367445 0.33512405 -0.03789662 0.18491666 0.36103916 -0.09880385 -0.060336445 -0.0901052
-0.3709171 -0.03485376 -0.14133716 0.16032332 -0.18232328 2.63521e-40 0.3375265 -0.059520423
-0.12903553 0.17645136 -0.10847915 -0.19189842 0.042743474 -0.071426086 0.06587718 0.067218006
-0.017642437 -0.0011858899 0.12799922 -0.035639692 -0.3264158 -0.07844387 -0.041058544 -0.22255155
-0.017144129 0.0023463261 0.024958123 0.13428286 -0.03504278 -0.33022752 -0.26248404 -0.010403398
0.029552076 0.023796307 0.08291444 -0.0920996 0.046459425 0.023134686 0.08912672 0.05085719
-0.06119954 0.08231471 -0.01655085 -0.2275636 -0.05912826 -0.09484532 -0.17312068 -0.41544208
0.14842889 -0.17048705 -0.00485058 0.14587057 -0.08643156 0.052692056 0.15603907 -0.20316322
0.10094967 0.04432116 -0.10184601 -0.16847931 0.31376562 0.09032754 0.037550922 0.5220986
0.0915961 -0.5857635 -0.2525055 0.05020213 -0.6195646 -0.054934546 -0.02760436 0.11029608
-0.016770678 0.24963339 0.2361229 -0.0052172006 0.41155186 4.05328e-40 -0.032423202 0.072660744
0.0054614497 -0.12461091 -0.104965635 -0.007995028 -0.016888864 -0.022412738 0.030677421 0.19025525
-0.06769664 0.11440359 0.014345307 -0.030866118 0.15229294 0.10611524 0.17438498 0.16416335
0.18857388 0.019928891 0.19986582 0.099406496 0.023526141 0.17855562 0.1834891 -0.03239623
0.10770346 0.20917012 0.031838667 0.0104162935 0.083869904 -0.0682618 -0.2227761 -0.12679571
-0.033916254 -0.010578536 0.058403946 0.03081429 0.12716451 -0.07509085 0.1863671 0.23482314
-0.17574051 0.22045982 -0.003695129 0.023633057 0.030280665 -0.17706649 -0.041155122 0.04743987
0.11289008 0.23167714 0.1320002 0.45624927 0.14843777 -0.09420094 0.2168075 0.07290318
0.04445978 -0.18204278 0.023214936 0.33200288 -0.10279971 -0.17112154 0.083372585 -0.15890081
-0.14909054 -0.030885372 0.040445928 0.1342003 0.07999616 -1.692179e-39 0.0749824 0.019439569
0.37073162 0.03802904 -0.08290977 -0.1467678 -0.13547452 -0.05509837 0.002562611 0.11114286
0.0012632023 0.28452393 0.20980251 0.006250954 -0.15347646 0.07635114 -0.18674658 0.25391656
0.14409372 -0.009779028 0.29722086 0.089716755 -0.039355334 0.057683047 -0.053463332 0.01710806
0.18042211 0.21141936 0.016027711 0.48174262 0.2702747 -0.077643506 0.04024301 -0.1423205
-0.06080427 0.0030567977 -0.14771558 -0.11998639 -0.07773543 0.092312954 -0.112227894 -0.16989395
-0.11344303 -0.05234329 0.23649381 0.17074716 0.0005918485 0.21590906 0.093684554 -0.12670717
0.08625476 0.14086606 0.09210588 0.1873669 0.49159214 0.2017671 0.10103502 0.5676699
0.0859946 -0.03833402 -0.030859549 -0.055696677 -0.4343511 0.13539283 -0.037912436 0.18946709
0.04897059 0.31004226 0.10123906 -0.0008921894 0.29415742 -1.403054e-39 0.07268901 0.26885566
0.32347798 0.16921195 -0.09110477 -0.18471356 -0.12914497 -0.17403463 0.011038462 0.11044217
0.05658534 -0.11389059 -0.08659095 0.06825358 0.040914245 0.0872861 -0.055531386 0.3178903
0.17204766 0.13274178 0.19989385 0.121612936 -0.104637526 0.015697667 0.09471333 -0.018595064

decoder_conv.2.bias f4 [8]
00000000: ce7b 083f 1d9e 8abe a075 443e f865 363e
00000010: 7e0f ca3c d708 153e a630 3c3e 143f 81be
0.5331391 -0.27073756 0.19185495 0.17812335 0.02466559 0.14554153 0.18377933 -0.25243437

decoder_conv.4.weight f4 [8, 1, 3, 3]
00000000: f7c4 ca3e 95b7 223f 4ea1 e23e a777 3f3f
00000010: 1307 8d3f 7494 2d3f f204 e23e 6a5d 1e3f
00000020: 2b5d 983e b961 a4be b155 46bf 44a2 0dbf
00000030: 165f 3bbf 1f45 cbbf 8af5 64bf ec73 efbe
00000040: 0504 78bf bdda eebe 2a3e 08bf 8a9a 43bf
00000050: e906 1ebf 1602 debe 16ad edbe 0cd1 bebe
00000060: 423d f8bd a56d 173e 7cfc 86bd 8864 52be
00000070: 3bba d6be 808a 59be 215f 22bf 8c64 75bf
00000080: a94f ebbe cb62 71be bb45 36be 9270 bb3d
00000090: 2127 66be 1cd9 0fbf 91eb 79bd 37d5 bcbe
000000a0: b041 4abf feb4 353d 1059 b0be eaed 26bf
000000b0: 5756 f8bd 12c7 97be 1c5a 18be 3a4d b4be
000000c0: 9a47 75be 8d81 3d3e 7d2c 3ebe 5269 ce3e
000000d0: cd5f 3a3f efa1 c53e 1a79 823e 3e48 473d
000000e0: 6fd1 9fbe 89df 563e ca65 b1be 0a80 4bbf
000000f0: c914 4bbe 05b4 51bf 1707 4abf 274f c0be
00000100: b833 3dbf 9d09 13bf 9855 73bf 368b dfbf
00000110: ea2a 8abf fd84 0fbf 977d 79bf bf37 0bbf
0.39603397 0.63561374 0.4426369 0.7479195 1.1017784 0.67804646 0.44144398 0.6186129
0.29758582 -0.32105806 -0.77474505 -0.5532572 -0.73191965 -1.5880469 -0.8943716 -0.4676813
-0.96881133 -0.4665126 -0.53219855 -0.7640768 -0.61729294 -0.43360966 -0.46421117 -0.37268865
-0.12121059 0.1478792 -0.06591126 -0.20546162 -0.41938958 -0.2124424 -0.63426405 -0.9585655
-0.45959213 -0.23572843 -0.17800038 0.091523305 -0.22475864 -0.5619066 -0.06101567 -0.3688142
-0.7900648 0.04436206 -0.3444295 -0.6520678 -0.12125843 -0.29644066 -0.14878124 -0.3521517
-0.23953095 0.18506451 -0.18571658 0.40314728 0.7280243 0.38600108 0.25483018 0.04865288
-0.31214473 0.2098371 -0.3464797 -0.7949225 -0.19832148 -0.81915313 -0.7891707 -0.37560388
-0.7390704 -0.57436544 -0.9505248 -1.7464359 -1.0794346 -0.560623 -0.9745726 -0.54381937
