encoder_paramsfold3.pth (torch, 101191 bytes, 10 tensors)

encoder_cnn.0.weight f4 [8, 1, 3, 3]
00000000: 438a 48bd 9938 e63e 80b4 1d3f 7bec 6c3e
00000010: d89d 2a3f 217f 143f 3ba6 b13e 22cf 2f3f
00000020: ae9d 073f bd2c e93d e59e 30bd bed3 5fbe
00000030: daed 523e a058 23be 72e5 a8be 68ea 8b3e
00000040: 281c 213e 864e f7bc cef0 b13d 2503 493d
00000050: 45f1 c83d fa2c 0fbd bec6 7ebd 018a 1bbe
00000060: 7431 95be 23b0 69be 033d 8ebe 96e2 f73c
00000070: 8d07 e93d 3f73 9b3d 5bce c7bd a4b4 40bd
00000080: f87a 07be e567 97be 2512 58be c5bb a9be
00000090: 9f97 16bd e175 f43d 5505 413d 9e54 28bb
000000a0: baef 25be 7dd6 64be 0cbd 42be 5d82 98be
000000b0: 3444 6fbe 17ef 29be 349b 24be a7d9 a7be
000000c0: b1fd 26be 9949 d9bd 66c9 a8bd 6cf9 a43d
000000d0: c831 533d 52d3 d9bc b703 143f 5a8c 873f
000000e0: a3c6 693f 428a 523f 8a78 843f 8644 433f
000000f0: 906a 2a3f 1d5e 3d3f 6c67 d33e c814 21be
00000100: 98ad 7bbe 6428 61be 338e c8bd 382d 22be
00000110: a1ca 4ebe 5d01 be3d 1dda ee3d f7e5 0b3e
-0.04895998 0.44965056 0.61603546 0.23137085 0.666471 0.58006483 0.34697136 0.68675435
0.52974975 0.11385486 -0.043120284 -0.21858117 0.20598546 -0.15951777 -0.32987553 0.27327275
0.15733397 -0.03018881 0.08688508 0.049075264 0.098116435 -0.034955002 -0.062201254 -0.15189363
-0.29139292 -0.22821097 -0.27780923 0.030259412 0.11378393 0.07590341 -0.09756156 -0.047047272
-0.13230503 -0.29571453 -0.21100672 -0.3315107 -0.03676569 0.11936546 0.047124226 -0.0025685201
-0.1620473 -0.22347446 -0.19017428 -0.2978696 -0.23365861 -0.16595112 -0.1607483 -0.32783243
-0.16307713 -0.10609741 -0.08241539 0.08055386 0.051561147 -0.026590023 0.5781817 1.0589707
0.9131872 0.82242215 1.0349286 0.76276433 0.6656885 0.7397173 0.41289842 -0.15730584
-0.2457794 -0.21988064 -0.09792747 -0.15837562 -0.20194484 0.09277604 0.116626956 0.13661943

encoder_cnn.0.bias f4 [8]
00000000: a57c 5d3e 5d68 e03e 00e4 d63e 4272 df3e
00000010: c939 103f b3b9 e83e 5cd5 2fbb 4407 f63e
0.2162958 0.43829623 0.41970825 0.4364186 0.56338173 0.45454177 -0.0026830053 0.48052418

encoder_cnn.2.weight f4 [16, 8, 3, 3]
00000000: 261d 22be b840 5cbe a6ba 873d 2844 4f3d
00000010: 193d 0abd 3eb4 9f3e 36d3 613e 471f ba3d
00000020: ed19 9c3d c7bd 853d 5a7e 133e c8a5 cbbc
00000030: 6f80 a13d 2891 c63d 14fb 71bd 1816 e33d
00000040: e778 853d 0fa1 f73c 5099 fa3d 3954 1a3e
00000050: 2fbd 793d 4454 1d3c d817 503d a8bf 0cbd
00000060: 88d9 41bc 1eae 6b3d abbb 5a3d 1c48 fe3d
00000070: 3c20 223e de11 573d 160c 9d3c 7701 773d
00000080: ced3 d1bc 74f8 d8bc a511 523d a529 2b3d
00000090: 5c42 163e 5eab 413e 7107 8e3d 17f1 533d
000000a0: a26c c13d 8229 51bd d861 553c 40a2 923d
000000b0: 2f09 833d 2b8f 163e 3baf 383e a998 993d
000000c0: 127f ad3d 3167 043e 91d0 d5bb 4435 d4ba
000000d0: 1aee 483d 362f 90bc e7b3 adbe 8279 0fbf
000000e0: 8731 e9bd 720c a8bd 2190 fabd bd3f 5a3e
000000f0: ce5b 693e 7440 9d3d 82d7 593e 64f5 163e
00000100: e082 3a3e e8f4 0a3e a12b c03d afb2 023e
00000110: fe80 e53c 64e3 1f3d 0d37 283d 73b3 983c
00000120: a3b2 113e c1f8 723e eb95 263e 5d34 f63c
00000130: fd67 d1bd cad4 85be eb05 0bbe 37de 72be
00000140: 246d 36be cba4 7b3d 2940 073d 5537 0e3d
00000150: 0e6c 193d d332 32bc 417c cf3d 4091 313e
00000160: 949e babc 3a8f a13d a94d 91bc 1a48 7f3b
00000170: 80a9 bd3d 9a13 e73d 58e6 c53d 2138 cd3d
00000180: b3f9 9a3d 3a8c 5e3d 2525 513d 3c3f 95bc
00000190: bfa9 85ba c240 be3d fa77 de3d 9089 b23d
000001a0: 41f7 d13d 1eff 8f3d ceda 7a3d e06d 693d
000001b0: 8f8b 163c 89a3 343b af2f b33d 6755 013e
000001c0: 4aac b03d cba5 ed3d 64f2 e33d 552b 9c3d
000001d0: ac80 8f3d 7ec4 7a3c 97af e6bc d846 81bd
000001e0: b0f5 aebc 374f 33bc ea08 bb3d 3c7d f73d
000001f0: c347 db3d 1382 c43d ef7d 4a3e a581 9d3e
00000200: 4e3e ae3e a526 2f3e 2a38 31be 235b aabe
00000210: b4cb 0cbe 25c8 02bf 4494 85be 77a3 523d
00000220: fa3e 6dbc 5230 abbd d2ea 0ebd 4174 763b
00000230: f32b 9d3d 3e1d fc3d e404 e43d ec80 af3d
00000240: cf39 733d 74a3 4c3e 05b0 853e cd6a a23d
00000250: 376f a53e 8634 523e 7a50 313e 03dd a13e
00000260: dddf 1c3e 73e1 b83d 6ba8 c53c ac17 d3bd
00000270: f354 2abb a227 95bd 1ae6 913d 2a7a f03b
00000280: cc62 c03b 9fbb 013e ea8d 18bc 2c83 40bd
00000290: 2917 8dbd 1160 9bbc 10d4 cdbd 2f94 b0bc
000002a0: 0cd6 33bd afb8 bfbd a98c 813d d19b 2b3a
000002b0: 7154 41bd 9542 96bd caae ae39 6942 b9bd
000002c0: 240d d2bc 0970 c2bc ea4e 9bbd 5a84 833d
000002d0: 7915 c23c 1ccf 81bd c481 a7bd d383 f2bb
000002e0: 56bd 01be b742 0bbc 486c ccbc 800b c6bd
000002f0: a8ff 043e 5748 eb3c 83e7 bd3b 2976 a7bd
00000300: 23a4 9b3c 2de3 0ebd 445f 97bd 5d0e e03b
00000310: a53b 9ebd ab9b 663b ff8a afbd 970a 0d3d
00000320: 252e a03e c4b3 8f3d df0d c13e 82c7 d93e
00000330: b74a 3d3e 011e e83e 26bd a53e b5d4 603d
00000340: fe46 a03d e9e8 3abd bd33 a23c 4917 99bc
00000350: 3996 b6bd 8cb4 a93d fe72 b1bc 5d18 c3bd
00000360: c641 18be 6e38 123e e006 3f3e 27b6 0ebe
00000370: 96ef e1bd 41a6 063d 7eed cb3d 6a39 3bbd
00000380: ec0b 22be a39e 4abb aadb b9bc c94c 053e
00000390: 22b4 7f3d 3b04 843c a799 bbbc 89e7 cf3d
000003a0: 6772 c33d d66c 8e3d d8d4 1e3e 130c aa3d
000003b0: 7602 e33d cca6 9b3d 5207 9d3d 1804 813d
000003c0: 6186 953c ebf0 873d 5016 193e 12d8 2f3e
000003d0: 87ab 993d eb39 ee3d 2a27 cb3d 7095 af3d
000003e0: 515d af3d 0b18 e73c 96dd a53d bc8c 2e3e
000003f0: f76c 453e 65c7 cd3d 1ae9 e73d 8191 fe3d
-0.15831432 -0.21509063 0.06627397 0.05060211 -0.033749674 0.311922 0.22053227 0.09087997
0.076221325 0.06530338 0.14403668 -0.024859324 0.07885825 0.09695655 -0.059077337 0.110881984
0.06517201 0.030228166 0.12236273 0.15071191 0.060971435 0.00960261 0.05080399 -0.034362465
-0.011831649 0.057539098 0.05340163 0.124160975 0.15832609 0.052507274 0.019170802 0.06030413
-0.025613692 -0.02648566 0.05128636 0.041787762 0.14673752 0.18913028 0.06935013 0.051743593
0.09444548 -0.051064976 0.013023816 0.07159853 0.06398236 0.14703052 0.18035595 0.07499821
0.08471502 0.1292999 -0.006525107 -0.0016190191 0.049055196 -0.017600637 -0.33926317 -0.5604478
-0.113864 -0.08205499 -0.12234522 0.21313377 0.22788927 0.07678309 0.21273616 0.14742047
0.18213987 0.13569987 0.093833216 0.12763475 0.02801561 0.039035216 0.041068126 0.018640256
0.14228301 0.23727705 0.16268127 0.030054266 -0.10224912 -0.26138908 -0.13576476 -0.2371758
-0.17815071 0.061436456 0.033020172 0.034720737 0.037456565 -0.010876375 0.101311214 0.17340565
-0.022780694 0.078886464 -0.017737227 0.0038952888 0.09260845 0.112830356 0.09663075 0.10020471
0.075671576 0.05433295 0.051060814 -0.018218629 -0.0010197683 0.09289695 0.108627275 0.08717644
0.10252238 0.070310816 0.061243825 0.05698955 0.009188547 0.0027563295 0.08749329 0.12630235
0.086266115 0.11603888 0.11130217 0.076254524 0.07006964 0.015305636 -0.0281599 -0.063123405
-0.021357387 -0.010944179 0.091325596 0.120844334 0.10707047 0.09595122 0.19774602 0.30762973
0.3403191 0.17104585 -0.17306581 -0.33272657 -0.13749582 -0.51086646 -0.2608968 0.051425423
-0.014480347 -0.08358826 -0.03489191 0.0037605914 0.07674398 0.12310265 0.11133745 0.08569512
0.059381302 0.19984227 0.26110855 0.07930527 0.32311413 0.20527849 0.17315856 0.3161393
0.15319772 0.09027376 0.02412816 -0.103072494 -0.0025990575 -0.0728295 0.071239665 0.007338782
0.0058711525 0.12669228 -0.009311179 -0.047000095 -0.06889183 -0.018966706 -0.10050213 -0.021555034
-0.043905303 -0.093613975 0.06325657 0.0006546351 -0.04719967 -0.07336918 0.00033318094 -0.0904587
-0.025641032 -0.023735063 -0.07583411 0.064217284 0.02369188 -0.06338331 -0.08179048 -0.0074009686
-0.12669882 -0.008499793 -0.024953976 -0.09670162 0.1298815 0.028721018 0.0057954206 -0.08176834
0.018999165 -0.03488462 -0.07391217 0.0068376497 -0.0772622 0.0035188 -0.08571433 0.034433927
0.31285205 0.070167094 0.37705895 0.42535025 0.18485533 0.4533539 0.3237087 0.054890353
0.07826041 -0.045632277 0.019800061 -0.018687861 -0.089153714 0.0828639 -0.021661278 -0.09526131
-0.1486884 0.14279339 0.18654966 -0.13936673 -0.110320255 0.032873396 0.099574074 -0.04570905
-0.1582486 -0.0030917309 -0.022687752 0.13017572 0.062427647 0.016115298 -0.022900416 0.10151584
0.09543305 0.069543526 0.15510881 0.08303084 0.11084454 0.07600173 0.07667412 0.06299609
0.018252553 0.06637748 0.14949918 0.17172268 0.07503419 0.11632141 0.09919579 0.08573425
0.085627206 0.028209707 0.08098905 0.17045873 0.19279848 0.10047797 0.113237575 0.124300964

encoder_cnn.2.bias f4 [16]
00000000: dbf0 0b3e f45b 6c3d f903 b53d 952b 033e
00000010: 8a18 873d d7df 113e 25e5 b23d 6218 fc3d
00000020: 965a d63c 128c 963d 57f4 a63d 52c1 e53b
00000030: f853 ee3d f11c 7ebc b3dc 0e3e 68cd be3c
0.13666098 0.05770488 0.08838648 0.12809594 0.06596477 0.14245544 0.08735112 0.12309338
0.026166242 0.07350935 0.08152073 0.007011571 0.116371095 -0.01550983 0.13951378 0.023291305

encoder_cnn.4.weight f4 [32, 16, 3, 3]
00000000: 582a 8ebd 8f13 083e 0ff9 1bbe b40d 2a3d
00000010: 5ddb 4abe 49b6 5abe 3263 88bc 0005 1cbe
00000020: b169 4fbd b542 8a3d 859c 9f3d 8b80 e13d
00000030: 0c37 473e ec64 87be b82e 073e e5e1 95be
00000040: 448d 773d 4a95 873d 80d4 c03d 5c4b 2ebd
00000050: c1ea 0d3e fcca eabe 72cc a43b 3b46 bcbe
00000060: ec7d 6f3d 5a18 aebc 960e 89be fd4a 943d
00000070: 4d3f 5ebc 0ad8 5fbb 4384 02be d491 503e
00000080: 01fb 4fbe 2d3e 2e3c 2cbf 923b a6eb 6fbd
00000090: c79a 2cbb dd5d 9abd b599 81bd 9e46 d43d
000000a0: cd1d 033d 6878 783e c8df 2c3d 0736 26bb
000000b0: eddf 193e 807c e03c 3eeb a4bd ef4c 75bd
000000c0: 2c04 243e 4647 bd3d 1573 603e dde0 81bd
000000d0: 6a70 0ebe 7c9d 1e3e 83c6 023e 0f08 653d
000000e0: 2a14 4fbd e893 f0bc 5b47 aabd dc52 08be
000000f0: 8858 abbb 55bf 23be 40a1 03bd 6942 8e3d
00000100: fb26 90bd 8a69 12bd 4716 303e a610 743c
00000110: 32e4 803e 477c 2a3e 0bfb cd3d 8a15 e73d
00000120: 2640 133e 6c26 933c dd00 46bd 9b14 dd3a
00000130: ba50 81ba ed69 2fbc 8057 a83d 194e 20be
00000140: 936b b43d 6362 0d3e 6d40 103d a3cf 9fbd
00000150: 0d57 51bd e4e5 0fbe be28 82bd b783 1cbd
00000160: e04c 5cbe 5c5d 3f3d 21f8 b13d cb46 7f3c
00000170: 4508 4cbd e54d 423c d171 84bd df97 c83c
00000180: 8b81 debd a592 41be afd0 ec3d bf7f 863b
00000190: cb8c 93bd 02ba 4e3e f300 2a3e a494 57bd
000001a0: bc10 633e bfa3 803d 4e52 113e f9af 13bd
000001b0: 67d6 f53d e30e 483c 6869 42bd 0b9f abbd
000001c0: e055 953d c081 2fbe a8ee 3e3d 51be b8bd
000001d0: 1453 6a3a 02b1 f03d 84e1 bbbd d4a7 35bd
000001e0: 7dae 3cbd fb70 253d 9276 b2bd de28 f9bd
000001f0: db4e 93bd d5f7 203d ae44 64be a151 dc3d
00000200: 1f7e 5cbc 0cc1 4f3e b886 103e ac84 27be
00000210: 10b5 44bd fa27 43be f1f5 62bd 39c0 153d
00000220: 29c1 e13d 88fe 5abd 0ca5 b73c ce2b 1abe
00000230: 36b5 cfbc dc6c d5bd aff8 50be 7648 5f3d
00000240: 8c60 53bc 45cd 19bd fba9 63bd 56d1 363e
00000250: 04b5 c2bc 17d1 dabd 0825 803d 6abd 113e
00000260: 9855 ecba 6928 8b3d f754 ea3c 5dcc 27bc
00000270: 1a1c a73d 44fe 0ebd eff1 9fbc 388d 9fbd
00000280: 17d9 103d 4ded 34bd eb3e 69bd 0a67 a03b
00000290: 5266 183d 7235 53be 8b5c e0bc 0bdc 91bd
000002a0: c957 fb3d 02ef 71bd a86c 523c f544 f33c
000002b0: 6383 74bc de78 edbd 1625 0e3e 193a a53c
000002c0: 1c08 1cbd 7021 87bd bc6a 4c3d f2e8 833d
000002d0: a5d8 6fbc e782 93bd de22 323b 4133 3abd
000002e0: a324 1cbc 4086 223d 0dbf ad3c a91b 393d
000002f0: 1a17 843a 876d 85bd 5c23 13be fc6c 073d
00000300: e2d1 cf3c 1608 9e3c b617 583d 78dd 4d3c
00000310: 26e0 c23d f58d 7c3d ce20 043d 49d0 b1bc
00000320: e227 25bd 0a93 513d ba07 4cbc c821 febd
00000330: c87f 023d cd1d b8bc 36b4 823d dc20 9ebc
00000340: 30fb 46be acf5 6abd 1cf0 11bc fa2e 93bc
00000350: 32ba 6c3c a5ac 9e3d 3022 08bd d720 843d
00000360: 80f0 3e3c 18fb b0bc 4121 82bd 1150 b23d
00000370: c28d 2b3c fd22 053d 9e57 b13c 1831 303d
00000380: 7be5 733d e168 f6bc 541d 07bd 3f94 41bc
00000390: 166e 553d 7a4b 02bd 6e8b eabd 6350 423d
000003a0: 87b5 cc3d 724a 063e 70d8 74bd 165f e5bc
000003b0: 7241 f8bc b21e a83d 6cc8 99bd 5296 633d
000003c0: 6925 323c 35a0 2d3e 00e3 a13d 0024 e9bc
000003d0: fe31 01be 2f10 90bc a086 343d dcf4 0bbc
000003e0: 0e3c 51bc 9819 123e 0f62 16be ff71 933d
000003f0: 63f0 27bc a27a cfbc 0b08 cfbd fcd4 dc3d
-0.0694167 0.13288711 -0.15231727 0.041516975 -0.19810243 -0.21358599 -0.016648863 -0.15236282
-0.050637905 0.067510046 0.077935256 0.11010846 0.19454592 -0.26444185 0.13201416 -0.29273906
0.060437456 0.066202715 0.09415531 -0.042552337 0.13859083 -0.4585799 0.0050292546 -0.36772332
0.058469698 -0.021251846 -0.2676894 0.072408654 -0.013564897 -0.003415587 -0.12745766 0.20368129
-0.20310594 0.010634941 0.004478356 -0.05857434 -0.0026337372 -0.07537434 -0.063281454 0.10365032
0.032010842 0.24264681 0.042205602 -0.0025361793 0.15026827 0.027403116 -0.080526814 -0.059887823
0.16017216 0.0924211 0.219189 -0.063417174 -0.1391007 0.15489763 0.12771039 0.05591589
-0.05055634 -0.029367402 -0.08314391 -0.13312858 -0.0052290596 -0.15990956 -0.0321362 0.069462605
-0.07038685 -0.03574518 0.17195998 0.014896547 0.251741 0.1664897 0.10057648 0.11283405
0.1437994 0.017962657 -0.048340667 0.0016867103 -0.0009865977 -0.010706407 0.08219814 -0.15654792
0.08809581 0.13807063 0.03521769 -0.078032754 -0.05110841 -0.1405254 -0.06355427 -0.03821155
-0.215137 0.046719894 0.08689905 0.015580843 -0.049812574 0.011859392 -0.06467021 0.02448648
-0.10864552 -0.18903597 0.11563241 0.004104584 -0.072045885 0.20188144 0.16601925 -0.05263199
0.22174352 0.06281232 0.14191553 -0.036056492 0.120037846 0.0122105805 -0.047463804 -0.083799444
0.0729177 -0.1713934 0.04661432 -0.09020675 0.0008938771 0.117525116 -0.09173873 -0.044349506
-0.046064842 0.04039095 -0.08714022 -0.12165998 -0.07192775 0.03929885 -0.22291824 0.10757757
-0.013457804 0.20288485 0.14113891 -0.16359204 -0.048024237 -0.19058219 -0.05541033 0.03656027
0.110231705 -0.053465396 0.022417568 -0.15055773 -0.025354963 -0.10421154 -0.20407365 0.054512464
-0.012901437 -0.037549276 -0.055582028 0.17853293 -0.023767956 -0.10684412 0.06257063 0.14232412
-0.001803088 0.06794817 0.028604968 -0.010241595 0.08159657 -0.034910455 -0.019524543 -0.07790607
0.035363283 -0.04417162 -0.05694477 0.0048950957 0.037206955 -0.20625857 -0.027387878 -0.07122048
0.12272603 -0.059065826 0.0128432885 0.029695967 -0.014923903 -0.11595319 0.13881335 0.020169305
-0.03809367 -0.065981746 0.049906477 0.06440915 -0.014639054 -0.07202702 0.0027181427 -0.045459036
-0.009530219 0.039678812 0.021209264 0.045192394 0.0010077686 -0.06515031 -0.14368957 0.03306292
0.025368635 0.019290965 0.052756988 0.012565009 0.09515409 0.06165882 0.032257847 -0.021705763
-0.04032124 0.051165618 -0.012453014 -0.12408787 0.031860143 -0.022475148 0.06382029 -0.019302778
-0.19431758 -0.057363197 -0.008907344 -0.017966736 0.014448689 0.07747773 -0.03323573 0.06451576
0.011654019 -0.021604106 -0.06353999 0.08706678 0.010470809 0.03250407 0.021648224 0.04301557
0.05954502 -0.030079307 -0.032986954 -0.01181513 0.05210694 -0.03181026 -0.11452375 0.047439944
0.09995561 0.13114336 -0.059776723 -0.027999442 -0.030304644 0.0820898 -0.075089306 0.05556328
0.010873177 0.16955645 0.07904625 -0.028459549 -0.12616727 -0.017585842 0.0440737 -0.008542266
-0.012770666 0.14267576 -0.14685844 0.071994774 -0.010250184 -0.02532703 -0.10108956 0.10782811

encoder_cnn.4.bias f4 [32]
00000000: da6d 44bc d927 d7bc ec2e 44bd 2bae aab9
00000010: febe 9e3c d5f4 af3b de9c b83a c0fd 593d
00000020: d935 523a 8d45 0c3d 20db 30bd 8590 113b
00000030: 13c8 84bb 9cfc 56bd 2b84 64bd 601f 4f3c
00000040: 70c5 ea3c 8115 b13c 24be 413d 7897 d73b
00000050: c5b1 90bc 93e1 6ebd ba4c 0ebd 9b33 d33c
00000060: c08d a83c 19be aabc a05f 4b3d 3b9c 9ebc
00000070: 4456 033d 5948 8c3c 03d5 a73c 69ab aa3b
-0.011989081 -0.026264118 -0.04789631 -0.00032554692 0.019378182 0.0053697624 0.0014084836 0.05322051
0.0008018888 0.034246016 -0.043177724 0.0022211384 -0.004052171 -0.052487 -0.055790108 0.012641758
0.028658599 0.0216167 0.047300473 0.006579336 -0.017662892 -0.058320593 -0.03474114 0.025781443
0.020575404 -0.020842599 0.049651742 -0.019361606 0.03206469 0.017124342 0.020487314 0.005208422

encoder_lin.0.weight f4 [64, 288]
00000000: eedc 19bb 58f7 e63c a1ba 00bd dc01 06bc
00000010: 911f 1bbc 5c1d a03c 2ab2 28bd eae6 d03d
00000020: 8a67 e9ba 5ff9 613c 86d9 b9bb ed38 5fbd
00000030: a92e 06bd c72d 5abc cd92 3ebd cddd 213c
00000040: a33d d0bc cc92 973b d2b3 d03b 12a8 fa3c
00000050: e8ab 653c 93e0 3c3d b1b5 00bc b189 a83c
00000060: b712 6dbc 458e ce3d e6f8 97bd 29d7 953c
00000070: 243b c8bc 0511 4d3d c086 c1bc b964 d53b
00000080: 66da a63b 0bdd 28b8 7af2 c1bd 8f7b 843d
00000090: 16bf 343a 6cf6 48bd 3089 bb3c 0b56 c2bc
000000a0: b5ac 8b3c e5cf b43c 532b b5bc 7b24 f9bc
000000b0: 7eae dcbb 6e14 dfbb 6a5d 413c 6b39 d43c
000000c0: 267e c4bc ff2f 64bd acf1 5abc 8fad b4ba
000000d0: a63a ab3b 9358 573c bdac 023c 78ea 453d
000000e0: 1db4 d2bc be22 cb3b fde0 bc3d efe9 2c3c
000000f0: 200f d53c b471 023d 5436 9a3d 46bb 153d
00000100: 7817 413c 05dc 9dbc ba46 c6bc 2981 ce3d
00000110: 348f cabc 3ea1 db3c 79e7 963d 4d56 a2bc
00000120: 07ea 3d3b 85bb 373d 74d1 d33c 38e5 69bc
00000130: 8053 d93d 6c46 80bc 156b cebb 3012 a63c
00000140: 2ada 933c 566b 853c 4fb3 5d3c f2ef 083c
00000150: 55de 543c e828 c33d 9394 423c 60f4 373d
00000160: e4b8 00be 5ac8 77bc 2869 88bc ab01 4a3d
00000170: 6b61 cb3c 2513 bebc 2591 dfbc db74 f13c
00000180: e93d a73b 37a1 08bd 53a7 c73d d620 05bd
00000190: 4d39 473d 9ee7 dc3c b249 41bc 3d3d 18bc
000001a0: 508a 8fbd a330 223d b719 a3bc bb99 1b3d
000001b0: 853b 32bd 14a4 113c 690d 8aba af0e b43b
000001c0: 7318 033c ee86 3f3c 6ec4 feba 0800 ae3c
000001d0: 5e39 6f3b c83e bcbb d782 913c 7651 d2ba
000001e0: 477d dfbc 1cfe 7ebe da84 a73c c26a b1bc
000001f0: 9ba3 39bc fdcc 513d efa2 ba3b 7bc0 0ebc
00000200: 1f7e 0fbd f8ba a23c ca4e 1bbb 03ce bbba
00000210: 8062 173c 8906 8e3c f989 bd3c 3b7e 243c
00000220: a73f 35bd 23b4 023b 83f5 f9bc 7c90 f63c
00000230: 1275 ed3b 2585 96bc f7bb 6dbd 1da9 783c
00000240: d5aa 96ba 5836 91bc a263 e13c 3978 05bd
00000250: 4125 94bd fe80 143d 0b6a 37bc 33c4 033d
00000260: c5b9 a9bc bd45 9d3b 4e3c f0ba 8e6a d43b
00000270: f163 0fbd 5c49 28bc 2471 1c3d c5f9 98ba
00000280: b13b bd3c 9e01 0fbe d3be 92bc 018d 593d
00000290: 48b3 2f3c 6c50 40bc eff4 dbbc e7f9 61bc
000002a0: 45b1 273d 06cb b2bd 03dc 543d 0688 6639
000002b0: f3e9 ee3c 5508 4f3c b586 0bbd 6c98 b8bd
000002c0: 2278 403c df20 ef3b 4add 5abc 31f7 af3c
000002d0: cf6b 03bc 40f0 7b3d 1bcb d83c 2e7e 10bd
000002e0: a724 293c b287 9a3c 707c 92bc 9532 d13c
000002f0: 6928 763d 50ab e63a 8022 efb9 e594 323d
00000300: 86ce 32bb a07e 8f3d c533 54bd aa42 b13a
00000310: 78ea 613d 5543 f2bb 4dc0 7fba ae1b e13b
00000320: 0bd4 9cbb e38e 973c b0d5 4b3d 4946 b9bc
00000330: 8c14 cf3c 3d82 b53d 5232 afbc 5e61 d43a
00000340: c424 f6bc adbf e5ba 50bb 55bc 84bc 2cbc
00000350: 92ee b43c 950f 5dbc f8cb a23d ac06 853d
00000360: 9189 283c 0f4c d03c 74d0 3dbc 2438 8abc
00000370: f0d7 85bc b144 71bc 0c64 3dbb cf5e 913d
00000380: 56d3 d5b9 5c2e d8bc b7cd 083b bdf1 283d
00000390: c41c 993b f55f e23c d4d6 c8bd 19c7 3b3c
000003a0: ed0f fd3d 381c 6dbc 9a48 c4bc c96c 82bc
000003b0: c93f 163d bf9a 623c 2539 dbbb 13a6 91bc
000003c0: 46a8 a73d 182c 863d 52af 60be 623b 023c
000003d0: 6579 653c 160e 80bc 30e8 28bd 86f0 513d
000003e0: 67dd 6b3d 8ec7 41bb 27b9 c73d db85 0cbd
000003f0: e1ac 063c 399d a93b b577 7d39 39ed 75bd
-0.0023477632 0.028194115 -0.031427983 -0.008179154 -0.009467975 0.01954525 -0.041185535 0.10200293
-0.0017807346 0.013792365 -0.005671683 -0.054497648 -0.032759342 -0.013316578 -0.04652672 0.009879542
-0.025420016 0.004625654 0.0063690925 0.03059772 0.014018036 0.04611261 -0.007855819 0.020573469
-0.014469794 0.100857295 -0.074205205 0.018291073 -0.024442263 0.05006506 -0.023623824 0.006512251
0.005091953 -4.0260184e-05 -0.09470077 0.064688794 0.0006894929 -0.04906313 0.022892565 -0.02372267
0.017050127 0.022071788 -0.022115385 -0.030412903 -0.0067346683 -0.0068078553 0.011802057 0.025906285
-0.023985934 -0.055709835 -0.013363283 -0.0013784635 0.0052254973 0.013143676 0.007975754 0.04831931
-0.02572065 0.00619921 0.092226006 0.010553821 0.026008189 0.031846717 0.075298935 0.03655555
0.011785381 -0.019269953 -0.024203647 0.10083229 -0.024726488 0.026810285 0.07368369 -0.019816542
0.0028978602 0.044856567 0.025856711 -0.014275841 0.106116295 -0.01565858 -0.0062993863 0.020272344
0.018048365 0.016286533 0.01353152 0.008357989 0.012992461 0.095292866 0.011876243 0.04491079
-0.1257053 -0.015123451 -0.016651705 0.049317997 0.024826726 -0.023202488 -0.02729089 0.029474666
0.005103816 -0.03335687 0.097487114 -0.032502018 0.04863863 0.026965912 -0.0117973555 -0.009291944
-0.07008803 0.039597165 -0.019909723 0.037988406 -0.043513793 0.008889217 -0.0010532561 0.0054949145
0.008001435 0.011689885 -0.0019437203 0.02124025 0.00365027 -0.005744789 0.017762585 -0.0016046006
-0.027281417 -0.24901623 0.02044909 -0.021657351 -0.0113305105 0.051220883 0.0056956927 -0.008712883
-0.035032388 0.019864544 -0.0023698085 -0.0014328364 0.009239793 0.0173371 0.02313708 0.010039861
-0.044250157 0.0019943796 -0.030512577 0.030098192 0.007246622 -0.018374035 -0.058040585 0.0151770385
-0.0011495004 -0.017726108 0.027513329 -0.032585356 -0.07233668 0.03625583 -0.011194716 0.032169532
-0.020718465 0.004799573 -0.0018328519 0.006482429 -0.03500742 -0.0102713965 0.038193837 -0.0011671117
0.023099752 -0.1396546 -0.017913258 0.053112987 0.010723896 -0.011737924 -0.026850192 -0.0137924915
0.04094054 -0.0873013 0.051967632 0.00021985182 0.02916429 0.012636264 -0.034064014 -0.09013447
0.011747392 0.0072976197 -0.0133584235 0.021480175 -0.008021309 0.061508417 0.026464036 -0.035276584
0.01032368 0.018863533 -0.017881602 0.025536815 0.060097132 0.0017598663 -0.00045611337 0.04359903
-0.0027283742 0.07006574 -0.051807184 0.0013523896 0.055155247 -0.0073932805 -0.0009756133 0.0068697548
-0.0047860197 0.01850075 0.049764335 -0.022616522 0.025278352 0.088627316 -0.0213863 0.0016203334
-0.030046828 -0.0017528437 -0.013045147 -0.0105429925 0.022086415 -0.013492485 0.0794906 0.06495413
0.010286705 0.025426893 -0.011585344 -0.016872473 -0.016338319 -0.01472585 -0.0028898744 0.070981614
-0.00040783983 -0.026389293 0.0020874569 0.041246165 0.0046726186 0.027633647 -0.098066 0.011461043
0.12356553 -0.01447206 -0.0239604 -0.015921013 0.036681924 0.01383084 -0.006690162 -0.017779386
0.081863925 0.06551379 -0.2194188 0.007948728 0.0140059935 -0.015631717 -0.041237056 0.05125477
0.057584193 -0.0029568407 0.09752112 -0.034307342 0.0082199285 0.005176213 0.00024172555 -0.060040686

encoder_lin.0.bias f4 [64]
00000000: 5b80 7c3c f998 ff12 4d86 0300 6de8 8bbb
00000010: cdfc 2f3b 1465 613c 16fb 0480 bc78 8e9a
00000020: c466 1511 4a86 c6ba 8340 0800 2b0d a83c
00000030: 8f27 dc3c ef44 a6bc 0bbf 0180 9baf ea3a
00000040: d89d 68bc 3078 603c 56bc 09bc b3b5 0500
00000050: f69e 8d31 c7fd 55bb 8dcb aa3b 3066 bdbb
00000060: ee45 74b9 0d45 8e3c 95fe bab9 81af bd39
00000070: 37b1 1dbc 46f9 8a3b ddde 0500 0f57 331f
00000080: 5902 15bc 392c 93bb df4d a63c ecaa 14bd
00000090: 36be 0780 daac ba3c 042f 663c 6f17 683a
000000a0: 28b7 bebc 2f1d b7bb 7a0d 53ba 34fc b33c
000000b0: ec65 db3c cb98 24b9 3fe1 373d 93e7 86bc
000000c0: 0cfc 0ebd 1d8f 281d 85fc 533d 396a e83c
000000d0: d015 9a3c a4c2 ef3b 79a5 a8bc 6714 0280
000000e0: 5478 0280 e1a3 713d c0e5 ecbc 5ace a63c
000000f0: 6020 5b3c fffe 0200 ef7c bf3a 5a2a 873c
0.015411462 1.6130473e-27 3.23685e-40 -0.0042696507 0.0026853562 0.013757009 -4.57415e-40 -5.892488e-23
1.1785695e-28 -0.0015146222 7.57826e-40 0.020514091 0.026874332 -0.020296542 -1.60369e-40 0.0017905118
-0.014197789 0.01370053 -0.008406719 5.24359e-40 4.121712e-09 -0.0032652484 0.0052122534 -0.005780004
-0.00023295704 0.01736691 -0.00035666363 0.0003617965 -0.009624771 0.0042411415 5.39126e-40 3.7976738e-20
-0.009094798 -0.0044913557 0.020300804 -0.036295816 -7.11083e-40 0.0227875 0.014049295 0.00088535895
-0.023280695 -0.0055881958 -0.00080510194 0.021970846 0.026781999 -0.00015697179 0.044892546 -0.016467845
-0.03490834 2.2308603e-21 0.051754493 0.028370963 0.01880923 0.007316904 -0.020586716 -1.9099e-40
-2.26837e-40 0.058994178 -0.028918147 0.020362068 0.013374418 2.75146e-40 0.0014609377 0.016499687

encoder_lin.2.weight f4 [2, 64]
00000000: ee78 d03d a165 de33 023f 7fba 49a4 0abd
00000010: 7e0d a03e 7163 653d 4cff f63b a311 edba
00000020: 2dca a1bc c1ea d63b ccea 30b9 7c00 8ebd
00000030: c344 f83c 12c6 31be 1f59 b13a e479 463d
00000040: 5100 a3bc 0311 573c 7997 86bd 1b65 95bc
00000050: 42ff a8bb af17 80bd 10c6 b43e 4889 163f
00000060: 443a 5dba a47d 603d ea08 b73e 6a32 65be
00000070: db98 49be 577b 003c 5a96 22ba 1807 3c3c
00000080: 865d edbe 5707 083c ec40 47be 321c 1f3f
00000090: 6925 d6ba 1e16 163d a78a 4dbd 7e12 1cbe
000000a0: f177 833b c217 d2bd 1bba d0bd 63bd aa3d
000000b0: e8bb 613d d703 2a3e 6d12 47bd 0412 1bbc
000000c0: d31c 1dbf 5276 d53c bc12 b63e 4d56 903d
000000d0: 3a3a a9bc dd65 273e 530c a1bf 0c36 173a
000000e0: 9981 94b9 cc2f 54bd 183d 78bf 4024 76bc
000000f0: deb0 e93d ae12 80bb 0a7f 2abd 3097 483e
00000100: 277e f23d 281b 37b6 c356 4339 27df 0ebe
00000110: c045 e13c 317b c93e f72e 6e3c b5a1 543c
00000120: 53e0 11bb 59e3 71bc 6b6b 4a3b f869 fd3d
00000130: 46c2 6f3d 46cd 28be 78fb 34b9 e6b7 b03d
00000140: cd89 1c3f 9473 663e 63a9 80bd ce0e 40ba
00000150: b674 b238 4ade e1bd 4970 053e eab8 dcbe
00000160: 28ec 6b3c d871 6d3d eb9b 50be 94cd ad3e
00000170: 87e0 103f 92c1 bf3a 2c5f 043c 5ebc 793c
00000180: 3c5c 3d3f b045 cf3c 60b4 2f3e e770 8c3f
00000190: 82aa 923a 8447 453d 8e23 4e3e 456c 373d
000001a0: 514f a9be 6c23 46bd c40a 2bbe ccab 6c3d
000001b0: b1ed 793d abc6 30be e327 b83e 218d aebe
000001c0: 4469 f63d 4836 b83b 4b4f 8a3e f263 c63d
000001d0: 96d9 193e e90d b8bc 4ef1 f7be 1cd2 45bb
000001e0: 844c 9738 8a72 dc3e f5ac c43d 0161 883d
000001f0: 7305 883d 5af2 bb3a 9441 2d3d e297 e73d
0.101793155 1.0356167e-07 -0.0009736867 -0.03384808 0.31260294 0.056003038 0.007537758 -0.0018086921
-0.019749725 0.0065587466 -0.00016872137 -0.06933686 0.030306226 -0.17360714 0.0013530588 0.048456088
-0.019897612 0.0131266145 -0.0657186 -0.018236687 -0.005157382 -0.06254517 0.3530736 0.58803225
-0.0008439163 0.05480732 0.35748988 -0.22382513 -0.19687216 0.0078419065 -0.00062022137 0.011476301
-0.46360415 0.008302531 -0.1945836 0.621524 -0.0016338053 0.036642186 -0.050181057 -0.15241429
0.004012101 -0.10258438 -0.10191747 0.08336904 0.055110842 0.16603027 -0.048601557 -0.0094647445
-0.6137211 0.026057396 0.35561168 0.070477106 -0.020657647 0.16347452 -1.2581886 0.00057682465
-0.00028325318 -0.051803395 -0.9696822 -0.015023291 0.11410688 -0.003908477 -0.04162506 0.19588923
0.11840468 -2.7284932e-06 0.0001862897 -0.13952313 0.02749908 0.393518 0.0145375645 0.012978007
-0.0022258952 -0.014763677 0.003088678 0.123737276 0.058534883 -0.16484556 -0.00017259817 0.08628826
0.6114777 0.22505027 -0.06282308 -0.0007326425 8.5094405e-05 -0.110287264 0.13031115 -0.43109828
0.014399566 0.057969898 -0.20371978 0.33945906 0.565926 0.0014629832 0.008079331 0.015242664
0.73968863 0.025301784 0.17158651 1.0971955 0.0011189731 0.048163906 0.2013075 0.04478099
-0.33068326 -0.048373625 -0.16703326 0.057781026 0.061017696 -0.17263286 0.3596793 -0.34092048
0.120317966 0.005621705 0.2701362 0.09687032 0.15024409 -0.02246757 -0.48426288 -0.003018505
7.214493e-05 0.43056136 0.096033014 0.06659127 0.06641664 0.0014339194 0.04229887 0.11308266

encoder_lin.2.bias f4 [2]
00000000: 1074 b1bb 762e d03d
-0.005415447 0.10165112
