encoder_params.pth (torch, 103239 bytes, 10 tensors)

encoder_cnn.0.weight f4 [8, 1, 3, 3]
000000 e2 47 7b be 39 8a 1a be f2 1b 7b be b9 55 80 be
       -0.2453914 -0.1509179 -0.24522379 -0.250654
000010 e0 2c 65 be 22 84 91 be 4d d5 29 3e 4b 63 b4 3d
       -0.223804 -0.28421122 0.16585274 0.08808001
000020 d9 f1 d2 bc c0 b1 8c bd ed fe 16 be 7b fa b5 bd
       -0.025750088 -0.068698406 -0.14745684 -0.08885666
000030 98 7e 8e be 06 be c2 be 7a 78 74 be 26 46 09 3e
       -0.27830958 -0.380356 -0.23874083 0.13405666
000040 0a 67 19 bd f9 2e b3 3d 0f 48 08 bd 7d d1 f6 3d
       -0.03745178 0.08749194 -0.033271845 0.120516755
000050 39 e2 70 3e fd 35 b2 3e 3a 96 de 3e 0f ce df 3e
       0.23523797 0.34806815 0.4347399 0.43711898
000060 8e f8 33 3e 7d 4a d5 3e 22 2c c7 3e a6 47 96 be
       0.17575285 0.41658393 0.38900858 -0.29351538
000070 73 62 f6 bd 19 8a 6b be 39 a0 91 be ed 7d f6 bd
       -0.120304964 -0.23001899 -0.28442553 -0.12035737
000080 e9 68 74 be 45 4f fc bd a3 20 06 be 4b 4b b6 be
       -0.23868145 -0.12319807 -0.13098387 -0.3560432
000090 3d d9 0a 3e 9c ea 85 3e 7d e2 a4 3e 5e 3e 4d bd
       0.13559432 0.26155555 0.32204047 -0.050108306
0000a0 63 6e 0d be f9 bc b4 bd 6c 84 b8 be 0a 28 b0 be
       -0.1381164 -0.08825106 -0.3603853 -0.34405547
0000b0 5d 65 c7 be 35 11 e9 3d c8 09 2d 3f b2 f6 eb 3e
       -0.38944522 0.11380235 0.6759305 0.4608665
0000c0 a6 3b d8 3e 02 b8 81 3f 66 c9 34 3f 6f dd 03 3f
       0.42233008 1.013428 0.7061981 0.51509756
0000d0 56 af 4b 3f c6 9f a5 3e 58 f4 1f 3e 1f 37 84 3d
       0.79564416 0.3234846 0.15620553 0.06455826
0000e0 f3 c8 19 3e 6b 3a 74 be da 53 79 be d5 91 19 be
       0.15018062 -0.2385041 -0.24348393 -0.14997037
0000f0 fc 1e 38 bd 81 cc 0f be ef 97 c4 bd 97 20 c5 3e
       -0.044951424 -0.14042856 -0.095992915 0.38501427
000100 cd db 3b 3f 68 90 b9 3e bd 8d 19 3f e3 be 8b 3f
       0.73382264 0.36242986 0.599819 1.0917629
000110 dc 4e 35 3f f3 24 ff 3e fe 58 03 3f d6 6f 47 3e
       0.70823455 0.49832878 0.51307666 0.19476256

encoder_cnn.0.bias f4 [8]
000000 1b 5f f5 3e 27 ea 23 3f e1 c8 d9 3e 78 5e 20 3f
       0.47924122 0.64029163 0.4253607 0.6264415
000010 1a 08 f2 3e b8 25 43 38 39 09 b2 3e 50 36 1b 3a
       0.47271806 4.652675e-05 0.3477266 0.0005920874

encoder_cnn.2.weight f4 [16, 8, 3, 3]
000000 7d 2a 95 3c 7b f5 bf 3c 8a 1c a5 bc 8b d9 9d bc
       0.018208737 0.023432484 -0.02015521 -0.019268772
000010 d2 6b b4 bd 94 5b 92 bd 4b 77 db 3c 3f 8e e0 bc
       -0.088096276 -0.071463734 0.026790282 -0.027411578
000020 d3 4c 19 bc 2e fe e5 3c fa 97 29 ba 62 a4 6a bc
       -0.009356695 0.028075304 -0.00064694847 -0.0143214185
000030 85 e2 63 3c b7 57 cc bd 29 f4 a0 bd f6 26 c4 3c
       0.013908987 -0.09977668 -0.0785907 0.02394436
000040 2e 43 77 bc 99 28 48 bc e5 2c 8f 3d e1 75 1a 3e
       -0.0150917005 -0.0122167105 0.06990985 0.1508403
000050 30 7d 2b 3e 56 8e cd 3d ec 67 27 3e a7 0a 04 3e
       0.16746974 0.10036914 0.16348237 0.12894689
000060 ee 51 d6 3c 00 d5 bc 3d 75 a7 b8 3d 07 83 28 bd
       0.026162114 0.09220314 0.09016315 -0.041140582
000070 26 3b 8e bd 4f ae dd bd 7c fe f0 bc e7 1d e5 bd
       -0.069448754 -0.10824262 -0.029418223 -0.11187344
000080 21 0c e1 bd 04 54 13 3c 7e 86 84 bd 40 d5 24 bd
       -0.109886415 0.008992199 -0.06470965 -0.040242434
000090 9d 65 03 3d 66 57 a9 bd 33 f6 27 bd b7 93 96 3d
       0.032079328 -0.08268623 -0.04100628 0.07352393
0000a0 bf 32 42 3d f1 1e 6d 3d 7c 07 a1 3d 44 ae a1 3c
       0.047411676 0.057890836 0.07862756 0.019736417
0000b0 ff b9 bc 3c a9 3a b9 3c 35 2f 96 3e ba 2f 89 3e
       0.023037909 0.02261098 0.2933289 0.26794225
0000c0 f1 33 e2 3d ed 5e e4 3e 59 5f 87 3e 50 f9 03 bc
       0.11045063 0.44603673 0.26439932 -0.008055046
0000d0 a9 29 6a 3e fe 2f 30 3e 2c 31 a1 3c d3 95 77 bd
       0.22867455 0.17205808 0.019676767 -0.060445618
0000e0 01 c9 6d bd 68 60 86 3c 92 2d b5 bd 0f 3d 39 bd
       -0.05805302 0.016403392 -0.088465825 -0.045224246
0000f0 c9 1f b1 3c b2 23 a1 bc f7 20 54 3b d2 10 f8 3c
       0.021621602 -0.019670341 0.0032368281 0.030281458
000100 3b 92 3f 3e e5 32 80 3e e5 29 d0 3d 89 dc f0 3e
       0.18708126 0.2503883 0.10164241 0.47043255
000110 9c 5e a7 3e 4a 7b 4b bd 35 4e 3b 3e ed 1d 1b 3e
       0.3268937 -0.049678124 0.18291552 0.15148135
000120 00 b9 92 3d de a2 8f 3d 71 45 da 3c 0d bb 58 3d
       0.07164192 0.07013486 0.02664444 0.05291276
000130 20 2d cd 3d e0 1f eb bc 51 37 a2 3c af aa 5b 3c
       0.100183725 -0.028701723 0.019801768 0.013407393
000140 2d fb 5e bd d9 69 99 3d 3d 32 a3 3d 7b 29 a6 3c
       -0.05443876 0.07490892 0.079685666 0.020283451
000150 b2 2e 97 3d 89 1c 2d 3e 73 a5 b9 3b d5 24 64 3d
       0.07381953 0.16905417 0.005665475 0.05569919
000160 9d d8 04 3d 69 a7 54 bc 69 d6 51 3d 13 63 aa bd
       0.03243314 -0.012979367 0.051229868 -0.08319678
000170 ef c7 2f 3e 3c c4 75 3d 69 3e 8a bd be 26 7e 3e
       0.17166112 0.060001597 -0.06750185 0.24819466
000180 40 17 0a 3e df 14 d1 3d c8 2c 76 3e 45 99 ae 3d
       0.13485432 0.10209059 0.2404052 0.085253276
000190 f0 40 1b 3e 55 78 d2 3d ea 68 dd 3d 04 ec f7 3d
       0.1516149 0.10276858 0.108110264 0.12105563
0001a0 28 9e f9 3c a8 e0 2e 3c 5a dc ac 3d 33 38 3f b7
       0.030470923 0.010673679 0.08440466 -1.1397572e-05
0001b0 cf a8 d9 3c 04 80 03 3e 1c 65 31 bd 41 2b b8 bc
       0.026569752 0.12841803 -0.043309316 -0.022481563
0001c0 7e df 18 bd 79 db d3 bd 95 d2 1d bd 7a df 9f bc
       -0.037322514 -0.103445955 -0.038530905 -0.019515742
0001d0 a6 16 5e bd 71 6f 77 bc e8 ec 9a be 57 ec 14 3e
       -0.054220818 -0.015102253 -0.3025887 0.14543281
0001e0 73 9b 88 3a 41 5d a8 be db 44 68 3e 84 1e 3f 3e
       0.0010422304 -0.32883647 0.22682516 0.18663985
0001f0 9b 37 9c 3d 29 f6 af 3e 53 56 2a 3d 96 69 be 3d
       0.076277934 0.34367493 0.04158623 0.09297483
000200 59 e7 1c 39 71 7d 30 3c 62 fa 74 3d 8e 3d 20 bd
       0.00014963503 0.010772095 0.059809096 -0.039121203
000210 75 5a 29 3c 56 81 b5 3c 21 7d d4 bc 69 c8 ca bb
       0.010336508 0.022156399 -0.025938572 -0.0061884415
000220 d0 77 81 be e3 25 0a 3e dd cc f9 3c 39 05 cf be
       -0.25286722 0.13491015 0.030493194 -0.40433672
000230 73 f7 36 3e 54 c8 83 3e 25 87 00 3e 2d ea a9 3e
       0.17867832 0.25738776 0.12551554 0.33186474
000240 9f 9b f9 3d 44 e3 25 3e 25 41 0d 3e f2 7c 26 3e
       0.121878855 0.16199976 0.13794382 0.162586
000250 b8 0c 18 3e 0f e7 2c 3e 5d 10 36 3e 67 46 1b 3e
       0.14848602 0.16885017 0.1777968 0.15163575
000260 cc 7b 38 3e f2 de 42 3e 4e 62 46 3e 2c a0 34 3e
       0.18015975 0.1903036 0.19373438 0.17639226
000270 3c 2a 48 3e 3f 89 34 3e d4 dd 55 3e d6 b1 54 3e
       0.19547361 0.1763048 0.20885402 0.20770964
000280 3b 63 43 3e 0e 4a 74 3e ef cd d0 bb 48 60 08 3d
       0.19080822 0.23856375 -0.0063722054 0.033294946
000290 ab c3 c0 3c 39 f6 0d 3d f2 50 d6 3d 75 0c 98 3b
       0.023530802 0.034658644 0.10464658 0.004640157
0002a0 69 09 8f 3d bf 8a 1b 3d bc f2 68 bd f3 c4 46 3e
       0.06984217 0.037974115 -0.056872115 0.19411068
0002b0 3f fd 69 3e 81 84 65 3e 7b 7e 77 3e 35 81 46 3e
       0.22850512 0.22413827 0.24169342 0.19385226
0002c0 e3 96 79 3e d9 75 67 3e bc e8 5c 3e 7c 6f 89 3e
       0.24373965 0.22603549 0.21573156 0.26842868
0002d0 93 7c 0b 3e 8c 8e e1 3d f5 29 fd 3d ed 84 14 3e
       0.1362174 0.11013517 0.12361518 0.14503832
0002e0 4e b8 fc 3d 74 44 08 3e 4f e4 ff 3d 7e ca 31 3e
       0.12339841 0.13307363 0.12494718 0.17362401
0002f0 8b f3 40 3e 09 0c 81 be 21 a1 4d be 5c 51 86 be
       0.18842904 -0.25204495 -0.20080997 -0.26233947
000300 a0 6f 4c be d7 e5 b8 bd 7d 45 8d be 5f 95 f7 bd
       -0.19964457 -0.090282135 -0.27592078 -0.12089037
000310 39 fa 39 be bf ea cb be 9c b4 ef 3d ae 23 c3 3d
       -0.18161859 -0.39827535 0.117043704 0.0952829
000320 98 07 de 3d cb dd ca 3d 3f ed cd 3d 5c 12 f0 3d
       0.10841292 0.09905585 0.10055017 0.11722252
000330 1b 67 d0 3d e0 c8 ff 3d 51 8c 0e 3e c8 4c 68 be
       0.10175916 0.12489486 0.13920714 -0.2268554
000340 3b d7 52 be 2e f7 89 be 3a ba 83 be 11 7b 9d bd
       -0.20589916 -0.26946396 -0.25728017 -0.07689489
000350 96 28 93 be a8 6d 26 be 4b 4b 20 be fa 72 b9 be
       -0.28741902 -0.16252768 -0.15653722 -0.36220533
000360 d0 83 3f 3d 41 20 ca 3c 5a 1c 59 3c 84 f6 52 bc
       0.046756566 0.024673583 0.013251388 -0.012876157
000370 9d be c2 bd af 40 2c bd 30 b9 67 bd 5b 5d 95 bd
       -0.09509013 -0.042053875 -0.056573093 -0.07293197
000380 fa 37 d4 3c dd 41 2e 3d bd ec 47 3d 9f df 55 3d
       0.025905598 0.04254328 0.048809756 0.052215215
000390 3e c6 cb 3c 98 76 dd bd 73 0a 81 bd 3e cf 7c bd
       0.024874803 -0.108136356 -0.06300821 -0.06172108
0003a0 54 fa b3 bd 09 92 ac 3b 78 35 3a 3d 9b 91 be 3d
       -0.08787981 0.005266432 0.045461148 0.09305116
0003b0 9c 7f 26 3d c8 87 4e 3e 87 e2 90 3e 77 72 46 3e
       0.04064904 0.20168984 0.28297827 0.19379602
0003c0 5c 9c 98 3e 28 e8 61 3e 14 0d b5 3c 4e 35 12 3d
       0.29806793 0.22061217 0.022100963 0.035695367
0003d0 f4 9d d1 3c cd 4a 3f bd 73 d6 33 bd c8 9f 15 be
       0.025588013 -0.046702195 -0.043905687 -0.14611733
0003e0 28 36 d1 bd 2b ab 8b bd d3 bf f8 bd dd 47 89 3c
       -0.102154076 -0.06819757 -0.121459626 0.0167579
0003f0 0e 46 4b bc 44 d0 03 be b5 5d 68 bd 68 04 14 bd
       -0.012406839 -0.12872416 -0.05672999 -0.036137015

encoder_cnn.2.bias f4 [16]
000000 37 4e a8 3d 9d 1d 89 3d 57 06 77 3e 35 59 54 3d
       0.08218043 0.066951014 0.24123512 0.051842887
000010 fc 6e 16 3e 16 25 0a 3e a4 2c 5a 3e 52 fa a6 bc
       0.14690775 0.1349071 0.21306092 -0.020383034
000020 fc 4d 4e 3c da 3b 8f 3d de 7b d9 3d 5d d8 14 3e
       0.012591835 0.06993838 0.10619329 0.14535661
000030 b1 90 d8 3d 18 33 a8 bc db 4e a4 a1 4a 12 a2 3d
       0.10574473 -0.020532176 -1.1133945e-18 0.079136446

encoder_cnn.4.weight f4 [32, 16, 3, 3]
000000 42 8f f1 bc 2b 93 60 bd 3d b7 10 be 9d 2f d6 bc
       -0.029487256 -0.05482785 -0.141324 -0.02614575
000010 1e 3c 20 be 89 33 ae bd c2 94 8e bc 2c 03 84 3d
       -0.15647933 -0.08505923 -0.017404918 0.064459175
000020 8a 5f 35 bb c5 d1 df 3d c7 be 5e 3d b1 2f 37 3c
       -0.0027675354 0.10928682 0.05438116 0.011180804
000030 8d 7d 66 bc 4c 51 ec ba 75 16 dc 3d d9 22 d0 bc
       -0.01406802 -0.00180296 0.10746471 -0.025407242
000040 6b eb 47 3d 6c b2 a8 bd 66 39 11 3c b5 21 ed 3d
       0.048808496 -0.08237156 0.0088637825 0.11578695
000050 1a 5b 15 3e fb b1 f4 bc c9 ed 84 3d 58 ad 1d 3d
       0.14585534 -0.029870024 0.064906664 0.03849539
000060 4f 17 73 bc ac 89 cc bc 92 7b 59 3b f9 33 63 3d
       -0.0148371 -0.02496799 0.0033185226 0.055469487
000070 98 0d bb 3d ce 9e 04 be fc 3b 2c bd cd 87 cd bd
       0.09133452 -0.12951204 -0.042049393 -0.100356676
000080 4a 82 6a bc 5a 91 2b bd 0d 72 28 3e 40 cb 65 3d
       -0.01431329 -0.041886665 0.16449757 0.056102037
000090 93 a5 c0 bd 10 68 28 3c db 4b c0 3d c0 9e 96 3c
       -0.09406581 0.010278717 0.09389468 0.018386245
0000a0 91 eb a9 3d 35 58 7e 3d 20 97 c0 3b a6 6b 6c bd
       0.08296884 0.06209584 0.0058773905 -0.05771985
0000b0 85 5c 19 3d e2 48 ad bd d9 84 2e 3d 40 e2 0d 3d
       0.03744175 -0.08461167 0.042607162 0.034639597
0000c0 00 68 1c 3b 17 06 0e 3e 5e 9d 50 3e b7 d4 59 bc
       0.00238657 0.1386951 0.20372531 -0.013295344
0000d0 1e 42 d6 bd 55 32 f4 3d ab 99 1d 3c 1d bd 6a 3c
       -0.104618296 0.119236626 0.009619157 0.014327315
0000e0 6d f1 ff 3d 77 8f 04 bc 0b 62 79 3d 41 3a 42 3d
       0.1249722 -0.008090845 0.060884517 0.047418837
0000f0 ae d6 c7 3c f7 30 0c be c9 ac 38 3c f2 e0 bd b7
       0.02439436 -0.13690554 0.011271664 -2.2635304e-05
000100 af d1 0b 3a 18 3f 4a 3a 2b 1c 86 ba 40 52 db b9
       0.00053336745 0.000771509 -0.0010231783 -0.00041832216
000110 55 81 fe b8 64 92 ad b9 85 a3 29 b8 f1 f9 10 b8
       -0.00012135754 -0.000331062 -4.044503e-05 -3.456505e-05
000120 80 ef a3 3d 7c 6a 56 bd 42 8a c2 bd 03 65 24 bd
       0.080046654 -0.052347645 -0.09499027 -0.040135395
000130 30 d5 ed 3c 7c 57 23 3e 5d d4 d9 3d cf 3e 80 bc
       0.02903232 0.15951341 0.10636208 -0.01565495
000140 d8 7a 66 bd 14 c4 29 bd 14 2e 69 bd 56 a0 01 3d
       -0.056269497 -0.04144676 -0.05692871 0.03164705
000150 0a 32 f1 3d 05 e8 c6 bc 84 93 be bd 96 c5 34 bd
       0.11777122 -0.024280557 -0.0930548 -0.044133745
000160 ba eb 39 3c 22 16 06 3e b3 a1 c7 3b f0 bc 93 3d
       0.0113477055 0.1309438 0.006092274 0.07213771
000170 f5 0f 4d 3d 99 13 c2 3c 2e d0 30 3c 57 d3 b0 bd
       0.050064046 0.023690986 0.010791821 -0.0863406
000180 5c c2 b8 bd b9 9f 37 3c dd 00 3c 3e 27 22 9b 3c
       -0.09021446 0.011207514 0.18359704 0.018937184
000190 1f 26 35 3d 8f c3 b8 3d 34 2d fa bc 45 8a d2 3d
       0.04422581 0.09021675 -0.030539133 0.10280279
0001a0 08 32 f1 3d 71 6d 63 3d 6c f3 89 bd cd c4 8d 3c
       0.11777121 0.055524293 -0.06735882 0.017305756
0001b0 44 c3 bb 3d b4 36 31 3d c7 64 cd bc 69 46 17 bd
       0.09168103 0.04326506 -0.025072468 -0.036932383
0001c0 d1 95 a0 3d 66 e5 53 3e 6b 43 77 3d 53 0c c8 3b
       0.07841075 0.20692977 0.06036703 0.006104985
0001d0 d8 08 1c 3b 71 17 92 b9 98 d3 4c b9 61 9c 11 b9
       0.0023808982 -0.00027864755 -0.00019533781 -0.00013886533
0001e0 1c ac 03 ba 87 d7 30 b9 17 0b 1a b9 66 e6 98 b9
       -0.00050229 -0.00016864958 -0.00014690716 -0.0002916336
0001f0 81 f2 1b b9 79 3a e4 38 93 2a 02 00 aa d6 03 00
       -0.00014872292 0.000108827786 1.98944e-40 3.52513e-40
000200 b9 ef 01 00 7d 92 01 80 2f bb 00 80 6b b8 00 00
       1.77832e-40 -1.44386e-40 -6.7149e-41 6.6157e-41
000210 44 b6 08 80 21 50 02 80 3c 21 08 00 eb df 91 bc
       -8.00069e-40 -2.12416e-40 7.46606e-40 -0.017806968
000220 49 5d 1d bd 85 5a 0e be 84 7c c9 bc d2 f2 18 be
       -0.03841904 -0.13901718 -0.024595506 -0.14936379
000230 26 8c b0 bd 23 45 c0 bb e4 59 a2 3d 0c 0a 7d 3c
       -0.08620481 -0.0058676167 0.079273015 0.01544429
000240 1e 55 31 bc 40 db 67 3d 18 f9 14 3e 74 e3 3f bd
       -0.010823516 0.056605577 0.14548147 -0.046847776
000250 6d 3c 95 bd 74 0a 73 be fe e2 46 bc 81 02 bb bd
       -0.07286916 -0.23734456 -0.01213908 -0.09131337
000260 49 de 34 3d e6 b4 38 bd 6b 2b a7 bd 70 7f c3 3d
       0.0441573 -0.045094393 -0.08162578 0.09545791
000270 49 f0 c5 3d 78 88 09 be 7e e3 c8 bd 2a 64 eb bc
       0.096649714 -0.13430965 -0.09809016 -0.028734285
000280 26 90 40 3e 3a a2 2c 3e 7c 47 74 bc 5f ab 94 bd
       0.18804988 0.1685876 -0.014909621 -0.07259249
000290 12 1a 1a be 86 4d e5 bc 60 f1 70 3c f3 46 17 3e
       -0.15049008 -0.027991068 0.014705986 0.14773159
0002a0 48 4e 95 bb fa 7d a0 3d eb 36 06 be 29 1c bd 3c
       -0.004556451 0.07836528 -0.13106887 0.023084717
0002b0 9a 19 1f 3e 4a ec 69 3e 1f 1c b3 3d c8 35 30 be
       0.1553711 0.22844043 0.08745598 -0.17208016
0002c0 8a db b0 be 58 5a 7f 3d c9 b1 21 3d 68 f0 6a 3e
       -0.34542495 0.062342018 0.03947619 0.2294327
0002d0 68 e5 56 3d 5b 5e cb bd 72 6d f1 bc 45 06 35 bd
       0.052464873 -0.09930106 -0.029471133 -0.044195432
0002e0 79 73 58 3d 01 b2 d1 3d 22 30 3c bd c4 a4 80 3d
       0.0528445 0.1023903 -0.04594434 0.062814265
0002f0 02 1f 4e bc 3d 77 69 3c f5 48 ed bd 20 7e ae bd
       -0.012580635 0.01424962 -0.11586181 -0.0852015
000300 df dc 7b bd 36 38 04 3d e6 8a 6c 3e 49 b8 46 bc
       -0.061489936 0.03228017 0.2309986 -0.012128898
000310 d7 32 75 3d 7c 5f 16 bd f7 1b 80 bd 23 9d a7 bd
       0.059862938 -0.036712155 -0.06255334 -0.08184268
000320 25 0c e9 bd 12 52 41 bd 40 27 ba ba 66 3a d8 3d
       -0.113792695 -0.04719741 -0.0014202371 0.105580136
000330 57 e7 44 bd 61 97 eb 3d 05 28 86 bd e8 b2 f3 38
       -0.048072185 0.115034826 -0.06550602 0.00011620467
000340 7c e4 d4 ba a8 07 1f bb 6e a8 50 39 55 88 06 3a
       -0.001624241 -0.0024266038 0.00019899171 0.00051320094
000350 9b 0d 9f b9 f4 af dd b8 3d 41 21 b7 c6 be 77 ba
       -0.0003033698 -0.00010570875 -9.611537e-06 -0.00094507297
000360 68 df e5 bc cc c6 b8 bb 8d fb a6 3c 4a bf eb 3d
       -0.02806063 -0.005638933 0.02038362 0.11511095
000370 70 e1 af bd 46 51 39 bd 4c a6 98 3d bd 8e e9 3d
       -0.08587921 -0.045243524 0.074535936 0.11404178
000380 74 5b d3 3d af be d0 3d 0e 5f 9d bd f1 eb e3 bc
       0.10320178 0.1019262 -0.07684146 -0.027822467
000390 8c 24 a7 bc 6d 15 03 3e 7d 35 ac 3d 32 aa 1a 3b
       -0.02040317 0.12801142 0.084086396 0.002359998
0003a0 20 3c 77 be ac dd 50 bd 8c 13 93 3d 17 98 a7 bc
       -0.2414403 -0.050992653 0.07181463 -0.020458264
0003b0 92 04 70 bc 86 0a f1 3d 20 02 a7 3d a4 f6 67 bd
       -0.014649527 0.11769585 0.08154702 -0.0566317
0003c0 7c 9b 01 3e b6 20 3f be 5b d7 3b 3d 2c 40 8d bd
       0.12656969 -0.18664822 0.045859676 -0.068970054
0003d0 9f 3f 9a bd c2 9b 11 be af b8 91 bc a9 f1 0f bc
       -0.07531666 -0.14219573 -0.01778826 -0.008785644
0003e0 8d 93 4c 3e 9d 4d cf bc 66 d6 cc 3d 06 f0 cd bd
       0.19978161 -0.025305564 0.10001831 -0.100555465
0003f0 9d b2 ab bd 59 b7 eb bc d8 f3 90 3d b1 e7 72 3d
       -0.08383677 -0.02877395 0.070777595 0.05930299

encoder_cnn.4.bias f4 [32]
000000 07 1c 94 3c 96 c4 85 bc 42 c6 4b bb 75 9c 00 bc
       0.01807977 -0.016329091 -0.0031093513 -0.007849802
000010 cc ee fb 3c 9e d9 f8 3c 18 24 ae 3d a5 c9 c5 3b
       0.030753516 0.030377205 0.08502978 0.006036001
000020 13 27 27 3c ad 7f d1 3c 74 5f 28 3d 16 01 06 3b
       0.010202187 0.025573576 0.041106656 0.0020447425
000030 96 cf 95 bb 96 44 b5 3c a1 ae 12 3c e7 fc 57 3d
       -0.0045718653 0.02212743 0.008952768 0.05273142
000040 3c a9 14 bc 95 0d c8 3b 31 9e 7c 3b a0 09 03 00
       -0.009073552 0.0061051347 0.0038546438 2.78959e-40
000050 f6 9f 89 bc 5f b1 86 3d 51 bc e4 3a 12 3b 2a 3c
       -0.016799908 0.065767996 0.0017451142 0.01039006
000060 f0 da e5 3b fe 04 44 3b f9 9f 04 3d e0 1b e5 3b
       0.007014625 0.0029910202 0.032379124 0.0069918483
000070 de dd b2 3b e6 82 8a 3d 9f 17 5e bc 75 4f 75 3c
       0.0054585775 0.06763248 -0.013555436 0.014972557

encoder_lin.0.weight f4 [64, 288]
000000 21 63 06 00 3a 28 00 80 62 6c 05 80 5c 52 08 80
       5.86574e-40 -1.443e-41 -4.98058e-40 -7.64229e-40
000010 03 c9 05 80 c0 e6 03 80 33 20 09 80 e4 cb 0a 00
       -5.31287e-40 -3.58284e-40 -8.3807e-40 9.91497e-40
000020 1f 03 03 80 03 1e 06 00 6e b8 08 80 32 7d 06 80
       -2.76626e-40 5.61779e-40 -8.00845e-40 -5.95925e-40
000030 97 fb 07 00 c6 58 01 80 77 7b 02 00 b1 7d 08 80
       7.33102e-40 -1.23681e-40 2.27962e-40 -7.79774e-40
000040 91 b9 03 00 66 25 05 80 c1 0e 04 00 c1 18 05 00
       3.42075e-40 -4.72594e-40 3.72635e-40 4.68058e-40
000050 95 e0 00 00 51 a4 01 80 56 8a 0a 00 07 bb 10 00
       8.0565e-41 -1.50781e-40 9.6798e-40 1.536461e-39
000060 ec 70 01 00 28 4c 06 00 fb 8b 0b 00 29 e4 09 80
       1.32344e-40 5.78333e-40 1.060406e-39 -9.08368e-40
000070 69 03 0a 00 3e 0a 09 80 9a 76 07 80 b6 a8 01 80
       9.19578e-40 -8.30194e-40 -6.85395e-40 -1.52358e-40
000080 79 1b 09 80 b5 e1 00 00 a8 a7 08 80 b0 0c 00 80
       -8.36375e-40 8.0968e-41 -7.94828e-40 -4.551e-42
000090 e6 8c 08 80 63 d7 00 00 4d d8 07 80 6c 4f 06 80
       -7.85229e-40 7.7266e-41 -7.20443e-40 -5.79504e-40
0000a0 90 a7 01 00 ec 44 01 00 c7 0f 05 80 35 24 07 80
       1.51946e-40 1.1656e-40 -4.64837e-40 -6.55837e-40
0000b0 da 09 05 80 0c bf 06 00 eb c9 07 00 15 9b 07 00
       -4.62712e-40 6.19548e-40 7.15283e-40 6.98481e-40
0000c0 c7 c9 04 80 26 b6 04 80 b0 4e 02 80 e5 8f 08 00
       -4.39726e-40 -4.32685e-40 -2.11899e-40 7.86304e-40
0000d0 8b 76 0a 00 d5 1c 07 80 77 a8 07 00 64 d5 03 00
       9.6088e-40 -6.53191e-40 7.03282e-40 3.52057e-40
0000e0 83 30 01 80 64 9e 02 80 55 83 02 07 be 21 07 00
       -1.09238e-40 -2.40491e-40 9.818708e-35 6.54953e-40
0000f0 50 66 03 00 d1 66 00 00 3b 0d 05 80 8f d5 07 00
       3.12209e-40 3.6884e-41 -4.63924e-40 7.19459e-40
000100 07 25 02 00 20 e4 03 80 3c dc 07 00 88 51 01 00
       1.96954e-40 -3.57342e-40 7.21854e-40 1.21083e-40
000110 e4 37 08 00 84 29 04 00 60 c3 07 80 90 71 0b 00
       7.54734e-40 3.82235e-40 -7.12936e-40 1.050929e-39
000120 ae 47 09 80 ec 1d 05 00 db ef 04 00 93 0b 0d 00
       -8.52233e-40 4.69911e-40 4.53386e-40 1.198013e-39
000130 40 bc 0a 80 c9 3b 04 80 e9 26 03 80 67 e7 10 00
       -9.85886e-40 -3.88789e-40 -2.89465e-40 1.55238e-39
000140 ac 72 0a 80 a8 22 02 00 64 82 05 00 3d 0e 04 00
       -9.59491e-40 1.96103e-40 5.05953e-40 3.7245e-40
000150 2e 97 00 00 f2 17 06 00 ff d6 01 80 51 e5 04 80
       5.4233e-41 5.59603e-40 -1.68962e-40 -4.49605e-40
000160 0f cf 07 80 8c b5 05 00 06 09 08 00 0d 5a 07 80
       -7.17127e-40 5.24304e-40 7.37921e-40 -6.75153e-40
000170 65 ee 04 80 37 3e 07 80 67 88 97 0a d5 89 05 80
       -4.52862e-40 -6.65167e-40 1.459208e-32 -5.08622e-40
000180 36 7c 07 80 49 cb 01 00 f5 8e 07 00 38 ea 03 80
       -6.87407e-40 1.6476e-40 6.94132e-40 -3.59528e-40
000190 cd 5f 04 00 57 be 07 80 44 2b 05 00 b9 6c 06 00
       4.01709e-40 -7.1113e-40 4.74698e-40 5.90015e-40
0001a0 36 b3 04 80 e7 44 02 00 9e b9 02 80 d2 a4 05 00
       -4.31631e-40 2.08388e-40 -2.50258e-40 5.18304e-40
0001b0 c9 87 0a 00 42 80 00 80 5e e3 01 80 6b 64 09 80
       9.67065e-40 -4.601e-41 -1.734e-40 -8.62543e-40
0001c0 37 81 02 00 75 fb 07 80 dd fc 00 80 fc 23 0e 80
       2.30025e-40 -7.33054e-40 -9.071e-41 -1.298606e-39
0001d0 76 54 01 00 b2 2e 0c 00 34 32 03 00 be 59 03 80
       1.22134e-40 1.118777e-39 2.93516e-40 -3.077e-40
0001e0 d9 95 02 80 05 d0 02 00 6c 5b 05 00 ed a0 00 80
       -2.37426e-40 2.58294e-40 4.91973e-40 -5.7729e-41
0001f0 e7 26 04 00 36 be 00 00 3d 5a 04 00 fd 0f 04 00
       3.81298e-40 6.8235e-41 3.99713e-40 3.73077e-40
000200 06 a2 03 00 08 77 08 80 cd 53 10 80 5a 20 07 00
       3.3363e-40 -7.77384e-40 -1.49943e-39 6.54454e-40
000210 34 97 07 80 a4 df 0b 80 e3 cd 08 80 ff 35 08 00
       -6.9709e-40 -1.090418e-39 -8.08542e-40 7.54054e-40
000220 19 77 b7 00 7a 8c 00 80 47 bf 00 80 82 27 28 03
       1.684862e-38 -5.0393e-41 -6.8617e-41 4.9416115e-37
000230 62 bc 04 80 e8 64 08 80 ae b0 07 80 fa d9 01 00
       -4.34921e-40 -7.70882e-40 -7.06229e-40 1.70031e-40
000240 65 35 03 00 78 d2 07 00 3a 6e 00 00 77 a0 06 80
       2.94661e-40 7.1835e-40 3.9542e-41 -6.08577e-40
000250 61 f2 03 00 85 42 05 00 ef 2f 0b 80 86 77 0a 80
       3.62456e-40 4.8304e-40 -1.027386e-39 -9.61232e-40
000260 9d c0 00 00 79 58 07 00 53 01 03 00 c7 de 06 00
       6.9097e-41 6.74586e-40 2.75982e-40 6.3093e-40
000270 25 7c 02 80 08 2f 08 80 51 be 05 80 3b 7f 05 00
       -2.28206e-40 -7.51556e-40 -5.2745e-40 5.04819e-40
000280 76 40 01 80 4f c7 08 80 5f 5d 01 80 0e 54 08 00
       -1.1496e-40 -8.06182e-40 -1.25331e-40 7.64837e-40
000290 eb b4 07 00 ca a1 07 00 15 4b 06 80 ca 47 06 00
       7.0775e-40 7.00887e-40 -5.77947e-40 5.76766e-40
0002a0 50 ff 02 80 40 59 01 00 64 b5 02 00 6a e5 01 80
       -2.7526e-40 1.23852e-40 2.48742e-40 -1.74134e-40
0002b0 09 f5 03 80 7d d4 12 80 9a 99 0b 80 12 f5 0b 80
       -3.63409e-40 -1.729265e-39 -1.065292e-39 -1.098105e-39
0002c0 86 c8 0f 00 68 15 0f 00 fc cf 06 00 f7 0b 16 80
       1.449467e-39 1.385212e-39 6.25624e-40 -2.024673e-39
0002d0 0c a6 02 00 84 fb 00 80 df e0 06 00 e4 e2 08 80
       2.43237e-40 -9.0227e-41 6.31682e-40 -8.16077e-40
0002e0 9d 21 0f 00 c7 26 0c 00 8d b1 01 00 8c 2e 0b 80
       1.38959e-39 1.115937e-39 1.55529e-40 -1.026888e-39
0002f0 4f 64 04 80 fa 91 06 80 29 e9 05 80 13 f5 06 00
       -4.03326e-40 -6.0338e-40 -5.4282e-40 6.38929e-40
000300 10 0a 03 80 65 ee 01 80 88 b1 07 00 82 52 00 00
       -2.79116e-40 -1.77355e-40 7.06535e-40 2.9598e-41
000310 f9 7d 01 00 fb 16 01 00 d9 77 05 80 53 92 0c 80
       1.37026e-40 1.0008e-40 -5.02171e-40 -1.154517e-39
000320 95 25 05 80 98 34 07 80 cc 68 07 00 9f a0 06 00
       -4.7266e-40 -6.61716e-40 6.80443e-40 6.08633e-40
000330 d7 50 05 80 ea 01 02 00 ad 18 06 80 fc cf 00 80
       -4.88177e-40 1.84358e-40 -5.59865e-40 -7.4611e-41
000340 10 eb 0a 80 5d d1 00 00 80 55 09 00 99 1d 09 00
       -1.00268e-39 7.5105e-41 8.57191e-40 8.37137e-40
000350 f8 2d 08 80 ec 15 09 80 e4 52 08 00 36 f7 08 80
       -7.51174e-40 -8.34384e-40 7.6442e-40 -8.23367e-40
000360 8e 7d 0e 00 ff 3d 00 80 54 7a 0a 80 e7 9e 0a 00
       1.330737e-39 -2.224e-41 -9.62238e-40 9.75358e-40
000370 21 db 06 80 eb e6 09 00 a6 47 01 00 d2 cb 08 80
       -6.29622e-40 9.09357e-40 1.17538e-40 -8.07801e-40
000380 d2 89 08 80 5d ff 07 00 13 d0 05 00 a6 cd 07 00
       -7.84125e-40 7.34456e-40 5.3382e-40 7.16621e-40
000390 7e b1 04 80 08 71 01 80 61 32 00 80 86 ea 07 80
       -4.31014e-40 -1.32383e-40 -1.8073e-41 -7.2698e-40
0003a0 39 c2 07 80 82 22 01 00 07 2e 05 00 c3 72 04 00
       -7.12522e-40 1.04215e-40 4.75689e-40 4.08511e-40
0003b0 43 5a 02 80 07 9f 03 80 d4 0d 8e 0f a4 65 ba 82
       -2.16051e-40 -3.32555e-40 1.4007607e-29 -2.7388583e-37
0003c0 67 8e 07 80 e3 57 3d 95 a5 0d 60 81 5b 60 05 80
       -6.93933e-40 -3.8237576e-26 -4.1152092e-38 -4.93743e-40
0003d0 04 23 09 00 d3 98 06 80 f6 a0 0c 00 c2 82 01 80
       8.39081e-40 -6.05836e-40 1.159768e-39 -1.38743e-40
0003e0 61 2b 01 00 2f fc 02 00 cb 8b 06 80 00 3d 05 80
       1.07397e-40 2.74137e-40 -6.01161e-40 -4.8106e-40
0003f0 d5 c3 08 80 1a 47 07 80 1a 96 06 80 60 55 08 80
       -8.04935e-40 -6.68355e-40 -6.04859e-40 -7.65311e-40

encoder_lin.0.bias f4 [64]
000000 75 17 0b 80 e6 da 9b ba 83 25 b1 3b 72 a0 84 18
       -1.018605e-39 -0.0011890798 0.005406083 3.428321e-24
000010 7d 3f 9d bb 1b fc ad 3a 4d 18 d0 bb b9 c0 5e bb
       -0.004798828 0.0013273986 -0.006350553 -0.0033989383
000020 d8 79 cd 3c 2c b0 04 3c 5d 50 a0 3b 2f cd 1a bc
       0.025082514 0.008098643 0.0048923925 -0.009448334
000030 0b 88 05 bb a3 a7 a7 33 f4 98 89 3b 58 18 7c 3b
       -0.0020375277 7.8070364e-08 0.0041991416 0.0038466658
000040 7d aa 03 bc 32 59 17 3c d0 91 b0 bb 20 ad e6 3a
       -0.008036253 0.009237574 -0.005388476 0.0017599203
000050 7c 0a 91 37 ef 51 06 bb 20 ab 03 80 b9 0c ac bb
       1.729023e-05 -0.0020495614 -3.36895e-40 -0.00525054
000060 16 df f3 bb 0d f3 41 3c ca fc d2 3b 5a 42 ee bb
       -0.0074423654 0.011837733 0.006438826 -0.0072710933
000070 f1 1a 09 3b 9d 3d 8e bb 26 0f de 3b 84 0e 23 38
       0.00209206 -0.004340841 0.006776708 3.8875747e-05
000080 f4 2d 1c 3b 55 88 0d 38 f5 ab e1 3b ff 55 31 3c
       0.00238311 3.374399e-05 0.006886954 0.010823726
000090 9f fa be bb 40 69 8a bb 37 0f 15 bc 64 f5 34 bb
       -0.005828216 -0.0042239726 -0.009097866 -0.0027612085
0000a0 fa bc 28 3b 00 18 4b bb d9 9d d9 bc 06 90 a6 bb
       0.0025747404 -0.0030989647 -0.026564525 -0.005083087
0000b0 02 5d 08 80 fa 66 23 bb e4 00 62 bb 3d 0e b1 3c
       -7.68049e-40 -0.0024933205 -0.0034485394 0.021613235
0000c0 ae 83 97 bb ca 28 07 bc e5 68 ae b8 92 2f 09 bb
       -0.0046238517 -0.008249471 -8.316505e-05 -0.0020932895
0000d0 51 28 c8 ba 3e a8 29 bc 8a 93 02 00 48 c2 14 bb
       -0.0015270804 -0.0103550535 2.36598e-40 -0.0022698808
0000e0 64 68 8e bb 6d 78 19 3c ac 81 b9 bb 50 a0 01 3b
       -0.0043459404 0.009367091 -0.00566121 0.0019779392
0000f0 d9 f1 55 3b 1e 81 f9 bb 8f ef 17 3a 6e 29 9d bb
       0.0032645373 -0.007614269 0.000579589 -0.0047961986

encoder_lin.2.weight f4 [10, 64]
000000 f2 4b 9b 38 97 b9 35 be 16 16 64 be cf 42 a3 3c
       7.405122e-05 -0.17746578 -0.2227405 0.019929318
000010 8d 76 7d be 66 4b 3e be d3 47 a6 3c 12 0c 2b 3e
       -0.24752255 -0.1858345 0.02029792 0.16703823
000020 c9 45 47 3e e2 65 84 be 62 9e e3 bc 7a 67 d4 3d
       0.19460215 -0.2585898 -0.027785484 0.10371299
000030 2e 31 66 bd 7c 8e 1e bc db fc 95 3d 91 83 cf bd
       -0.056199245 -0.009677526 0.07323619 -0.10132516
000040 da fa bf be 29 ae d3 3d 74 02 d3 bb 3b 87 65 bd
       -0.37496072 0.10335953 -0.0064395014 -0.05603717
000050 c6 6e 1c b9 5e 72 26 3e 37 fb b4 36 11 a8 7f be
       -0.00014918586 0.16254565 5.3936633e-06 -0.24966456
000060 bb ed 1c be 80 9d 8d 3d be 6c f7 3d 00 18 50 be
       -0.15325062 0.06914806 0.12081288 -0.20321655
000070 5f 8c dd 3c 8a a4 46 3e 65 8a 91 3d e5 3c 80 bd
       0.027044473 0.19398704 0.07106475 -0.06261615
000080 e6 17 2f 3e 9e 57 45 be a4 1a 8c bc 71 b8 37 3c
       0.1709896 -0.19271705 -0.017102547 0.011213408
000090 ce 63 4b be 88 e2 c4 bd 8f 1f c7 be ea 56 f7 bd
       -0.19862291 -0.0961352 -0.38891265 -0.120771244
0000a0 eb aa fa bc c2 05 02 be 94 39 c2 be b0 97 cb bd
       -0.030599078 -0.12697509 -0.37934554 -0.099410415
0000b0 1b d6 1c 9c 2b 29 26 be d0 a1 08 be cf 01 36 3e
       -5.1892795e-22 -0.16226642 -0.13342977 0.17774127
0000c0 d8 8f 96 3d 7e 89 27 3d b3 c6 03 3e b0 9e fb bd
       0.07351655 0.040902607 0.12868766 -0.122861266
0000d0 19 95 87 3d 76 e1 39 bc 8d 89 15 28 55 05 8c be
       0.06620235 -0.011345258 8.300988e-15 -0.27347818
0000e0 c9 4d 02 be 9a 9a 07 3e 8b c9 36 bb d0 f7 dd bd
       -0.12724985 0.1324257 -0.0027891125 -0.10838282
0000f0 d5 9f 03 bd 27 0c 0f 3e d7 0c 4c be 66 64 bd be
       -0.03213485 0.1396948 -0.19926773 -0.3699066
000100 85 41 23 b9 06 78 80 3e 53 68 b0 bd 38 89 98 ba
       -0.000155693 0.2509157 -0.08613648 -0.0011637574
000110 4d 9c 56 be c3 cc 60 3e 42 83 a3 be 60 3a a7 3d
       -0.20958062 0.2195311 -0.3193608 0.08165431
000120 c5 c6 d0 3d 58 1c a9 be c8 fb 0a be 3e 4c 8b 3e
       0.10194162 -0.33029437 -0.1357261 0.27206606
000130 ed 8b cc bd e7 56 07 3c de cb a7 3d 5f 1c ab bd
       -0.09987626 0.008260465 0.081931815 -0.08355021
000140 ac b9 db 3d db 5c 40 be 89 6c 07 3e c2 7c 99 bd
       0.107287735 -0.18785422 0.13224997 -0.07494499
000150 79 24 90 b8 86 c4 d0 bc d1 cc c3 b6 72 46 44 bd
       -6.873249e-05 -0.025484335 -5.8352966e-06 -0.047918744
000160 7b 50 7d 3c 72 c9 97 bd cf 29 95 bd 24 b6 b8 3e
       0.015461083 -0.074114695 -0.07283365 0.36076462
000170 e3 fd 1c be 2a bd d3 3d 3f 02 3d be 81 35 63 bd
       -0.15331225 0.103388146 -0.18457888 -0.055470947
000180 be d4 b0 3d 76 d4 5a 3e ad 18 03 bd 91 ac ab bd
       0.08634327 0.2137011 -0.032005955 -0.08382524
000190 16 31 e6 bc 7e 3b 3e 3e 6a 0b f7 3e 4d 8b ea 3d
       -0.028099578 0.18577382 0.48250896 0.11452351
0001a0 29 20 ed bd bd f1 9a be f7 f4 5b be 67 24 8e bd
       -0.115784 -0.30262557 -0.21480165 -0.06940537
0001b0 19 bb 01 80 30 8a c7 3d 12 68 86 bd e8 1d 04 3e
       -1.58953e-40 0.09743154 -0.065628186 0.12902033
0001c0 6e 15 dc bd 70 bb a1 bd f5 49 29 be b8 64 8e bd
       -0.10746275 -0.07897079 -0.16532119 -0.06952804
0001d0 8f ac 68 be f6 ac 16 ba fc 46 00 00 7d 86 6e bd
       -0.22722076 -0.0005747819 2.5464e-41 -0.058233727
0001e0 e9 43 80 be 86 4e 82 3c c5 1b a0 3e 13 1b 83 bc
       -0.2505181 0.015906584 0.31271186 -0.01600412
0001f0 31 3b 53 be 78 6f 6c bd 7b 12 ae be b3 0a 07 3d
       -0.20628048 -0.057723492 -0.33998474 0.032969188
000200 37 9d 66 b6 7a 13 42 bd 8f b4 71 3d 06 1a cd 39
       -3.4364182e-06 -0.047381856 0.059010085 0.00039120036
000210 4c c2 e1 be 74 37 47 bd 18 83 1c be d9 c4 1b be
       -0.4409355 -0.04863687 -0.15284383 -0.1521181
000220 59 dd 52 3e 71 19 8f bd 11 cf 0b be 40 ae e0 bd
       0.2059225 -0.069872744 -0.13653208 -0.109707355
000230 13 b3 40 3e e2 21 92 bc c4 3e 30 bc 0e 16 89 be
       0.18818311 -0.017838422 -0.010757152 -0.2677464
000240 f1 15 c2 bb 07 09 de 3b b2 20 5d be 7e 91 3e 3d
       -0.005923026 0.0067759785 -0.21594504 0.04652547
000250 45 73 9f b6 af 74 a3 be 38 81 6f a6 98 b6 9e be
       -4.7519884e-06 -0.3192496 -8.3094906e-16 -0.30998683
000260 a1 3c 80 be 4f 96 93 3d 33 2f c7 3e f3 f0 fd 3c
       -0.25046256 0.072064035 0.38903198 0.030998683
000270 11 0c 18 be 6a 5d 24 be b8 b8 73 be 6b b5 99 3e
       -0.14848353 -0.1605126 -0.23800933 0.30021223
000280 e8 56 2a 3e f3 c5 b9 bb 3b 17 58 3e 63 b8 b5 3c
       0.16634715 -0.0056693493 0.21102612 0.022182649
000290 03 eb d6 3c 63 98 02 3c bf c1 de bb 8b e9 52 be
       0.02623511 0.007970902 -0.0067979987 -0.20596902
0002a0 1c bc 88 3c 4a a8 56 bd 00 cf 53 bd 69 9c 19 be
       0.01669126 -0.052406587 -0.051711082 -0.15001072
0002b0 43 56 02 80 d1 88 81 3e 5a 2c 27 3e e8 49 53 3e
       -2.14616e-40 0.25299695 0.16325513 0.20633662
0002c0 ac db e2 bd a0 e3 69 3e 2e de 81 be cc e9 08 be
       -0.11077055 0.22840738 -0.25364822 -0.13370436
0002d0 f8 3c cb 3d 01 e4 90 bd 95 54 f4 24 b3 07 e1 bd
       0.09923738 -0.07074738 1.0596142e-16 -0.10987797
0002e0 a1 05 ca bc 4b 09 f2 3d 80 32 9b 3c 86 36 17 3b
       -0.024660887 0.11818179 0.018944979 0.002307327
0002f0 15 4c ab 3c c9 65 33 be 6f b2 5c bd 96 36 1c 3e
       0.020910302 -0.17519297 -0.053881105 0.15255198
000300 3e 55 84 b7 78 68 1e be 4f 9b dd bd cf c6 9c bc
       -1.577532e-05 -0.15469539 -0.108206384 -0.019137768
000310 89 b1 77 be ff f7 da bd af 7c 59 3e 20 97 bc bd
       -0.24188818 -0.10691833 0.2123897 -0.09208512
000320 df 2e b6 3d c1 1f 32 3d af 2e 56 be c3 f6 c0 bd
       0.08895659 0.043487314 -0.20916246 -0.09422066
000330 32 56 97 bd 56 6a 27 3c 6e 67 8a bc b4 00 0d 3e
       -0.07389487 0.010218224 -0.016895022 0.137698
000340 5f 90 32 be a5 93 ba bd c2 6a 78 3d 6a 57 17 be
       -0.17437886 -0.09110192 0.060648687 -0.1477944
000350 29 01 67 b9 29 79 f8 3d da 1d 6b 36 ef ea 0a bd
       -0.00022030309 0.121324845 3.5035105e-06 -0.033915456
000360 e9 03 8a 3e 83 3d 0a bc 79 db 83 3e f7 48 72 3e
       0.26956108 -0.008437517 0.25753382 0.23660646
000370 2f bb 84 be cb b2 1e 3e 06 15 a2 be 27 a5 92 3c
       -0.2592406 0.15497892 -0.31656665 0.017901016
000380 57 68 ee 3d 2a c9 71 be f6 5a 4e be 3f e4 4a be
       0.11640995 -0.23611894 -0.20151886 -0.19813631
000390 81 29 9f 3d 9d 23 80 be 0b 0e 55 3e 9e 9e 33 be
       0.07771588 -0.2502717 0.20806138 -0.17540976
0003a0 d0 97 17 be 85 8d 51 3e 30 30 7b 3e 53 4b f6 3d
       -0.14804006 0.20464142 0.24530101 0.12026086
0003b0 73 77 1d 2a f2 c6 45 be 82 ae 49 3e 08 ea 4d 3d
       1.3985843e-13 -0.19314173 0.19695476 0.050272018
0003c0 84 82 b8 bd 48 8f da 3d 6c 95 58 be d5 a3 f8 bd
       -0.09009269 0.1067186 -0.2115075 -0.121406235
0003d0 f4 9f c8 bd c9 98 2e 3e 0d 8d 2c 19 ea 7a d8 bc
       -0.09796134 0.1705047 8.9206766e-24 -0.026425797
0003e0 10 8d 49 be 0b 0d f6 3d df 38 35 be c7 dd 8b bc
       -0.19682717 0.120142065 -0.17697476 -0.017073525
0003f0 b9 46 7a be 80 cb 96 be 6c 53 3d be da 84 6e 3c
       -0.24441041 -0.29452133 -0.18488854 0.0145580415

encoder_lin.2.bias f4 [10]
000000 ed 1d bf 3c c4 07 0c bd e9 53 df 3b 93 30 64 bc
       0.0233297 -0.034187093 0.006815423 -0.013927597
000010 e8 43 4f 3c b5 1a 6d bc c1 14 c8 3b 14 db 2d 3d
       0.012650467 -0.0144716995 0.0061059897 0.042445257
000020 ad 2f 6a bb f2 a1 0e bd
       -0.0035733983 -0.03482241
