encoder_params10.pth (torch, 103239 bytes, 10 tensors)

encoder_cnn.0.weight f4 [8, 1, 3, 3]
00000000: c6bd 76be fb59 fabd 7565 84be 4d10 84be
00000010: 1e2a 4fbe ca6d 72be 8591 183e c927 a93d
00000020: ff8a d13c b44b 92bd d51c efbd e14f d2bd
00000030: 3dd7 9bbe 83f1 a8be 1112 74be 0d2d 9d3d
00000040: 2c39 0abd 3f24 993d ab75 0b3b bf53 083e
00000050: 478a 563e 47c5 ba3e 1eab d23e edd3 cd3e
00000060: 489d 353e 59c2 bf3e b4d1 b43e fa56 91be
00000070: 9219 c6bd 2b3c 5cbe d764 87be cec7 fdbd
00000080: cbc3 70be 9c5a bebd d31e edbd 8b16 7cbe
00000090: 14cb b03d 02af 693e 3162 903e 4d28 d8bd
000000a0: f03e 16be a02d e7bd c10c debe 5b04 a0be
000000b0: 3fc5 dabe 962e 193e 0122 333f 25fc e73e
000000c0: 2fb4 f23e 1d67 843f df3f 343f 25e8 0e3f
000000d0: 2df5 4e3f a7fd a83e ca8d 5b3e 87be ae3d
000000e0: f989 463e 8252 3cbe 272c 8ebe 1265 c8bd
000000f0: b16f 7fbd e027 29be ec88 a3bd d51d d63e
00000100: fe3f 3c3f ed1d ac3e 840a 283f e8c8 8e3f
00000110: f528 343f d79b 0e3f 12d2 0a3f 7d86 543e
-0.2409583 -0.12224194 -0.25858656 -0.25793687 -0.2023091 -0.23674694 0.14899261 0.082595415
0.025578974 -0.071433455 -0.11675421 -0.10269142 -0.3043765 -0.3299676 -0.23835017 0.076746084
-0.03374593 0.074776165 0.0021279852 0.13313197 0.20951186 0.36478636 0.41146177 0.4020075
0.1773578 0.37452963 0.3531624 -0.2838667 -0.09672846 -0.21507327 -0.26444122 -0.12391625
-0.23512189 -0.09294626 -0.11578145 -0.24617974 0.08632484 0.22820666 0.28199914 -0.10554562
-0.14672446 -0.11287999 -0.43369105 -0.31253323 -0.42728612 0.14959177 0.6997376 0.4530956
0.47403094 1.0343968 0.7040996 0.55822974 0.8084286 0.3300602 0.21440807 0.08532434
0.1938857 -0.18390849 -0.2776806 -0.09784903 -0.062362377 -0.16519117 -0.079851 0.41819635
0.73535144 0.33616582 0.65641046 1.1155062 0.70374995 0.5570654 0.5422679 0.20754428

encoder_cnn.0.bias f4 [8]
00000000: d6a9 e23e 891d 193f 2594 e33e 6ab7 163f
00000010: ddac ff3e 4fd7 3f39 455c 9f3e 5374 bd39
0.442702 0.5981069 0.44448963 0.5887362 0.49936572 0.00018295388 0.31125084 0.00036135557

encoder_cnn.2.weight f4 [16, 8, 3, 3]
00000000: 7398 133d 2dbe afbc 2afe b9bc e773 b5bc
00000010: 10b0 c7bd 0eba 8fbd 42a6 3d3d 24dd 80bd
00000020: a107 3ebc 260e ca3c 595e 26bd 5294 01bd
00000030: 6cfe 0e3c f72f c9bd 302b a3bd fa5f 003d
00000040: 20eb 37bd 0964 3dbc 39c2 943d 26e7 0e3e
00000050: 7647 123e 8b58 d03d d429 303e adb9 1f3e
00000060: d532 133d a31a c33d 53f0 a53d cee0 aebc
00000070: c18d e7bd 320a f1bd e926 8dbc 2c69 ebbd
00000080: 353c b2bd 05ad 943c a4da 80bd 460a 1ebd
00000090: d82a 303d feaa 9cbd 3a21 8fbc 24aa c33d
000000a0: e3e2 08ba a5ed 3f3d 9303 9c3d 37c2 f73c
000000b0: f4ec 4d3d 36e2 813d 961d a23e 85e6 893e
000000c0: e3e3 fd3d 09a8 e93e bf47 a53e a609 ed3c
000000d0: f309 6c3e 7528 233e 97ab 2c3c afaf 89bd
000000e0: dd0c 6bbd def9 99bb 4829 aebd 4a42 5dbd
000000f0: 4f77 413b 1b90 6abc 249d eb3b b8ee 793d
00000100: 0609 6c3e 8344 893e 3086 0d3e 8d79 f03e
00000110: 76db c43e be9e a5bc 1763 4a3e 6643 103e
00000120: 6518 183d 097a 9b3d f589 393c d938 823d
00000130: c71c c43d b94f 6f3a 15c6 b63c 9feb 293d
00000140: 46ae 9ebc 8b58 823d 5232 c63d 5014 233d
00000150: ea54 c73d 16c1 1f3e e2ff 1f3d 45a9 823d
00000160: e5bc 653d 726c 4e3c 3ae5 a63d 6ebe bebd
00000170: dd35 243e 4b63 723d 7609 77bd cb7b 5a3e
00000180: 4a39 0b3e 7df5 c93d ebaa 3f3e 0736 923d
00000190: 3832 1b3e f930 c13d 72d3 b43d 0435 f73d
000001a0: e430 603d af6a 813c 54e0 863d ca60 343c
000001b0: e4d7 463d ed22 fc3d 80ae abbb d542 21bc
000001c0: e194 143b 0d14 2bbd 2e9d 21bd 9596 01bd
000001d0: a92e 59bc 2e46 0b3d 8d61 c7be 2df1 0a3e
000001e0: 5691 d6bc ff02 b8be a305 743e e77f 343e
000001f0: 627a 8c3d 1162 8e3e 363e 653d 8bc1 c83d
00000200: fa10 f33c d4a4 353d 4af0 7c3d a15a 5abb
00000210: 4f55 cf3c afe0 a63b b519 093c 5ae4 df3d
00000220: c760 b4be 7746 c73d 112b 533d 9015 e2be
00000230: b501 473e b7fa 8c3e a31b b13d e487 8e3e
00000240: d6ab e43d 041a 2e3e 8fe9 0b3e 94fa 4d3e
00000250: 8efd 213e 9482 203e de24 063e 3224 1a3e
00000260: 48a0 1d3e f898 4e3e c6c3 5a3e ac66 3e3e
00000270: ac03 6a3e 9ebd 383e 47fe 4b3e 9fca 353e
00000280: 5612 463e 7502 703e 352c 623c 6cf1 643d
00000290: 8e5a 9b3d 5130 973c 5495 fa3d e68e 043d
000002a0: 25be 0f3e adc2 233d 4d31 84bc 4c22 433e
000002b0: 5ac8 7f3e a49f 6a3e d7e7 803e 1b85 4b3e
000002c0: cc9d 673e 4698 3f3e e585 623e 2dc0 733e
000002d0: d67b 5b3e 0b37 233e 3a8c 1e3e 3beb ed3d
000002e0: 0da8 023e 2dc6 123e 11d6 de3d 7602 3e3e
000002f0: 2bf2 2d3e fd01 81be 1c26 68be a366 51be
00000300: b6c8 83be 82e5 f5bd 9202 60be a5a3 d638
00000310: 173f 4abe 8c1e d0be eb5b 213e edc2 da3d
00000320: 623e f13d fc21 a93d 0b8b bc3d 0e5f e33d
00000330: 47d4 b83d f3c6 f83d cf1d 093e 0304 35be
00000340: a1d9 6bbe 138f 56be c4d9 9fbe e958 00be
00000350: dc94 6bbe 50af 023b 7880 2abe f5a8 bebe
00000360: 7818 613d 8efd 56bc ad0d c63b c07b 33bd
00000370: 086d bbbd 162a 28bc 1f89 11bd 44fe 72bd
00000380: abf4 a53c 35a0 243d 44d6 3e3b 75ff 043d
00000390: 0765 58bb a77d f7bd e61a 30bd 087a 2fbd
000003a0: 6c49 b9bd 85f4 18bb f3fb 893d 1fda c23d
000003b0: a6e8 0bbd 8472 303e dde6 843e f300 153e
000003c0: bb00 8d3e 00fc 293e 19e4 383c 7055 963d
000003d0: 93fe e2bc c094 47bd 8f38 75bd 7205 01be
000003e0: 083f 7bbd 54e0 d3bd 5aa7 dcbd cd8e e7ba
000003f0: a4f8 b1bc 5447 c4bd 7722 513c 3feb 2c3d
0.03603406 -0.021452988 -0.022704203 -0.022149993 -0.09750378 -0.07017909 0.046301134 -0.06292179
-0.011598499 0.02466495 -0.04061732 -0.03163559 0.008727651 -0.09823602 -0.07967222 0.03134153
-0.044901967 -0.011559495 0.072636075 0.13955364 0.14285073 0.10173138 0.17203456 0.15598173
0.03593715 0.09526565 0.08102479 -0.02134743 -0.11306334 -0.11769523 -0.017230468 -0.11494669
-0.0870289 0.018148908 -0.062917024 -0.038584016 0.04300961 -0.07649802 -0.017471898 0.09553936
-0.0005221797 0.046857495 0.07617869 0.030243976 0.050274804 0.063419744 0.31663197 0.26933685
0.123969816 0.45636013 0.322813 0.028935265 0.2305067 0.15933402 0.010538957 -0.06722962
-0.057385314 -0.004698976 -0.085039675 -0.054018296 0.0029520576 -0.014316584 0.0071903635 0.061018676
0.23050317 0.26810083 0.1382072 0.46967736 0.38448685 -0.020217296 0.19764362 0.1408821
0.03713264 0.07591636 0.011324395 0.06358499 0.09575801 0.0009129006 0.02231125 0.04148447
-0.01937021 0.063645445 0.096775666 0.039814293 0.09732993 0.15601 0.03906239 0.06379942
0.056088347 0.012599098 0.0814919 -0.09313665 0.16036172 0.059176724 -0.060311757 0.21336286
0.13596073 0.09861276 0.18717544 0.07139211 0.15155876 0.09433169 0.088293925 0.12070659
0.054734126 0.015797941 0.06585756 0.011009404 0.048545733 0.12311349 -0.005239308 -0.009842594
0.0022671747 -0.04176717 -0.03945654 -0.031637747 -0.013255754 0.034002475 -0.38941613 0.13568564
-0.026192348 -0.35939786 0.23830275 0.17626916 0.0685928 0.27809194 0.055967532 0.098025404
0.029671181 0.044346645 0.061752595 -0.003331818 0.025309233 0.0050927023 0.008367945 0.109322265
-0.35230085 0.09730237 0.051554743 -0.44157076 0.19434245 0.2753503 0.086478494 0.2783805
0.111655876 0.17002112 0.13663314 0.20115119 0.1581938 0.15674812 0.13100001 0.1505287
0.15393174 0.2017554 0.21363744 0.18593854 0.22852963 0.18041083 0.19921218 0.17753075
0.19342932 0.23438437 0.013804485 0.0558943 0.07585631 0.018455656 0.12235513 0.03236284
0.14037378 0.03998058 -0.01613679 0.19056052 0.24978772 0.2291246 0.2517688 0.19874994
0.22618788 0.18710431 0.22121389 0.23803778 0.21433958 0.15938966 0.1548318 0.11617132
0.12759419 0.1433341 0.10880674 0.18555626 0.16986911 -0.2519683 -0.22670788 -0.20449309
-0.25739068 -0.12006666 -0.2187598 0.00010234796 -0.1975063 -0.40648305 0.1575772 0.106817104
0.11779477 0.08258435 0.09206208 0.111021146 0.09024864 0.121473216 0.13390277 -0.17677312
-0.23032238 -0.20953016 -0.3122083 -0.12533917 -0.23006004 0.001994092 -0.1665057 -0.3723828
0.054954976 -0.013121976 0.0060441107 -0.04381919 -0.091516554 -0.01026394 -0.03553116 -0.059324518
0.020258268 0.040191848 0.0029119411 0.032470185 -0.0033019201 -0.12084513 -0.042994402 -0.042840987
-0.09047207 -0.0023339104 0.067375086 0.095142595 -0.034157418 0.17231184 0.25957385 0.14551143
0.2753962 0.16600037 0.0112848515 0.07340515 -0.027709281 -0.048725843 -0.05986839 -0.12599733
-0.06133941 -0.103455216 -0.10774107 -0.0017666459 -0.021725006 -0.09583917 0.012764565 0.042216536

encoder_cnn.2.bias f4 [16]
00000000: 1af5 a83d a88c a53d 1450 7b3e 0b65 0d3d
00000010: 735e 1a3e bd49 183e 73f0 453e 2d46 ab94
00000020: 14af 8f3c 4569 903d 5a57 e53d 7aa8 c93d
00000030: e3e8 073e f0b8 e7bc 207c bdb1 2423 9f3d
0.082498744 0.08083469 0.24542266 0.03452019 0.15075092 0.14871879 0.19330005 -1.7294267e-26
0.017539538 0.070513286 0.111983016 0.098465875 0.13272433 -0.028286427 -5.5147353e-09 0.077703744

encoder_cnn.4.weight f4 [32, 16, 3, 3]
00000000: 3499 5bbd 6380 0ebe 58b7 1dbe 7788 40bd
00000010: 2d01 8abd 34c6 54bd 72ff 833d a22b 683d
00000020: d9dc 00bd 4289 3cbd fdbb 203d 2bc0 a63d
00000030: 8dbd 843d f9ae c93c 05e7 cb3d cd96 eebc
00000040: 762c ef3d 131e acbc 7be0 483d 1567 7d3e
00000050: 1101 253e 73af c13c 3200 d43d 05f0 923b
00000060: 4ca3 cebd 54ea eabd f8cb 5ebd 4a6e 0abd
00000070: affd d1bd 5b36 debd 20ec 4c3c c924 ad3d
00000080: 8aed 88bc 9d96 a63d ff9f 413e a203 ad3d
00000090: a818 e43c 99f9 c03d 918e 043e 5944 4fbc
000000a0: 6436 cebc 7cae 153d 97f4 edbc c0d4 a03c
000000b0: 0b18 7ebc 45bc b33c d2af c53c 3ef2 633d
000000c0: dc53 85bd 5e71 243d c618 8b3d 3d6b 81bd
000000d0: b4fc 5e3c d426 5a3d b26d a23c b7b0 093e
000000e0: 50fe 003e 404f 4d3c bef9 913d 7384 7c3d
000000f0: 2f00 f8bc ba3c 343b c94e a13b e50f 0380
00000100: c23c 0500 1944 0400 a2ea 0580 3be6 0380
00000110: 0024 0400 2ada 0000 51a7 0300 1ff1 0280
00000120: b948 0cbd 5eb7 1ebc d661 67bd 4c10 963d
00000130: 692e 5c3d f7b4 0e3e 84db 7bbd 2c02 c23b
00000140: b07f 00bc 76a3 363d 9470 0fbe 1817 55bd
00000150: 01ee 54bd 9769 63bd b3f3 4d3d 7f81 113d
00000160: d424 5dbd 4986 693c 43df ab3d c36b 0a3d
00000170: 6648 833c 5303 10be 217e 943d 6a42 16bd
00000180: 058f 09bb 568d 1bbb 287f 153e 0824 dbbb
00000190: 20c1 a73d c6a8 ec3d 835a 843b 362a 8c3d
000001a0: 92a7 d63d 1610 a73c 08f3 2c3c 8215 333d
000001b0: 89b9 cdbc f854 ea3d 4a6e b53d 7b19 dfbb
000001c0: fdaa 693d 6313 cc3d 80e8 00bd c5ed 3d3d
000001d0: c9cf a03c d10f 103c 4c62 1f3c 0eab 473c
000001e0: 273a 033b 2c07 87ba 103e 1f3c 500c 843c
000001f0: 99b1 543c 6fd6 813c 17bf 22b1 f4b3 16b1
00000200: 8552 3eb0 93c1 f9b0 1419 b9b1 547a 6cb2
00000210: d118 5a30 4792 0930 696f 1c31 34fe 31bd
00000220: 783c 0bbe e7f1 1bbe 390b 4fbd 3935 4dbd
00000230: e752 50bd 57a5 a73d 69b9 963d e86f 27bc
00000240: 8fef d2bc 4f7c c13d 3273 04bd 6598 ac3d
00000250: 82c4 50bd 6088 78be 26d3 0bbd 8026 c53d
00000260: bb41 01bd 419b 4f3d 2ede b73c cee3 2bbd
00000270: f758 f2bd 6ab1 ccbc 7709 c9bc 85a6 c4bd
00000280: 6be4 27bd 4a3b 463c ccd4 6bbd 91d5 94bd
00000290: cfd5 b93c dbfc b2bd 546f 583e 8bd6 2e3e
000002a0: 7342 a13d 24b8 58bd b645 57bd 3a17 9f3c
000002b0: 4b7b 283e ebc8 47bd 3859 c63d 7db8 5dbc
000002c0: 7e32 71be 1ade acbd e1e7 333e 6c04 d03d
000002d0: aa69 c0bd 69a7 243d 875e 203e c26a 87bd
000002e0: 9096 f33d 633f 253d 16e8 033e ec3a 803d
000002f0: dd56 6bbc 0de5 63ba f968 843c 2983 513e
00000300: 0238 cbbd 4a15 433e 7229 af3d 79d4 7e3d
00000310: 5896 273c 76e1 6cbd 98c6 efbb ab3a 41bd
00000320: 00b2 5e3d a763 eabd 0cb9 f63d 8679 f83d
00000330: fbd8 a93d 0d02 5d3c 8641 28bc a8ca 0080
00000340: 2331 0600 a911 0900 5e65 0380 0a48 0980
00000350: 098e 0480 874f 0700 e98e 0900 8f8e 0100
00000360: fbfb 553d ecbd af3b 385f d3bb 86b3 b8bd
00000370: 32e5 2e3c 30e9 bd3d cb3a b93c 3413 263d
00000380: 22df 0f3d 9fc5 653d 6523 9c3b f6ba 1e3d
00000390: 8929 cc3c 45b6 88bd 985f e1bc 2cc8 af3b
000003a0: 7325 f83d d69d c3bd 5fc3 07be 58fc 213d
000003b0: 22b5 433e a2a8 3a3c fb3b d23c b6b2 ee3c
000003c0: 54fd 32bc 5d35 983c 18ac e13d 8e8c 803b
000003d0: 4be9 45bd d97e 533d 4b5a b4bd 3715 c63d
000003e0: c0ef 273e 55f9 4c3d 2f1d 613c 4720 73bb
000003f0: dc0d a93d f41a 943c 7629 613d 6f5b 25be
-0.053612903 -0.13916163 -0.15401971 -0.047005143 -0.067385055 -0.051946834 0.06445207 0.056682236
-0.031460617 -0.046029337 0.03924178 0.08142122 0.064814664 0.024619566 0.09956173 -0.029124642
0.11678402 -0.021010434 0.049042206 0.24746354 0.16113688 0.023643231 0.103516 0.004484179
-0.1008974 -0.11470476 -0.05439374 -0.033796586 -0.102534644 -0.10850211 0.012507468 0.08454282
-0.01671483 0.08134196 0.1890869 0.084479585 0.027843788 0.09422607 0.1294501 -0.012650573
-0.02517242 0.036543354 -0.029047294 0.019632697 -0.015508662 0.02194036 0.02413169 0.055650942
-0.065101355 0.040147178 0.067918345 -0.06319282 0.013610054 0.053259686 0.019827697 0.13446318
0.12597013 0.012531102 0.07127713 0.06164975 -0.030273525 0.0027502016 0.004922722 -2.81208e-40
4.80973e-40 3.91771e-40 -5.43348e-40 -3.58098e-40 3.80256e-40 7.8263e-41 3.35528e-40 -2.70169e-40
-0.03424904 -0.009687273 -0.056489788 0.07327327 0.053755198 0.1393622 -0.061488643 0.005920669
-0.007842943 0.044589482 -0.14007789 -0.052023977 -0.05198479 -0.05552062 0.050281238 0.035523888
-0.0539902 0.0142532075 0.08392193 0.033794176 0.016025733 -0.14063768 0.0725062 -0.03668443
-0.0020989787 -0.0023735366 0.14599288 -0.006687645 0.081911325 0.115556285 0.00403911 0.068439886
0.1048118 0.020393413 0.01055599 0.043721683 -0.025112884 0.11441988 0.088589266 -0.0068084574
0.057047833 0.09964635 -0.03147173 0.046369333 0.01963033 0.008792833 0.009728026 0.012186779
0.0020023675 -0.001030182 0.009719387 0.016119152 0.012981796 0.01584932 -2.3682725e-09 -2.1930164e-09
-6.9238865e-10 -1.8172152e-09 -5.3870597e-09 -1.3764822e-08 7.9343204e-10 5.004818e-10 2.2764317e-09 -0.043455318
-0.13597286 -0.15228997 -0.050547812 -0.050099585 -0.05086031 0.08185833 0.07359583 -0.010219552
-0.025748996 0.09447538 -0.03233642 0.084275045 -0.050968654 -0.24270773 -0.034136914 0.09626484
-0.031556826 0.05068517 0.02244481 -0.0419653 -0.11833375 -0.024986941 -0.024540646 -0.096020736
-0.04098932 0.012099097 -0.057575986 -0.07267297 0.02268496 -0.087396346 0.21136218 0.17074029
0.07874002 -0.052909985 -0.052556716 0.019420255 0.16453283 -0.048775595 0.09684986 -0.013532755
-0.23554417 -0.084408 0.17568924 0.101570934 -0.09395154 0.040198717 0.1566106 -0.06612159
0.11893952 0.040343653 0.12881503 0.062612385 -0.014363972 -0.0008693494 0.016163336 0.2046019
-0.09922792 0.1905109 0.08552827 0.06221435 0.010228716 -0.057832204 -0.0073173754 -0.04717509
0.054368973 -0.114447884 0.12047014 0.12132554 0.08293339 0.0134892585 -0.010269528 -7.27e-41
5.6864e-40 8.32855e-40 -3.1187e-40 -8.52362e-40 -4.18295e-40 6.71378e-40 8.77786e-40 1.42976e-40
0.05224226 0.0053632166 -0.00645056 -0.090186164 0.010674762 0.092729926 0.022611042 0.040545657
0.035124905 0.05609667 0.0047649615 0.03875252 0.02492215 -0.0667539 -0.027511403 0.0053644385
0.12116518 -0.09551589 -0.13258122 0.039547294 0.19112065 0.011392744 0.025663367 0.02913795
-0.010924656 0.018580133 0.110191524 0.0039230054 -0.04831819 0.051634643 -0.088062845 0.09672015
0.16400051 0.05004247 0.013739868 -0.0037098096 0.082545966 0.018079259 0.05497118 -0.1614816

encoder_cnn.4.bias f4 [32]
00000000: c844 fa3c 9e1b be3c 32fd 9e3c 2259 f239
00000010: c17f 9dbb 63ea c83c b9d1 2e3d 296e 4b3c
00000020: 412f 9e3b d6f8 183d 7dc3 573d 9afa 013d
00000030: 17f5 3abb fabe b0bb 05bb 683b 25d6 8a2c
00000040: dbdd 4c3b c64d debc 101c 183c 74b2 0ea9
00000050: 6aa2 b63c 197e 823d 5225 3ebc 57d0 f13b
00000060: d123 653c 9529 69bc 5881 603d b4c6 073d
00000070: d353 983c 5280 333d 7c80 933b d444 cebb
0.030550376 0.023206528 0.019407842 0.00046224246 -0.004806489 0.024525827 0.042680476 0.012416401
0.0048274104 0.037346683 0.052676667 0.031733133 -0.0028527433 -0.00539386 0.0035511863 3.9459707e-12
0.0031260166 -0.027136695 0.009284034 -3.1685117e-14 0.022294242 0.063717075 -0.011605578 0.0073795724
0.01398559 -0.014231105 0.05481085 0.033148482 0.018594658 0.043823548 0.0045014005 -0.006294826

encoder_lin.0.weight f4 [64, 288]
00000000: a4b8 7cba 8667 a0bd 31f2 4b3d c361 923d
00000010: e418 ef3b 6afc 1f3d c30f 783c 1bb9 013d
00000020: 7bb7 843d fe74 15bc c23d 48bc 4011 6f3d
00000030: fdbb 463b 40fc d5bc 2fac e43d 1e09 07bd
00000040: 5d74 99bd 4010 853c 1706 da3c 16c2 4bbd
00000050: 044c 60bd 1223 5e3d d720 abbc 25fa cbbb
00000060: 30ba 2f3c b18a 7cbd 2ccb a7bc c003 673c
00000070: e0a7 9dbb b00c db3c 83e8 9f3c 7467 043e
00000080: e643 32bd 3978 933c 188e c0bc 06d7 41bd
00000090: 96b4 933b baa0 18be a169 06bd 26f4 d33d
000000a0: dfaf 28bb 98ef 48bc ef6d bcbc f805 843c
000000b0: 9622 8d3c 52c0 ff3a b364 bcbd 1e40 9e3b
000000c0: 0e5d 0e3d 922d 4ebd 4892 6f3c 7c2f 85bd
000000d0: a1de 48bd 4384 54bd 1274 183d 1117 a43c
000000e0: 8b1f c43d 06ad 71bc d27a 763d 1218 21bd
000000f0: 11a8 8f3d fe08 3a3d 7408 4e3d 5517 3c3d
00000100: e0a1 9d39 89df 9e3c 20dc 643d f531 13bd
00000110: b41a 81bd 3d58 f03b ecff abbd 73fc b63c
00000120: 4b21 2dbc 002e 26bc 9186 8f3c 0df6 673c
00000130: 3120 c4ba e49b 443d ff97 b53c 1dc9 f53a
00000140: 182b 2cbd 6f2b 933c 2730 cebc 14c8 bebc
00000150: cbc6 603c 597f 93bd 093c 073e 6d2b b73c
00000160: 4f38 99bc fb86 65bd 1d03 40bd 0eca 943d
00000170: d4df a9bd 673b 41bd dc46 183c 7aa9 50bb
00000180: 4d3a f9ba ed07 273d 9cc6 243d 6c3e 62bc
00000190: c62b f6bd d1a0 d73d d1b5 953d b778 bc3d
000001a0: 4223 bf3d 0cca ac3d 7e27 9d3c cbeb b93c
000001b0: e064 ba3b 1d4d efbb f58a 223c 4308 ddbc
000001c0: 3a16 9c3c 79d5 003e 9a5f 4cbc 27d2 0cbd
000001d0: c476 6c3c 09bc d63c ce52 4dbd e24e e73d
000001e0: ee44 fd3c 580e 43bc dd87 a33d bf98 02bc
000001f0: cdd9 45bb 71ab 8cbc e930 133b 1851 13bd
00000200: 059c 933c 8d73 8c3c 1d8e 42bc 3ed8 be3d
00000210: c8cf 023d 66a9 bebd 8436 3c3c 1fbb 932b
00000220: 9aa9 1aad 35dd bc2c d726 d72b 14f0 7233
00000230: f26f e3ae f2bb 062d c3dc bd31 3b33 212d
00000240: a3bf 50bc d095 16bc 7aa2 b53d 3cc2 243c
00000250: a25e 7dbc aa18 dd3d c759 c53c 4c4e 243c
00000260: 1a48 d73c ecd6 3fbc acfb f8bc cde9 46bd
00000270: b53d 073d ea8b f23c d01e 26bd f822 1ebd
00000280: 6b37 803c a5d7 8cbd dbbb 033d 1870 f93c
00000290: bd7e f23d 2c45 bb3b 0f36 153d 63f9 f1bc
000002a0: 50f1 033d 210e 49bd a2fb 403d 6bc7 6227
000002b0: 4074 d1a6 16d9 10aa 1eec 9fa8 f38e c2a5
000002c0: 652d cfa9 85f8 0c28 ab6b c8a6 8ee2 c328
000002d0: 9781 e9bb cf7b fb3c 6e8c 03bd bb7f 68bd
000002e0: a98e 973c 47a0 023d 5cba 4bbc 987e 82bb
000002f0: 6889 04bd ad7a acbc beeb 533d cbd4 abbd
00000300: 2007 b6bc a778 02bc 7218 363a 8f56 c1bc
00000310: a1df 933c 9d49 1d3d 5fcc de3c 487f 553d
00000320: c683 453d 654d cd3b 4fd6 033c d869 503d
00000330: 0bf3 40bc aa35 e1bc bc16 28bd a7b0 bf3c
00000340: 35da 1fbd 6558 203e 5cfb cd3c 52a5 163c
00000350: 7374 0f3d ca6e 383d 7f9d 0cbd aba3 473d
00000360: 5d84 17bb cf64 7dbc 928a dbbc b896 f43a
00000370: ccab 473d 03bc c739 f7e1 043c 69bd cf3c
00000380: ad4d 403b b2d5 3d3c 7c3e 8bbd 6c5f 4c3d
00000390: a494 0ebd 1cb1 88bd 6348 313c afbe 67bd
000003a0: f284 1cbd 176e 43bc 8cdd 2e3d 905d 9a3c
000003b0: 3cec d53d c1f0 51bd f87c 873d 1356 6bbd
000003c0: 84dc 423d cd38 ba3c 3ad7 943d b81e 983c
000003d0: b3f2 913d 60c9 183e eb62 3d3b aff1 b6ba
000003e0: fe01 333e d8a7 9a3b 4a10 5abc f466 a23b
000003f0: 2722 ab3c 2ff1 d7bd fb09 04bd ea5c 983d
-0.00096405507 -0.078322455 0.04979152 0.07147553 0.0072966684 0.03905908 0.015140477 0.03167067
0.064803086 -0.009122131 -0.012221755 0.05836606 0.0030324452 -0.026121259 0.11165654 -0.03296768
-0.07492898 0.0162431 0.026614232 -0.04974564 -0.054759994 0.054232664 -0.020889683 -0.006224888
0.010725543 -0.061655704 -0.020482622 0.014100015 -0.004811272 0.026739448 0.01952005 0.12930089
-0.043521784 0.018001663 -0.023505256 -0.047324203 0.0045076115 -0.14905062 -0.03281558 0.10349302
-0.0025739593 -0.012264155 -0.02300164 0.016116127 0.017228406 0.0019512272 -0.09198894 0.0048294207
0.034756713 -0.050336428 0.0146222785 -0.065031976 -0.04904044 -0.051883947 0.03722007 0.02003053
0.09576329 -0.014750725 0.060175724 -0.039329596 0.07014478 0.045418732 0.05030103 0.04592069
0.0003006598 0.0193937 0.05587399 -0.035936315 -0.06303921 0.0073347376 -0.083984226 0.022337174
-0.01056702 -0.010142803 0.017520221 0.014157784 -0.0014963207 0.04800023 0.022167204 0.0018751953
-0.042033285 0.017965047 -0.025169445 -0.023288764 0.013719271 -0.07202024 0.13206495 0.022359574
-0.018703608 -0.05603693 -0.04687797 0.072651014 -0.08294645 -0.04717579 0.009294238 -0.0031839297
-0.0019014567 0.040779043 0.04022847 -0.013808828 -0.12020068 0.1052872 0.07310069 0.09202712
0.09332897 0.08436975 0.01918387 0.022695443 0.005688295 -0.007302894 0.009920825 -0.026981479
0.019053567 0.12581433 -0.012473965 -0.034380104 0.014432613 0.026212709 -0.050127797 0.112943426
0.030916657 -0.011905275 0.07984898 -0.007970988 -0.0030189634 -0.017171593 0.0022459573 -0.03596601
0.018018732 0.017144943 -0.011874703 0.09318589 0.031936437 -0.09309654 0.011487607 1.0496915e-12
-8.791546e-12 5.3678403e-12 1.5287449e-12 5.6563366e-08 -1.03426503e-10 7.65875e-12 5.5257217e-09 9.163166e-12
-0.012741002 -0.0091909915 0.088688806 0.010056075 -0.015464457 0.1079572 0.02409066 0.010028433
0.026279498 -0.011708956 -0.030393444 -0.048562814 0.033017833 0.029607732 -0.04055673 -0.038607568
0.015651425 -0.068770684 0.032161575 0.030448958 0.1184058 0.005715033 0.036428507 -0.029537862
0.032212555 -0.04908574 0.047114976 3.1471905e-15 -1.4533798e-15 -1.2865086e-13 -1.7754946e-14 -3.3750502e-16
-9.2005213e-14 7.82545e-15 -1.3906971e-15 2.1747601e-14 -0.007126044 0.030698685 -0.032116346 -0.05676244
0.018500643 0.031891134 -0.012434568 -0.0039823763 -0.032357603 -0.02105459 0.051738493 -0.083901964
-0.022220194 -0.007963336 0.00069463917 -0.023600845 0.01805097 0.03840028 0.027197061 0.052123338
0.048221372 0.0062653297 0.008046701 0.05088219 -0.011776696 -0.02749141 -0.041037306 0.023399664
-0.039026458 0.1565872 0.025144272 0.009194689 0.035023164 0.04502753 -0.034329887 0.04874007
-0.0023119666 -0.015465929 -0.026799474 0.001866064 0.048747823 0.00038096317 0.008110515 0.025358872
0.0029343173 0.011586593 -0.06799027 0.04989569 -0.034809723 -0.06674406 0.010820481 -0.056578334
-0.038212724 -0.011928103 0.042691752 0.018843442 0.10445449 -0.05125499 0.06615633 -0.057455134
0.04757358 0.022732163 0.07267614 0.018569335 0.07126369 0.14920568 0.002889807 -0.0013957525
0.17481229 0.0047197156 -0.013309548 0.0049561206 0.020890309 -0.10544049 -0.03223608 0.07439597

encoder_lin.0.bias f4 [64]
00000000: 88bb 64bb d890 c238 ceb8 5c3b 3a24 1721
00000010: d4c3 5cbb 5c14 92bc de38 f8bb ddf7 fbb8
00000020: f7cf 8039 bdfc 2bbc 6b02 d0bb d046 cb3a
00000030: 77a8 ec39 6eb6 0300 4fda e9bb 885f 4fbc
00000040: 19d7 e1bb 0406 b33b 16f7 abbb 4e17 b73c
00000050: ff6c 0600 0aaa 163b aa7b 128a 94f1 8dbc
00000060: 0911 0bbc e163 123b 3660 2ebc 7cce 6abc
00000070: 9cdd c038 9be3 fdb9 bc62 7fbb ba93 333c
00000080: b3ed f33b bb18 89bc d3cc 18bc a2fd a63c
00000090: 7daa 7ebc 791c 09bc 689e 13bc 0ac0 69b7
000000a0: 4737 b63c 8818 e0ba 6f0a a73b da59 6abc
000000b0: 1171 3d3c 54f0 423c 2090 76bc c45b cd3c
000000c0: ef9c 3bbb ccfc 55bb e5c0 01bb 5dfe 31bb
000000d0: 6fb4 e7bb 5a32 babb dcae 52a6 2228 c6bb
000000e0: 70b4 92bc 0734 70b7 d482 413b 197b a8bb
000000f0: 93ec b3bb 65e9 5b3c 8606 0ebc 5638 05bc
-0.0034901816 9.27762e-05 0.0033679488 5.1208735e-19 -0.0033686059 -0.017831974 -0.0075751385 -0.00012014781
0.00024569008 -0.010497269 -0.0063479445 0.0015508775 0.00045138944 3.4095e-40 -0.00713662 -0.012657054
-0.0068920967 0.0054633636 -0.005247961 0.02234998 5.90113e-40 0.0022989535 -7.052903e-33 -0.017327107
-0.008487948 0.0022337364 -0.010643056 -0.014331456 9.1965514e-05 -0.000484255 -0.0038968762 0.010960514
0.0074441074 -0.016735425 -0.009326178 0.020384613 -0.015543577 -0.008368605 -0.009009935 -1.3932595e-05
0.022243155 -0.0017097155 0.0050976793 -0.014303649 0.011562602 0.011898119 -0.0150490105 0.025068171
-0.0028627475 -0.00326519 -0.0019798812 -0.002715967 -0.00707107 -0.005682272 -7.3095365e-16 -0.0060472647
-0.017908305 -1.4317228e-05 0.0029527443 -0.0051416275 -0.0054908483 0.013422345 -0.0086685475 -0.008131107

encoder_lin.2.weight f4 [10, 64]
00000000: 09b5 8dbe cd24 82be 2733 aebe be66 0639
00000010: de04 a43c 38f6 48be f021 00bc 4bc5 f93d
00000020: cac7 f03d 3734 5f3c 181d a63e 7567 203e
00000030: 5c10 08bd 2d41 6bb4 266c 2f3d 4d9d 38be
00000040: 1869 d7be ec86 693d 6cad f23d c1b5 1439
00000050: 1be8 793a 62e0 863d d07f 293b f013 dfbd
00000060: e189 a0be 587d 89bd f411 80bc b2c1 acbd
00000070: 7f6e 833c 156f cb3d 22f1 263e 34da 713d
00000080: 779e 973e f634 3dbe 292d 4fbe bd2e 183d
00000090: a1fb 97be 80df 95be da15 7bbe db3b 9ebd
000000a0: d181 443d 3011 dfbd 5bd5 8f3e a2c3 e6bd
000000b0: 099c 063e 8846 54bd 0ee3 74be 7e11 243e
000000c0: 8c80 cf3c e6ed 8fbb f3b0 30be 58a1 a8bc
000000d0: 6c11 133e 46c1 f2bd 0464 2fb5 3173 c0bd
000000e0: 2dd8 30be 0cdf 5e37 e937 f13c b8fa 2f3e
000000f0: 3ed5 17bd d97b 2f3e 95b3 bcbd e9fd 15be
00000100: a464 843d 61a7 893e a043 82be f9a5 9935
00000110: 0b64 98be 9e37 3e3d 4cf4 06bf fc6b 1a3e
00000120: 1de0 263e 5856 b83e 647f 38bd f4f0 153d
00000130: cf76 5fbc 2c0e 032e 1613 53be ecef 6c3e
00000140: b608 83be 00af 63be a300 793e e3bf 1ebd
00000150: 9147 503b a939 60be 1699 3b3b 25a2 1abe
00000160: 7a2e 11be 804e b7be 2c20 3ebe 995c d73c
00000170: 4c68 0cbe c312 953e 41ef d3bd 2abf 783c
00000180: 2268 44be 48dd 8f3e 62c3 83bd 0927 debd
00000190: d473 d1bc baf8 e2bd b31e 463d bb56 693e
000001a0: 37a6 083d 1f95 68be 7f94 8e3d e05c 53bd
000001b0: 1160 403d b51e 1fbe 8207 763d 089d f23d
000001c0: dfee d73c 051f c7bc 74c7 7dbe 3c47 55be
000001d0: f2da 33bd b878 113d 158f 4ab2 197a b23c
000001e0: 589a 8cbe a6c0 2c36 c30a 3b3e fa6a b7be
000001f0: 22c9 1dbe e437 6a3e afb8 f6bd b464 5bbe
00000200: 198c d93d e946 c8bd 65d1 943e b942 d637
00000210: 95ed 10bf 6eab e8bc 6412 2ebe 102a d4bd
00000220: c22e 9f3d edc9 e1be e4e8 30be 9119 5ebe
00000230: b578 f93c 3eda c0b7 2efc b43c 86e2 8fbe
00000240: 41eb b0be cc2c 9ebc ab11 70be 8586 0e3e
00000250: 8b28 7c3b dfe0 4fbe f87b 1636 6cb3 debd
00000260: 66cc 153e 8323 553d 3de5 a0bd 0797 34bc
00000270: cd74 eebd 8da0 ebbe 3aab 95be 4a7a d43e
00000280: c10e 823e e1bf 0fbe 709f 393e a1fc 6a3d
00000290: d0ee 213e 752b 163e b72f 89bd 9478 a0bd
000002a0: acbd d73d 9f9e f7be e550 99bd 1cc9 23be
000002b0: 76fa 713c 9d43 8d3d 0b93 c93d f245 003e
000002c0: 967e 2dbc a1fb 043e a6b7 1ebd d9f6 c4bd
000002d0: d500 38bb 3e35 523c 0e4d 9d38 5d8d 373e
000002e0: 6a93 10be 245a 6a39 8007 a0bc c26e 053e
000002f0: 5d01 0ebd d4b1 cc3d b267 ed3d de24 c0bd
00000300: 91d6 0d3d 779a 18bd 7866 d43d 05a0 9135
00000310: 6a60 10be 1af9 e2bd 771e 083e 562b 84bd
00000320: 2967 68bd ba61 4bbd bffb 4cbe c5ec ae3e
00000330: db7b 9fbc 6f38 60b5 146d 50bd ea65 0b3e
00000340: e3e7 b43d b105 31be ec3d 573e 01d7 c3bd
00000350: dcea 05bb 0e25 153e fd2c 3e34 5916 1dbd
00000360: 4927 903e d9a3 26bd 5632 5cbd 17a1 8e3d
00000370: 8dc6 4ebe a10f 02be ce06 40be f72c db3c
00000380: f8b1 2c3e 1bfe 46be d26e a2be 8e38 f4bd
00000390: 0067 a03a d917 d4bc aa69 dbbd a448 72bd
000003a0: 1c33 28be 2500 5e3d f154 523e 3214 1d3d
000003b0: 7327 d43d 2aed d13d 99e9 be3d a8d6 b7bd
000003c0: 644a cfbc 6700 c93e dc67 d9bd bce9 02be
000003d0: 9956 923d 9fc2 0e3e cdeb 9a2b e7b6 b6be
000003e0: 3a59 3c3d d276 07b9 64e0 4cbe 1ac7 b83e
000003f0: 1a33 f1bd 2fc8 cbbe 7b05 b4bd 05eb a5be
-0.2767718 -0.25418702 -0.340234 0.0001281751 0.020021852 -0.19625175 -0.007820591 0.12195834
0.11756857 0.013623289 0.32444072 0.15664466 -0.033218727 -2.1909791e-07 0.042827748 -0.18028755
-0.42072368 0.057013437 0.11849484 0.00014182088 0.00095331826 0.065857664 0.0025863536 -0.10892475
-0.31355193 -0.067133605 -0.01563356 -0.08435382 0.0160439 0.099332966 0.16302922 0.059045985
0.29613087 -0.18477234 -0.20232071 0.037153948 -0.29684165 -0.2927208 -0.24520054 -0.0772626
0.047975365 -0.1089195 0.28092465 -0.11267783 0.1314546 -0.051825076 -0.2391474 0.16022298
0.02532985 -0.0043923734 -0.17255001 -0.020584747 0.14362115 -0.1185327 -6.533812e-07 -0.09396971
-0.17269965 1.3284163e-05 0.029445605 0.17185485 -0.037068598 0.17137088 -0.0921394 -0.1464764
0.06464508 0.26885512 -0.2544222 1.1447693e-06 -0.29763827 0.04643976 -0.5271652 0.15080255
0.1629643 0.36003375 -0.045043364 0.036606744 -0.013639166 2.979854e-11 -0.2061275 0.23138398
-0.25592583 -0.22234726 0.24316649 -0.038757216 0.0031780938 -0.21896996 0.0028625182 -0.15100916
-0.14177886 -0.35802078 -0.1856696 0.026289271 -0.13711661 0.29115877 -0.103483684 0.015182296
-0.19180349 0.28098512 -0.06433751 -0.10847289 -0.025567926 -0.11082597 0.04836912 0.22786991
0.03336164 -0.22713135 0.06961917 -0.051602244 0.046966616 -0.15539058 0.060065754 0.118463576
0.02635902 -0.024306783 -0.24783117 -0.20827955 -0.043909974 0.035515517 -1.1790481e-08 0.021786736
-0.27461505 2.5742133e-06 0.18265824 -0.35823804 -0.15408757 0.22872883 -0.12046944 -0.21425134
0.10622425 -0.0977915 0.29066005 2.5541858e-05 -0.5661252 -0.028402057 -0.16999203 -0.10359585
0.0777259 -0.4409937 -0.1727634 -0.2168944 0.030453065 -2.298981e-05 0.022092905 -0.2810251
-0.34554484 -0.01930847 -0.2344424 0.13918503 0.0038476314 -0.20300625 2.24239e-06 -0.10874066
0.14628753 0.05203582 -0.07856224 -0.011022336 -0.11643372 -0.46020928 -0.29232198 0.4149955
0.2540188 -0.1403804 0.18127227 0.057369832 0.15813756 0.14665015 -0.06698554 -0.078354985
0.10534224 -0.48363206 -0.074861325 -0.15994686 0.014769187 0.06897662 0.09842499 0.12526682
-0.0105892625 0.12986614 -0.03874936 -0.09617395 -0.0028076668 0.012830077 7.500696e-05 0.1792502
-0.14118734 0.00022349559 -0.019534826 0.13030532 -0.03466927 0.099948555 0.11592044 -0.09382032
0.034628455 -0.037256684 0.10371107 1.0849914e-06 -0.14099279 -0.110826686 0.13292871 -0.06453578
-0.056739006 -0.049653746 -0.20017909 0.34165016 -0.019468239 -8.3528624e-07 -0.050885275 0.13613096
0.088332914 -0.17287327 0.21019715 -0.09562493 -0.0020434177 0.14564916 1.7711496e-07 -0.03835139
0.28154972 -0.0406836 -0.05375894 0.06964319 -0.20192929 -0.12701274 -0.18752596 0.02675484
0.16864765 -0.19432871 -0.31725174 -0.119248495 0.0012237728 -0.025890278 -0.10713513 -0.059151307
-0.16425747 0.054199357 0.20540215 0.038349338 0.10359087 0.102503136 0.09321899 -0.08976489
-0.025304027 0.3925812 -0.10615513 -0.12784475 0.071454234 0.1394143 1.1007806e-12 -0.35686418
0.04598353 -0.00012918867 -0.20007473 0.36089402 -0.11777325 -0.39801165 -0.08790108 -0.32405868

encoder_lin.2.bias f4 [10]
00000000: 61df f83c 60bc 94bc 96ac 923c 61cd 59bb
00000010: 9992 e83c c838 16bd e36f e1bc b3db 0f3d
00000020: 8f55 0b3c 3cd1 71bc
0.030379953 -0.01815623 0.017904561 -0.0033233988 0.028390216 -0.036675245 -0.027519172 0.03512163
0.0085042855 -0.014759358
