encoder_paramsfold5.pth (torch, 101191 bytes, 10 tensors)

encoder_cnn.0.weight f4 [8, 1, 3, 3]
00000000: 5577 5cbd a22e 9d3d 62e8 b53d fd23 54be
00000010: 6068 c7bd 9de9 f4bb ea66 31bd bbc9 b3bc
00000020: 3536 663b d1c5 65bd 261b 133c 08d9 063e
00000030: b442 45bd 6a8b 06be 3313 29be d9ea 89bd
00000040: d62f 0ebe 3690 4ebe 53a3 333e 457d 173e
00000050: efc8 80bd 3cc9 f2bc ce1d 2cbc b253 9a3d
00000060: 2edd 8a39 152a 37bd a3e2 14bd cc3c 813d
00000070: 9664 253f 7cac f43e 15b1 4c3e e115 413f
00000080: 244c 213f 5e79 953e 8255 f73e e7d8 d43e
00000090: 2916 8d3e 42c8 a93e ab58 8e3e a9f6 1d3e
000000a0: 4f6f 263e 23ed f03d 0b6b f43d 29d6 b03d
000000b0: 2583 f43d cb2a 68bd a33c 983e f329 b43e
000000c0: 7550 5e3e dea6 0d3f 5911 123f c22b aa3e
000000d0: d55d 2e3f c9ef 043f 44b0 8f3e 9605 c63e
000000e0: 25f2 053f 3002 e73e 279d 413f 579d 0d3f
000000f0: a671 953e c0dc 293f 8d2a 473e 0f0a 903e
00000100: 3cee 333f 6072 0d3f 5e2d dd3e 762e 6c3f
00000110: 91ad 193f c9c5 e43e 5897 313f bc28 683e
-0.05382474 0.0767491 0.08882214 -0.20716853 -0.09736705 -0.007474138 -0.043311037 -0.021946779
0.0035127525 -0.056096856 0.008978641 0.13168728 -0.048159316 -0.1313912 -0.1651123 -0.06734247
-0.13885435 -0.201722 0.17542772 0.1479388 -0.06288325 -0.029636972 -0.010505153 0.07535495
0.00026486203 -0.044717867 -0.03634895 0.06310424 0.64606607 0.47787845 0.19989426 0.7542401
0.63006806 0.29194158 0.48307425 0.41571733 0.2755597 0.33160597 0.27802023 0.15426125
0.16253398 0.1176398 0.11934479 0.08634598 0.11939076 -0.056681436 0.29733762 0.35188255
0.2171038 0.55332744 0.5705772 0.3323651 0.68111926 0.51928383 0.28064167 0.38676137
0.5232261 0.45118856 0.7563042 0.55318207 0.2918827 0.6635246 0.19449826 0.28132674
0.7028539 0.5525265 0.43198675 0.92258394 0.60030466 0.44682148 0.6937156 0.22671789

encoder_cnn.0.bias f4 [8]
00000000: 2f3b 9b3e a930 043f 7f4f a63e f38a cbba
00000010: f7e5 983e 15d2 e7ba 1a58 f5ba 7d35 093b
0.3031859 0.5163675 0.32482526 -0.0015529081 0.2986295 -0.0017686511 -0.0018718273 0.0020936423

encoder_cnn.2.weight f4 [16, 8, 3, 3]
00000000: 1032 743d ba10 e839 7288 8e3c 3178 a03a
00000010: 7c9d cdbc 351d c3bb d40d e3bb 7216 3e3d
00000020: 0239 353c a965 b03c 545c 8cbc db98 513d
00000030: 9f5f 19bc 8a68 033d 6761 0c3d 3680 a63d
00000040: 71a0 b93d cc8b a33c e824 1f3d a3ed 203d
00000050: a0d6 c83c e7b8 073c 8252 003d fc02 833b
00000060: 44f1 233d b66d 57bc 40e5 df3b 78a8 8d3d
00000070: f711 063e 2a5d 9b3c a2d6 503e b527 2e3c
00000080: e642 c7bd 2306 72bd 7a05 bbbe 8474 aebd
00000090: 07d8 8d3d ac16 cc3d 7161 6e3d a3af 8a3d
000000a0: 621c 8b3d ecca eabc 6eec 233d a3a5 ccbd
000000b0: 79d8 19bd 2503 6d3d 29d1 063e 2ef9 ddbc
000000c0: e22c 423e 56b2 3dbd a625 8fbd 92f3 f1bd
000000d0: 3c00 b7be 570f b9bd 51d4 223d cc18 173e
000000e0: edeb 0e3d e021 5b3e 45a6 063a 12e2 b4bd
000000f0: 360a b9ba 678d c5be 957d c9bd da49 9b3d
00000100: 89ef 2a3e 1569 f83c e6af 6a3e cad8 323c
00000110: 163c e2bd 3e1b ef3c d979 e1be a525 cfbd
00000120: a5d8 a33d cd5e 313d 0dce 8d3d 2fdb 843d
00000130: 43d9 b43b 381c 0a3d c6dc 883d 43fb 423d
00000140: 75c9 c13c 5e9a a23d 351b 7e3d a1ee dc3d
00000150: 7e6b 4b3d 9a81 0b3d 7865 a03d 4721 db3d
00000160: ba2f cf3d f956 d03d 342c d33d af5c 8c3d
00000170: 2624 233d 5701 663d 7e0e 743d 9566 2d3d
00000180: 307c 393d b990 6b3d 4807 253d 6af0 f73d
00000190: 884b c4bd 6fad 4cbe 67ac 113e d4cd 5b3d
000001a0: 83a1 4bbd 2d07 2abc 8cba c2bd 7810 b8bd
000001b0: 0ee9 143e 075d 2c3d bbbf 22bd e765 9f3d
000001c0: 49c4 b43d bfcd 393c 88b5 513d 35e2 fb3c
000001d0: f676 d7bb bacf b23d 164f 8fbd 4897 21be
000001e0: 8fa2 f43d 4cb9 2c3d 94ad 14bd 6469 d2bc
000001f0: f9a3 eebd a97c c5bd 17eb f63d 39db 49bd
00000200: 2e34 4fbe dfa2 e43d 64d0 b53d 10d4 85bd
00000210: 47a2 18bd bd74 f5bd fc3d 62bd 942e 173e
00000220: ad0d 8dbd 5293 6dbe db64 153e 8937 9f3d
00000230: 579e 8dbd 6498 4ebb b592 00be 25c8 8abd
00000240: 6384 eb3d 92c6 8e3d 906d 883d eeb7 b63d
00000250: 01d8 563d 9f54 b93d 7e85 b63d c25c 183d
00000260: 05a8 873d f7d9 0c3e fe32 ce3d 34bb 8b3d
00000270: 610e 1e3e 0fd5 183e d345 013e e680 233e
00000280: da51 063e 7254 c13d 3a1d d23d b1df de3d
00000290: 7298 d33d 1674 833d 47cb 5f3d 6c85 6c3c
000002a0: 0e5f 863d 46cb b93c 0513 2e3d d06b df3d
000002b0: 3532 833e e1de 8a3e 29af 5abd b13f 08be
000002c0: 6898 ae3c a3b5 5cbe fbd8 7fbe 44bd 89bb
000002d0: 193b 0b3e 1848 483e c609 323e eaa2 6a3d
000002e0: e4c5 bc3c 4f11 873d 5f21 9dbc 42d9 74bd
000002f0: 6dda 953c b257 a43d b012 233e c28f 443e
00000300: 8a88 a9bd 3677 2fbe ba38 f43c f442 29be
00000310: 14e3 51be e25c 513c b051 873d 7401 863e
00000320: c985 863e 1cf1 8cbd 854c 11be 08ed b8bc
00000330: 7e7f 76be 76aa 77be a7f0 3abd c6dc b83d
00000340: ee2d a13e 2c39 933e a388 9cbd 8afc 14be
00000350: d005 efbc b609 8bbe 5764 90be 4502 93bd
00000360: 09ee 073d a8be 603d 7388 233d 3be7 db3c
00000370: edc7 1b3d e17d c23c 7558 6f3d 5d20 403d
00000380: b84d 5bbb 8bf8 913d f30b d63d 6931 c03d
00000390: aabe 813d 2ac2 9c3d e3dd 033d 38ae d33d
000003a0: 0c2d 3b3d 494a 853c 50d6 ae3d 83b9 2e3d
000003b0: b73c cb3c e277 a63d 5968 533c 2519 393c
000003c0: ffed 463d 8a0d 403d 57ff ed3c 0e13 153e
000003d0: cc39 67be 1558 53be 0324 b53c d517 13bd
000003e0: 1d92 cdbd 4487 8abd 9f09 2c3e 081e 0d3e
000003f0: 65d4 133e e60f 96bc ba17 26bd 3119 703d
0.059618056 0.0004426295 0.017399047 0.0012242851 -0.025099508 -0.0059544095 -0.0069291387 0.046408124
0.011060955 0.02153285 -0.01713387 0.051171165 -0.009361177 0.032082118 0.034272578 0.08129923
0.09063805 0.019964121 0.038853556 0.039289128 0.024516404 0.00828383 0.031328686 0.0039981585
0.04002501 -0.013148716 0.0068327487 0.069168985 0.1309279 0.018965323 0.20394376 0.010629584
-0.09729557 -0.059087884 -0.36527616 -0.08518317 0.069259696 0.09965262 0.058198396 0.06771781
0.06792523 -0.028661214 0.0400204 -0.0999253 -0.03755996 0.057864327 0.13165726 -0.027096357
0.18962434 -0.046312653 -0.06989603 -0.118140355 -0.35742366 -0.09036129 0.039753262 0.14755553
0.034892965 0.21399641 0.00051364704 -0.08832182 -0.0014117423 -0.38584444 -0.09838406 0.075824454
0.16692938 0.030323545 0.22918662 0.010915944 -0.11046617 0.029187795 -0.44038275 -0.10114602
0.08000306 0.0433033 0.06924067 0.064871185 0.0055190637 0.033718318 0.06682734 0.047602903
0.023655633 0.079395995 0.062037665 0.10787702 0.04966306 0.034059145 0.07831854 0.106997065
0.10116525 0.10172839 0.103111655 0.068536155 0.039829396 0.05615362 0.059584133 0.042334158
0.04528445 0.057511065 0.040290147 0.12106402 -0.09584719 -0.19988035 0.14225923 0.05366309
-0.049714576 -0.010377687 -0.09508237 -0.08987516 0.14542028 0.042080905 -0.03973363 0.07783108
0.08826501 0.011340558 0.051198512 0.030747512 -0.0065754605 0.08731027 -0.06997506 -0.15780365
0.11945068 0.0421689 -0.03629835 -0.02568502 -0.11652369 -0.09642918 0.120565586 -0.049281333
-0.20234749 0.11163878 0.08877638 -0.06534588 -0.037264135 -0.11985157 -0.055234894 0.14763862
-0.06887374 -0.2320073 0.14589255 0.07774264 -0.069149666 -0.0031523937 -0.12555964 -0.06776456
0.1149986 0.06971468 0.066615224 0.089218006 0.05245209 0.09049343 0.0891218 0.037197836
0.06623844 0.13755022 0.1006832 0.068228155 0.15435173 0.14925025 0.12624292 0.1596714
0.13117161 0.09439935 0.10259481 0.108825095 0.10331811 0.06418626 0.05463722 0.014436107
0.06561099 0.022679936 0.042498607 0.109092355 0.25624242 0.27123168 -0.053389702 -0.13305546
0.021312907 -0.21553664 -0.24985115 -0.0042034704 0.13596763 0.19558752 0.17386541 0.057284273
0.02304358 0.06595098 -0.019180952 -0.059777506 0.01829263 0.08024539 0.15925097 0.19195464
-0.08277996 -0.17135319 0.029812206 -0.16529447 -0.2049678 0.012778493 0.066073775 0.26172984
0.26273945 -0.068819255 -0.14189346 -0.022573963 -0.24072072 -0.2418612 -0.04563966 0.09026484
0.31480354 0.28754556 -0.07643249 -0.14549461 -0.029177576 -0.27155846 -0.28201553 -0.07178167
0.033185992 0.054869324 0.03992505 0.026843658 0.03803246 0.023741664 0.05843397 0.046905864
-0.0033463072 0.07127484 0.10451498 0.09384424 0.063351944 0.07654221 0.03219403 0.10335964
0.045697257 0.016270773 0.085369706 0.042657387 0.024809225 0.081283346 0.012903296 0.011297499
0.048566815 0.04688791 0.02905242 0.1455805 -0.22580642 -0.2063907 0.022111898 -0.0359114
-0.100376345 -0.06764081 0.16800545 0.13780987 0.14436491 -0.018318128 -0.04054997 0.058617774

encoder_cnn.2.bias f4 [16]
00000000: 0864 8d3d bc5e 153e 0c9e 053e 2a9b 0f3e
00000010: 3bac 373e ee47 fcb9 e0ed 1b3e 63fb 9c3d
00000020: 40b7 af3d c5c4 6f3d 60f8 143e 2534 123e
00000030: 4967 5c3d 34fb a3bd 22ab 4abd 5af6 013e
0.06903845 0.1458692 0.13048571 0.14024034 0.17936794 -0.00048118777 0.15227461 0.07665136
0.08579874 0.058537263 0.14547873 0.14277704 0.053809438 -0.080068976 -0.04947961 0.12691632

encoder_cnn.4.weight f4 [32, 16, 3, 3]
00000000: 5060 533d 53ad 4f3d d793 7abd e08c e93c
00000010: cc1a a4bd 43da d73d 1c7a 4bbd 381a 17bd
00000020: 23c5 4bbc a5cb b73d a05d fb3c 7c98 9fbc
00000030: 432c 98bd 7fb6 f3bb 0909 9b3b 42e7 70bd
00000040: d6e8 fdbc ce88 793b bac6 2dbc 1928 363d
00000050: 2b1f bbbd a6e0 403c 944d 1bbd 0ccd 683d
00000060: 427a b8bc d8e1 e33d e1f9 13bd 7519 b03d
00000070: eb8d ccbb 1c16 903d 5aaf 0f3d b391 91bc
00000080: 1e61 47bd 9268 67bd 3665 7fbc 1564 cb3c
00000090: 4481 d83b 71d1 bf3c b50d 843d 57d6 953d
000000a0: ea36 f8bc b3aa 6ebd 1ccb 86bb 8f51 943b
000000b0: 7278 a13c 2f99 1f3d 2a00 f03c 8d72 37bd
000000c0: f16e 32be 8446 c73c 4dca a43d 5c80 3e3d
000000d0: e236 6bbd 2537 33bd 5467 383d 674b 473c
000000e0: 4616 8c3d b1a7 123d 87b5 64bc e771 7abd
000000f0: b178 f8bc 301c e3bc 9226 2b3d 4db8 62bd
00000100: 29e6 60bd f8d1 04be ffc9 0bbe 966c 533d
00000110: 671c b33d 1b40 a03d f824 8fbd 30fb 18be
00000120: b188 f83d b5ba 023d a096 10bd c9dd c9bd
00000130: 3eed 90bc 57ad a73c 2688 b2bc b79f 8c3c
00000140: 82d5 c1bc 41ea 17bc a2b4 e73c 03b5 023d
00000150: 5939 7f3b 8b3b e5bd 079c 29bd 988c dc3d
00000160: cd58 8f3d 9b5a 64bc da92 3c3c 6a7d 423d
00000170: ed14 b9bb 5d19 9dbc 28f2 eebc dcd1 09bd
00000180: 9c03 cf3d cde0 0a3e 809b 7fbc 8d96 62bd
00000190: dfc8 d83c feac 813d ed7e 9d3d aa25 3e3c
000001a0: c374 ffbc f9d6 063e aec0 4d3c 8a3b 003d
000001b0: ea9f 10be 6c95 5ebe 5060 503c 216e e13a
000001c0: 9217 153d 807c 9bbb 031a cb3d 4d92 cdbd
000001d0: 297a 05be 465a 96bd 5579 37be 2434 8bbc
000001e0: f482 3dbb 400b 313d 213f 11bc 1eb9 b43c
000001f0: dcf7 04be 0d14 d9bd 4f4f 19be 8cb8 3cbd
00000200: 1a9e 41bc 9b53 a43c c54a 6dbc da38 273d
00000210: 950a 3c3e 486e b13c 423f c5bd ca89 fd3d
00000220: df1e 0d3d 803f 11bd d386 a6bd 44b7 37bd
00000230: 769d 9c3c b26c 18ba 489d 9f3c 050d 86bc
00000240: b78c 0b3e e63b a63d 9b8f fa3d 857f aa3c
00000250: 0b2c ad3a 4833 913d 8753 acbd 078f 4abd
00000260: 8c06 f73c 5e7f f73b c5c5 0b3d 31ab 0b3d
00000270: fbb1 2d3d f06e f63c c77a c73d b27c 7f3d
00000280: 8b99 97bc 507d b23d ea35 193e d8b1 bf3d
00000290: 49b2 0e3e ddcf c13d 7dd6 623d 1ac5 803c
000002a0: 966f 6ebd d593 d63b 8da9 24bd 7916 46bd
000002b0: 6440 1bbd 3359 4b3d e062 4b3d d7d8 4c3b
000002c0: eb5d fcbb c3b0 103d 3ea6 933c 409f 9d3d
000002d0: ffef 32b9 afda 3d3c 652d 503d 6783 783d
000002e0: b3db 293c 5062 db39 d059 ed3c 2fc9 d13c
000002f0: 2695 953d 9105 56bd 0e81 d4bc 3c0c 843d
00000300: 2685 89bc df81 3fbc 5c06 ef3d 9495 49bc
00000310: bdab 09bd a2e6 a83d a6b0 07bd 511f 903d
00000320: 279a 9a3d 55dc 4d3d 37ce ca3d 18b3 8f3c
00000330: e3f6 bdbc 08de 033e 23f3 de3d f08c 283d
00000340: 0ae4 fb3c b37c 8cbb da6d 47be 849c 0abe
00000350: 9b8b 943b 8b47 9f3c b1c7 42be 2390 b7bc
00000360: d5a7 febc 7dd3 0d3c 6a99 a33d 77d8 cb3d
00000370: dae9 af3c 59bb 083e 6b6d 033e 3a73 debb
00000380: 9a3d 083e aa0f 843c e40b b73d 6128 ee3d
00000390: 6b8b dd3d 6e63 6f3d 0225 803c 9651 1dbd
000003a0: 9681 b53d c161 0d3e 68bc fe3d c90e b93d
000003b0: 056c d43d 5edc 9b3d a522 4e3c 6133 313b
000003c0: 6772 f93c 51b5 913c 3319 3c3d 1bed 3c3d
000003d0: 4c4f 2b3d 1adc 973d b1d1 0a3e 2abe 753d
000003e0: 05c8 d93c b3f0 cbbc 765f 8e3d ecf2 1e3e
000003f0: 2645 a0bd 28de 95bd 0542 0dbe db26 3fbe
0.051605523 0.050702404 -0.061176147 0.028509557 -0.080129236 0.10539677 -0.049677 -0.03689024
-0.012437138 0.08974389 0.030684292 -0.01948189 -0.07430317 -0.0074375267 0.0047313017 -0.058814295
-0.030994814 0.0038075927 -0.010606462 0.044471834 -0.09136804 0.01177231 -0.03791578 0.056836173
-0.022519235 0.11127061 -0.036126975 0.085986055 -0.006242504 0.07035467 0.035079338 -0.01776967
-0.048676603 -0.05649621 -0.015588095 0.024827996 0.0066072065 0.0234153 0.06447927 0.07316273
-0.030299623 -0.05826826 -0.004113568 0.004526324 0.019710753 0.038964447 0.029296953 -0.04478698
-0.17425133 0.024325617 0.08046398 0.04650913 -0.057425387 -0.04375376 0.045020416 0.012163973
0.06840186 0.035804454 -0.013959295 -0.061143782 -0.030330988 -0.027723402 0.04178483 -0.055351544
-0.054906998 -0.12970722 -0.13651274 0.051617227 0.08745652 0.07824727 -0.06989473 -0.1493957
0.12135447 0.03191634 -0.035299897 -0.09856755 -0.01769125 0.020468397 -0.021793436 0.017166002
-0.023661379 -0.009272159 0.028284375 0.031910907 0.0038944094 -0.111929975 -0.041408565 0.10769004
0.06999359 -0.013937618 0.0115096215 0.047482885 -0.0056482465 -0.019177133 -0.029168203 -0.033647403
0.1010811 0.13562317 -0.015601039 -0.055319358 0.02646297 0.06331824 0.07690225 0.0116056595
-0.031183606 0.13167943 0.012558145 0.03130678 -0.14123502 -0.21736687 0.012718275 0.0017198959
0.03639943 -0.004745066 0.09917071 -0.1003767 -0.13034882 -0.07341437 -0.17917378 -0.016992636
-0.0028917165 0.04322362 -0.008865149 0.022060927 -0.12985176 -0.105995275 -0.1497166 -0.046074435
-0.0118174795 0.020059397 -0.0144831585 0.040825702 0.18363412 0.021659032 -0.09631206 0.12379797
0.03445327 -0.03546095 -0.081311844 -0.04485251 0.019118052 -0.00058145367 0.019484177 -0.01636363
0.13627897 0.081168935 0.12234422 0.02081276 0.0013211978 0.07089859 -0.08414369 -0.049452808
0.030154489 0.007553025 0.034124155 0.034098808 0.042406064 0.030082196 0.09740215 0.062374778
-0.018505832 0.08715308 0.14961973 0.09360093 0.13935198 0.09463475 0.055380333 0.015718985
-0.058211885 0.0065483847 -0.04020076 -0.048361275 -0.037903205 0.049645614 0.04965484 0.0031257176
-0.0077016256 0.035324823 0.018023606 0.0769639 -0.00017064808 0.011587783 0.05082454 0.06067219
0.010367322 0.00041844184 0.02897349 0.025608627 0.073038384 -0.052251402 -0.025940444 0.06447646
-0.016787123 -0.0116886785 0.11671135 -0.012303729 -0.033611048 0.08247115 -0.03312745 0.07037223
0.075489335 0.050258953 0.099026136 0.017541453 -0.023189014 0.12877667 0.108862184 0.041150033
0.030748386 -0.0042873262 -0.19475499 -0.13536268 0.004533244 0.019443294 -0.19021489 -0.022407597
-0.031085888 0.00865638 0.07988246 0.09953397 0.021473814 0.13352717 0.12834708 -0.0067886384
0.13304749 0.01612075 0.08937815 0.116287954 0.108176075 0.058444433 0.015642647 -0.038407885
0.08862607 0.13806821 0.124382794 0.09036023 0.103721656 0.07610391 0.012581502 0.002703868
0.03045006 0.017786654 0.04592247 0.04612456 0.04182367 0.07415028 0.13556553 0.059995808
0.026584635 -0.024895048 0.069518015 0.15522355 -0.07825689 -0.073177636 -0.13794716 -0.18667166

encoder_cnn.4.bias f4 [32]
00000000: d194 403b 88e3 2e3d 1f62 9fb8 c388 f03c
00000010: 8f32 8bba 3319 db3c 0cd4 9e3d a3ce a1bc
00000020: 1f29 1e3d 2e62 c53d 6a74 fabb e7d8 ddbb
00000030: 5ba8 073d e1ed 04bb 1627 e83c ab86 a79a
00000040: 2503 0dbc 51b1 a93d 0956 e63c f2d4 8a39
00000050: cc23 0e3d 4793 193d f714 a0bc 37ad 313d
00000060: 5d71 c83c 1e16 263b c21d 2a3d 1750 a43c
00000070: 6198 23ba 2d4c 643d 5171 61bc 351e bbbb
0.0029385576 0.04269746 -7.599987e-05 0.029362088 -0.0010619926 0.026745414 0.077552885 -0.019751852
0.038613435 0.09637867 -0.007643272 -0.0067702415 0.03311954 -0.0020283388 0.02833895 -6.928715e-23
-0.008606707 0.082857735 0.028117197 0.00026480068 0.034702107 0.03749397 -0.019541247 0.04337808
0.024468118 0.0025342773 0.041532286 0.020057721 -0.0006240663 0.05573671 -0.013759927 -0.005710388

encoder_lin.0.weight f4 [64, 288]
00000000: b60e 763c 8c35 78bc 1ded 97bc cb44 dbb9
00000010: c826 63bb 73b2 96bc c275 61bb ee72 e2bb
00000020: 6386 a43d cc84 dfbb aa5a cebc 547f 963c
00000030: c66d 8cbc 3316 1ebc 1525 03bd 64cc 9b3c
00000040: 73a4 93bd d5ef 9e39 4cb0 e8a2 7abc 4034
00000050: 469e 6a38 85a3 0d35 4fe2 d43a 50b9 9d3a
00000060: d15d 7534 3663 373a ddb9 d03a 75c3 ce3c
00000070: 0b9a d4bb 6737 03b8 358a 75bb e5e9 acb9
00000080: 151a a63b 4745 473c 5d21 4d3d 1f6c 5f3b
00000090: 4bdb b038 c109 4d3b 047c 653b a800 f138
000000a0: 71a2 ab3b 0bc8 e83b 97df c138 4d56 393b
000000b0: 5985 b33b ab50 3e3c 029c 2cbc e1ff c93b
000000c0: e364 073c 16e3 8cbb 9228 d33b 81cd 43bc
000000d0: 0d0c a93c 8ec6 c5bc 1afe 5c3d 6ff7 273d
000000e0: 7bf6 bc3c 13d0 483d 5087 203c 97e5 b4ba
000000f0: 1a77 8b3c a9c0 e3bc daa7 253d 8691 51bc
00000100: 4111 293c 5448 913c 67dd 0b3d 4b21 4e3d
00000110: c16a b13c ef7e 823c d107 99bc 6315 ba3c
00000120: e04d e0bc b483 38bc 7c89 34bc 15e8 4dbb
00000130: 4aef adbc 24cb c23c 26f2 803c f865 cebc
00000140: d778 383d 99d4 3a3d 6af5 83bc 6205 6ebb
00000150: 3a6a 183d 8363 63bc e314 23bc 77ba 0cbc
00000160: dba9 253d ea71 a23b 2c64 4a3c 6a21 0bbc
00000170: 0b31 ab3c 1687 8d3b a5f0 3c3d f380 443d
00000180: 25a1 df3c bd6c ee3c 9b78 9dbc f062 403c
00000190: 02d3 90bc dd3d 8c3b b36b 61bc f477 45bc
000001a0: a97d 1ebb 03f5 ae3a 9a75 4fbc edad acbc
000001b0: 597a 353c 7850 bbbb 8b8f 05bc 88cf f83b
000001c0: 1241 7c3c 33b5 2dbb 6881 c739 86f7 11bc
000001d0: 6961 b23c 9d70 8239 45ab 02bb 04d5 87bb
000001e0: f608 f3b6 43fc 483c 789b 1bbb 7a54 2b37
000001f0: 0fba d0bb 997e dbbc 258a bb3c 470a e6bb
00000200: b45a fa3b d615 fd3b ecf8 17bc 4ca1 9ebc
00000210: 7d83 19bc caa6 443c a7df 913c 40cf ab18
00000220: ac00 c433 378d 8c31 6f40 cda0 c2f2 9037
00000230: 242b ee35 b21c f72d 2866 2038 5fcb f731
00000240: da6b 8e3c 5b4f 4f3c b3aa 3e3c 9307 d13b
00000250: f468 a93b 59f3 02bc f6d9 ba3b 6393 843c
00000260: 060f 4e3c 22d6 2e3d 3f52 cabc eb95 403c
00000270: da0b 8a3c ce20 3ebd affe d4bc bc92 84bb
00000280: fd17 093c adf0 113d 676d cbbc 21fe 893c
00000290: a1c2 b8bc 0341 333c ea1e e9bc 58be 09ba
000002a0: 29c2 563a 6b99 05bc ce4c c13c 7c62 2d3b
000002b0: 5502 3f3b 960c ea3b d107 843c 57d8 3b3d
000002c0: 1790 fc3c 2360 5abb bd4d 803d 584d 463c
000002d0: af00 a33c 1db8 31ba 3924 7a3b 77bc c53c
000002e0: 20f1 24bc 246f ffbb 0d4b 01bc 47bf adbc
000002f0: e03f 0abb 2048 c53c 37e8 1d3c cf23 b0bb
00000300: 8a5a 6f3c 5e7b ec3b b7c6 313d a01a 6cbb
00000310: 332e 613d 6a3e 45bb 2899 ddbc 870f 99bb
00000320: 6d78 683c 565c 6c3c f8bf e03b 9294 74bc
00000330: 584e 0d3c c914 6b3c 2169 fcbb f5ce ffb9
00000340: db0a 90ba 29fb c5ba b6a2 ebbb 1b1d 18bd
00000350: a926 a03a 6b37 273a 826d 133c 1400 c73c
00000360: 732d 3e3c d6e6 883c 3ec0 543a fd3e 9a3b
00000370: 365d 41bc b926 e4bc 5864 aebb 653d bf3b
00000380: a9e9 caba 1338 19bc 6244 0cbd 3630 293a
00000390: fae4 aebc 3d2b 5abd a70d d33c 18f7 003c
000003a0: 106a d6bb 6b04 2f3d 9016 0c3c 2f2a 343d
000003b0: bbd4 1c3d 72be 033d cef6 bbbc 40dd c43c
000003c0: 3db1 33bc cf00 d73a 9ff7 973b 28cb 613c
000003d0: f796 22bc 3ab1 3bbc a0ac 903c ba60 4ebc
000003e0: 470e d03c 144a a73b ed98 113b a2ae 4e3d
000003f0: efc5 91b7 7f3e 75ba 5462 0aba d7bb 94b8
0.015018156 -0.015149485 -0.018545682 -0.0004182219 -0.0034660567 -0.018395638 -0.0034402465 -0.0069106733
0.08033445 -0.0068212505 -0.025189716 0.018371262 -0.017142188 -0.009648847 -0.032017786 0.01901836
-0.072091006 0.00030314797 -6.3070388e-18 1.7949961e-07 5.593735e-05 5.2764545e-07 0.0016241762 0.0012033377
2.2851533e-07 0.00069956796 0.0015924532 0.025239686 -0.00648809 -3.128443e-05 -0.003746641 -0.00032980661
0.005069027 0.012162513 0.050080646 0.0034091545 8.4331805e-05 0.0031286331 0.0035016546 0.00011491898
0.0052378704 0.007103925 9.244604e-05 0.00282802 0.0054785428 0.011615912 -0.010535242 0.0061645363
0.008263799 -0.0042995317 0.0064440453 -0.011950851 0.02063563 -0.02414253 0.053953268 0.041007455
0.02306675 0.04902656 0.009797886 -0.0013801333 0.017024565 -0.027801828 0.04044328 -0.012791043
0.010319055 0.017734684 0.034146693 0.05032472 0.02165735 0.015929667 -0.018680485 0.022715276
-0.027380884 -0.011261869 -0.011019107 -0.003141885 -0.021232266 0.023778506 0.015740465 -0.025195107
0.045037117 0.045612905 -0.016108233 -0.0036319126 0.03721068 -0.013878706 -0.00995371 -0.008589379
0.04044519 0.0049574273 0.012352984 -0.008491853 0.020897409 0.004319082 0.046127934 0.047974538
0.02729852 0.029104585 -0.019222548 0.011742339 -0.017678741 0.0042798356 -0.013758588 -0.012052525
-0.0024183786 0.0013348166 -0.012662316 -0.021079028 0.011076533 -0.0057163797 -0.008151899 0.007593099
0.015396373 -0.0026505708 0.00038052653 -0.008909112 0.021774964 0.00024879436 -0.001993851 -0.0041452665
-7.2430075e-06 0.012267175 -0.002374379 1.0212063e-05 -0.006369836 -0.026793765 0.02289302 -0.007020268
0.007640207 0.0077235503 -0.009275656 -0.019364022 -0.009369728 0.012002656 0.017806841 4.4411733e-24
9.1270834e-08 4.0905905e-09 -3.477099e-19 1.727918e-05 1.7744937e-06 2.8093392e-11 3.8242113e-05 7.2117667e-09
0.017385412 0.012653197 0.011637378 0.0063790767 0.005169982 -0.007992589 0.0057022525 0.01618356
0.012576824 0.04268468 -0.024697421 0.011754493 0.016851354 -0.046418004 -0.026000349 -0.0040458124
0.008367536 0.035629917 -0.02483244 0.01684481 -0.022553744 0.010940793 -0.028457124 -0.00052544987
0.0008192384 -0.0081542535 0.023596194 0.0026456406 0.0029145677 0.0071426136 0.016117008 0.045860615
0.030830426 -0.0033321462 0.062648274 0.012103401 0.019897787 -0.0006779449 0.0038168563 0.024137719
-0.010067254 -0.0077952314 -0.007891429 -0.021209372 -0.0021095201 0.024082243 0.009637884 -0.0053753625
0.014608989 0.007216855 0.0434024 -0.0036026612 0.0549757 -0.0030097016 -0.02705057 -0.0046710405
0.014188868 0.0144263115 0.006858822 -0.014928 0.008624636 0.014348217 -0.007702962 -0.00048791585
-0.0010989563 -0.0015104759 -0.0071910275 -0.037137132 0.0012218553 0.00063788024 0.008998277 0.02429203
0.011607516 0.016711634 0.00081158045 0.004707216 -0.011802008 -0.027850496 -0.0053220205 0.005836176
-0.0015481013 -0.009351748 -0.034244902 0.00064540224 -0.021349419 -0.05326389 0.025763346 0.007871412
-0.0065434054 0.042728823 0.008550301 0.043985542 0.038288813 0.032164045 -0.022944834 0.024031281
-0.01096755 0.0016403439 0.004637673 0.013781346 -0.009923688 -0.011455828 0.017660439 -0.012596304
0.025397433 0.0051052663 0.0022216395 0.05045951 -1.7377517e-05 -0.0009355321 -0.0005278934 -7.092178e-05

encoder_lin.0.bias f4 [64]
00000000: fe55 8b3b 1c72 6fbc 2375 58bb 6e09 113b
00000010: f5b9 a32c b781 933b 30b8 0abb 7b99 6cbc
00000020: 6c07 403c b70a 29bb 7c55 003c 37e6 373b
00000030: d2ab 0700 a1b8 d4ba 0cbe 713d 4b1c 943d
00000040: 2b93 0580 66f0 ebbb ddcf de3c 1423 0700
00000050: 2541 f43c 92b5 15bd 5ffe d63c bd42 81bc
00000060: 9d82 14ba a1e2 273c 585d 0980 379d 42bc
00000070: 9bc2 eaba 5c42 333c ca50 0380 b1de af3c
00000080: 267e c93c 004b 413d 8ba5 d3bb 0b65 353b
00000090: be3c a88e a0ee 1e3c b689 6fbb 760e d73c
000000a0: a73a 87bc c5c3 98bb 820e e7bb ba9d 5ebc
000000b0: def3 a53c 0cea f93b bc40 0180 ed9c 13bd
000000c0: 8e9e b72d e33e 943b b7ba 883d b06c 1d3d
000000d0: 2b8b e7b9 78fb a23b 4815 b93d fce9 87ad
000000e0: b5f8 803d 5dc1 313d c0ee b53b f8db d5bc
000000f0: 3c88 02bc 3a60 0c3d 6630 f4ba 9bf7 752b
0.0042521944 -0.014614608 -0.0033028803 0.0022130865 4.653384e-12 0.004501547 -0.0021166913 -0.0144408895
0.0117205195 -0.002579374 0.007832881 0.0028060803 7.04486e-40 -0.001622934 0.059019133 0.07231959
-5.11971e-40 -0.0072002886 0.027198726 6.55432e-40 0.02981622 -0.036550112 0.02624434 -0.015778894
-0.0005665215 0.010246904 -8.60005e-40 -0.011878303 -0.001791078 0.010941114 -3.04488e-40 0.021468492
0.024596285 0.047190666 -0.0064589432 0.0027678635 -4.147369e-30 0.009700447 -0.0036550588 0.026252013
-0.01650746 -0.0046620094 -0.00705129 -0.01358741 0.020257886 0.0076267775 -1.15058e-40 -0.036038328
2.0875104e-11 0.0045240982 0.06676238 0.03843373 -0.00044163442 0.004973825 0.09037262 -1.5451633e-11
0.06297437 0.043397296 0.005552143 -0.026105866 -0.007967051 0.034271456 -0.0018630147 8.7385107e-13

encoder_lin.2.weight f4 [2, 64]
00000000: ba34 26be ab2d 163f ba4b 50bf e133 64bf
00000010: 1b81 de3c e3c5 c1be 2d5a aabe 140c cbbe
00000020: 0c09 953d d492 05bf c855 73bd 7f96 98bd
00000030: bbdd 023a 074d 3a3e e247 97bd 77ad 1dbe
00000040: a905 cfbb 2743 67be 8057 e3be 6424 ec3a
00000050: e443 e4bd 1f87 c63e 7689 ff3c 5e03 b2bd
00000060: d3e9 4b3c a09c 0abf 118b 0400 b0ec 9ebe
00000070: c6a3 633e 2893 65be 4e9a 343c 1f3e ee3d
00000080: 9912 ccbe 2542 13be d420 b43d b6a2 90be
00000090: 4288 9a3a 8a54 1d3f a89b bd3d bbe1 cdbe
000000a0: 9b38 86bf 4eb1 77bf 3038 65be 58d9 5b3d
000000b0: dfee dc3d 668a 14bf 1ca1 0c3a fcc9 003e
000000c0: 9991 f2bc b365 08be 9377 a4bd 7ba8 4abe
000000d0: 2100 3d38 fc9f c2be 14ec f7bd 8f18 2d30
000000e0: fd01 fabd 589b 35bd aa17 a2be 2918 05be
000000f0: f645 2bbe d142 06be d692 b6be 3a83 a7bc
00000100: ddc8 0e3e b2b2 3e3f ccb4 07bf 97d3 e0be
00000110: 3861 92bc 8e23 a0be e33a 613e 4460 8fbe
00000120: c68c babd 8774 843d 7ac5 85be 70f2 99be
00000130: e174 7e39 012b 963d c48c 1cbd 846f a43c
00000140: 6638 e6ba aa28 39bf 5aa5 003f b9d6 143a
00000150: 5241 12be 8868 37bf a2df 45be f40b 63bf
00000160: d83c ff3b 8e3c 35be 0435 0580 cb57 253f
00000170: 821e 2ebe 9912 7c3e 60f3 5c3c 6187 9abe
00000180: 218b c63e c278 0abe 560e a5bd d2de 28be
00000190: 6a49 573c 4df0 2bbf d33e bcbd 5149 2fbe
000001a0: 58d3 92be 746f c83d f3d8 8d3e d3e5 5ebf
000001b0: ab75 73be c717 3e3e a2cd 87b9 f336 1a3d
000001c0: 9636 cabc 7630 d03d 682b aebd d36c ecbd
000001d0: b4be 63ba ba96 543e 84fa 51bd 3824 d3ad
000001e0: de2a 99bd 64b1 23bd 5c6d b5bd cf50 093f
000001f0: 5be1 583e 9d2e 34be bc03 cbbd 2458 4b3b
-0.16231051 0.58663434 -0.8136555 -0.8914166 0.027161172 -0.37846288 -0.33271924 -0.39657652
0.07277116 -0.52177167 -0.05940798 -0.0745058 0.0004992147 0.18193446 -0.073867574 -0.15398203
-0.0063178134 -0.2258421 -0.44402695 0.0018016216 -0.111457616 0.38774964 0.031193476 -0.086920485
0.012445885 -0.5414524 4.1723e-40 -0.31039953 0.22230443 -0.22419417 0.011023117 0.116329424
-0.3985794 -0.14380701 0.08795324 -0.2824914 0.0011789876 0.6145712 0.09258205 -0.4021128
-1.0486025 -0.9675492 -0.22384715 0.053674072 0.107877485 -0.5802368 0.00053645833 0.12577051
-0.029610442 -0.13320045 -0.080306195 -0.19790833 4.506123e-05 -0.38012683 -0.12105575 6.2971933e-10
-0.122074105 -0.0443376 -0.3165868 -0.12997498 -0.16725907 -0.13111426 -0.35658902 -0.020448316
0.13943811 0.7449142 -0.5301025 -0.4391143 -0.017868623 -0.31277126 0.2199512 -0.28003132
-0.09108882 0.06467538 -0.26127225 -0.30067778 0.00024266868 0.07332421 -0.038220182 0.020072706
-0.0017564415 -0.72327673 0.50252306 0.0005677748 -0.1428273 -0.7164388 -0.1932359 -0.88690114
0.0077892356 -0.17698881 -4.78196e-40 0.64587086 -0.17003825 0.2461647 0.0134857595 -0.3018141
0.38778022 -0.13522628 -0.08059375 -0.16491249 0.013140062 -0.67163545 -0.0919167 -0.17117812
-0.28676867 0.09786883 0.27704582 -0.87069434 -0.23775356 0.18563758 -0.00025902415 0.03765006
-0.024684232 0.10165493 -0.08504373 -0.11544194 -0.000868778 0.20760623 -0.0512643 -2.4004007e-11
-0.074788794 -0.039964095 -0.08858749 0.5363893 0.21179716 -0.17595907 -0.09912822 0.0031027878

encoder_lin.2.bias f4 [2]
00000000: ee5f 71bc 5bd9 5cbd
-0.014732344 -0.053918224
