encoder_paramsfold0.pth (torch, 101191 bytes, 10 tensors)

encoder_cnn.0.weight f4 [8, 1, 3, 3]
00000000: ab86 cabd 8340 483c e631 0dbe e292 cdbd
00000010: ed84 35bd dbe6 c8bd bcd6 48bd 26e5 bcbc
00000020: db5a b3bd abe2 293d 96cd 91bd 92d4 abbd
00000030: 005f 13be ff3c 31be 0dcd 33be 7e4f a13b
00000040: d1bf 2bbd 431e e9bc 3640 1ebe 21f7 a8bd
00000050: 7b11 1d3e a666 2c3e a705 e63d 7923 c23e
00000060: c536 023e 7946 8e3e 9584 ce3e 73d8 16be
00000070: 5b05 8f3d 2bf5 ad3c e0cb e0bd 0d5a 11bd
00000080: f0d6 53be 16c8 63be 9399 75be d8ce abbe
00000090: 503f ac3e cdc8 003f 4dab 623e 3a4e b83e
000000a0: ddd4 103e 0680 1dbe 5d11 b53d f029 52be
000000b0: d072 dcbe 0ece 523d a6a5 1b3f 1cb7 263f
000000c0: b17a da3e 5662 5a3f f17d 4f3f d6f3 273f
000000d0: 14fa 523f f423 093f 80de 633e 2f9d 07be
000000e0: 5323 73be 518f ee3d 61a8 bfbd e2cb 39be
000000f0: 3c7f 343e adee 96bd 24b5 a9bd d82e d83e
00000100: 7a71 473f c589 0e3f f4a8 253f e52d 6e3f
00000110: 36cd 333f af05 1f3f 08eb fe3e 6029 a23e
-0.09888967 0.012222412 -0.13788566 -0.10037781 -0.04431622 -0.09809657 -0.04903291 -0.023058485
-0.08757564 0.041475933 -0.071192905 -0.08390154 -0.14391708 -0.17308424 -0.1755869 0.0049228063
-0.041930977 -0.028456813 -0.15454182 -0.08250261 0.153387 0.16836032 0.11231547 0.37917688
0.12716205 0.2778814 0.40335527 -0.14731006 0.06983443 0.02123507 -0.10976386 -0.03548627
-0.20687461 -0.22244295 -0.23984365 -0.33556247 0.33642054 0.503064 0.22135659 0.35997182
0.14143701 -0.15380868 0.088412024 -0.2052381 -0.43056345 0.05146604 0.60799634 0.6512315
0.4267173 0.853063 0.81051546 0.6560644 0.8241284 0.53570485 0.22252846 -0.13243555
-0.23743944 0.11648429 -0.093582876 -0.18144181 0.17626661 -0.073697425 -0.08286503 0.4222324
0.77907526 0.5567897 0.64710927 0.9303878 0.70235 0.6211805 0.4978869 0.31672192

encoder_cnn.0.bias f4 [8]
00000000: 40d0 a33e c741 ed3e 8ea3 e73e bafd 063f
00000010: 08dd 9b3e 88c5 1fbb d0ae 7c3e 5f52 033b
0.3199482 0.46339247 0.4524197 0.52730906 0.3044207 -0.0024379212 0.2467606 0.002003811

encoder_cnn.2.weight f4 [16, 8, 3, 3]
00000000: 4b1b 422b 56d8 952d f377 2aad 970e 36af
00000010: e6d0 afb3 c03c 4db2 9649 68af e7e8 b2b3
00000020: f725 86b2 02dc 6cb4 363c 2fb6 718f 41b5
00000030: 04f3 21b6 b8a0 90b7 d0c9 3ab7 5406 3db6
00000040: 9819 aeb7 f658 4fb7 7c08 a0b5 e7af 13b8
00000050: 4f53 f2b8 90a9 2ab7 2c85 dcb8 19ee 4db9
00000060: b8f4 04b7 16e8 c0b8 a248 4db9 d3a1 96b5
00000070: 1011 27b7 3a2f 1eb6 235c 18b7 fe02 53b8
00000080: 89cb f7b7 35a3 29b7 e18b 4fb8 e7c8 d7b7
00000090: 6c1e 172b 8733 95b3 7c31 5bb5 5767 cdb0
000000a0: 6188 c3b4 bef4 e3b5 5b42 0ab2 eea4 11b4
000000b0: 3f26 1eb6 9381 18ac 96b2 a3b5 cefe 36b9
000000c0: 33e9 c9ac 0789 ddb5 37f5 c2b8 8fdb 1d2c
000000d0: ddd0 6ab3 c6a8 c7b8 501a 892c aac0 9eab
000000e0: 4865 d32b 959b a22c eafe 2fad c88a 54ad
000000f0: 6a1d c52c 3784 b72d e1d1 47ad 1bf7 83ac
00000100: fef4 90b5 e01e 19b9 ccd6 89ab bade 64b5
00000110: 0d00 a7b8 5307 712c b33f 91b2 6eb2 9db8
00000120: 0086 c33d edc1 ee3d efe2 163d a7f1 953d
00000130: 277c de3d 3bf2 c8bc 943b 013e be6d f13d
00000140: e82e 4a3b c752 183e a7ec c83d 838a 4f3d
00000150: bb34 0f3e 3d1d 263e 33de 163d 8eed 203e
00000160: 80ae 0c3e 8113 373d f65c 053e fe24 d83d
00000170: 3214 553e 0c77 d43d d011 8bbd d848 5c3e
00000180: c7d0 333c f183 e9bc d55e 933e aab6 0a3e
00000190: b060 1e3e ea1d c33c c73f 493e 14a0 4d3e
000001a0: 3856 5f3d d5cc 653e 4e84 263e 379c 27bc
000001b0: ea19 ef3d a847 943d ede2 8c3d 65b7 853d
000001c0: c809 033e ebb8 63bd 4d87 c33d fbc7 283d
000001d0: aacd f0bc 3da3 b9bd ab8b f2bb 772a 013e
000001e0: 3f57 0bbe aa52 b2be 6005 9a3d 274b 9ebe
000001f0: dc50 ddbe cfc9 a43e bb18 233e 1e3d a83d
00000200: a790 6d3d 3045 d83d 6739 9d3d ad7b 103c
00000210: b13d c63d e1f6 b53d b458 ccbc 150a 93bd
00000220: aa23 3cbd 04a6 153e 1330 e9bd a04b b5be
00000230: 506d 363d b840 7dbe 36ae e3be 0a92 443e
00000240: 520a b03d 36ca 873d 3248 843d 3850 db3d
00000250: 2ab0 d63d 513b 1d3e 71f0 053d 0e0f 523d
00000260: 0681 a33d 35dd 353e f60d fb3d 946f 9f3d
00000270: 9fd5 133e 0cf5 f23d 694f 053e 6396 a73d
00000280: 098c 993d ba44 dd3d 2f9b 173d 5c87 823c
00000290: c558 d5bc 1ea8 cd3c fe52 a03d 1efc a3bd
000002a0: e79d 3f3e 8ac5 4a3e 615b 273d e478 603e
000002b0: f312 663e a11a 513e 6ff7 0d3e 6a9c ea3d
000002c0: 02be 1f3e af8d 543d 51d6 003d bc5d dd3d
000002d0: e957 4a3d 6d91 883e a09a af3e bee3 3a3d
000002e0: 5d9c f8bd 0cb0 45bc a917 4a3d 614c b9bc
000002f0: 5169 c83d 9619 6abe 1082 ddbd 4671 ecbd
00000300: fc6e 4bbe bc45 babe 8ce9 c4be d1f1 793e
00000310: f007 ab3e 43af 243c 601e 823d cf17 533c
00000320: dea7 803d 6e36 963d 21f0 163d 7777 e83d
00000330: cb09 7f3d a6ad 8bb9 a348 ba3d dd55 6cbe
00000340: 0690 e7bb b80b 533d 47de 4ebe 2113 f1be
00000350: 65dd d1be 557e 703e e3db 843e 9a6c 953d
00000360: 5889 1c3e 3e63 a53d ee96 c23d f351 ed3d
00000370: c407 a43d ca22 f73d 60be cf3d 39f7 bb3d
00000380: fc42 053e 9765 343e 2525 003e d5e2 f03d
00000390: ab18 1b3e dcca f03d 75dc d63d 39c0 0a3e
000003a0: 07a0 043e 308c 183e 6441 c13d 32da 223e
000003b0: bfdb 8e3d 10d4 a73d 6405 af3d e131 fd3c
000003c0: 32de 8d3d 717e fa3c 3a0a b8bd d0c5 753e
000003d0: b462 333e 783c 4e3e 8e8d 3b3e 39c5 123e
000003e0: 5aa0 453e ae56 233e 84e7 153e d094 3e3e
000003f0: a29f 1b3d ba9f 0a3e f036 923e 30e5 f83c
6.896052e-13 1.7035411e-11 -9.690015e-12 -1.6557987e-10 -8.187071e-08 -1.1946383e-08 -2.112642e-10 -8.3311356e-08
-1.5616918e-08 -2.2059251e-07 -2.611208e-06 -7.210684e-07 -2.4132323e-06 -1.7240978e-05 -1.1133452e-05 -2.8166878e-06
-2.0754334e-05 -1.2358874e-05 -1.1923398e-06 -3.5211353e-05 -0.00011554977 -1.0172269e-05 -0.00010515223 -0.00019639022
-7.924791e-06 -9.198503e-05 -0.00019577381 -1.1222968e-06 -9.957948e-06 -2.3571324e-06 -9.081358e-06 -5.0309107e-05
-2.9539473e-05 -1.0111185e-05 -4.948292e-05 -2.572355e-05 5.3688195e-13 -6.947726e-08 -8.1655867e-07 -1.4945084e-09
-3.642081e-07 -1.6984047e-06 -8.047745e-09 -1.3564178e-07 -2.3566097e-06 -2.1672427e-12 -1.2196422e-06 -0.00017451795
-5.738654e-12 -1.6505663e-06 -9.296316e-05 2.2432921e-12 -5.467233e-08 -9.520496e-05 3.8966955e-12 -1.128005e-12
1.5020563e-12 4.62159e-12 -1.0004201e-11 -1.208162e-11 5.6023424e-12 2.0863406e-11 -1.1358443e-11 -3.750678e-12
-1.0800138e-06 -0.00014602719 -9.794054e-13 -8.526073e-07 -7.96319e-05 3.4252226e-12 -1.6909189e-08 -7.5195785e-05
0.09547043 0.11658082 0.036837514 0.07321482 0.10863524 -0.024529567 0.12620384 0.1178851
0.0030850712 0.14875327 0.09810763 0.050669204 0.13984959 0.16222091 0.036833 0.1571562
0.13738441 0.044696335 0.13023743 0.10553931 0.20808485 0.10374269 -0.06790507 0.21512163
0.010975069 -0.028505297 0.2878329 0.13546243 0.15466571 0.023817975 0.19653235 0.20080596
0.054525584 0.22441418 0.16261408 -0.010230116 0.116748646 0.0724023 0.0687922 0.0652912
0.127967 -0.055596273 0.09547291 0.04120634 -0.029394943 -0.09064338 -0.0074019036 0.12613855
-0.136075 -0.34828693 0.075205564 -0.30916712 -0.43225753 0.32185218 0.15927403 0.08214782
0.05799928 0.105600715 0.07676964 0.008818549 0.096797355 0.08884979 -0.02494464 -0.07179657
-0.04593245 0.14614111 -0.113861226 -0.3540926 0.044537842 -0.2473172 -0.4446885 0.19196334
0.085957184 0.066303656 0.06459083 0.1070866 0.104828194 0.15354659 0.032700006 0.05128389
0.07983594 0.17760165 0.12258522 0.07784954 0.14436959 0.11863145 0.13018574 0.08182981
0.07497413 0.10804124 0.03701323 0.015933685 -0.026043305 0.025104579 0.078283295 -0.08007072
0.18712579 0.19801918 0.04085863 0.21921116 0.22468166 0.20420314 0.1386392 0.11455615
0.15599826 0.051892933 0.031454388 0.10808894 0.049400244 0.2667345 0.34297657 0.045627348
-0.12139199 -0.012065899 0.04933897 -0.022619428 0.097857125 -0.22861323 -0.10815823 -0.11545043
-0.19866556 -0.36381328 -0.38459432 0.24408652 0.33404493 0.010051551 0.0635345 0.012884094
0.06282018 0.073346004 0.0368501 0.11350911 0.0622652 -0.00026641524 0.090958856 -0.23079629
-0.0070667295 0.051524848 -0.2020198 -0.47084907 -0.40989223 0.23485692 0.2594901 0.07296105
0.15286767 0.080755696 0.09501444 0.11587896 0.08009294 0.12067182 0.10143733 0.09178013
0.13013834 0.17616878 0.1251417 0.11762015 0.15146129 0.11757442 0.104912676 0.1354989
0.1295167 0.14897227 0.094363004 0.15903547 0.06975507 0.081947446 0.0854595 0.030907573
0.06927146 0.03057787 -0.089863256 0.2400124 0.17518121 0.20140254 0.18315718 0.14333047
0.1929945 0.15951034 0.14639097 0.18611455 0.037994035 0.13537493 0.2855754 0.030382723

encoder_cnn.2.bias f4 [16]
00000000: e6a8 10bb aefe 003e bd40 183e d0df c83d
00000010: c1e7 023e b00e ae3d 2ba9 2c3e 9117 953d
00000020: 2a54 813c f970 8c3d 4843 ce3d 29b3 2b3c
00000030: d32e 033e ce22 113b 3983 c59b c4b5 36b9
-0.0022073328 0.12597153 0.14868446 0.09808314 0.1278372 0.08498895 0.16861407 0.072798856
0.015787203 0.06857485 0.10071427 0.010479727 0.12810831 0.002214599 -3.2675717e-22 -0.00017424586

encoder_cnn.4.weight f4 [32, 16, 3, 3]
00000000: 4384 7fab 6a69 f52a 5b9a 0eab b96d 55ab
00000010: 905e 3f2b b97e 1c2b a37e 98aa 0f16 5d2b
00000020: 67ea 68aa 095b ad3b b6d8 0d3d 1a8c a73d
00000030: c975 97bc 94aa c53c d250 04bb f5e9 99bb
00000040: afb0 933d 3979 50bd dbdf a63d bbe5 533d
00000050: 2ced a0bd 984d edbd cdce 0c3d d791 593b
00000060: cb90 24bc 35d6 2abc 3300 463d 7fb7 173c
00000070: d21b 7e3d 9817 1bbd b886 b83c 9d1b 6b3d
00000080: e594 763d 0dd9 393b b97e 4f3d b6c7 90bb
00000090: 8081 a43d 90c3 b53b 9171 b4bc 32c0 97bc
000000a0: cc04 103c c6ed 753d efdc a43d 4a0c 95bb
000000b0: acd4 8b3c 5299 d23d 1c75 34bd d515 cebd
000000c0: def5 283e aa06 05be 1489 dabc 5a47 d93d
000000d0: 3605 ccbd 4d08 ad3c 918c 53bc 5a33 a63d
000000e0: 0626 92bd c3d8 8ebc a28d b73c bf87 4bbd
000000f0: 317b d3bb 8e29 8d3d 4b94 d73c f59a 9e3c
00000100: af07 9f3d c07f 72bd b279 e3bc 47de 3b3d
00000110: 91d2 863c 3df5 c1bc 551a 4e3d ae3b 7d3c
00000120: 73ef 123d 6fc2 69bd 3e80 0bbd 3626 6c3e
00000130: 7403 8fbd dc55 92bc 778c 2f3e dc89 8ebd
00000140: 1b4e 89bb 1a52 d7bc 959b aa3c 2db0 b2bb
00000150: 33fd 0e3e aef8 cebd dd85 92bc cac9 a43b
00000160: 08c9 d9bc 4314 a9bc 8bf3 bf3d 5344 473d
00000170: 56b8 a8bc 1a41 7c3c b6b9 a4bc 6b33 563d
00000180: a327 2d3d c8b0 103a c18f 5ebd 66f9 b03c
00000190: ad49 453c 4871 35bd 82c9 80bc afb4 9c3c
000001a0: a38f 803c 1619 6b3d babb 053b ea4b 0f3d
000001b0: a11c 393b 089e 8d3d 33e6 71bd 01f4 2dbd
000001c0: 5327 3a3d c3c9 94bd d514 683c 1c00 a83d
000001d0: bc78 0f3d f23d 9cbd 56df 50be cc2f abbb
000001e0: 74d2 8abd ff09 b3bd 21b1 5bbe 34b0 32bd
000001f0: d3a6 07be d2d1 2bbe b75f 0280 6a2f 0a80
00000200: 1787 0100 65f2 0980 40b8 0400 38bc 0980
00000210: 93cd 0800 4fbf 0780 97cf 0a80 b5e3 bb24
00000220: 63ed e99f 2a00 41a1 cb4a c120 0dfa 169e
00000230: 0e55 3ca2 1baf 3ba0 56df 1621 00db 8f21
00000240: 57d2 cfab e87a 9a2b f914 4b2b 922d deab
00000250: caa4 f1aa 232f d3aa 2761 a62b da09 102b
00000260: 10d6 882b caf1 8bbd 856b 213b 4f99 0bbd
00000270: da31 0c3d 2aef 733d 1c26 67bd 9f8b 93bd
00000280: 1c1d 7f3d ddd9 e5bc da83 a6bb 7976 693d
00000290: 8981 503e 9653 b23d d028 3b3d 019c 853b
000002a0: b1d5 c8bd 2cd1 02bd 873d 26bd 722b 28bd
000002b0: ce00 cb3c b781 ea3d 49bb 0b3d fdcb a23d
000002c0: 17f5 fbbd d377 ab3c 386a 9dbd 3825 7fb9
000002d0: 2726 2e3d 6302 983b 7b57 033e 0494 1a3e
000002e0: 2fb4 883d 18d8 c3bd 554d 9d3c 5f7c 28bb
000002f0: 3127 263c b7e6 123e bdfe 08bd 29c8 c63d
00000300: 6e7e 823d 422f cdbc 3ad1 9a3d b0e3 c63d
00000310: 33cf 00bd e267 383e aa15 29bd 36c0 ea3c
00000320: a22e f53c 087a 01bd cc76 c13b 42de 9fbb
00000330: d8d9 28bd 355e 463d e7f4 b8bd 4682 88bd
00000340: 1b76 083d 5698 b33d 800e 073d fa28 943d
00000350: d29d 8abd 66b6 92bd cfce 88bc 207b acbc
00000360: 5eab 31bd 5d8f 0abe 9b7b 913b cf41 ca3d
00000370: aa4d 7c3d 89b7 bdbc 0e6c 8d3c ce01 7b3d
00000380: 212d fabc 0252 d53d 5597 d9bc 9aaa db3d
00000390: 5722 eebd 493e 433c 5145 9cbc ede6 8e3d
000003a0: 2763 e43c 752b 863c df71 dc3d 0aa8 013d
000003b0: 1a54 523e ca56 0ebe ca22 c03c bc43 22bd
000003c0: fd1e d53d 6d8d b8bd adca a83d efb9 2abc
000003d0: 0585 a0bc 56ba 903d 9dda b23d d3b6 0a3d
000003e0: ced9 51bd 4d29 debc 866e 043d 6c87 89bd
000003f0: 80fe 56bd 3a21 cdba e277 003d 5b5a 1bbd
-9.077775e-13 4.3593888e-13 -5.0662745e-13 -7.582507e-13 6.7988063e-13 5.5598196e-13 -2.7088496e-13 7.8545585e-13
-2.0687064e-13 0.0052903933 0.0346305 0.08181019 -0.018488782 0.02412919 -0.0020189774 -0.0046970793
0.07211434 -0.050896857 0.08148166 0.05173276 -0.07857737 -0.115870655 0.034376908 0.00331985
-0.010044287 -0.0104270475 0.048340034 0.0092600575 0.06203825 -0.037864298 0.022525176 0.05739938
0.06020059 0.0028358132 0.05065796 -0.0044183386 0.08032513 0.0055469945 -0.022026809 -0.018524263
0.008790206 0.06004121 0.08049952 -0.004548584 0.017069183 0.1028315 -0.044056997 -0.10062758
0.16500041 -0.12990823 -0.026676692 0.10609312 -0.099619314 0.021122122 -0.012911932 0.08115263
-0.07136159 -0.017437344 0.022406403 -0.049690004 -0.0064538945 0.068926916 0.026315829 0.019360999
0.077651374 -0.059203863 -0.02776799 0.045866277 0.016457828 -0.023676509 0.05031808 0.015456123
0.035872888 -0.057070192 -0.03405785 0.23061451 -0.069830805 -0.017863207 0.17143427 -0.06959888
-0.004190219 -0.026284266 0.02082614 -0.0054531307 0.13963775 -0.10106026 -0.017886097 0.005028938
-0.026585117 -0.020639544 0.09372624 0.048649143 -0.02059571 0.015396381 -0.020108085 0.05229513
0.04227413 0.00055195065 -0.054336313 0.021603297 0.012041491 -0.044297487 -0.015721086 0.019129125
0.015693491 0.05739697 0.0020406083 0.034984507 0.0028245824 0.06914908 -0.059057426 -0.04246903
0.04544766 -0.072650455 0.014165123 0.08203146 0.03502725 -0.07629003 -0.20397696 -0.0052242037
-0.06778422 -0.08742141 -0.21454288 -0.04362507 -0.13247232 -0.16779259 -2.18007e-40 -9.35364e-40
1.40297e-40 -9.13474e-40 4.33438e-40 -8.9404e-40 8.0843e-40 -7.11477e-40 -9.92824e-40 8.148407e-17
-9.907206e-20 -6.539116e-19 3.2744966e-19 -7.992643e-21 -2.5523779e-18 -1.5897454e-19 5.111756e-19 9.748026e-19
-1.4766616e-12 1.0976471e-12 7.2149193e-13 -1.5786697e-12 -4.2924545e-13 -3.7513837e-13 1.1821975e-12 5.117275e-13
9.722795e-13 -0.06833227 0.0024630737 -0.034081753 0.03422723 0.059554256 -0.05643283 -0.07204365
0.06228362 -0.028057987 -0.005081636 0.05699775 0.20361914 0.08707349 0.04569322 0.004077435
-0.098063834 -0.031937763 -0.04058602 -0.041057058 0.024780657 0.114505224 0.034114156 0.07949064
-0.123026066 0.02093116 -0.07686275 -0.0002433256 0.042516854 0.0046389564 0.1282634 0.15095526
0.06674992 -0.09562701 0.019201914 -0.0025708897 0.01014118 0.14345823 -0.033446062 0.09706146
0.06371771 -0.025046948 0.07559438 0.09711397 -0.0314476 0.18008378 -0.041280426 0.028656106
0.029929463 -0.03161052 0.0059040543 -0.00487879 -0.041223377 0.048429687 -0.090310864 -0.06665473
0.03331576 0.0876929 0.032972813 0.07234378 -0.06768383 -0.07163696 -0.016700177 -0.021054804
-0.04337632 -0.13531251 0.0044397837 0.09875833 0.061597504 -0.023158805 0.017263439 0.061281018
-0.030539097 0.104160324 -0.026561419 0.10725899 -0.116276436 0.011916705 -0.019076021 0.06977639
0.02787931 0.016378144 0.10763907 0.031654395 0.20539895 -0.13900295 0.023454089 -0.039615378
0.10406301 -0.0901135 0.08241782 -0.010420307 -0.019594679 0.07066791 0.087331034 0.03386576
-0.051233105 -0.027119303 0.032331966 -0.06715283 -0.052488804 -0.0015650161 0.03136433 -0.037927967

encoder_cnn.4.bias f4 [32]
00000000: 7ce3 cdba 91c4 d53c 009e 963d 36a3 9c3d
00000010: 99c7 a83d b9da 413c d15e 763d b528 483d
00000020: 383a fe3b 8ca5 1b3d 50a4 153d 69a3 0b3d
00000030: eb0d 16bc 6ac1 6d3c 8832 4d3d 85da 903d
00000040: 0e68 f1bb 7728 893c c19c ba3c a502 e3bb
00000050: e0a2 aa3c cad6 81bc cfec 9e3c 902a 233d
00000060: 2fda 7f3c d84e 3fbc 397d 003d eb0a 193d
00000070: 4dbe f93c 3d99 1f3b 899a 2b3d 0d55 8dbb
-0.0015708054 0.026094707 0.07354355 0.076483175 0.08241195 0.011831933 0.060149018 0.048866946
0.007758405 0.037999675 0.036533654 0.034091387 -0.009158592 0.014511446 0.05009702 0.07072929
-0.0073671406 0.016742928 0.022779824 -0.0069278055 0.020829618 -0.01584949 0.019400029 0.039835513
0.015615984 -0.011676513 0.03136942 0.037363928 0.03048625 0.0024352812 0.041895423 -0.0043131174

encoder_lin.0.weight f4 [64, 288]
00000000: cf14 feba e264 74bb a64e df3d bac3 ce3c
00000010: 7f6b 0180 7c83 ed3d c1af 103d 176a 2e3b
00000020: 8e87 ccbd 4011 a3bc b0bc 863d d663 223c
00000030: bb62 1e3c 33ba 8abd cf8f 57bd 32fa 1a3b
00000040: 7fef e7bc 2205 bd3d d757 e1b9 e02d 36bb
00000050: db65 91bb 9119 8c3c 1f85 16bb 93bd d23d
00000060: 22df 4f3c cfe1 99bd b3cf 873d b6e4 87bc
00000070: 08aa 833b 6e01 b23d b338 06bd ec73 373c
00000080: 1c39 123e 6ec4 1b3c fd73 bcbb 03e9 ab3d
00000090: ab99 a53b 1112 643c f34e 0e3b 7482 38bd
000000a0: e26f 1cbd 592d 1abe dc1e 2d3d 6b8d 1abd
000000b0: e15f a53d 0196 3cbc d7c9 823d 5a46 803d
000000c0: 0455 ed3c 3d39 5dbc 8e12 8fbc 0cf3 d2bc
000000d0: d8b9 573c 8543 67bd bcba b93c 2f55 01bb
000000e0: 0596 08bd 0c9e 8a3c 7512 09bd 1e7a 16be
000000f0: 209f 22bd f178 5abc c7e4 89be 7cab d83a
00000100: d155 1e3d c136 ac3d 7414 22bd 966a 533e
00000110: a1c7 c7bc 33d4 243d 607b cbbd 7078 58bc
00000120: d6d3 ef3b 991b ebbc 2a64 9a3d c781 663d
00000130: c0bf 42ba d647 06bd 1858 e4bd c98b 6c3b
00000140: fec9 883d 037e d33c bd9d bd3d 3bec b73d
00000150: 72f5 933c 4329 503e 267d f73d 2e18 113d
00000160: cdaf 1d3d dd4c 093c d03f 69ba 56a7 f239
00000170: 31fd 3b3d 7041 cc3c 3b2e 61ba dd5f 22bd
00000180: 026c c8bc 82ec 8fbe c04c adbd 9ef6 b7bc
00000190: 94eb a3bd a67e 9dbd 16c8 b1bd 067e b5bd
000001a0: 5517 f3bd d5b8 aebd fbf4 c9bd f8c7 00be
000001b0: c79d cd3c 625b 2bbb 31f2 c93d e989 fb3a
000001c0: 7aa1 1e3c d74a 8cbd 3730 08bc 15ad 0f3d
000001d0: 0bba 5e3d aaaa fd3c c0e5 7cbe 5faa 95bc
000001e0: f950 acbc 691b 44bd 5fbe 24bd 15a8 d13b
000001f0: 8df8 163e ccb3 363d fd12 9c3a 62cd cbbd
00000200: 5aff c5bd bed5 5b3c e4fe 03bd d4a6 17bd
00000210: 1b96 74bd c5ca 183c fa9d d33d 24fc e6bd
00000220: 3d2b c93b 90f4 06be 7255 1fbe d271 96bc
00000230: e152 0bbb ae3b bfbd 0326 1dbd 178b 9ebe
00000240: 0e5f 23bd 764c a63d 092d 1a3d 4b85 d6bc
00000250: c804 ba3c 2e80 483d 4828 373c b66c 7f3d
00000260: 89a7 e43c fdd3 5dbc 1af4 12bc b864 c8bd
00000270: d1df 483d 8583 79bd 7558 37be 6d0b 213d
00000280: 2eeb d9be 49a9 e13b aa20 403d 01ce 2e3d
00000290: 773b e6bd bbe8 ffbd 272b bf3d d322 0c3d
000002a0: 4aec 1f3d 427e ca3c daee a53c 1ea1 43bc
000002b0: d4bb 7d3b 92af 5fbd 934a 22bd ecca 4bbe
000002c0: 6330 343d 3cdc 4ebd a20f 8fbc f93a 983d
000002d0: c2f8 2d3d 646b 293e 2304 c03d df7d 41bd
000002e0: efaf f93d 3991 03bb 4e4a 0cbd 747d 073d
000002f0: a283 f43d 47b0 b1bd a0c8 73bd 5551 3ebd
00000300: f134 6bbd 1691 0ebe 8249 f1bb 2969 58bc
00000310: c7cd 94ba 83ab 983a 68db 82bb 611f bfbd
00000320: 17e5 7b3d 571a 2ebd e6fc fbbb 2116 7bbd
00000330: 9f29 c1bb 9946 af3d 82d9 b23b 68eb f7bb
00000340: 7ec7 d83c 10eb 3a3d 4a87 3d3c 84c8 23bd
00000350: b81f a03d 4b79 65bc 7e33 6dbd c12b c53d
00000360: ed7c 61b9 7a9d 863d 4ccb 3c3c 31b6 d63b
00000370: 1b81 97bc 5b3d 2c3c 1bdc d7bb 56b1 18bc
00000380: 915a 28bb 1bd1 39bd 8630 863d 279a a4bb
00000390: f828 8ebb a889 853c 7d34 14be 0a0b ca3c
000003a0: d895 3b3b 19d3 27bc f1a3 02bd 583e 0abe
000003b0: dbcc 7b3d 26dd b13c 39c6 39bc 8bc7 b3bd
000003c0: 6f0e 85bc c013 c6bd e2bd a0bd b79d abba
000003d0: daa6 10be 5b89 563d 818c a8bc 192b 923d
000003e0: 74e8 683d f657 f13c c63b 8abc d995 c43c
000003f0: 6a98 8c39 14a6 56bc 69c1 4dba 907c 8dbb
-0.0019384864 -0.0037291576 0.10903673 0.025239814 -1.30398e-40 0.11597344 0.035323862 0.0026613527
-0.099867925 -0.019905686 0.06578958 0.009911498 0.009667094 -0.06773796 -0.05262738 0.0023647663
-0.028312443 0.09229495 -0.0004298079 -0.002779834 -0.004437191 0.017102035 -0.002296753 0.10290065
0.012687476 -0.07513773 0.06631412 -0.01658855 0.004018072 0.08691679 -0.032768916 0.0111970715
0.14279598 0.009507282 -0.0057511316 0.08394053 0.005053719 0.013920323 0.0021714538 -0.045046285
-0.038192637 -0.15056361 0.042265758 -0.037732523 0.08074928 -0.011510373 0.06386154 0.062634185
0.028971203 -0.013502416 -0.017464902 -0.02575066 0.013166867 -0.056460876 0.02267205 -0.0019734611
-0.033346195 0.016921066 -0.033464868 -0.14695022 -0.039702535 -0.013334499 -0.26932356 0.0016530599
0.03865606 0.08408881 -0.039570287 0.20646128 -0.024387183 0.04024143 -0.09935641 -0.013212308
0.007318954 -0.028699683 0.07538636 0.05627611 -0.00074290857 -0.03278335 -0.11149615 0.003609406
0.06679152 0.025816923 0.09258602 0.08980604 0.018061373 0.2032824 0.12084417 0.03542345
0.038497735 0.008380142 -0.00088977534 0.00046282512 0.04589576 0.024933547 -0.0008589958 -0.039642204
-0.024465565 -0.2811013 -0.084619045 -0.022456463 -0.08003917 -0.07690172 -0.086807415 -0.08861928
-0.118696846 -0.08531348 -0.098611794 -0.12576282 0.025099648 -0.0026146998 0.098606475 0.0019190881
0.009682054 -0.06850212 -0.008312277 0.035077173 0.054376643 0.030965168 -0.24697018 -0.018269716
-0.021034705 -0.047877703 -0.040220615 0.006398211 0.14743252 0.04460506 0.0011907514 -0.09951283
-0.09667845 0.013417659 -0.032225505 -0.037024334 -0.059713464 0.009325688 0.10332866 -0.11278561
0.0061391876 -0.1317923 -0.15559939 -0.01836482 -0.0021259116 -0.09337555 -0.03836633 -0.30965492
-0.039885573 0.081200525 0.037640605 -0.026186606 0.022707358 0.048950367 0.011179037 0.062359534
0.027911918 -0.0135393115 -0.008969331 -0.097848356 0.049041573 -0.060916442 -0.17904837 0.039317537
-0.4256224 0.0068866354 0.04690615 0.04267693 -0.11241811 -0.12495562 0.093344025 0.0342129
0.039043702 0.024718408 0.020255495 -0.011940269 0.003871669 -0.054610796 -0.0396219 -0.19901627
0.043991458 -0.050503 -0.017463509 0.07433123 0.042473562 0.16544873 0.09375789 -0.04723918
0.1219176 -0.0020075573 -0.03425055 0.033078626 0.119391695 -0.086762 -0.059517503 -0.046464283
-0.057423536 -0.13922533 -0.007363499 -0.013208666 -0.001135283 0.0011647794 -0.0039934404 -0.09332157
0.061497774 -0.04250559 -0.00769006 -0.0613004 -0.005894854 0.08558387 0.005458058 -0.0075659044
0.026462313 0.04563433 0.0115679 -0.03998615 0.0781855 -0.014005969 -0.057910435 0.09627486
-0.0002150421 0.06573005 0.011523079 0.0065524806 -0.01849418 0.010512675 -0.006587518 -0.009319624
-0.0025688747 -0.045365434 0.06552224 -0.005023259 -0.00433838 0.016300991 -0.14473148 0.024663467
0.002862325 -0.010243201 -0.031894628 -0.13500345 0.061474662 0.021711897 -0.011338764 -0.08778294
-0.016242234 -0.09671736 -0.07848717 -0.0013093267 -0.14126149 0.052377086 -0.02057481 0.071371265
0.05686231 0.029460888 -0.016874205 0.023997234 0.00026816438 -0.01310112 -0.000784895 -0.0043178275

encoder_lin.0.bias f4 [64]
00000000: 316e 30bc b021 0380 0e53 b13d ce4f 0300
00000010: 210f 503d 8480 413c 3cf2 eabc 86d2 a2bc
00000020: afcc 1ebc b1a8 b43d b30f 86bb 8062 2dbc
00000030: 74af 853d 604d 0500 3597 243d 4bf3 273c
00000040: 700d 843c 61d6 04bc ec0a a2ac 2b36 213c
00000050: 80a6 2abc 8b5d 9abc b90b 16bd 0fb3 963c
00000060: ba35 5a3d 9f0b 2c3a 2310 c53c 7d8e 0480
00000070: 700a 3cbc c608 ff3b 561a 58bc 7053 25bc
00000080: ec9d 083d 0b7d 440e 1d27 22bc dcf6 363c
00000090: 9e88 8f3d 12bd 0700 88bd f0bc ea34 763d
000000a0: fa91 b6b4 ac2a 72bc 7e6c b4bc 4574 3dbc
000000b0: 6341 0780 ce4e 76bd 498d f73d f4ac 313d
000000c0: 8fa2 1ebc 3be5 94bc c6bf 3e3c c948 a2bb
000000d0: e045 a6bc 0593 b5bc 97b5 9cbc 4036 c4bb
000000e0: 2743 89bc 3a20 ee3a c20d 0600 eed7 873c
000000f0: 70d8 0580 602a acbc fb1f 18bc 293c 303d
-0.010768459 -2.87591e-40 0.086584195 3.04135e-40 0.050795678 0.011810426 -0.02867996 -0.019875776
-0.009692355 0.08821238 -0.004091227 -0.010582566 0.06527606 4.86934e-40 0.040183265 0.010250877
0.016119689 -0.008107753 -4.6055295e-12 0.009839575 -0.010415673 -0.018843433 -0.036632273 0.018395929
0.053273894 0.0006563011 0.024055546 -4.18457e-40 -0.011477098 0.0077830283 -0.013189873 -0.010090694
0.03335373 2.4219071e-30 -0.009897021 0.011167254 0.070084795 7.10674e-40 -0.02938725 0.060109057
-3.4006354e-07 -0.014780682 -0.02202439 -0.011563365 -6.66305e-40 -0.060133748 0.12087495 0.04337783
-0.009682312 -0.018175712 0.011642402 -0.0049525243 -0.02029699 -0.022164831 -0.019129558 -0.0059879124
-0.016755654 0.0018167563 5.55948e-40 0.016582455 -5.3682e-40 -0.0210163 -0.0092849685 0.043026123

encoder_lin.2.weight f4 [2, 64]
00000000: 1adf e5be 1550 a5ba cfea 7dbd 0cb3 2834
00000010: c231 1bbe bb7a 66bd 961e 49bf ef0f 233f
00000020: d1ec 02bb e853 54bd 4505 093d f00c bebe
00000030: 22c7 e0bd 2375 b0bb e370 f8bd 5e24 4fbd
00000040: 3b4a 12bd ed06 80be 7ef0 693c a9cd 16bd
00000050: 572f 2a3e 15ea e33e a593 5b3f 8193 61bc
00000060: 463d 28bd ae0b d0be b216 0f3a 985f f039
00000070: 653d 97bd 2129 9abd 51b9 e03d b430 cabe
00000080: 5579 cbbd 5d4b 123c 7e07 babe a05a aabe
00000090: 759a 39bd 27f1 06bc c2a2 f8be ff55 bebd
000000a0: 7013 913c eeb6 f7bd 17f9 68bf 7604 a4be
000000b0: 2b95 f5b9 743c e83d 3ff2 1abe d087 60be
000000c0: 8925 1dbe 701d 0e3e 160e 413b 2011 56bc
000000d0: 38dc bc3e 6a34 6fbd 89e1 d3be 2373 13bf
000000e0: 7604 debd 1519 3d3d 18dd 0630 ee43 47bd
000000f0: 0441 e2ba 8352 92bf 9e84 03be 924f 88bc
00000100: cedf b8be c50c 703b 5a28 a2bc 23e4 03b4
00000110: ae4a 28be a427 803d b477 483e 58d8 653f
00000120: 0768 953d 76ea 03bc 7111 14bd 0215 1b3e
00000130: af52 a2bd 3cde 29bc 608f 743c b7af 703d
00000140: 8896 ef3c 313b c0be 7597 b3bb a52e 263d
00000150: a21b 6abe 23f5 a8bd fd9f c8be d3aa 4ebd
00000160: 5d59 3cbc b64c 9fbe 2fc9 c4bc 341c 70ba
00000170: 1200 b1be 9093 f73d b78f 2dbf 73a5 03be
00000180: 323c 1bbc 0d49 10bc babe 88be df72 f03d
00000190: 53f0 2abc e21e 113c 1b1b 533e 5577 783c
000001a0: b243 4e3c 6ec6 cbbe 9ad5 943e 6cd2 90be
000001b0: 34f3 84bb a364 9cbd ad56 cfbd 919c e73d
000001c0: 2cd8 babe 6df2 9cbd ffb6 7dbc d4ef 1abf
000001d0: 7a53 44be e45c 573f 956c 253f fa44 3ebe
000001e0: 70cb 803e d332 01be 3fe3 3737 0adb 753d
000001f0: 22a7 3f3b 0de4 ce3e e31b efbe 827a 2fbd
-0.44896775 -0.0012612367 -0.06199151 1.5711356e-07 -0.151557 -0.05626939 -0.78562295 0.6369619
-0.001997758 -0.05183783 0.03345229 -0.37119246 -0.109754816 -0.0053850575 -0.121309064 -0.05057179
-0.035715323 -0.25005284 0.014278529 -0.036817227 0.16619621 0.44514528 0.8577216 -0.013768078
-0.04107406 -0.4063391 0.0005458399 0.0004584759 -0.07384757 -0.07527376 0.10972846 -0.39490283
-0.099352516 0.008929101 -0.3633384 -0.33272266 -0.045313317 -0.008236206 -0.48561674 -0.09293746
0.017709464 -0.12095438 -0.9100508 -0.32034653 -0.0004684118 0.113396555 -0.15131472 -0.21926808
-0.1534635 0.13878417 0.0029457859 -0.013065606 0.36886764 -0.058399595 -0.41383007 -0.5759756
-0.108406946 0.0461665 4.906311e-10 -0.048648767 -0.0017261808 -1.143143 -0.12843558 -0.016639505
-0.3610825 0.0036628705 -0.019794632 -1.2283321e-07 -0.16434738 0.06257561 0.19576913 0.8978324
0.07295232 -0.008051505 -0.036149446 0.15144733 -0.07925927 -0.010367926 0.014926761 0.058761325
0.029246584 -0.3754516 -0.0054807016 0.040571827 -0.22862104 -0.08249881 -0.3918456 -0.05045588
-0.011495915 -0.31113213 -0.024021713 -0.0009159476 -0.34570366 0.12088692 -0.67797416 -0.12856083
-0.009474801 -0.008806479 -0.26708013 0.1174066 -0.010433274 0.008857461 0.20615809 0.01516517
0.012589382 -0.39799827 0.29069215 -0.2828554 -0.0040573124 -0.076363824 -0.10123954 0.113091595
-0.3649305 -0.076634265 -0.015485524 -0.605222 -0.19172469 0.84126115 0.6461881 -0.18581
0.2515521 -0.12617044 1.096056e-05 0.060023345 0.0029243906 0.40408364 -0.46700963 -0.042841442

encoder_lin.2.bias f4 [2]
00000000: 552c 99bd f1f3 9bbd
-0.07479159 -0.076148875
