encoder_paramsfold4.pth (torch, 101191 bytes, 10 tensors)

encoder_cnn.0.weight f4 [8, 1, 3, 3]
0.56751627 0.13461898 -0.5809781 0.62556666 0.18302909 -0.43868038 0.4209067 -0.15064876
-0.4350336 -6.7949774e-32 -1.7590244e-28 -9.48946e-32 -2.6203783e-27 -3.5435453e-26 -9.2491857e-32 5.682033e-29
8.381202e-31 -3.7869637e-36 0.13644327 0.07690442 0.28317913 0.26424953 0.39556822 0.29774144
0.4775771 0.5147344 0.21099211 0.20057547 -0.1547479 -0.14673837 0.033570062 -0.15583631
-0.20160924 -0.026447767 -0.2435049 -0.19509465 -0.10131534 0.1210701 -0.01314261 -0.1990267
-0.16500366 -0.22649394 -0.15014479 -0.10492152 -0.22306123 -0.6270091 -0.099485636 0.42873618
-0.5032848 0.26748487 0.6540363 -0.2422663 0.501247 0.6406469 0.24901387 0.3371109
0.4137696 0.46284473 0.6605846 0.49470395 0.5763414 0.77145284 0.30596644 0.087443955
0.36669415 0.23355336 0.4220571 0.8693221 0.5884751 0.22147374 0.6778424 0.36982056
00000000: bf48 113f 8fd9 093e fbba 14bf 2325 203f
00000010: fa6b 3b3e b79a e0be 1581 d73e ab43 1abe
00000020: b9bc debe 5f68 b08b 9bfb 5e91 485c f68b
00000030: 969b 4f93 c677 2f95 621f f08b 810e 9010
00000040: 27fe 870d 6214 a184 c9b7 0b3e 1180 9d3d
00000050: dbfc 903e b74b 873e eb87 ca3e 9171 983e
00000060: fc84 f43e a2c5 033f 510e 583e a863 4d3e
00000070: 3c76 1ebe 9542 16be c380 093d 8e93 1fbe
00000080: a772 4ebe fda8 d8bc 5959 79be e4c6 47be
00000090: 6b7e cfbd 9af3 f73d 1a54 57bc a8cd 4bbe
000000a0: b8f6 28be 07ee 67be 8ebf 19be 18e1 d6bd
000000b0: 2a6a 64be ab83 20bf 20bf cbbd 4f83 db3e
000000c0: 46d7 00bf c7f3 883e ec6e 273f a814 78be
000000d0: b951 003f 6f01 243f 7efd 7e3e cd99 ac3e
000000e0: 9cd9 d33e fcf9 ec3e 131c 293f d649 fd3e
000000f0: 1c8b 133f ef7d 453f a2a7 9c3e d115 b33d
00000100: 56bf bb3e 9d28 6f3e de17 d83e e58b 5e3f
00000110: 4ea6 163f 03ca 623e 1487 2d3f 1f59 bd3e

encoder_cnn.0.bias f4 [8]
-0.0040938547 -1.2539961e-11 0.33503398 0.3117824 0.36235487 0.0012145413 0.12704822 0.07463271
00000000: be25 86bb f79a 5cad 9389 ab3e f1a1 9f3e
00000010: 9486 b93e 3e31 9f3a ee18 023e 09d9 983d

encoder_cnn.2.weight f4 [16, 8, 3, 3]
-0.07179081 0.014587583 0.048892073 0.012958844 0.029079432 0.20437537 -0.10310597 -0.04189823
0.24271785 3.3223e-40 -1.061481e-39 -7.3934e-41 -8.51154e-40 -3.55928e-40 8.105e-40 1.220545e-39
8.16381e-40 -1.24361e-40 0.00119385 0.0012777062 0.075648084 -0.08513435 -0.025266975 0.20589733
-0.28266427 -0.021209076 0.19523968 0.0012901903 0.043324515 -0.07399201 0.042138703 0.027290102
-0.061111655 0.08465339 -0.032071482 0.04574356 0.028535783 0.01480056 -0.07620062 0.05831713
0.04666057 -0.14127463 0.12452723 -0.019495327 -0.088996224 -0.15115412 0.03100814 0.25414568
-0.10618982 0.097227424 0.5416943 -0.18829179 0.39221627 0.41161466 -0.05576039 -0.0999362
0.07198321 -0.1382679 -0.022073997 0.17126435 -0.5105555 -0.028382074 0.18414485 -0.072395824
-0.08663102 0.052924678 -0.090889044 -0.044103052 0.30787376 -0.47189954 0.008376243 0.29474807
-6.52644e-40 5.5249e-40 1.20129e-40 -6.44208e-40 -3.12483e-40 5.5298e-40 5.41919e-40 3.76626e-40
-5.0425e-40 8.15633e-40 1.885601e-39 -9.98888e-40 -1.575784e-39 1.035702e-39 2.4971e-40 1.60237e-40
9.92118e-40 -7.38254e-40 -6.311904e-13 -2.399877e-11 -4.2519252e-11 -4.621575e-13 -1.5617656e-11 -3.7356857e-11
-7.799497e-14 -1.8257676e-12 -4.13321e-12 -3.7245e-40 -6.7237e-40 5.4264e-41 -3.47194e-40 -4.92158e-40
-6.08179e-40 6.76348e-40 -5.05312e-40 -2.49595e-40 4.88595e-40 3.9465e-40 6.72234e-40 4.72877e-40
-2.94606e-40 5.27857e-40 -5.9202e-40 -4.1457e-41 3.93937e-40 2.2726324e-34 -1.3128321e-21 -5.693875e-31
5.9151344e-34 -4.5581302e-24 1.302309e-32 -4.55657e-40 -1.2268902e-26 4.8417255e-38 -7.021592e-11 -2.4271594e-09
-3.545551e-09 -3.9922926e-11 -1.4108605e-09 -3.114841e-09 -5.306377e-12 -1.4132673e-10 -3.1430616e-10 -5.5175667e-13
-9.547594e-11 -6.160032e-11 -2.63772e-13 -4.0323883e-11 -7.222621e-11 -1.2361384e-14 -1.7721235e-12 -2.2293898e-12
-0.084086135 0.01149206 -0.063514285 -0.078142434 -0.03351073 -0.12799081 -0.12319468 0.005097499
-0.07092052 -7.68937e-40 1.09118e-40 -2.26523e-40 7.82251e-40 -5.43389e-40 -7.80991e-40 -6.33914e-40
-3.9521e-41 -5.9255e-40 0.035801187 0.12162352 0.079756625 -0.08056861 -0.06417376 -0.08721354
0.0014951095 0.13219893 -0.016821865 -0.013171355 0.012257767 -0.026291935 -0.0074107633 0.023436764
0.023470152 -0.006982852 -0.036450125 0.020506537 0.04707706 0.000116018295 0.027025523 0.040994514
-0.0133299045 0.031660803 -0.0071457876 -0.05067264 0.030390931 0.026846977 -0.04239563 0.0029699155
-0.055012036 -0.008076549 -0.06702961 0.11041523 0.015542519 -0.07618888 0.09924798 0.043672618
0.013746903 -0.1392065 0.014722413 -0.039176114 0.02557717 0.13737749 -0.002706032 0.07800538
0.12483989 0.07003396 -0.17959845 0.0007263363 -0.11160679 0.057339076 0.14582601 -0.0099736
-0.13538729 0.059515752 -0.012247784 0.03571681 0.12837873 -0.026843652 0.18936558 0.099881396
0.06655061 8.27027e-40 9.14755e-40 1.006197e-39 -4.75961e-40 -3.64779e-40 -9.3448e-41 -4.07625e-40
7.13332e-40 -5.92952e-40 0.016024468 0.06552159 -0.0015534257 -0.07031435 -0.09291776 -0.06568531
0.043662004 0.16639517 0.112346634 -0.06314315 -0.09403902 -0.041516278 -0.031045511 0.027224487
-0.025314309 -0.102131054 -0.055912297 -0.0224765 -0.03259462 -0.09977461 -0.04219836 0.0076671
00000000: 0f07 93bd c200 6f3c 0e43 483d 5551 543c
00000010: fd37 ee3c c747 513e 3929 d3bd 7a9d 2bbd
00000020: 078b 783e 1f9e 0300 fa8e 0b80 19ce 0080
00000030: ac44 0980 2fe0 0380 58d3 0800 624a 0d00
00000040: bde3 0800 ab5a 0180 f57a 9c3a b578 a73a
00000050: 62ed 9a3d eb5a aebd b0fc cebc c0d6 523e
00000060: 5fb9 90be a8be adbc e9ec 473e 9a1b a93a
00000070: 0c75 313d 1f89 97bd a299 2c3d 7e8f df3c
00000080: 3750 7abd c25e ad3d 635d 03bd 995d 3b3d
00000090: e0c3 e93c 0c7e 723c 120f 9cbd f1dd 6e3d
000000a0: 271f 3f3d 4caa 10be 2208 ff3d aab4 9fbc
000000b0: a743 b6bd 25c8 1abe c804 fe3c 621f 823e
000000c0: 0c7a d9bd 2c1f c73d 7aac 0a3f 90cf 40be
000000d0: 92d0 c83e 28bf d23e 0265 64bd 5aab ccbd
000000e0: ef6b 933d 1a96 0dbe 87d4 b4bc ec5f 2f3e
000000f0: c4b3 02bf 8681 e8bc 7890 3c3e 4344 94bd
00000100: 9b6b b1bd 8cc7 583d 0924 babd 67a5 34bd
00000110: a1a1 9d3e d19c f1be 823c 093c 38e9 963e
00000120: 4e1b 0780 1e04 0600 df4e 0100 ca03 0780
00000130: 1367 0380 7c05 0600 a6e6 0500 e119 0400
00000140: a57d 0580 a7e1 0800 4a88 1400 7ee0 0a80
00000150: a528 1180 1e47 0b00 17b8 0200 adbe 0100
00000160: 9fcd 0a00 f409 0880 10aa 31ab 6d18 d3ad
00000170: 6c00 3bae f515 02ab d65f 89ad 154c 24ae
00000180: 0aa1 afa9 1b7a 00ac a56c 91ac 3d0e 0480
00000190: 4b52 0780 4497 0000 d6c7 0380 f05b 0580
000001a0: 5b9f 0680 625d 0700 9b80 0580 c5b7 0280
000001b0: 0152 0500 204c 0400 ea51 0700 3026 0500
000001c0: 3e35 0380 73bf 0500 5072 0680 9173 0080
000001d0: 234a 0400 d60a 9707 bb63 c69c ddc6 388d
000001e0: 6690 4408 8955 b098 503d 870a 30f6 0480
000001f0: b902 7394 e7cd 8301 0d68 9aae 0acb 26b1
00000200: fea5 73b1 3895 2fae 3ee8 c1b0 dd0c 56b1
00000210: 98b3 baac f063 1baf a9ca acaf 424e 1bab
00000220: 2df4 d1ae e675 87ae 8d7d 94aa a858 31ae
00000230: bed3 9eae d2ae 5ea8 7a67 f9ab 1ee1 1cac
00000240: 5a35 acbd 3149 3c3c c713 82bd 2409 a0bd
00000250: 8c42 09bd 0610 03be 7e4d fcbd ec08 a73b
00000260: c73e 91bd 7c5f 0880 2d30 0100 7477 0280
00000270: 9984 0800 bfea 0580 1681 0880 18e7 0680
00000280: 2b6e 0080 ca73 0680 44a4 123d c115 f93d
00000290: 7157 a33d 2801 a5bd 886d 83bd 039d b2bd
000002a0: 8df7 c33a 285f 073e 02ce 89bc abcc 57bc
000002b0: cdd4 483c 2f62 d7bc fdd5 f2bb 75fe bf3c
000002c0: 7a44 c03c 68d0 e4bb ba4c 15bd 53fd a73c
000002d0: e0d3 403d d94e f338 a164 dd3c dde9 273d
000002e0: ac65 5abc c2ae 013d 3627 eabb 1d8e 4fbd
000002f0: 67f6 f83c 31ee db3c 0aa7 2dbd eaa2 423b
00000300: 4d54 61bd 8053 04bc d246 89bd 6121 e23d
00000310: 0da6 7e3c ea08 9cbd 8642 cb3d 0fe2 323d
00000320: b13a 613c 268c 0ebe 4736 713c 2277 20bd
00000330: 3787 d13c afac 0c3e af57 31bb 49c1 9f3d
00000340: 0eac ff3d f76d 8f3d a8e8 37be 9b67 3e3a
00000350: 1a92 e4bd 61dc 6a3d 6a53 153e 4f68 23bc
00000360: f7a2 0abe cac6 733d eeaa 48bc ca4b 123d
00000370: b775 033e 38e7 dbbc 0de9 413e 9e8e cc3d
00000380: b04b 883d 6a01 0900 f7f5 0900 def4 0a00
00000390: c92e 0580 dbf8 0380 7f04 0180 4b70 0480
000003a0: 7bc4 0700 e974 0680 bf45 833c 2f30 863d
000003b0: 519c cbba f800 90bd ab4b bebd 0586 86bd
000003c0: eed6 323d 7f63 2a3e fe15 e63d 3251 81bd
000003d0: 8897 c0bd f90c 2abd 2853 febc e305 df3c
000003e0: f45f cfbc 162a d1bd 4b04 65bd a320 b8bc
000003f0: f081 05bd a156 ccbd 30d8 2cbd 4c3c fb3b

encoder_cnn.2.bias f4 [16]
0.023324493 -1.0148158e-09 0.104499675 -0.055262126 0.1475528 -0.019818041 0.04589691 0.12514709
-0.031113788 0.2623547 -0.0973693 0.032076333 0.042766694 0.01851062 0.07168053 0.011689906
00000000: 0213 bf3c a879 8bb0 ed03 d63d 8a5a 62bd
00000010: 1518 173e 7259 a2bc 66fe 3b3d 8f26 003e
00000020: 58e2 febc 5b53 863e 8e69 c7bd 7962 033d
00000030: 212c 2f3d 95a3 973c 3ecd 923d 0587 3f3c

encoder_cnn.4.weight f4 [32, 16, 3, 3]
-0.05045763 -0.0032774606 0.02715672 -0.24241477 -0.15338628 -0.04715866 -0.0793436 0.13175036
-0.15383081 6.1427e-40 -6.01427e-40 2.60246e-40 3.7794e-41 6.6539e-40 3.9005e-40 -4.8448e-41
-3.62844e-40 1.2935e-41 -0.0015479808 0.07447157 0.05050099 -0.02069388 0.03986368 0.039491523
0.14852248 -0.015593115 0.011609807 0.02206624 0.08300978 0.15007031 0.004488832 0.008815032
-0.0370952 0.16832063 0.044259824 0.12624674 0.017553773 0.014290136 -0.08548957 0.09571563
0.09071199 0.021966822 -0.056257125 -0.0062150504 0.052585676 -0.007502061 0.062155545 0.08930194
0.056186475 -0.29116 -0.1776708 -0.1442407 -0.0032856117 0.114518985 -0.12109844 -0.097562745
0.076404065 -0.06272636 0.08188179 -0.23099792 -0.074721225 0.041203722 -0.010384572 0.0074968296
0.0003780281 -0.22667138 0.08035796 0.059684955 0.13449146 -0.081115104 -0.090916045 0.017943546
0.0059520435 0.20428146 0.050264295 0.049067713 -0.3128086 -0.048917383 -0.09821405 -0.11010795
-0.024713656 -0.04760126 -0.06976053 -0.10346903 0.06026649 0.113262855 0.14097115 0.0707441
0.0021676961 0.022020474 0.02248305 0.11118997 0.059827726 0.015049148 -0.22404674 -0.115681686
-0.12773675 -0.07725385 -0.12886824 -0.090383984 -0.0147351995 0.2068431 0.14903773 -0.08114166
-0.19274603 -0.17841628 0.08959525 0.14586148 -0.036335792 0.031828266 0.10957013 0.025327243
0.025204988 -0.12789485 -0.10717863 -0.057826746 -0.114975296 0.092061274 0.09427974 0.08704698
-0.06859016 -0.19257088 -0.12912427 0.24816492 0.11729361 0.08719967 0.07732296 -0.05909094
-0.05117906 0.1433148 -0.024519123 0.03672378 -0.22032905 -0.013790123 0.0028835358 0.05714257
-0.04601661 -0.079116814 0.1179784 -0.043206144 -0.025111977 0.024105294 -0.040761326 0.08855929
-0.0137311155 0.070336126 -0.189293 0.0092654 0.15454262 0.06484255 -0.041999258 -0.19578475
-0.084790945 -4.86812e-40 5.54953e-40 -2.47471e-40 5.39648e-40 2.70196e-40 5.47225e-40 -2.68913e-40
-4.65077e-40 -5.69967e-40 0.02261122 0.011479817 0.15442878 -0.035840582 0.058685314 -0.0065535447
0.021639228 -0.016255716 0.040627092 0.09063726 0.05048343 0.065238565 0.0071652415 0.07573408
0.014967678 0.043507632 -0.12685189 0.044817783 -0.02253087 -0.023807043 0.12395609 -0.04890121
0.0021385697 -0.024183834 0.08057373 0.04180409 0.02307001 0.022280123 0.020029778 0.024085522
-0.12851009 0.09868103 0.02998054 0.10770185 -0.19993035 -0.124045484 0.020111207 -0.094018914
0.065688916 -0.11312854 0.04572221 -0.045426156 0.044154726 0.0589504 -0.20924665 -0.07573982
0.041350175 0.02913027 -0.018229015 0.07107976 -0.073197946 0.11378657 0.043765042 0.067148075
0.04664588 -0.005719508 0.061989617 -0.06510802 0.18772484 -0.0030874724 -0.043773584 -0.19760782
-0.037295576 -0.045265794 -0.019338218 -0.058950968 -0.012002751 -0.1420554 -0.13156189 0.051162276
0.097945146 0.09051111 -0.030927617 0.010078102 0.007812456 -0.16627553 0.050978296 0.02485561
-0.043346044 -0.15995103 -0.10577178 0.061031446 0.10490129 0.008199511 -0.12664358 0.058616642
0.11913087 0.057464097 -0.08558834 -0.14911267 0.0080245575 -0.07810985 0.054695662 -0.07199362
00000000: a9ac 4ebd aaca 56bb c577 de3c 943b 78be
00000010: 4b11 1dbe 7029 41bd e67e a2bd 91e9 063e
00000020: d385 1dbe 56b0 0600 898c 0680 76d5 0200
00000030: 5b69 0000 d63e 0700 4d3f 0400 0e87 0080
00000040: 76f3 0380 0f24 0000 9ee5 caba 8d84 983d
00000050: 20da 4e3d 3686 a9bc 1948 233d ddc1 213d
00000060: 4716 183e 447a 7fbc 0f37 3e3c 42c4 b43c
00000070: 0801 aa3d 08ac 193e 0d17 933b ed6c 103c
00000080: 23f1 17bd 3e5c 2c3e ca49 353d d346 013e
00000090: eecc 8f3c 2d21 6a3c 2815 afbd 8e06 c43d
000000a0: 35c7 b93d c4f3 b33c df6d 66bd 9fa7 cbbb
000000b0: 1464 573d d9d3 f5bb d096 7e3d efe3 b63d
000000c0: ca23 663d ec12 95be 56ef 35be d6b3 13be
000000d0: 6b53 57bb ee88 ea3d 7502 f8bd face c7bd
000000e0: bc79 9c3d ae76 80bd a4b1 a73d b88a 6cbe
000000f0: 7107 99bd 3cc5 283d 0d24 2abc f7a7 f53b
00000100: 1332 c639 8b1c 68be b792 a43d 3678 743d
00000110: 21b8 093e ad1f a6bd 3132 babd 58fe 923c
00000120: 5c09 c33b 292f 513e efe1 4d3d 3afb 483d
00000130: 7328 a0be 985d 48bd 7324 c9bd 4780 e1bd
00000140: 4b74 cabc 8af9 42bd 9cde 8ebd 92e7 d3bd
00000150: ffd9 763d 5bf6 e73d be5a 103e 48e2 903d
00000160: e80f 0e3b 4864 b43c 602e b83c 91b7 e33d
00000170: eb0d 753d b490 763c 826c 65be 85ea ecbd
00000180: 6ccd 02be 4437 9ebd 09f6 03be 3d1b b9bd
00000190: e86b 71bc adce 533e 599d 183e 992d a6bd
000001a0: 375f 45be c2b2 36be b77d b73d b65c 153e
000001b0: d7d4 14bd 5b5e 023d 4e66 e03d 147b cf3c
000001c0: b17a ce3c def6 02be 7880 dbbd bddb 6cbd
000001d0: 2b78 ebbd 9f8a bc3d bc15 c13d b045 b23d
000001e0: ff78 8cbd 4d31 45be 2739 04be f21e 7e3e
000001f0: a237 f03d be95 b23d 805b 9e3d 5709 72bd
00000200: 22a1 51bd 1dc1 123e 54dc c8bc ad6b 163d
00000210: f09d 61be f8ef 61bc b4f9 3c3b 540e 6a3d
00000220: ea7b 3cbd ff07 a2bd a99e f13d edf8 30bd
00000230: a2b7 cdbc 7778 c53c 59f5 26bd 935e b53d
00000240: 79f8 60bc 630c 903d 06d6 41be e7cd 173c
00000250: 6c40 1e3e 2ccc 843d 6a07 2cbd cc7b 48be
00000260: e0a6 adbd 094d 0580 fc0a 0600 d9b1 0280
00000270: 52e0 0500 32f1 0200 71f5 0500 9fed 0280
00000280: 7210 0580 d634 0680 2a3b b93c d815 3c3c
00000290: 9422 1e3e 93cd 12bd 0360 703d 1ebf d6bb
000002a0: c044 b13c b52a 85bc 9868 263d 07a0 b93d
000002b0: b7c7 4e3d cc9b 853d 67ca ea3b 781a 9b3d
000002c0: fe3a 753c 0f35 323d 76e5 01be da92 373d
000002d0: a992 b8bc fd06 c3bc b1dc fd3d a34c 48bd
000002e0: 3f27 0c3b 2d1d c6bc d703 a53d c43a 2b3d
000002f0: 51fd bc3c ce84 b63c 7d15 a43c 004f c53c
00000300: 2698 03be 4819 ca3d c099 f53c ca92 dc3d
00000310: 8bba 4cbe 8f0b febd 42c0 a43c fd8c c0bd
00000320: e987 863d f0af e7bd 3647 3b3d c710 3abd
00000330: 96db 343d fa75 713d c144 56be 7b1d 9bbd
00000340: cd5e 293d 9ba2 ee3c 0455 95bc 4492 913d
00000350: cee8 95bd ef08 e93d f942 333d ee84 893d
00000360: c00f 3f3d b66a bbbb d3e8 7d3d 5b57 85bd
00000370: f13a 403e 3157 4abb ee4b 33bd b459 4abe
00000380: 3fc3 18bd a068 39bd 2f6b 9ebc 9276 71bd
00000390: 30a7 44bc f976 11be 29b8 06be 898f 513d
000003a0: 7797 c83d e45d b93d ea5b fdbc a01e 253c
000003b0: a2ff ff3b 2244 2abe 9ece 503d fe9d cb3c
000003c0: 9f8b 31bd 34ca 23be e09e d8bd 1cfc 793d
000003d0: 7dd6 d63d 3e57 063c dbae 01be 0118 703d
000003e0: e3fa f33d 795f 6b3d f148 afbd feb0 18be
000003f0: 6f79 033c 0ff8 9fbd 8f08 603d 6471 93bd

encoder_cnn.4.bias f4 [32]
0.028489266 0.022839408 -0.086602315 0.062521465 0.08760945 0.07134904 -0.015084873 0.13688786
-0.053351592 0.087643646 -5.1908785e-12 -0.05354279 0.07288198 0.1116519 -1.6650763e-31 0.04499622
-0.008345521 0.10246046 -0.05157959 0.018777655 0.0521174 0.041865766 -0.030917572 -0.012474005
-0.02839576 0.08876574 0.02468251 -0.015435809 -0.043478414 -0.008503411 0.0005458037 -0.0358955
00000000: 5262 e93c b619 bb3c 8e5c b1bd 410b 803d
00000010: 956c b33d 721f 923d 8b26 77bc 552c 0c3e
00000020: 3387 5abd 837e b33d 47a3 b6ac af4f 5bbd
00000030: 2643 953d c0a9 e43d a723 588c f54d 383d
00000040: a7bb 08bc cad6 d13d 1f45 53bd 99d3 993c
00000050: 0e79 553d 707b 2b3d d946 fdbc c55f 4cbc
00000060: 3a9e e8bc d0ca b53d fa32 ca3c 7ae6 7cbc
00000070: 6c16 32bd e451 0bbc 4414 0f3a 2907 13bd

encoder_lin.0.weight f4 [64, 288]
0.009770892 0.03932992 0.0032902698 -0.011643662 0.012822904 -0.010128867 -0.02338589 -0.04526906
-0.016003266 -0.004045523 -0.00579337 0.011400791 -0.029104428 -0.07960512 0.046930935 0.051307287
-0.006642022 -0.02575521 -7.512384e-05 -0.030010154 -0.006351789 0.014600141 -0.005872556 -0.03246749
-0.0057304353 0.004109653 -0.02017246 -0.025122648 -0.030317184 -0.017324848 -0.020936139 -0.03582379
0.010024969 -0.0012330554 -0.028888632 0.013198737 -0.024611557 -0.0015703305 0.0003368052 -0.03396788
0.011261615 0.0066849086 -0.020741764 -0.016566284 0.015109556 -0.039915994 0.031466663 -0.0038331395
0.013975462 0.013310781 0.03556544 -0.024053972 0.028277172 0.0017060458 -2.3099205e-05 -0.011805215
-0.034730844 0.015617219 0.07708171 0.061546154 0.0007947808 -0.043251522 0.03132458 -0.049857702
-0.024063911 -0.0145043535 0.0147369 -0.0032444661 0.020277584 -0.021684516 0.0338956 -0.025633607
-0.0041153114 0.047123577 0.033660583 0.003136265 -0.0065402063 -0.014423651 0.00025431844 0.0009013967
0.006199295 -0.018008316 -0.064861156 0.008909382 -0.062018253 0.0016118534 0.04485052 0.0120998435
-0.0011937481 0.08488535 -3.0106558e-28 3.6076874e-28 -4.083071e-28 -3.9021038e-28 5.1723603e-28 -9.148323e-28
3.3977887e-28 -9.531346e-28 5.6375057e-29 0.00053025625 -0.017447475 -0.0016058667 -0.0064955754 0.0014648056
-0.025670417 0.008838648 0.008067874 -0.034205094 -0.017334327 -0.056031603 -0.044293966 -0.0057664653
0.00022587382 0.018924963 -0.07067718 -0.11719303 -0.041478764 -0.0091971615 0.007023329 0.010105471
-0.030286118 -0.008492349 -0.017452685 -0.0066952677 -0.03274336 -0.035010073 -1.531232e-34 1.3008575e-33
4.392021e-34 1.5630487e-32 4.2041982e-32 8.930408e-33 2.5979887e-33 1.3594294e-32 1.6235978e-32 -0.006528
-0.0040224264 0.010186932 -0.0046410696 0.005224683 -0.003426667 0.011587126 0.01733539 0.014929707
-0.00025772178 -0.002410949 0.0061222557 -0.0153210405 0.013920704 -0.018538954 -0.0064637926 0.060362473
0.0017635414 -0.016147355 0.024385497 -0.039090596 -0.029642273 0.0064243414 0.014239206 -0.011409299
-0.031799763 0.016279513 0.023650508 -0.007964547 -0.03343621 -0.007549328 0.10037617 0.027755124
0.007285657 -0.0056616445 -0.04075042 -0.058172714 -0.0058787456 0.036413155 0.016849918 0.008146654
0.045841865 -0.026458576 0.07339932 -0.009155173 -0.062013112 -0.016180573 0.008912677 -0.013418656
-0.028448625 -0.028457113 -0.04869388 -0.0013076635 -0.007865681 -0.02504896 -0.009785368 -0.015094265
-0.02119123 0.0116239255 0.008119654 -0.00024547198 -0.024319066 0.047039054 -0.0059001744 -0.027645012
0.01405456 0.017231364 -0.0046013687 0.08268311 -0.028526641 0.01208102 0.031420365 -0.014107504
-0.05883547 -0.011278209 0.010974018 -0.051169697 -0.029495308 -0.013150992 -0.043254867 -0.08122504
0.014222102 -0.017062662 0.011948293 -0.0034569588 -0.0065759504 -0.025508115 0.004247544 0.02988397
-0.034152426 -0.046463206 -0.029182715 0.042038538 0.0017334385 -0.032073732 0.005085186 -0.044252355
0.009391292 -0.0058687073 -0.031346895 -0.006535546 -0.04815694 0.0076422486 -0.09538014 0.053235795
-0.026962848 0.051142324 -0.01754598 -0.022015337 0.0636089 0.007699217 0.005318484 -0.061979976
0.032265667 -0.013696843 0.001857559 0.030840289 -0.0018791797 -0.024460437 0.012530687 -0.0011073548
00000000: 1716 203c 6918 213d 91a1 573b 0fc5 3ebc
00000010: 2817 523c 8cf3 25bc c493 bfbc 0d6c 39bd
00000020: 4819 83bc 4e90 84bb 4fd6 bdbb 62ca 3a3c
00000030: 696c eebc 0208 a3bd a73a 403d 9727 523d
00000040: 52a5 d9bb 97fc d2bc ce8b 9db8 dbd7 f5bc
00000050: ab22 d0bb 6e35 6f3c 926e c0bb a1fc 04bd
00000060: 60c6 bbbb 45aa 863b b740 a5bc 03ce cdbc
00000070: be5b f8bc d7ec 8dbc 4482 abbc f7bb 12bd
00000080: c43f 243c 799e a1ba daa7 ecbc 843f 583c
00000090: 2d9e c9bc 8cd3 cdba 3b95 b039 e721 0bbd
000000a0: a382 383c 140d db3b a2ea a9bc 04b6 87bc
000000b0: 128e 773c f47e 23bd 30e3 003d 6935 7bbb
000000c0: 56f9 643c 7615 5a3c 11ad 113d d60c c5bc
000000d0: 87a5 e73c 669d df3a 2ac5 c1b7 a96a 41bc
000000e0: ee41 0ebd 5ddf 7f3c 04dd 9d3d d217 7c3d
000000f0: d658 503a 8228 31bd 344e 003d 9737 4cbd
00000100: ae21 c5bc aba3 6dbc 0a73 713c 1ca1 54bb
00000110: 2d1d a63c baa3 b1bc 1dd6 0a3d 92fd d1bc
00000120: bcd9 86bb a704 413d aedf 093d cc89 4d3b
00000130: 3a4f d6bb 2d51 6cbc 0b56 8539 b54b 6c3a
00000140: 7523 cb3b 2d86 93bc edd5 84bd a8f8 113c
00000150: da06 7ebd d344 d33a 2eb5 373d 6c3e 463c
00000160: 8a77 9cba 5fd8 ad3d afd2 be91 13aa e411
00000170: cf65 0192 4153 f791 2ceb 2312 02f6 9092
00000180: 465c d711 bc07 9792 81ed 8e10 e500 0b3a
00000190: 02ee 8ebc f27b d2ba d6d8 d4bb b8fe bf3a
000001a0: c44a d2bc facf 103c 1e2f 043c a41a 0cbd
000001b0: b800 8ebc 6581 65bd 976d 35bd 9ef4 bcbb
000001c0: 8bd8 6c39 8608 9b3c 33bf 90bd e602 f0bd
000001d0: a3e5 29bd b1af 16bc f423 e63b 6b91 253c
000001e0: 981a f8bc 7e23 0bbc eff8 8ebc fa63 dbbb
000001f0: e71d 06bd b966 0fbd 2089 4b87 5c24 d808
00000200: 2ff3 1108 f650 a20a 614b 5a0b 317a 390a
00000210: 1cd5 5709 d52b 8d0a a29a a80a d5e8 d5bb
00000220: 8fce 83bb 17e7 263c 1d14 98bb d133 ab3b
00000230: ef91 60bb eed7 3d3c f302 8e3c bb9b 743c
00000240: d51e 87b9 0301 1ebb 349d c83b 1a05 7bbc
00000250: aa13 643c 01df 97bc 39ce d3bb a43e 773d
00000260: a126 e73a 7547 84bc 18c4 c73c 761d 20bd
00000270: 5ad4 f2bc 4883 d23b 8f4b 693c 12ee 3abc
00000280: 7840 02bd 9d5c 853c b6be c13c bb7d 02bc
00000290: 68f4 08bd 5a60 f7bb 0592 cd3d b75e e33c
000002a0: 85bc ee3b 5185 b9bb eae9 26bd 8346 6ebd
000002b0: 7ea2 c0bb f625 153d d708 8a3c 8b79 053c
000002c0: aec4 3b3d a8bf d8bc 6252 963d 94ff 15bc
000002d0: 7601 7ebd 1f8d 84bc 7a06 123c ecd9 5bbc
000002e0: 170d e9bc e41e e9bc 3c73 47bd e865 abba
000002f0: 0fdf 00bc 7a33 cdbc cf52 20bc f04d 77bc
00000300: 3b99 adbc 4772 3e3c 4c08 053c b1b2 80b9
00000310: c738 c7bc 06ac 403d 4056 c1bb cb77 e2bc
00000320: 1945 663c ca28 8d3c 14c7 96bb c355 a93d
00000330: b4b0 e9bc 78ef 453c a4b2 003d 2923 67bc
00000340: 76fd 70bd 3dc8 38bc 5ecc 333c 5197 51bd
00000350: 25a0 f1bc 4277 57bc 042c 31bd 5059 a6bd
00000360: d203 693c ffc6 8bbc c6c2 433c 258e 62bb
00000370: 127b d7bb 65f6 d0bc fb2e 8b3b 3acf f43c
00000380: 6ae3 0bbd 3450 3ebd 9710 efbc 9a30 2c3d
00000390: 8b34 e33a bf5f 03bd a2a1 a63b f541 35bd
000003a0: efdd 193c 494e c0bb 9a65 00bd 2228 d6bb
000003b0: 3640 45bd d46b fa3b aa56 c3bd c70d 5a3d
000003c0: 31e1 dcbc 9d7a 513d 96bc 8fbc 8259 b4bc
000003d0: 6245 823d b749 fc3b ad46 ae3b b7de 7dbd
000003e0: 0129 043d b968 60bc 5679 f33a c6a4 fc3c
000003f0: cf4e f6ba 4161 c8bc 834d 4d3c a924 91ba

encoder_lin.0.bias f4 [64]
-0.029859187 -6.10015e-40 0.00091235037 -0.079304084 -2.1514872e-10 0.019689 -0.03529714 0.006695918
0.007840515 0.004511583 0.03940444 -6.594142e-19 0.02818596 0.038506538 -0.041350137 0.047497176
0.019080024 0.011218813 -9.860563e-21 0.019832214 -0.023553316 0.05313767 -2.24239e-40 0.026063934
-0.038352028 3.902487e-14 -0.0068495763 0.0015332137 7.58124e-08 0.015017851 -0.0709224 0.070737034
0.06177876 0.043202527 0.037032235 0.08524657 0.026940709 0.037881877 0.05905393 -0.04319419
-0.04505615 -0.0013947882 -0.031707294 2.4767894e-30 0.022631468 -6.71228e-40 -0.00077474635 0.009230336
-0.038971927 -0.07172384 -0.0066992547 0.0013668002 0.025141763 -0.006887612 0.03222142 0.039153337
0.025556298 0.00084266765 -2.734666e-07 -0.062336635 0.0041898377 0.022787519 -0.07457545 -0.028091777
00000000: 419b f4bc 79a4 0680 cc2a 6f3a 2e6a a2bd
00000010: fb8e 6caf d34a a13c bc93 10bd 6e69 db3b
00000020: 8175 003c e7d5 933b 8d66 213d ee9f 42a1
00000030: 3ee6 e63c 08b9 1d3d c35e 29bd 668c 423d
00000040: b64d 9c3c 1dcf 373c c242 3a9e 2b77 a23c
00000050: e2f2 c0bc e3a6 593d 1671 0280 0884 d53c
00000060: 0417 1dbd 9dc0 2f29 6972 e0bb 1df6 c83a
00000070: 4fce a233 6f0d 763c c33f 91bd 94de 903d
00000080: ba0b 7d3d 22f5 303d 1daf 173d c195 ae3d
00000090: c3b2 dc3c 072a 1b3d 89e2 713d 64ec 30bd
000000a0: cc8c 38bd 53d1 b6ba 82df 01bd e7f0 480e
000000b0: a165 b93c 1c4f 0780 5918 4bba d63a 173c
000000c0: 07a1 1fbd f3e3 92bd 6c85 dbbb 3426 b33a
000000d0: 19f6 cd3c 7ab1 e1bb 9cfa 033d 405f 203d
000000e0: 715b d13c 78e6 5c3a f7d0 92b4 b354 7fbd
000000f0: e84a 893b e4ac ba3c 03bb 98bd ba20 e6bc

encoder_lin.2.weight f4 [2, 64]
-0.08977616 -0.0013475568 -0.0038477024 -1.4790528 -0.024271749 0.017325744 -0.04945223 -0.0025725868
0.5279754 0.8493203 0.029905986 -0.0055799983 0.15447436 0.008779896 -0.035034794 0.016888715
-0.6594032 0.026793046 -0.008810001 0.15655155 -0.24567504 0.009267137 -0.0052634976 0.26628745
-0.16257934 0.016012426 -0.33969215 -0.38066962 0.001157469 -0.0066845147 -0.097565986 0.06003279
0.05157654 0.025451638 0.012476207 0.18897443 0.020027936 -0.072114676 0.07601929 -0.65586156
0.7076892 0.1644221 -0.07423526 -0.00579214 0.12886193 6.0448423e-05 -0.008558016 0.108565494
-0.055468332 -0.10960045 -0.32961774 0.059375256 0.13456355 -0.2119071 0.021778215 0.1156313
-0.012158429 0.6133606 -2.9532635e-05 -0.061917547 0.0110866185 0.08105236 -0.11018656 -0.57873946
0.03667883 -0.0016226748 -0.014498578 -0.012144272 -0.022897992 -0.022672048 -0.0079820985 -0.01985577
-0.03415335 -0.03452069 -0.0065374547 0.00950152 0.06749456 -0.021816205 0.0048356424 -0.048134383
0.20595421 -0.017310174 0.022761235 0.10607431 -0.033947285 -0.07479623 0.0040890183 -0.19399807
0.014924523 -0.0020918483 -0.705802 0.7468934 0.006521915 -0.10666871 0.02015643 -0.037599936
-0.06760186 -0.027029408 -0.010255578 -0.15060498 -0.009448623 -0.13583945 -0.074829035 -0.57680726
-0.758428 0.6086697 -0.02406066 -0.011982724 -0.29276097 0.00011403682 0.026642526 0.12541823
-1.399351 0.012851599 0.31868404 -0.07108214 0.38931012 0.18754189 -0.03536191 0.05079498
-0.04936152 -0.35656747 6.61636e-06 0.013432087 -0.038589507 -0.045676637 0.016649757 -0.7863581
00000000: 90dc b7bd 81a0 b0ba bc29 7cbb 9a51 bdbf
00000010: 8cd5 c6bc b8ee 8d3c 6c8e 4abd d898 28bb
00000020: 6529 073f 0e6d 593f 66fd f43c 6bd8 b6bb
00000030: 872e 1e3e 8ed9 0f3c a580 0fbd 345a 8a3c
00000040: a6ce 28bf 177d db3c d357 10bc 0d4f 203e
00000050: 3d92 7bbe 31d5 173c 6b79 acbb d456 883e
00000060: 337b 26be 7e2c 833c 21ec adbe 21e7 c2be
00000070: 37b6 973a c609 dbbb add0 c7bd f1e4 753d
00000080: ec41 533d f47f d03c 0169 4c3c 8382 413e
00000090: a011 a43c dcb0 93bd 00b0 9b3d 8be6 27bf
000000a0: 1f2b 353f 445e 283e a808 98bd fecb bdbb
000000b0: 62f4 033e 008a 7d38 ec36 0cbc 9657 de3d
000000c0: c332 63bd 3376 e0bd a8c3 a8be 7833 733d
000000d0: 07cb 093e 2dfe 58be 3a68 b23c 1ad0 ec3d
000000e0: 2634 47bc 3305 1d3f dabc f7b7 419d 7dbd
000000f0: a6a4 353c c8fe a53d 7ea9 e1bd 4528 14bf
00000100: 8a3c 163d eeaf d4ba 728b 6dbc c5f8 46bc
00000110: 9294 bbbc bbba b9bc 59c7 02bc 91a8 a2bc
00000120: 62e4 0bbd 9165 0dbd 2538 d6bb 43ac 1b3c
00000130: 963a 8a3d e6b7 b2bc 4f74 9e3b 8f28 45bd
00000140: a9e5 523e 11ce 8dbc c575 ba3c 7d3d d93d
00000150: 4f0c 0bbd c42e 99bd 2cfd 853b 6ea7 46be
00000160: fd85 743c 6417 09bb 71af 34bf 6834 3f3f
00000170: cab5 d53b 2075 dabd 191f a53c 6402 1abd
00000180: d872 8abd c76c ddbc 0307 28bc 3138 1abe
00000190: 66ce 1abc 7f19 0bbe f73f 99bd a4a9 13bf
000001a0: 5628 42bf c7d1 1b3f dc1a c5bc 3053 44bc
000001b0: c4e4 95be 0d27 ef38 6d41 da3c a36d 003e
000001c0: ef1d b3bf 838f 523c 8e2a a33e 8393 91bd
000001d0: a853 c73e fb0a 403e a6d7 10bd 660e 503d
000001e0: 4e2f 4abd 0390 b6be 1a02 de36 4212 5c3c
000001f0: 0810 1ebd 6d17 3bbd 1265 883c c44e 49bf

encoder_lin.2.bias f4 [2]
0.02714381 -0.17920855
00000000: b25c de3c 7282 37be
