encoder_paramsfold2.pth (torch, 101191 bytes, 10 tensors)

encoder_cnn.0.weight f4 [8, 1, 3, 3]
0	0xbe601e5b	-0.2188658
1	0xbe39db8d	-0.18150158
2	0xbceeddb3	-0.029158449
3	0x3d1e93e6	0.038715266
4	0x3de257a7	0.110518746
5	0x3cf4a4af	0.029863684
6	0x3dacf7bb	0.08445688
7	0xbe05482a	-0.1301581
8	0xbcf1949a	-0.029489804
9	0x8003b4f7	-3.40424e-40
10	0x0002e680	2.66359e-40
11	0x80085f62	-7.68901e-40
12	0x80039b8b	-3.31305e-40
13	0x000d0a23	1.197498e-39
14	0x000aa2d7	9.76771e-40
15	0x8002a9c7	-2.44576e-40
16	0x8011b134	-1.624772e-39
17	0x80089ef7	-7.9171e-40
18	0x3ea5ec82	0.32407004
19	0x3f29a1be	0.66262424
20	0x3f0bc3de	0.54595745
21	0x3f3bb09d	0.73316365
22	0x3f8588a1	1.0432321
23	0x3f498941	0.7872506
24	0x3f131e67	0.57468265
25	0x3f4e90d7	0.8068976
26	0x3f0317de	0.51208293
27	0x3e658c49	0.22416796
28	0x3f25bd0c	0.6474159
29	0x3f03d689	0.5149923
30	0x3ea2b043	0.31775102
31	0x3f28f186	0.65993536
32	0x3f134a5d	0.57535344
33	0x3df96847	0.121780924
34	0x3f07010c	0.5273597
35	0x3e76ed2a	0.24113908
36	0x3d25f62b	0.040517967
37	0x3e74fdac	0.23924893
38	0xbc8c4f9e	-0.017127808
39	0x3e9f1f9d	0.31078807
40	0x3f188034	0.5957062
41	0x3ea394a1	0.31949332
42	0x3ed6b86d	0.4193758
43	0x3f2b562b	0.66928357
44	0x3ea7d118	0.32776713
45	0xbe3957d7	-0.18099914
46	0xbcd5dc61	-0.026106061
47	0xbe5ae69b	-0.21377032
48	0xbe2f8b9a	-0.17143098
49	0xbe0ad7e1	-0.13558914
50	0xbe2e1ce6	-0.17003211
51	0x3d8ac47c	0.06775758
52	0x3e3f58c5	0.18686207
53	0x3d293df2	0.04131884
54	0x3e83bef6	0.2573163
55	0x3f1417b7	0.57848686
56	0x3e2f0aa6	0.17093906
57	0x3f0126af	0.5044965
58	0x3f1ab785	0.6043628
59	0x3ed74d5b	0.42051205
60	0x3e3fdc31	0.1873634
61	0x3eeb95fc	0.46012866
62	0x3e903102	0.2816239
63	0x3d5afb25	0.053462166
64	0xbe0443c2	-0.12916473
65	0xbdeb275f	-0.11482119
66	0x3b6de919	0.0036302267
67	0xbe1a906d	-0.15094157
68	0x3d0d6083	0.03451587
69	0x3e5473d5	0.20747311
70	0xbdf72e14	-0.120693356
71	0xbbdf1ea5	-0.006809073

encoder_cnn.0.bias f4 [8]
0	0x3ea0250d	0.31278268
1	0x8007c3a6	-7.13034e-40
2	0x3a919620	0.0011107363
3	0x3a7884ef	0.0009480258
4	0x3a4b7e42	0.00077626493
5	0x3e912c9d	0.2835435
6	0x3a1a9678	0.00058970554
7	0x3e8d388e	0.2758221

encoder_cnn.2.weight f4 [16, 8, 3, 3]
0	0xbba480ae	-0.0050202226
1	0xbd2c3843	-0.042045843
2	0xbd5489b6	-0.051889144
3	0x3d172c15	0.036907274
4	0xbac90f44	-0.0015339633
5	0xbcf327ba	-0.029682029
6	0x3d02053e	0.03174328
7	0xbd2566d5	-0.04038127
8	0xbc9373cd	-0.017999554
9	0x800a5963	-9.50421e-40
10	0x80121e49	-1.663903e-39
11	0x000e3936	1.30622e-39
12	0x00050bca	4.63407e-40
13	0x00091ee2	8.37598e-40
14	0x80088952	-7.83945e-40
15	0x800ad72f	-9.95548e-40
16	0x0001fe84	1.83138e-40
17	0x800f1b68	-1.387364e-39
18	0xbd994a2b	-0.074848495
19	0x3e63c223	0.22242026
20	0x3e84ddc5	0.25950447
21	0x3d5de0d4	0.05416949
22	0x3ebf24c2	0.3733273
23	0x3ea993e2	0.33120638
24	0x3dbc89dc	0.09205982
25	0x3e6834ee	0.22676441
26	0x3e16029c	0.14649433
27	0x3d0eb291	0.034838263
28	0x3ea6e74a	0.32598335
29	0x3e3424f3	0.1759222
30	0x3dbb44e5	0.09144
31	0x3ebc7144	0.36805165
32	0x3e6f6670	0.2337892
33	0x3d7ddcb4	0.061978057
34	0x3e5caa82	0.21549419
35	0x3dbfe492	0.09369768
36	0x3bd4979a	0.006487799
37	0x3e651116	0.22369799
38	0x3e2ce304	0.16883475
39	0x3d95e7e8	0.07319623
40	0x3e87a636	0.26493996
41	0x3e4049e3	0.18778186
42	0x3dc33dba	0.09533258
43	0x3e3f61e4	0.18689686
44	0x3e5f7ed0	0.21825719
45	0x3d006609	0.03134731
46	0xbdfd99ae	-0.12382828
47	0xbdef614e	-0.11688481
48	0xbd618ed8	-0.055067867
49	0xbe35f8b8	-0.1777066
50	0xbe0dad89	-0.1383573
51	0xbc95812a	-0.018250067
52	0xbe04ed41	-0.1298113
53	0xbdde87d5	-0.10865752
54	0x3d58213e	0.052766077
55	0x3e83e984	0.25764096
56	0x3e524f57	0.20538078
57	0x3da07f9a	0.07836838
58	0x3e9644ea	0.29349452
59	0x3e69814f	0.22803234
60	0x3da4d2f4	0.080480486
61	0x3e4a8e5a	0.19780865
62	0x3e34886e	0.17630169
63	0xbc616994	-0.013758082
64	0xbdefd7fa	-0.11711116
65	0xbc33ef57	-0.010982356
66	0xbc1d513a	-0.009601885
67	0xbd9b29c0	-0.075763226
68	0xbd723bdc	-0.059139118
69	0xbd41c956	-0.04731115
70	0xbd36dbcc	-0.04464321
71	0xbd1cd16f	-0.03828567
72	0x3dfcbbfb	0.12340542
73	0x3da84354	0.08215967
74	0x3d9cd23f	0.07657289
75	0x3e0c7853	0.13717775
76	0x3daea450	0.08527434
77	0x3ddf12a0	0.10892224
78	0x3df54517	0.119760685
79	0x3ddb1a00	0.106983185
80	0x3d6f8825	0.058479447
81	0x800ce410	-1.18384e-39
82	0x800bbce8	-1.077957e-39
83	0x000a38ba	9.38705e-40
84	0x0013664b	1.78157e-39
85	0x0006f582	6.39085e-40
86	0x800ea8c4	-1.346239e-39
87	0x000b3a4a	1.0311e-39
88	0x000b9999	1.065291e-39
89	0x8002e266	-2.64887e-40
90	0x3d483b6d	0.048884798
91	0x3e3ec3dd	0.18629403
92	0x3dc897cf	0.0979458
93	0xbd1267c5	-0.035743494
94	0xbd2db970	-0.042413175
95	0xbda2d2be	-0.07950352
96	0xbdd04ba3	-0.101706766
97	0xbe85e8da	-0.26154214
98	0xbe4baf69	-0.19891132
99	0x3d2aa187	0.04165795
100	0x3e0ca308	0.13734066
101	0x3dc1f544	0.09470609
102	0x3aa88194	0.0012856
103	0x3d5e75e9	0.054311667
104	0xbca34693	-0.019931113
105	0xbdf03f80	-0.11730862
106	0xbe336e88	-0.17522633
107	0xbe211311	-0.1572993
108	0xbb786212	-0.0037900251
109	0x3df744eb	0.12073692
110	0x3d39aa05	0.04532816
111	0xbd14e94b	-0.036355298
112	0xbd3ce1c6	-0.04611375
113	0xbd10d96b	-0.035363596
114	0xbce50aec	-0.02795931
115	0xbe190045	-0.14941509
116	0xbe043bc2	-0.12913421
117	0x3da5f4b6	0.081033155
118	0x3d8f7c2f	0.07006108
119	0x3da85a1f	0.08220314
120	0x3da99976	0.082812235
121	0x3d857654	0.0651671
122	0x3db0bd48	0.086298525
123	0x3de3a727	0.11115866
124	0x3dec2423	0.1153033
125	0x3dee712e	0.11642681
126	0xbcb4c548	-0.022066727
127	0x3deaaf1b	0.1145918
128	0x3da037e5	0.07823161
129	0xbd1994db	-0.037495475
130	0x3d0f74e0	0.03502357
131	0xbc4d98a2	-0.0125485975
132	0xbd7da99f	-0.06192934
133	0xbe40667a	-0.18789092
134	0xbe116149	-0.14197268
135	0x3db3cd4c	0.08779392
136	0x3dced547	0.10099273
137	0x3dc379f2	0.095447436
138	0x3d9222c6	0.07135539
139	0x3d575449	0.052570615
140	0x3d8758db	0.06608745
141	0x3e074e9f	0.13213585
142	0x3dd4de56	0.1039397
143	0x3dbf2384	0.09332946
144	0x3ce5debd	0.028060311
145	0x3c4932be	0.012280164
146	0x3d026a0f	0.031839427
147	0xbca5c26b	-0.020234307
148	0x3c36bf4b	0.011154006
149	0x3cdb7a0f	0.0267916
150	0x3c87af63	0.016563123
151	0x3d43897f	0.04773855
152	0x3d6b6810	0.05747229
153	0x8000c748	-7.1489e-41
154	0x8003c4be	-3.46084e-40
155	0x000d2513	1.207161e-39
156	0x800ccdee	-1.1759e-39
157	0x800b7ae7	-1.05428e-39
158	0x800f1d8c	-1.388132e-39
159	0x00005a4c	3.2392e-41
160	0x000fc2dc	1.447435e-39
161	0x800ba062	-1.067725e-39
162	0x3e4b62f0	0.1986196
163	0x3d26f38f	0.04075962
164	0xbdae3a74	-0.08507243
165	0x3e5b6d34	0.21428376
166	0xbdff6a18	-0.12471408
167	0xbe94d714	-0.29070342
168	0x3e405b48	0.18784821
169	0xbdb5687b	-0.08857819
170	0xbe59ceff	-0.21270369
171	0x3dccfb6c	0.100088924
172	0x3cae5f22	0.021285597
173	0xbd61a0fd	-0.05508517
174	0x3e1e430e	0.15455267
175	0xbd1f66e3	-0.03891648
176	0xbe3d04ef	-0.18458913
177	0x3e1ae24e	0.15125391
178	0xbdc3afac	-0.09554991
179	0xbe1bfffc	-0.15234369
180	0x3e010455	0.12599309
181	0x3d6e4aac	0.05817668
182	0xbd66df8b	-0.05636553
183	0x3e0a9bd9	0.13536014
184	0xbd9d829a	-0.07690926
185	0xbe0ba0b8	-0.13635528
186	0x3ddfb19f	0.109225504
187	0xbd5579a4	-0.05211796
188	0xbda604fd	-0.0810642
189	0x3c95dbc8	0.018293276
190	0x3c5616c1	0.013066948
191	0x3caa8684	0.020816095
192	0xbd74e1bd	-0.059785593
193	0x3c09bf80	0.008407474
194	0x3cde11c0	0.027108073
195	0xbd1b5e5a	-0.037931778
196	0x3c991a5e	0.01868933
197	0x3d26ec05	0.04075243
198	0x3dbc63d8	0.09198731
199	0x3d3376bd	0.04381441
200	0xbd1bafce	-0.038009457
201	0x3e2cb505	0.16865928
202	0xbcf6388b	-0.030056259
203	0xbe1add37	-0.1512345
204	0x3e165c70	0.146837
205	0xbd4b336f	-0.049609598
206	0xbdf76f7c	-0.12081811
207	0x3cd97199	0.026543425
208	0x3ce1ca21	0.027562203
209	0x3d3a3789	0.04546312
210	0x3cac0e4a	0.021002907
211	0x3d2562ec	0.040377542
212	0x3d08087c	0.033211216
213	0x3cb40f6b	0.021980008
214	0x3d2762f9	0.040865872
215	0x3d1903f0	0.03735727
216	0x3de7a70e	0.1131116
217	0x3dbd0b61	0.09230686
218	0x3de36dcc	0.111049265
219	0x3e07a47e	0.13246343
220	0x3d873f7e	0.06603907
221	0x3dcd596f	0.10026824
222	0x3e16c79a	0.1472458
223	0x3ddea500	0.10871315
224	0x3d8d5c90	0.069024205
225	0x8000a05e	-5.7529e-41
226	0x801161b8	-1.596258e-39
227	0x800bee0a	-1.095583e-39
228	0x8006294a	-5.65825e-40
229	0x000786f8	6.91266e-40
230	0x8006adbc	-6.13337e-40
231	0x000b06b4	1.012595e-39
232	0x800eae1a	-1.348153e-39
233	0x0010ae82	1.53197e-39
234	0x3e0fd87d	0.14047427
235	0x3dd9df5d	0.10638306
236	0xbd71f26a	-0.059069075
237	0xbe11057d	-0.1416225
238	0xbe0732c4	-0.1320296
239	0xbe2e9364	-0.17048413
240	0xbd97a4e1	-0.07404495
241	0x3d72c1de	0.059266917
242	0x3e2e926f	0.17048047
243	0x3dd5d1f6	0.104404375
244	0x3db7c9f8	0.08974069
245	0xbd4f2f44	-0.050582185
246	0xbe01786f	-0.12643598
247	0xbd19eca9	-0.037579212
248	0xbe11280d	-0.14175434
249	0xbcfc8978	-0.030827269
250	0x3db367f4	0.08760062
251	0x3d977081	0.07394505
252	0x3cc79ab3	0.024365759
253	0x3d7ac174	0.061219648
254	0xbce7b800	-0.02828598
255	0xbdc7be23	-0.097530626

encoder_cnn.2.bias f4 [16]
0	0x3c37477e	0.011186479
1	0x3e33f084	0.17572218
2	0x3e01503e	0.12628266
3	0x3e01e67f	0.12685584
4	0x3e0cae7c	0.13738436
5	0x3d1cee7d	0.038313378
6	0x3e311bdd	0.17295785
7	0x3e35d74e	0.17757913
8	0x3d98de9e	0.07464336
9	0x3ca4fc7e	0.020139929
10	0x3e039043	0.12848
11	0x3de1cdb6	0.110255644
12	0xa5a5e5ff	-2.877879e-16
13	0x3db57053	0.08859315
14	0x3db062f4	0.08612624
15	0x3e194d73	0.14970951

encoder_cnn.4.weight f4 [32, 16, 3, 3]
0	0xbd75558c	-0.059896037
1	0xbd082272	-0.033235975
2	0x3d96de63	0.07366636
3	0xbdccd1dc	-0.10000965
4	0xbe8f859a	-0.28031617
5	0xbe902609	-0.2815402
6	0xbe3d1d34	-0.18468171
7	0xbce423a7	-0.027849032
8	0xbd3d5012	-0.04621894
9	0x3c58e261	0.013237567
10	0x3d15a190	0.03653103
11	0xbd9a8604	-0.07545093
12	0x3db8ce2a	0.09023698
13	0x3e17d6e3	0.14828067
14	0x3defff54	0.11718622
15	0x3d71e04f	0.059051808
16	0xbcc1e74d	-0.023669863
17	0x3cd842c9	0.026399033
18	0xbe17d769	-0.14828266
19	0xbdc0d840	-0.094162464
20	0x3dac4345	0.08411268
21	0xbcadc66f	-0.021212785
22	0x3cc18589	0.023623245
23	0xbd84610f	-0.06463825
24	0xbd428dd8	-0.047498554
25	0x3d60eddf	0.05491435
26	0xbe026d4f	-0.1273701
27	0xbca1a2da	-0.019730974
28	0x3c972684	0.018450983
29	0x3d1aac5a	0.037762024
30	0x3d3fd6b8	0.04683563
31	0x3cdf87a3	0.027286356
32	0x3decc367	0.115607075
33	0x3d6da06f	0.05801433
34	0x3d9abdb2	0.07555713
35	0xbd86b5ce	-0.06577645
36	0x3c468ea7	0.012118972
37	0x3d34dc2d	0.04415529
38	0xbdb871d5	-0.09006087
39	0x3e35703e	0.17718598
40	0x3e35345a	0.17695752
41	0x3e92d877	0.28680775
42	0x3e5ee31a	0.2176632
43	0xbc7d8339	-0.01547318
44	0xbd406d8f	-0.046979483
45	0x3e0d2966	0.13785324
46	0x3b1bdf87	0.0023784356
47	0x3dcd709f	0.100312464
48	0x3e3cd130	0.18439174
49	0xbd66c5c5	-0.05634095
50	0xbe83b83c	-0.25726497
51	0xbda58f5b	-0.080839835
52	0x3d341e2b	0.043974083
53	0x3da75213	0.08169951
54	0x3ca04b51	0.019567164
55	0x3b9a5e85	0.0047109746
56	0xbd5e0600	-0.05420494
57	0x3d0115f7	0.031515088
58	0xbd4d001b	-0.05004893
59	0x3e0bbb63	0.13645701
60	0x3c9278bf	0.017879842
61	0x3ccfbb6d	0.025357926
62	0xbcf8c03d	-0.030365104
63	0xbd83a410	-0.06427777
64	0xbcd3ae27	-0.025839878
65	0x3ce59265	0.028023908
66	0x3d671564	0.056416884
67	0xbc21160c	-0.009831917
68	0x3dce3251	0.10068191
69	0x3cad8e6e	0.02118608
70	0x3c610b10	0.013735548
71	0x3e08b239	0.13349237
72	0x3d5cae10	0.053876936
73	0x3d15c253	0.036562275
74	0xbcb813d7	-0.022470398
75	0x3c6e4d7b	0.01454484
76	0x3ac4d663	0.0015017506
77	0xbe526686	-0.20546922
78	0xbd3cef3e	-0.046126597
79	0x3e1ff399	0.15620269
80	0x3d281863	0.041038882
81	0x3d5d72cc	0.054064557
82	0x3dc299e6	0.0950201
83	0x3dcc3c6f	0.09972464
84	0x3de7d921	0.11320711
85	0xbdcfede5	-0.10152797
86	0xbea5c709	-0.32378414
87	0xbe3d63d8	-0.18495119
88	0x3dc4988b	0.09599408
89	0x3d41cc68	0.047314078
90	0x3e06500f	0.13116477
91	0x3d9f2c1e	0.077720866
92	0x3dff36d0	0.124616265
93	0x3e451ffb	0.19250481
94	0x3e056bab	0.13029353
95	0x3d5ad5b8	0.053426474
96	0xbd9b023b	-0.07568785
97	0x3dccb67f	0.09995746
98	0x3e6c935c	0.23103088
99	0xbcee9ce5	-0.029127548
100	0xbd8cc161	-0.068728216
101	0x3da6640a	0.0812455
102	0xbdaa383a	-0.083115056
103	0xbdf4ec93	-0.119591855
104	0xbd8eb568	-0.06968194
105	0xbda3c02a	-0.07995637
106	0x3db97c8a	0.09056957
107	0x3d0d1c0c	0.034450576
108	0x02b155ac	2.6056986e-37
109	0x0007f565	7.3088e-40
110	0x8002c170	-2.53063e-40
111	0x00046c35	4.0616e-40
112	0x0001cfd2	1.66387e-40
113	0x800181ce	-1.384e-40
114	0x800225dd	-1.97254e-40
115	0x80017e88	-1.37226e-40
116	0x173d3bbc	6.114459e-25
117	0x3e0dcd96	0.13847956
118	0x3d739017	0.059463587
119	0x3c120624	0.008912597
120	0x3d790dbe	0.06080412
121	0x3d134801	0.03595734
122	0x3d8593e9	0.06522352
123	0x3d38274a	0.044959344
124	0x3d722268	0.059114844
125	0x3dc5c314	0.09656349
126	0xbc03ca41	-0.008043827
127	0x3e01889b	0.12649767
128	0x3e3aa8b3	0.18228416
129	0xbd487930	-0.0489437
130	0x3d10ae07	0.035322215
131	0xbda9e0a4	-0.082948
132	0x3df74a7d	0.120747544
133	0x3e47dfbb	0.1951894
134	0x3e22a7a4	0.15884262
135	0xbdc20113	-0.09472861
136	0xbc9449d5	-0.018101612
137	0x3d902ba5	0.070395745
138	0xbdc853ab	-0.097815834
139	0xbda32574	-0.07966128
140	0x3cd0923e	0.025460359
141	0xbddcf41d	-0.107887484
142	0x3d685596	0.056722246
143	0xbe091c80	-0.13389778
144	0xbe783dba	-0.24242297
145	0xbd62312d	-0.05522268
146	0xbda59f39	-0.0808701
147	0xbdad0f2a	-0.08450158
148	0x3d571a91	0.05251557
149	0xbe272180	-0.16321373
150	0x3e13cdb7	0.14433943
151	0xbe1443b6	-0.14478955
152	0xbe4406af	-0.19143175
153	0x3c318941	0.010835947
154	0xbd0fad33	-0.035077285
155	0x3db9e84b	0.090775095
156	0xbb8225ac	-0.003971776
157	0x3ce0db2a	0.027448256
158	0xbc549260	-0.012974352
159	0xbd3ca223	-0.046053063
160	0x3c9f71d1	0.019463452
161	0x3d35551b	0.044270616
162	0x3d5e0674	0.054205373
163	0xbd083336	-0.033251964
164	0xbd9a4443	-0.07532551
165	0x3cdb69d6	0.026783865
166	0x3d329eb8	0.043608397
167	0x3d74fe95	0.0598131
168	0x3d4c6147	0.04989746
169	0x3c7ee189	0.015556701
170	0x3d1b3342	0.03789068
171	0x3d8e76e2	0.06956269
172	0x3dab2c7b	0.08358093
173	0xbd61c7ec	-0.0551223
174	0xbc1cdb92	-0.009573834
175	0x3a86acb0	0.0010274854
176	0x3d1bcd01	0.038037304
177	0x3d30d0fc	0.043168053
178	0xbd44b37b	-0.04802273
179	0x3c6e3227	0.014538324
180	0xbcd8c12b	-0.026459297
181	0xbdce2737	-0.100660734
182	0x3d7d4303	0.061831485
183	0x3c9c807c	0.019104235
184	0xbd956a36	-0.07295649
185	0xbba33815	-0.0049810507
186	0xbe034794	-0.12820274
187	0xbd1110ee	-0.035416536
188	0xbc4bcdd7	-0.012439213
189	0x3b9b4f69	0.004739691
190	0xbdb59496	-0.08866231
191	0xbbeeb804	-0.00728512
192	0xbe0d2cf3	-0.13786678
193	0x3d52dbfc	0.051479325
194	0x3c019c10	0.007910743
195	0x3e07179b	0.13192599
196	0x3c655de3	0.013999435
197	0xbdacc2f4	-0.08435622
198	0x3e0283e7	0.12745629
199	0x3d499569	0.049214754
200	0xbd847d7f	-0.06469249
201	0x3c349efe	0.011024235
202	0x3d393537	0.045216765
203	0x3cea4b1e	0.028600272
204	0xbcdbbfdf	-0.02682489
205	0x3c12c358	0.008957706
206	0x3d4692b2	0.048479743
207	0xbac35ec6	-0.0014905564
208	0x3d57d2e9	0.052691374
209	0x3e279a88	0.16367543
210	0xbbb2a0d5	-0.0054513016
211	0xbb1d4ec9	-0.0024003258
212	0x3c8f9e6c	0.017531596
213	0x3d3698d3	0.04457934
214	0x3d0b06bf	0.03394198
215	0x3d67f5a1	0.056630734
216	0x3d8fa374	0.07013598
217	0x3dac9802	0.08427431
218	0xbe5634a8	-0.20918524
219	0x3c84d57f	0.016215084
220	0xbdff9829	-0.12480194
221	0x3cc00385	0.023439178
222	0x3d6110ed	0.054947782
223	0x3cea79b0	0.028622478
224	0xbce4240c	-0.02784922
225	0xbe1093a7	-0.14118825
226	0xbcd2c2a1	-0.025727572
227	0x3cbc9970	0.023022383
228	0xbdea1847	-0.11430412
229	0x3dc4efee	0.096160755
230	0xbd90771f	-0.070539705
231	0x3e4b6ee4	0.1986652
232	0xbd07bed6	-0.03314098
233	0xbe15c687	-0.14626513
234	0x3ce2c9c0	0.027684093
235	0xbd231694	-0.039816454
236	0x3dc9e0da	0.0985734
237	0xbddd4a0a	-0.108051375
238	0x3d1bd350	0.03804332
239	0x3d30433a	0.043032862
240	0xbb335926	-0.002736637
241	0x3cf59f2c	0.029983126
242	0x3db74d67	0.0895031
243	0x3d8caf54	0.06869379
244	0xbc956b45	-0.018239627
245	0xbdbfec85	-0.093712844
246	0x3d79b3a3	0.06096233
247	0xbe1afa4b	-0.15134542
248	0x3d4a7644	0.049429193
249	0x3d422925	0.04740252
250	0x3d45ece8	0.048321635
251	0x3c987f63	0.01861543
252	0x800830d6	-7.52203e-40
253	0x800639d6	-5.7176e-40
254	0x0008069f	7.37059e-40
255	0x80093295	-8.44665e-40

encoder_cnn.4.bias f4 [32]
0	0x3d83df75	0.064391054
1	0x3d407380	0.04698515
2	0x3ca8f55f	0.020624815
3	0x3da826e5	0.082105435
4	0x3cd57713	0.026057756
5	0x3b1cbc44	0.0023915926
6	0x3c89c6a2	0.016818348
7	0x3dc9258b	0.09821614
8	0x3d94e182	0.07269575
9	0x3b6644bb	0.0035136181
10	0x3df90906	0.12159924
11	0xbd3c2035	-0.045929153
12	0x3d1df8fc	0.038567528
13	0x3d90d383	0.07071593
14	0x3d205ae9	0.0391492
15	0x3db327dd	0.08747838
16	0x3dbb5b72	0.09148301
17	0x3b808911	0.0039225896
18	0x3d12f94c	0.03588228
19	0x3d820376	0.06348316
20	0x3ce908d8	0.0284466
21	0x3b298aad	0.002587001
22	0xbcee334e	-0.029077198
23	0x3dcec677	0.10096448
24	0xb017f625	-5.528327e-10
25	0x3cec321b	0.028832486
26	0x3c573658	0.013135515
27	0x3ca587b2	0.020206306
28	0xbcb73b4b	-0.02236714
29	0x3dae9258	0.085240066
30	0xbc075d81	-0.008262039
31	0xb51e1ea0	-5.890415e-07

encoder_lin.0.weight f4 [64, 288]
0	0x3c1db3be	0.009625373
1	0x3e3b45ab	0.18288295
2	0x3c1ca17b	0.009559984
3	0x3d54e6ad	0.051977802
4	0x3d901618	0.07035464
5	0x3cd92200	0.02650547
6	0xbd48fc48	-0.04906872
7	0x3ccc98d1	0.024975212
8	0x3d2c81c8	0.042115957
9	0xbcd4bb8a	-0.025968332
10	0xbca68bd1	-0.020330342
11	0xbd36af72	-0.04460091
12	0xbc3c267e	-0.011483787
13	0xbdbeaaf1	-0.09309948
14	0xbd1eac6d	-0.038738657
15	0xbbd1af1e	-0.0063990494
16	0xbcbfb6a4	-0.02340252
17	0x39a705ae	0.00031856954
18	0xbce5a90c	-0.02803471
19	0xbda5f0ac	-0.08102545
20	0xbc3b6b7f	-0.011439203
21	0x3c75184d	0.014959407
22	0xbbfd2fe5	-0.0077266567
23	0x3d995e45	0.074886836
24	0x3cfb7522	0.030695502
25	0x3c903cb6	0.017607074
26	0xbd4f3c95	-0.050594885
27	0xbc093c36	-0.008376172
28	0xbc0d24e8	-0.008614756
29	0xbd715852	-0.05892212
30	0xbca0c5dc	-0.019625597
31	0xbc6c0a2a	-0.01440672
32	0xbcd986b9	-0.026553499
33	0xbca4349c	-0.020044617
34	0xbc4b2ec5	-0.012401287
35	0xbda87fb7	-0.08227485
36	0xbc66c8a3	-0.014085921
37	0xbd91c77c	-0.07118127
38	0xbcb0b132	-0.021568868
39	0xbc54a455	-0.012978633
40	0xbc985d36	-0.018599134
41	0x3d80cf9a	0.06289597
42	0xbb78a7f6	-0.003794191
43	0xbcfed990	-0.031109601
44	0x3d1bc5d0	0.038030446
45	0xbc68d823	-0.014211687
46	0xbc55cf0b	-0.013049851
47	0xbdf2bdfe	-0.118526444
48	0xbbe44d60	-0.0069672316
49	0xbbcdaff7	-0.00627708
50	0x3e02ebe2	0.12785295
51	0xbd2fe394	-0.042941645
52	0xbae18373	-0.0017205313
53	0xbd95bad0	-0.07311022
54	0xbc69fcb0	-0.014281437
55	0xbc2e5fa9	-0.010642924
56	0xbcdefc65	-0.02721996
57	0xbc9882fc	-0.018617146
58	0xbcc7abfb	-0.024373999
59	0xbd32d0bf	-0.043656107
60	0xbba232d2	-0.004949906
61	0xbb47d176	-0.0030489839
62	0x3bad222a	0.0052836137
63	0x3cc9c8aa	0.024631817
64	0x3d5b4812	0.05353553
65	0xbdb02e63	-0.086025976
66	0xbce8aa47	-0.028401507
67	0x3d0761eb	0.033052366
68	0xbb33cf56	-0.0027436814
69	0x3c3df331	0.011593626
70	0x3db15571	0.08658875
71	0x3d0eae69	0.0348343
72	0xbc88f66d	-0.016719067
73	0xbbde9a26	-0.0067932783
74	0xbd84d1a2	-0.06485297
75	0x3d8dc409	0.06922156
76	0xbb3a21bb	-0.0028401453
77	0xbd54c496	-0.05194529
78	0xbdd97ce5	-0.10619525
79	0xbcbb575f	-0.02286881
80	0x3d744d91	0.059644286
81	0xbc810a74	-0.015752055
82	0xbbd7876c	-0.006577423
83	0x3cec2862	0.02882785
84	0xbc0b7073	-0.008510697
85	0xbc047c80	-0.008086324
86	0x3b2f75c9	0.0026773086
87	0xbc6d5ef6	-0.0144879725
88	0x3a501053	0.0007937003
89	0xbd5f8368	-0.05456868
90	0xbb10bfbf	-0.0022086946
91	0x3d49803d	0.049194563
92	0x3d4c9fd2	0.049957104
93	0x3d062f68	0.032760054
94	0xbcc115ab	-0.023569902
95	0x3ca24716	0.019809287
96	0x3d454419	0.048160646
97	0xbcfa1f09	-0.030532377
98	0x3c6e4203	0.014542106
99	0x3b6c883a	0.003609194
100	0x3c59f055	0.0133019285
101	0xbcb7d4d0	-0.022440344
102	0x3ca88e47	0.020575656
103	0xbc12a09a	-0.008949423
104	0xbca4eb1c	-0.02013164
105	0x3bad0a8b	0.005280798
106	0xbd653527	-0.055958893
107	0xbd790ae0	-0.060801387
108	0xbc805be1	-0.015668811
109	0x3c66ce7c	0.014087316
110	0xbdeb3af2	-0.11485852
111	0x3ca7349e	0.020410832
112	0xbc8b69c3	-0.017018205
113	0xb9640a35	-0.00021747577
114	0x3ca83c66	0.020536613
115	0x3d936dd9	0.07198686
116	0xbd52073b	-0.051276427
117	0x3c38c379	0.011277073
118	0xbe068696	-0.13137278
119	0x3c9c6692	0.019091878
120	0xbc90ef06	-0.0176921
121	0xbb2e7945	-0.0026622575
122	0xbdcd47b2	-0.100234404
123	0xbc9fbb43	-0.019498473
124	0xbdf0a615	-0.11750428
125	0x3c78886a	0.015169242
126	0xbd00f75a	-0.031485893
127	0xbc2637c7	-0.010145134
128	0xbcafc14b	-0.021454474
129	0x3bb3a6c6	0.0054825274
130	0xbbcc3996	-0.0062324507
131	0x3a6fd641	0.0009149053
132	0xbc409e0d	-0.011756432
133	0x3d2154a3	0.039387356
134	0x3b4c5d37	0.003118349
135	0xbb1c6de6	-0.0023869216
136	0x3c1377f0	0.009000763
137	0x3c2c03b7	0.010498933
138	0xbc23b713	-0.009992379
139	0xbc39fd7b	-0.011351938
140	0xbdad3ec3	-0.084592365
141	0x3cde89dd	0.027165348
142	0xbd02855f	-0.031865474
143	0x3cd067b1	0.025440069
144	0x386f35ef	5.703227e-05
145	0x3c4aca7a	0.012377376
146	0xbb152ea1	-0.0022763389
147	0x3c4273b3	0.011868405
148	0x3cfed780	0.031108618
149	0x3bdc01b0	0.0067140684
150	0xbdfbcb22	-0.12294604
151	0xbc9ad005	-0.01889802
152	0xbce05472	-0.027384017
153	0xbb41b2fd	-0.0029556148
154	0xbd5541e2	-0.052064784
155	0xbca913b5	-0.02063928
156	0xbd96889a	-0.073502734
157	0xbce74c43	-0.028234607
158	0x3bc8c11c	0.006126536
159	0xbcd9b358	-0.026574776
160	0xbbd4388f	-0.006476469
161	0xbe3e4557	-0.18581139
162	0xbca1b613	-0.01974014
163	0xbd5e29a2	-0.054238923
164	0x3c219f00	0.009864569
165	0x3c9d0efc	0.019172184
166	0xbc16f8e8	-0.009214617
167	0xbceadc6b	-0.028669557
168	0xbd15dca1	-0.03658736
169	0xbd7e88ac	-0.06214206
170	0xbaedd076	-0.0018143791
171	0xbbde6139	-0.006786492
172	0xbd6942fa	-0.05694864
173	0xbc9ed4ee	-0.019388642
174	0xbd1147cf	-0.035468873
175	0xbd2fbf44	-0.042907014
176	0x3c4b023c	0.012390669
177	0xbda173a6	-0.07883386
178	0xbcf8807c	-0.030334704
179	0xbe07616a	-0.13220754
180	0x3c7ac55c	0.015305843
181	0xbd0d6a5c	-0.03452526
182	0x3d83480f	0.064102285
183	0x3d12d4f5	0.035847623
184	0xbbbe1edc	-0.0058020186
185	0x3d08a6ea	0.033362307
186	0x3d21168c	0.039328143
187	0x3dd005de	0.10157369
188	0x3c451361	0.012028546
189	0x3c0586be	0.008149801
190	0xbb5ed9cc	-0.0034004329
191	0xbcaafca8	-0.020872429
192	0x3c09a358	0.008400761
193	0x3d262535	0.040562827
194	0xbd0fb603	-0.03508569
195	0x3be35044	0.0069370586
196	0x3cef9884	0.02924753
197	0xbe6ef0b9	-0.23334016
198	0x3b7b389f	0.003833331
199	0xbbfc5ca1	-0.007701472
200	0xbc276c55	-0.010218699
201	0xbd5e17ec	-0.054222032
202	0xbd4310ec	-0.04762356
203	0xbd2535b7	-0.04033443
204	0xbd5ed5f2	-0.054403253
205	0xbc92490b	-0.017857095
206	0xbc445059	-0.011982047
207	0x3be9642d	0.0071225376
208	0x3d91bc18	0.07115954
209	0xbc0eb9fa	-0.008711332
210	0x3cd06c3b	0.025442233
211	0xbca2b7e3	-0.019863075
212	0xbd2b7437	-0.041858878
213	0x3d838f2f	0.064237945
214	0x3d09790f	0.033562716
215	0x3cda3839	0.026638137
216	0x2e88feda	6.229835e-11
217	0x302f384c	6.374463e-10
218	0x307da230	9.2271346e-10
219	0x30b5b14b	1.3219873e-09
220	0x317c0234	3.6672079e-09
221	0x312f2c2c	2.549096e-09
222	0x30b3ae8c	1.3073573e-09
223	0x31a4bbcd	4.7943787e-09
224	0x312154a3	2.3476694e-09
225	0xbaeb0238	-0.0017929738
226	0x3c906bf5	0.017629603
227	0x3d94fa49	0.072743006
228	0xbc0d5600	-0.008626461
229	0x3cf710ee	0.03015944
230	0x3ced646e	0.028978553
231	0xbd5c5567	-0.053792384
232	0xbbd2ccc4	-0.0064331014
233	0x3cb242f1	0.021760436
234	0xbbc53dba	-0.0060193213
235	0xbccfed7c	-0.025381796
236	0xbd5637a4	-0.052299157
237	0xbd50cc78	-0.050976247
238	0xbdcb5b4c	-0.09929523
239	0xbd13b35b	-0.03605972
240	0xbd32a277	-0.04361197
241	0xbd777335	-0.060412604
242	0x3d640364	0.055667296
243	0xbd0f33ad	-0.03496139
244	0x3af3a293	0.001858788
245	0xbd34379a	-0.04399834
246	0x3d4498b9	0.04799721
247	0x3d2a5d12	0.041592665
248	0xbd9e7a8c	-0.07738218
249	0x3d3fc2c9	0.04681662
250	0xbcbaf999	-0.022824096
251	0xbc5d6caf	-0.013514682
252	0xbd2a95be	-0.04164671
253	0x3c4edb0c	0.012625467
254	0x3c19c09b	0.0093843
255	0xbd04e056	-0.032440506

encoder_lin.0.bias f4 [64]
0	0x3bf4d49f	0.0074716355
1	0xbcb35a18	-0.021893546
2	0xbc872e2c	-0.016501509
3	0xbb1b4d76	-0.0023697293
4	0x3c6dda5f	0.014517396
5	0x3d7d632b	0.061862152
6	0xbb3b78f7	-0.0028606036
7	0x3d8a56b3	0.06754818
8	0xbbd2d0b8	-0.0064335726
9	0xbc7b8d51	-0.015353517
10	0x3b685cfc	0.0035455814
11	0x3b9fd5e2	0.0048777917
12	0x3d51c355	0.051211674
13	0xb62abb59	-2.5441025e-06
14	0x3d5c1ddd	0.053739417
15	0xb9d71dd9	-0.00041030234
16	0x3c69288f	0.014230861
17	0x3c3e2f1c	0.011607911
18	0xbd83ce42	-0.06435825
19	0x3d7b7074	0.06138654
20	0x0001dcea	1.71085e-40
21	0xbbb21ded	-0.0054356963
22	0x3d4fe556	0.05075582
23	0xbacedd47	-0.0015782499
24	0xbc30aeab	-0.010783832
25	0xbbfaa3b6	-0.0076489104
26	0x3c801aa0	0.015637696
27	0xbc6371d1	-0.013882116
28	0x3d852681	0.06501485
29	0x3bbd352f	0.0057741622
30	0xb823518a	-3.8938168e-05
31	0x3c96a298	0.018388078
32	0xbd9d8fde	-0.07693456
33	0x00052032	4.70727e-40
34	0x3c5a1c90	0.013312474
35	0xbcaf1570	-0.021372527
36	0x3c0875b3	0.008328843
37	0xbba3fa62	-0.005004213
38	0x3d3c587c	0.045982823
39	0x3d74ebb3	0.059795093
40	0x3d861bc8	0.065482676
41	0x3cbf3de0	0.023344934
42	0xbc3190d6	-0.010837754
43	0xbaa6eaa4	-0.0012734723
44	0x3d344176	0.04400774
45	0x3c75bba6	0.014998352
46	0x3d633dea	0.055478968
47	0x3c96a450	0.018388897
48	0x80031ece	-2.86557e-40
49	0xbba65e9a	-0.0050771954
50	0xbcbe180d	-0.023204828
51	0xbca8be40	-0.02059853
52	0xbba8faa0	-0.00515683
53	0x3cf73d3e	0.03018057
54	0x81a837f1	-6.1793725e-38
55	0xbd044a09	-0.032297168
56	0x3cb06883	0.02153421
57	0xb987a60a	-0.00025872915
58	0x3cd95ef7	0.02653454
59	0x3d84bd5a	0.064814284
60	0x3aabaa1b	0.001309696
61	0x3b1ba759	0.002375087
62	0x3c307bfd	0.010771749
63	0x3d738470	0.059452474

encoder_lin.2.weight f4 [2, 64]
0	0xbd726e67	-0.05918732
1	0x3eab9e9b	0.33519444
2	0x3e3d8e9f	0.18511437
3	0xbe7bb06b	-0.24579017
4	0x3f483217	0.7820143
5	0xbd9ff8ae	-0.07811104
6	0xbf2230cd	-0.63355714
7	0x3eff99fd	0.4992217
8	0xbf2577e4	-0.64636064
9	0x3edf12fe	0.43569177
10	0xbeb11461	-0.3458586
11	0xbd11c390	-0.035586894
12	0xbd7ede54	-0.062223747
13	0xbca99986	-0.020703088
14	0xbe457a3c	-0.1928491
15	0xbf4ac631	-0.79208666
16	0xbeb91d8b	-0.36155352
17	0xbd0d1ef8	-0.034453362
18	0xbf4d1698	-0.801126
19	0xbd962c4e	-0.07332669
20	0xbc7c6107	-0.0154039925
21	0x3d359a2b	0.04433648
22	0xbe0756c4	-0.13216692
23	0xbf014809	-0.5050054
24	0xbd0f7204	-0.035020843
25	0xbe1568a4	-0.14590698
26	0xbea9bbbf	-0.3315105
27	0xbeee3fd9	-0.46533087
28	0xbda0ecf1	-0.07857693
29	0xbf38bbcf	-0.72161573
30	0xbe91c221	-0.2846842
31	0xbe135201	-0.14386751
32	0xbf53e514	-0.8277142
33	0x3a74935b	0.0009329819
34	0xbf0f75bf	-0.5603904
35	0xbf14d76a	-0.58141196
36	0x3e6ebb72	0.23313692
37	0x3e4c448e	0.19948027
38	0x3c76b24d	0.015057159
39	0xbd8f03cf	-0.06983148
40	0xbd80b244	-0.062840015
41	0xbd6e5d37	-0.058194365
42	0x3d63d930	0.055627048
43	0xbeed3d9a	-0.4633606
44	0xbe86986f	-0.26288173
45	0xbef75cb4	-0.48312914
46	0xbdf548f9	-0.11976809
47	0xbe7f53c7	-0.24934302
48	0xbc07a9b0	-0.008280203
49	0xbe69b48f	-0.22822784
50	0x3d503dfb	0.05084036
51	0x3edd3578	0.43204856
52	0x3e46ca91	0.1941321
53	0xbd974a4f	-0.0738722
54	0xbc4feb06	-0.012690311
55	0x3e878335	0.2646729
56	0xbe2d3eff	-0.16918562
57	0x3de5d3d4	0.11222044
58	0x3d84afb6	0.06478827
59	0xbdd97dd7	-0.10619705
60	0xbe93c5e8	-0.28861928
61	0x3e72291e	0.23648497
62	0x3f488b94	0.7833798
63	0xbd8177f1	-0.06321705
64	0x3eab9556	0.33512372
65	0x3dc863fd	0.09784696
66	0x3e22d160	0.15900183
67	0x3ebb647c	0.366001
68	0x3e119ed9	0.14220752
69	0x3db5f0f7	0.08883851
70	0xbed2567c	-0.41081607
71	0xbed75781	-0.42058948
72	0x3e177c15	0.14793427
73	0x3e77b8a0	0.24191523
74	0x3e483701	0.19552232
75	0xbdba15b8	-0.09086174
76	0x3e85def1	0.26146653
77	0x3c85ab22	0.016316954
78	0x3ddcb01c	0.10775778
79	0xbe0562bb	-0.13025944
80	0x3ea7aac6	0.32747477
81	0xbdb40984	-0.087908775
82	0x3cebe1ec	0.028794251
83	0x3dae9bb7	0.08525794
84	0x3c110e18	0.008853458
85	0x3e3e6233	0.18592148
86	0xbe8e523e	-0.2779712
87	0x3dee1540	0.11625147
88	0x3e90dded	0.28294316
89	0x3f532998	0.8248534
90	0xbf1da20a	-0.61575377
91	0x3f34fc90	0.7069788
92	0x3e027faa	0.12744012
93	0xbe1ac61a	-0.15114632
94	0xbc1088f6	-0.0088217165
95	0x3f1f9389	0.62334496
96	0xbe246e30	-0.16057658
97	0xba609d10	-0.0008568326
98	0xbe09696a	-0.13419119
99	0x3f23a6b4	0.63926244
100	0x3de89cab	0.11358007
101	0x3e56e9a4	0.20987564
102	0x3e78907c	0.24273866
103	0x3db13aea	0.08653815
104	0x3de228d5	0.11042944
105	0xbdf73e53	-0.12072434
106	0x3dbb7527	0.091532044
107	0x3e5b6562	0.21425393
108	0x3e612ec7	0.219905
109	0x3e2ea650	0.1705563
110	0x3e0f7fd3	0.14013605
111	0xbdfd6f62	-0.1237476
112	0xba62765e	-0.0008638854
113	0x3e8ef4a4	0.2792102
114	0x3dac097c	0.084002465
115	0x3ef9be91	0.48778203
116	0x3f2328f5	0.6373437
117	0xbe11b294	-0.14228278
118	0x3bb32857	0.0054674554
119	0x3ea3d5bb	0.31999
120	0x3e909a36	0.28242654
121	0x3f11ba72	0.5692512
122	0x3f1d3c14	0.61419797
123	0x3dc126e6	0.094312474
124	0x3e137dd8	0.14403474
125	0x3eff97e3	0.49920568
126	0xbcaba252	-0.020951424
127	0x3d9f1767	0.077681355

encoder_lin.2.bias f4 [2]
0	0xbe487789	-0.19576849
1	0x3df433cf	0.11923944
