encoder_paramsfold1.pth (torch, 101191 bytes, 10 tensors)

encoder_cnn.0.weight f4 [8, 1, 3, 3]
0.6512703 1.0589479 0.72718817 0.8098227 0.9402389 0.45713726 0.4314501 0.33463207
0.07810353 -0.019052926 0.05693335 -0.0770123 -0.13821095 -0.18633924 -0.16328198 -0.18343598
-0.12886491 -0.06973118 -0.1407172 -0.21555045 -0.20244725 -0.17080814 -0.205808 0.007819552
0.0042979047 0.100118734 0.030850828 0.29053992 0.61065286 0.5585493 0.5767369 0.9196345
0.72906923 0.50031346 0.7240592 0.5055426 -0.093841255 -0.121791996 -0.019374039 -0.2279161
-0.22615412 -0.03405695 -0.016818631 0.06316095 0.103970006 0.11492527 0.05216542 0.10860779
-0.072110794 -0.18166581 -0.14798607 -0.24429539 -0.22797485 -0.10589371 0.2500354 0.46127766
0.6230397 0.20137714 0.55709434 0.57786286 0.09026747 0.32301483 0.43374628 0.19716091
0.11872925 0.132509 -0.06028341 -0.23467922 -0.1143776 -0.18188493 -0.2674454 -0.1626812
00000000: a6b9 263f 9b8b 873f 0129 3a3f 8a50 4f3f
00000010: 7fb3 703f e50d ea3e 07e7 dc3e e554 ab3e
00000020: bef4 9f3d e214 9cbc f232 693d a0b8 9dbd
00000030: 2c87 0dbe b7cf 3ebe 6433 27be a4d6 3bbe
00000040: 2af5 03be 39cf 8ebd 2b18 10be 42b9 5cbe
00000050: 554e 4fbe 54e8 2ebe 55bf 52be 941d 003c
00000060: 70d5 8c3b 0d0b cd3d e0ba fc3c a6c1 943e
00000070: bf53 1c3f 16fd 0e3f 08a5 133f 2b6d 6b3f
00000080: 48a4 3a3f 8b14 003f f25b 393f 3d6b 013f
00000090: d82f c0bd 156e f9bd 4eb6 9ebc d762 69be
000000a0: f294 67be 4d7f 0bbd 3ac7 89bc 875a 813d
000000b0: 3aee d43d f15d eb3d 68ab 553d c36d de3d
000000c0: d3ae 93bd 9a06 3abe a989 17be 9228 7abe
000000d0: 3d72 69be cdde d8bd a404 803e 962c ec3e
000000e0: 887f 1f3f cf35 4e3e bc9d 0e3f d2ee 133f
000000f0: 27de b83d 3362 a53e fe13 de3e 8de4 493e
00000100: 5228 f33d 70b0 073e bdeb 76bd c04f 70be
00000110: ce3e eabd 0b40 3abe 9aee 88be e795 26be

encoder_cnn.0.bias f4 [8]
-0.0010539237 0.53524214 0.48850322 0.00076519005 0.49741763 0.49502313 0.31105146 0.41371033
00000000: d023 8aba a105 093f 181d fa3e 0997 483a
00000010: 86ad fe3e ac73 fd3e 2342 9f3e d7d1 d33e

encoder_cnn.2.weight f4 [16, 8, 3, 3]
-0.119780816 0.18669055 0.1699595 -0.25547978 -0.38301486 -0.36420786 -0.019208858 0.0708716
-0.04682158 0.16510977 0.12891625 0.13578586 0.1445322 0.13957231 0.15028307 0.08417945
0.069709636 0.059107274 0.08537157 0.032482207 0.05627063 0.15566951 0.13453455 0.14490916
0.092515506 0.0740518 0.12164348 -0.1444314 0.008502327 -0.08983712 -0.21776673 -0.28663543
-0.3436945 0.053621493 0.11222099 0.04278739 0.117281616 0.066961214 0.078126356 0.12349482
0.11867854 0.11782428 0.11759617 0.07814814 0.108901426 0.16931376 0.17722344 0.17731799
0.097523 0.08271577 0.071408026 0.037290968 0.03824867 0.0233037 0.062157243 0.13038355
0.073846236 -0.08460542 -0.1383632 -0.20427333 0.081561506 0.08508424 0.066290095 0.15644825
0.19359705 0.19687642 0.043717805 0.049638774 0.059418824 0.025967708 0.03105785 0.022860913
-0.21481788 -0.04468305 0.024397647 -0.19455287 -0.12627137 -0.14272255 -0.16439122 -0.116139285
-0.12535703 0.2142407 0.1547838 0.14465785 0.16935387 0.1014613 0.14436956 0.17361334
0.13572624 0.08251576 0.15214476 0.113136664 0.10746649 0.14171182 0.10740712 0.11347508
0.12512533 0.08981511 0.10757651 -0.21139866 -0.07044001 -0.11108537 -0.13037789 -0.08727977
-0.16735354 -0.1965827 -0.14865488 -0.062634654 0.1663874 0.11906315 0.10434241 0.14593181
0.098051645 0.07226151 0.12818247 0.07664882 0.12057303 0.17541915 0.12737712 0.14412278
0.105917245 0.079976596 0.07911277 0.14117719 0.09870345 0.07377992 0.005386801 0.04168707
-0.0023289842 -0.0078013916 0.0014102176 -0.0735956 -0.019869518 -0.025381614 0.02222684 0.14287424
0.10654814 0.1377532 0.07115401 0.06337406 0.07775683 0.1219322 0.10758909 0.057297327
-0.2895446 0.08292579 0.27138668 0.025855087 0.56280106 0.49033186 0.015511493 0.2577666
0.14405446 -0.029083207 -0.10400757 -0.09980472 -0.06429538 -0.117726535 -0.08832101 -0.020707916
-0.066175185 0.026011912 0.04021879 -0.030096043 -0.030669447 0.011236432 -0.057874132 -0.045719415
0.015261923 -0.041587275 -0.01875338 0.01672177 0.34535298 0.26952204 0.21474059 0.57851297
0.39475244 0.12315558 0.31519008 0.11750186 0.003616177 -0.025300264 -0.025468733 -0.009376401
-0.053440504 -0.057801653 0.022367068 -0.017426979 -0.01236889 0.0073881736 -0.034493785 -0.050860155
0.0029343977 -0.03878963 -0.007745098 0.030757645 -0.0010681041 0.04434767 0.035314504 0.19501966
0.12421251 0.17869689 0.3201596 0.2332855 0.11510095 0.16955595 0.08356586 -0.025891388
-0.116594516 -0.04519644 -0.018659566 -0.08960186 0.0013505148 0.0042097894 -0.023611134 0.05544127
-0.014711996 -0.015833821 -0.0151518565 -0.017011218 -0.017389808 -0.016657991 -0.01873514 -0.016903495
-0.017633833 -2.0937111e-06 -1.867377e-07 -2.1727605e-07 -8.6539484e-07 -8.754545e-07 -1.329375e-06 -2.038719e-06
-2.2623517e-06 -1.7645666e-06 -3.6611114e-06 -1.3468979e-06 -7.336101e-07 -9.663637e-07 -4.1686616e-07 -2.611636e-07
-1.1062817e-06 -8.9709545e-07 -1.75551e-06 -0.014925097 -0.015651533 -0.015631633 -0.017682018 -0.016700748
-0.016531669 -0.018373441 -0.015577885 -0.017926121 -1.3147786e-05 -6.866291e-06 -2.4298888e-06 -6.8012405e-06
00000000: a54f f5bd cf2b 3f3e dd09 2e3e 3fce 82be
00000010: 861a c4be 7479 babe e55b 9dbc 2125 913d
00000020: fcc7 3fbd 8912 293e 9f02 043e 730b 0b3e
00000030: 4000 143e 0bec 0e3e cee3 193e 4766 ac3d
00000040: edc3 8e3d 781a 723d 4ad7 ae3d 100c 053d
00000050: 087c 663d d467 1f3e 6dc3 093e 1163 143e
00000060: c578 bd3d 78a8 973d 3820 f93d d3e5 13be
00000070: 584d 0b3c 86fc b7bd 3efe 5ebe e1c1 92be
00000080: baf8 afbe 36a2 5b3d 1ed4 e53d d541 2f3d
00000090: 5831 f03d f622 893d b600 a03d daea fc3d
000000a0: bc0d f33d db4d f13d 43d6 f03d 220c a03d
000000b0: b607 df3d 9660 2d3e 107a 353e d992 353e
000000c0: 23ba c73d e366 a93d 5f3e 923d 6abe 183d
000000d0: a3aa 1c3d 67e7 be3c 9898 7e3d 4483 053e
000000e0: b23c 973d 9b45 adbd 15af 0dbe 072d 51be
000000f0: b809 a73d a540 ae3d 1ac3 873d f833 203e
00000100: 4e3e 463e f999 493e 7111 333d 0752 4b3d
00000110: 2761 733d 3bba d43c 086d fe3c cf46 bb3c
00000120: 38f9 5bbe 9305 37bd 93dd c73c de38 47be
00000130: 484d 01be dc25 12be 2c56 28be 6fda edbd
00000140: 985d 00be ea61 5b3e a57f 1e3e 3021 143e
00000150: 1a6b 2d3e f1ca cf3d 9dd5 133e b2c7 313e
00000160: d2fb 0a3e 06fe a83d d6cb 1b3e 32b4 e73d
00000170: 6417 dc3d e71c 113e 44f8 db3d 9f65 e83d
00000180: db20 003e fcf0 b73d 1351 dc3d e478 58be
00000190: da42 90bd ba80 e3bd c881 05be bcbf b2bd
000001a0: ba5e 2bbe fa4c 49be fc38 18be 9946 80bd
000001b0: 7561 2a3e 61d7 f33d 79b1 d53d 266f 153e
000001c0: 4dcf c83d d8fd 933d 4442 033e 0efa 9c3d
000001d0: feee f63d 14a1 333e 266f 023e ec94 133e
000001e0: 24eb d83d c5ca a33d e005 a23d c190 103e
000001f0: 0925 ca3d ed19 973d c383 b03b 10c0 2a3d
00000200: dfa1 18bb d1a2 ffbb 0dd7 b83a 4ab9 96bd
00000210: 66c5 a2bc 1aed cfbc 1015 b63c a04d 123e
00000220: e935 da3d 2d0f 0d3e 32b9 913d 42ca 813d
00000230: f93e 9f3d 97b7 f93d ab57 dc3d 9ab0 6a3d
00000240: 313f 94be ffd4 a93d 32f3 8a3e 0cce d33c
00000250: bb13 103f c70c fb3e eb23 7e3c fcf9 833e
00000260: 0383 133e e83f eebc ec01 d5bd 6b66 ccbd
00000270: 4cad 83bd 9c1a f1bd a5e1 b4bd a6a3 a9bc
00000280: db86 87bd ef16 d53c 75bc 243d fa8b f6bc
00000290: 7e3e fbbc 0319 383c 6d0d 6dbd 4844 3bbd
000002a0: 250d 7a3c 6b57 2abd b0a0 99bc 18fc 883c
000002b0: 1bd2 b03e cbfe 893e f5e4 5b3e 6d19 143f
000002c0: fe1c ca3e fe38 fc3d 9860 a13e d1a4 f03d
000002d0: 62fd 6c3b 8042 cfbc cea3 d0bc 7a9f 19bc
000002e0: 6ee4 5abd 6dc1 6cbd 243b b73c 06c3 8ebc
000002f0: e3a6 4abc 7e18 f23b 5b49 0dbd bd52 50bd
00000300: 064f 403b e0e1 1ebd 97ca fdbb 75f7 fb3c
00000310: a0ff 8bba e7a5 353d f1a5 103d 3cb3 473e
00000320: 2163 fe3d 51fc 363e f6eb a33e 65e2 6e3e
00000330: 0cba eb3d 13a0 2d3e 9424 ab3d 2d1a d4bc
00000340: 1bc9 eebd e71f 39bd f2db 98bc 2e81 b7bd
00000350: c203 b13a 46f2 893b 236c c1bc 6316 633d
00000360: 950a 71bc eeb5 81bc 7e3f 78bc 1c5b 8bbc
00000370: 1275 8ebc 5776 88bc 707a 99bc 3379 8abc
00000380: d474 90bc af81 0cb6 1182 48b4 634c 69b4
00000390: 7b4d 68b5 c600 6bb5 fa6c b2b5 edd0 08b6
000003a0: e8d2 17b6 0cd6 ecb5 6ab1 75b6 0fc7 b4b5
000003b0: 4ded 44b5 01b4 81b5 a6cd dfb4 0d36 8cb4
000003c0: 8d7b 94b5 eecf 70b5 dd9e ebb5 6588 74bc
000003d0: a537 80bc e90d 80bc e1d9 90bc 02d0 88bc
000003e0: 6c6d 87bc e683 96bc 633a 7fbc cdd9 92bc
000003f0: 5095 5cb7 fe64 e6b6 2c11 23b6 3636 e4b6

encoder_cnn.2.bias f4 [16]
0.1272429 0.12337062 0.08652196 -0.0048984108 0.13154632 0.13462298 0.113222845 0.1804081
0.15163411 0.114325725 0.05408176 0.12980536 0.16327514 0.13915245 0.08536225 0.102658555
00000000: f64b 023e bca9 fc3d 6d32 b13d d982 a0bb
00000010: 14b4 063e 9bda 093e 61e1 e73d e7bc 383e
00000020: f945 1b3e 9b23 ea3d d684 5d3d b2eb 043e
00000030: 9931 273e fb7d 0e3e 67d2 ae3d a63e d23d

encoder_cnn.4.weight f4 [32, 16, 3, 3]
0.0006497572 -0.011196215 0.011247353 -0.10790514 0.095346525 0.048899584 -0.057840165 0.01600022
0.04811238 -0.010786419 -0.016721182 0.008569415 -0.060681228 0.10816653 0.07913652 -0.033615552
0.013143971 0.038368717 0.12671709 -0.034183133 -0.15998521 -0.13385405 -0.20441732 -0.15261893
-0.1545873 -0.13184987 -0.112452604 0.0014981191 1.8954536e-06 -2.6294518e-12 0.0005640186 1.4223493e-11
1.1355865e-12 0.00021430654 2.3314563e-08 -2.8658894e-12 -0.023121554 0.0013659361 -0.025118604 -0.02888257
0.13082086 0.0995393 -0.016659 -0.0003923114 0.027367452 0.066349365 -0.0417715 0.09802691
-0.017842546 0.08244379 0.010607149 -0.11882943 -0.04371364 0.0407453 -0.061766792 -0.065803245
-0.033372868 -0.16621137 0.065806925 -0.031161804 0.16731346 -0.074054435 -0.05623939 -0.046783935
-0.028720837 -0.015386901 -0.044002928 0.08562637 0.025991447 -0.018426135 -0.014782854 -0.00374358
-0.01977125 -0.019135987 0.007874903 -0.0031943591 0.049579278 0.07437302 0.00889088 0.062398154
0.03700593 0.046844576 0.010507101 -0.051182073 -0.11824075 0.012873459 0.01826902 -0.028819595
0.08623554 0.015334091 -0.056941852 -0.014387456 -0.011611086 -0.033208698 0.0770966 0.003060361
0.015958061 -0.037729528 -0.015578484 -0.023983624 0.014287425 0.035380542 0.09238177 0.05259885
0.055297535 -0.066426426 0.08257137 0.048446268 0.012547731 -0.0022523568 -0.012059872 -0.101844005
0.059839074 0.049611237 -0.016736755 0.028173953 0.050901297 -0.07788154 -0.042671997 0.041922454
0.0036428538 0.075460434 -0.027638052 0.053470742 -0.03127786 -0.033835262 -0.009870609 -0.011483202
0.008745648 -0.045909166 0.06066706 0.0643422 -0.015290695 0.023709474 0.034713764 0.051905464
0.0202159 0.021525929 0.2906115 -0.03827474 -0.015125549 0.15217744 -0.042455513 -0.040866885
0.0037340454 0.052284926 0.09526491 -0.066378325 -0.041771594 -0.069572926 0.00048482334 -0.075387545
-0.06269624 -0.041692197 0.04109157 0.056431398 -0.0016476249 0.04752461 -0.014551705 0.040975045
-0.019929392 -0.12899053 0.12825835 -0.074384406 0.08725099 0.017880665 -0.18740992 -0.013714033
-0.30009308 -0.002429185 -0.05279619 6.384682e-05 -0.00020397297 0.00047377378 4.0866893e-05 -1.15461226e-07
0.00022869691 -5.3431714e-11 0.00016394969 4.190912e-06 -0.050701097 0.052702628 0.059198044 0.022087079
0.09804068 0.010511805 0.057154022 0.03739463 -0.09061889 0.07863248 -0.07416348 0.09564519
-0.019331552 -0.054543495 -0.20264944 -0.017991414 -0.11887931 -0.034476697 0.12014995 -0.06996473
-0.00075618795 -0.09428437 0.22303838 -0.19054285 -0.016392251 0.20023139 -0.26503915 -0.00090760645
-0.085113175 0.09054878 -0.06843009 0.19112471 -0.052333828 0.043976523 0.23200093 -0.04565941
-0.11818944 0.06330415 0.059567623 0.04078397 0.034416683 0.008421454 0.05882318 -0.028493391
-0.13022815 0.039504893 -0.06899074 0.018054064 -0.0675584 -0.044968314 -0.11103631 -0.0050878283
0.3258247 -0.06758753 -0.0012469979 -0.055657253 0.07095376 -0.0557592 0.1987684 -0.064409696
0.040553067 0.12275873 0.004721337 -0.09345503 0.07963241 0.07350462 0.08370915 0.011951846
0.09692591 0.07812633 -0.03711495 -0.05863387 -0.037551034 0.10469431 0.06216065 -0.025228607
00000000: 7854 2a3a 5470 37bc d146 383c 5ffd dcbd
00000010: 0a45 c33d ee4a 483d cfe9 6cbd e512 833c
00000020: 7d11 453d 85b9 30bc dcfa 88bc bb66 0c3c
00000030: e18c 78bd 6a86 dd3d 5412 a23d 76b0 09bd
00000040: cf59 573c 8428 1d3d 20c2 013e 9d03 0cbd
00000050: 2ad3 23be 0911 09be c652 51be 2348 1cbe
00000060: 224c 1ebe a703 07be 8d4d e6bd 895c c43a
00000070: 4a67 fe35 fe07 39ac a6da 133a eb38 7a2d
00000080: d1d1 9f2b 79b7 6039 4445 c832 46ab 49ac
00000090: 6a69 bdbc 3609 b33a 88c5 cdbc 249b ecbc
000000a0: e7f5 053e 43db cb3d 7578 88bc 25af cdb9
000000b0: b531 e03c 2de2 873d 9818 2bbd 55c2 c83d
000000c0: 882a 92bc 4ad8 a83d 9cc9 2d3c d85c f3bd
000000d0: 130d 33bd 8be4 263d 2dff 7cbd dac3 86bd
000000e0: fdb1 08bd 5033 2abe c8c5 863d 0a47 ffbc
000000f0: 3854 2b3e daa9 97bd 465b 66bd 83a0 3fbd
00000100: f647 ebbc 5719 7cbc 6a3c 34bd e15c af3d
00000110: 04ec d43c 68f2 96bc c933 72bc da56 75bb
00000120: 51f7 a1bc 13c3 9cbc bd05 013c 7458 51bb
00000130: a413 4b3d e250 983d 0eab 113c 3595 7f3d
00000140: 8893 173d 19e0 3f3d fa25 2c3c 4ba4 51bd
00000150: 3528 f2bd 33eb 523c e9a8 953c 1217 ecbc
00000160: 429c b03d d73b 7b3c dc3b 69bd 5db9 6bbc
00000170: 6d3c 3ebc d805 08bd d2e4 9d3d 5690 483b
00000180: 7bba 823c 478a 1abd e63c 7fbc 4e79 c4bc
00000190: ce15 6a3c 30eb 103d a732 bd3d e471 573d
000001a0: ab7f 623d 940a 88bd 2e1b a93d 986f 463d
000001b0: 0095 4d3c 479c 13bb c596 45bc 9793 d0bd
000001c0: d119 753d 2735 4b3d 851b 89bc 10cd e63c
000001d0: e17d 503d 5b80 9fbd d5c8 2ebd e1b6 2b3d
000001e0: f2bc 6e3b 008b 9a3d 3269 e2bc 2304 5b3d
000001f0: 371d 00bd d896 0abd 56b8 21bc 0a24 3cbc
00000200: e849 0f3c 400b 3cbd 067e 783d d8c5 833d
00000210: d385 7abc 5f3a c23c 0530 0e3d d39a 543d
00000220: d19b a53c 2557 b03c 08cb 943e f9c5 1cbd
00000230: 27d1 77bc 67d4 1b3e d5e5 2dbd 0964 27bd
00000240: e3b6 743b b828 563d 401a c33d 5cf1 87bd
00000250: b118 2bbd 407c 8ebd e32f fe39 c964 9abd
00000260: e366 80bd 70c5 2abd a24f 283d 9c24 673d
00000270: 1ef5 d7ba 2aa9 423d 466a 6ebc 73d5 273d
00000280: f742 a3bc 1816 04be 2856 033e da56 98bd
00000290: a6b0 b23d 797a 923c 63e8 3fbe d3b0 60bc
000002a0: cda5 99be f632 1fbb d140 58bd 80e5 8538
000002b0: 94e1 55b9 d764 f839 7e68 2b38 7bf3 f7b3
000002c0: 5cce 6f39 c3fe 6aae e9e9 2b39 a99f 8c36
000002d0: f4ab 4fbd b6de 573d a679 723d f6ef b43c
000002e0: 8dc9 c83d b539 2c3c 561a 6a3d 1d2b 193d
000002f0: 6696 b9bd 110a a13d 06e3 97bd a0e1 c33d
00000300: 345d 9ebc 0069 5fbd 5683 4fbe bb62 93bc
00000310: ff76 f3bd 7037 0dbd 2d11 f63d ab49 8fbd
00000320: ea3a 46ba 2a18 c1bd 2c64 643e aa1d 43be
00000330: 0b49 86bc 7509 4d3e 36b3 87be 70ec 6dba
00000340: d14f aebd a471 b93d 1325 8cbd 32b6 433e
00000350: ff5b 56bd ba20 343d a791 6d3e 5d05 3bbd
00000360: 4e0d f2bd 9ba5 813d 2efd 733d 180d 273d
00000370: 82f8 0c3d 23fa 093c 93f0 703d f96a e9bc
00000380: 875a 05be e2cf 213d 044b 8dbd 1ee6 933c
00000390: 0f5c 8abd b230 38bd 0167 e3bd ccb7 a6bb
000003a0: 7fd2 a63e 556b 8abd 4e72 a3ba dcf8 63bd
000003b0: 3450 913d c263 64bd f289 4b3e 3be9 83bd
000003c0: f91a 263d ee68 fb3d 72b5 9a3b 5a65 bfbd
000003d0: 5116 a33d 9789 963d b46f ab3d add1 433c
000003e0: 1781 c63d b300 a03d d905 18bd 122a 70bd
000003f0: 1dcf 19bd f869 d63d 2a9c 7e3d 39ac cebc

encoder_cnn.4.bias f4 [32]
-0.006266125 0.004912569 0.020874556 0.0037842751 -1.377851e-29 0.013884193 0.013999147 0.038600866
-0.004585858 -0.019588048 0.0007812607 0.03042874 -0.00621287 0.03913615 -0.007047782 -0.0012544171
-0.0019258468 -0.008891705 0.0024147816 0.001113214 0.015198505 0.06363274 0.030401427 0.0055498825
0.01388573 0.007572472 0.016538328 0.034971707 0.04998044 -0.028927507 0.012424195 -0.04358996
00000000: 1154 cdbb 9ef9 a03b 1e01 ab3c 9a01 783b
00000010: 0fbb 8b8f 877a 633c ae5c 653c f11b 1e3d
00000020: f744 96bb 1d77 a0bc 85cd 4c3a b145 f93c
00000030: 5595 cbbb 3a4d 203d 15f1 e6bb 416b a4ba
00000040: b26c fcba 84ae 11bc 5041 1e3b 43e9 913a
00000050: 2603 793c e251 823d 6a0c f93c cadb b53b
00000060: f980 633c 8022 f83b 637b 873c 7e3e 0f3d
00000070: 4ab8 4c3d 61f9 ecbc da8e 4b3c 638b 32bd

encoder_lin.0.weight f4 [64, 288]
0.0145768775 0.028961925 -0.0353957 -0.018643966 -0.002905779 -0.037815403 -0.011870255 -0.03977637
0.029919334 -0.020697886 0.08164606 -0.06489244 -0.027743882 -0.055219974 -0.13632499 -0.0051502013
-0.018329047 0.062610015 0.011011528 0.100237384 0.013308488 -0.018236976 -0.09957874 0.015434244
0.016797788 0.14625463 -0.0548972 0.006350952 -0.04084517 -0.038757976 -0.003284728 -0.071049675
-0.013900092 -0.019963913 0.005023077 -0.06098801 -1.013984e-39 -1.077461e-39 4.366e-40 6.4689014e-29
-1.2621e-41 -7.36735e-40 -8.091205e-30 -8.93262e-40 -3.9959766e-29 0.008734055 0.019641573 -0.14054416
-0.02417682 0.02233332 -0.00355338 -0.10703982 0.023814693 0.061130263 -0.023019312 0.022438768
0.021983963 0.012565675 0.07807113 0.07294902 -0.16267565 0.021434566 0.044155903 -0.002070137
-0.040643062 -0.16983506 -0.057485685 0.00085677067 0.013375382 -0.041503113 -0.07131682 0.00662827
-0.010562294 0.071979396 -0.061467126 -0.030957108 0.05627341 -0.0070753335 -0.0039011165 -0.00030807476
0.12891094 -0.027718011 -0.04269201 0.02052941 0.011632923 0.16662537 0.016089085 -0.04592086
0.0035452165 0.05414414 -0.002421893 0.034257162 -0.06225752 -0.027247148 -0.057274707 -0.032073263
-0.00045162416 -0.13378547 0.010197412 0.0057671247 0.045968078 0.093894966 0.02206366 -0.016991641
-0.12198452 0.053102147 -0.07967022 0.06410176 -0.023667626 0.021602517 0.09161753 -0.02445026
0.06722353 0.046592817 -0.0886841 -0.03626431 -0.112780705 -0.0009113427 0.004075536 -0.0066665397
-0.04290816 -0.10956685 -0.016801953 -0.10171731 0.06168438 0.04408874 -0.012108244 -0.116140954
-0.0054978165 -0.040772468 0.04240241 -0.0106504895 0.0011892376 -0.031861454 -0.0048041786 -0.0047561624
0.080931395 0.07960772 -0.010280944 -0.044349164 0.053954687 -0.060443718 0.0023630697 0.016144086
0.009943919 0.021607723 0.004184847 -0.036050525 -0.012571692 -0.041344423 -0.043478284 -0.021282356
-0.0028207141 0.036899447 -0.08572265 -0.05893826 0.024894606 -0.051648583 -0.12273218 -0.13803001
-0.27037042 -0.031273376 0.012300819 -0.034517583 0.058397323 0.021045204 -0.030374 0.057122074
-0.0031321999 -0.049490128 0.02914807 -0.00018291664 0.05209363 -0.024456311 0.03128955 0.11719878
0.08428553 -0.03755103 0.15109712 0.0033473156 -0.013852304 0.06845397 0.04416962 0.026707148
-0.01586377 -0.03659792 -0.038026348 -0.036560595 0.055229876 -0.028932841 -0.045756202 0.09828591
-0.031002093 -0.06157929 -0.0024733257 -0.005855518 -0.009922287 -0.01750852 -0.00017910686 0.010170363
0.04587005 -0.001773113 -0.099033564 -0.15881932 -0.05791767 0.05003351 -0.0064137913 -0.005774531
0.029483445 0.008732936 -0.011786264 0.0038305155 0.02884392 -0.013826125 -0.06141342 0.10201424
0.011406216 0.033184517 0.12793027 0.004535916 0.00526312 0.040834606 -0.000486885 -0.07969554
0.07974933 -0.010392061 0.025969813 0.08328056 -0.013773953 -0.026511045 -0.08745425 -0.0194135
-0.050869167 0.016478805 0.02998776 0.03911971 -0.17413591 0.04349462 -0.09070218 0.051473893
-0.118487015 0.13196081 -0.0039366665 0.0065683387 0.039316155 0.17791858 -0.0029999004 0.00067708245
0.04581407 -0.06482429 -0.20848925 -0.1049107 0.006696651 -0.09303606 -0.089121126 -0.020752147
00000000: dbd3 6e3c 8f41 ed3c 15fb 10bd 3bbb 98bc
00000010: e26e 3ebb 53e4 1abd 757b 42bc 8cec 22bd
00000020: 6419 f53c 9d8e a9bc 0d36 a73d 54e6 84bd
00000030: 2347 e3bc 572e 62bd c798 0bbe 05c3 a8bb
00000040: cc26 96bc ae39 803d b269 343c 4249 cd3d
00000050: d80b 5a3c b665 95bc f0ef cbbd e9df 7c3c
00000060: 849b 893c c6c3 153e e3db 60bd a61b d03b
00000070: 444d 27bd afc0 1ebd 9744 57bb 7e82 91bd
00000080: 36bd 63bc 5c8b a3bc a098 a43b 90ce 79bd
00000090: 930a 0b80 86bb 0b80 10c1 0400 9201 a410
000000a0: 2f23 0080 b805 0880 f01b 248f 0dba 0980
000000b0: be9e 4a90 4819 0f3c 5de7 a03c cfea 0fbe
000000c0: 770e c6bc 5ef4 b63c d3df 68bb b137 dbbd
000000d0: 0817 c33c ba63 7a3d ff92 bcbc 82d1 b73c
000000e0: b617 b43c 43e0 4d3c c2e3 9f3d 4c66 953d
000000f0: 7294 26be 8b97 af3c d2dc 343d 23ab 07bb
00000100: 5779 26bd 3ee9 2dbe 1c76 6bbd e898 603a
00000110: 6b24 5b3c 2bff 29bd 8e0e 92bd f531 d93b
00000120: 790d 2dbc ef69 933d f4c4 7bbd c399 fdbc
00000130: f27e 663d 33d8 e7bb e0a9 7fbb 1885 a1b9
00000140: 3b01 043e e210 e3bc d1dd 2ebd 4b2d a83c
00000150: 0498 3e3c d79f 2a3e 42cd 833c 8317 3cbd
00000160: dd56 683b 3fc6 5d3d 9fb8 1ebb 3d51 0c3d
00000170: be01 7fbd 6935 dfbc e298 6abd 415f 03bd
00000180: f8c7 ecb9 0fff 08be 0c13 273c 26fa bc3b
00000190: 0649 3c3d 014c c03d d9be b43c 0e32 8bbc
000001a0: 05d3 f9bd a381 593d 242a a3bd c947 833d
000001b0: 9ce2 c1bc c3f7 b03c f9a1 bb3d e94b c8bc
000001c0: 7dac 893d 1cd8 3e3d 02a0 b5bd e389 14bd
000001d0: 92f9 e6bd 2ce7 6eba 138c 853b fd72 dabb
000001e0: 77c0 2fbd 9664 e0bd 40a4 89bc 2a51 d0bd
000001f0: c3a8 7c3d 6596 343d a861 46bc 4fdb edbd
00000200: 0727 b4bb 0801 27bd 26ae 2d3d 647f 2ebc
00000210: 31e0 9b3a 2881 02bd 5f6c 9dbb 95d9 9bbb
00000220: 5cbf a53d 5f09 a33d 6871 28bc 78a7 35bd
00000230: 97ff 5c3d d593 77bd bbdd 1a3b 9a40 843c
00000240: d2eb 223c ae02 b13c 0b21 893b b7a9 13bd
00000250: 7ff9 4dbc c558 29bd 4916 32bd 5658 aebc
00000260: bbdb 38bb e023 173d 5b8f afbd 3f69 71bd
00000270: c6ef cb3c 778d 53bd 025b fbbd bd57 0dbe
00000280: fe6d 8abe 8318 00bd 6089 493c 4f62 0dbd
00000290: 0832 6f3d fe66 ac3c e5d2 f8bc d6f8 693d
000002a0: 9845 4dbb 29b6 4abd efc7 ee3c 50cd 3fb9
000002b0: 2160 553d 9a58 c8bc 7929 003d ea05 f03d
000002c0: e49d ac3d 1ccf 19bd 34b9 1a3e a35e 5b3b
000002d0: c6f4 62bc 9831 8c3d 34eb 343d f3c8 da3c
000002e0: bdf4 81bc b3e7 15bd 84c1 1bbd 90c0 15bd
000002f0: b938 623d 9104 edbc db6a 3bbd 204a c93d
00000300: 1af8 fdbc 913a 7cbd 8517 22bb a5df bfbb
00000310: 1791 22bc 076e 8fbc a2ce 3bb9 98a1 263c
00000320: 3ce2 3b3d cd67 e8ba 1cd2 cabd 88a1 22be
00000330: 143b 6dbd f0ef 4c3d c82a d2bb 4738 bdbb
00000340: 4487 f13c 9714 0f3c 2d1b 41bc 6309 7b3b
00000350: 164a ec3c f986 62bc a38c 7bbd d8ec d03d
00000360: 23e1 3a3c 7dec 073d 2700 033e 05a2 943b
00000370: 4076 ac3b 3042 273d 9944 ffb9 6a37 a3bd
00000380: 9e53 a33d 7743 2abc a5be d43c 008f aa3d
00000390: 25ac 61bc b12d d9bc 371b b3bd 0f09 9fbc
000003a0: 305c 50bd 8ffe 863c e4a8 f53c fd3b 203d
000003b0: af50 32be 6a27 323d 11c2 b9bd 4ad6 523d
000003c0: 52a9 f2bd bc20 073e 27ff 80bb 383b d73b
000003d0: fa09 213d 4a30 363e fa99 44bb 3c7e 313a
000003e0: 89a7 3b3d 99c2 84bd 357e 55be 6cdb d6bd
000003f0: 956f db3b b189 bebd 2385 b6bd 6800 aabc

encoder_lin.0.bias f4 [64]
0.0037031132 -6.113735e-25 0.01522193 -0.0036061227 -0.0068321573 0.028246714 7.16952e-40 -1.8818889e-07
-0.035880465 0.011758289 -1.5923898e-16 0.06342955 -0.012607826 -0.0153249875 -0.0035270061 0.017572837
0.032308318 0.030662762 0.038131174 -0.0053293086 8.5797e-41 -0.004429176 0.0052095978 0.005008714
5.5121e-41 0.0038274324 -0.018290924 -0.009648155 -0.0067926114 0.038099647 -2.40537e-40 -0.0137791475
-0.008671544 0.00290559 -0.012477763 -0.028710233 0.008362526 -0.0118648475 0.034772303 -0.0008656269
0.06207284 -0.00032922465 0.012618747 5.13663e-40 0.034643743 -0.026438892 -0.017457867 0.0014404488
-0.006068995 -0.024409713 -0.0040719886 -0.018830685 0.01504266 -0.012991701 -7.24298e-40 -0.0056422916
0.028756624 0.028736426 0.023650018 0.008768273 -0.003264108 -7.3173623e-28 -7.366542e-09 -3.8673612e-23
00000000: eeaf 723b 0036 3d97 6765 793c b354 6cbb
00000010: 4ae0 dfbb a765 e73c 92ce 0700 f810 4ab4
00000020: 65f7 12bd d7a5 403c 0d97 37a5 5ae7 813d
00000030: 0e91 4ebc a815 7bbc 5825 67bb e9f4 8f3c
00000040: ba55 043d 7930 fb3c 6f2f 1c3d 7ba1 aebb
00000050: 2bef 0000 9f22 91bb 46b5 aa3b 2320 a43b
00000060: a899 0000 a9d5 7a3b d9d6 95bc 4c13 1ebc
00000070: 8e94 debb 600e 1c3d 859e 0280 efc1 61bc
00000080: 1713 0ebc b66b 3e3b 886f 4cbc b931 ebbc
00000090: fa02 093c c764 42bc 676d 0e3d 3deb 62ba
000000a0: 1740 7e3d c99b acb9 dcbe 4e3c e297 0500
000000b0: 99e6 0d3d 6096 d8bc cd03 8fbc 71cd bc3a
000000c0: 6cde c6bb e1f6 c7bc 516e 85bb cf42 9abc
000000d0: 7d75 763c 25db 54bc 0ce3 0780 f9e2 b8bb
000000e0: 0393 eb3c a768 eb3c afbd c13c cda8 0f3c
000000f0: a5ea 55bb 7fe5 6792 ca1c fdb1 9d03 3b9a

encoder_lin.2.weight f4 [2, 64]
-0.5519056 0.0001285706 -0.109731145 -0.6279324 -0.64225733 -0.15555048 0.009465556 -0.0020645047
0.18750237 0.0017793069 -0.0049164863 -0.05251779 0.5156676 0.092519686 -0.09060292 -0.0052751494
-0.017955048 -0.2293633 -0.023904314 -0.47664246 -0.0005600884 -0.34491038 0.33281082 -0.037507646
0.0016686927 -0.2884682 -0.5965067 -0.13309677 -0.071893565 -0.089741014 -0.0011635704 -0.32717893
-0.4339817 -0.2718468 -0.42221045 0.070281655 -0.11411603 0.015861686 -0.07198027 -0.5244376
-0.068347216 0.02470741 0.23769285 0.0013719765 -0.036075354 -0.6925505 0.022106873 -0.10768633
0.0010403562 -0.011660388 0.0067026056 0.09591614 -0.05267369 0.43787616 -2.1964142e-05 -0.6047772
-0.025384676 -0.02918418 0.010322661 0.12923916 -0.7583698 0.00044778222 -0.016783256 -0.026470026
-0.043004617 -0.02815215 -0.19808778 -0.13303538 -0.2785105 0.03426215 0.00805654 -0.0012586437
0.48657268 -0.018064376 -0.005190941 -0.038859796 -0.20088431 -0.014173044 0.048753355 -0.010491123
-0.015236619 -0.43882203 -0.0061766854 0.0922825 -2.9022229e-05 -0.75661683 0.32099977 0.50968325
-0.0016201502 0.15941222 -0.42774266 0.07830264 0.36520213 -0.050144717 -0.00016492594 0.40699574
-0.6435312 0.059395187 -0.68021774 0.114857346 0.042869072 0.3908874 -0.122903086 -0.011312478
-0.050819818 -0.018613964 0.57077396 0.005400359 -0.026900498 0.42087913 -1.0221779 0.30854067
-0.010765752 -0.4656852 -0.006437201 -0.03154834 -0.05268211 -0.389401 3.8485345e-07 -0.4765053
-0.17628601 -0.037140384 -0.038487017 0.62589735 0.26315176 -0.0044098874 -0.007011215 -0.0042043673
00000000: af49 0dbf e8d0 0639 b9ba e0bd 2ec0 20bf
00000010: fa6a 24bf a048 1fbe 6b15 1b3c a44c 07bb
00000020: 9f00 403e a237 e93a 7a1a a1bb e51c 57bd
00000030: cb02 043f f67a bd3d 068e b9bd 29db acbb
00000040: 7716 93bc 37de 6abe fbd2 c3bc 7b0a f4be
00000050: e5d2 12ba 1898 b0be 2e66 aa3e 9ea1 19bd
00000060: 09b8 da3a 1bb2 93be aab4 18bf 854a 08be
00000070: ef3c 93bd 23ca b7bd f282 98ba ff83 a7be
00000080: d932 debe 812f 8bbe f82b d8be d4ef 8f3d
00000090: aab5 e9bd 5ef0 813c 646a 93bd 8b41 06bf
000000a0: a0f9 8bbd 3267 ca3c c165 733e e4d3 b33a
000000b0: c0c3 13bd fd4a 31bf 7919 b53c a78a dcbd
000000c0: 905c 883a 360b 3fbc 88a1 db3b ae6f c43d
000000d0: 5ec0 57bd 4e31 e03e a33f b8b7 aed2 1abf
000000e0: 86f3 cfbc a913 efbc 6120 293c 4557 043e
000000f0: 8624 42bf 50c4 ea39 0a7d 89bc abd7 d8bc
00000100: 9c25 30bd 569f e6bc 86d7 4abe 6d3a 08be
00000110: ee98 8ebe 7856 0c3d 94ff 033c 13f9 a4ba
00000120: 0e20 f93e befb 93bc c518 aabb 732b 1fbd
00000130: 9eb4 4dbe 0e36 68bc 99b1 473d f6e2 2bbc
00000140: 03a3 79bc 48ad e0be cb65 cabb 9bfe bc3d
00000150: c374 f3b7 a4b1 41bf 155a a43e 9a7a 023f
00000160: 385b d4ba f53c 233e 1601 dbbe 225d a03d
00000170: c6fb ba3e 8c64 4dbd f8ef 2cb9 bf61 d03e
00000180: 76be 24bf 5e48 733d c022 2ebf 543a eb3d
00000190: 7b97 2f3d 6522 c83e 9db4 fbbd f957 39bc
000001a0: 7128 50bd 507c 98bc 3e1e 123f 7ff5 b03b
000001b0: 6f5e dcbc 787d d73e bad6 82bf 0bf9 9d3e
000001c0: d662 30bc 4a6e eebe 28ef d2bb d538 01bd
000001d0: 32c9 57bd 915f c7be db9d ce34 81f8 f3be
000001e0: 5284 34be 8420 18bd 90a4 1dbd cf3a 203f
000001f0: d4bb 863e d180 90bb 56be e5bb cac4 89bb

encoder_lin.2.bias f4 [2]
-0.15878017 -0.12111257
00000000: 4597 22be de09 f8bd
