gan_mnist.pt (torch, 861327 bytes, 7 tensors)

generator.0.weight f4 [128, 100]
00000000: cc5e 7ebe f0f3 19be 3d17 42be 9b88 053e
00000010: d27c 36bd e476 bdbb 58e1 27be edf4 63be
00000020: 199d cabd 633c 8f3c eb8b 3bbe 32d0 c13d
00000030: ed4b b83d 7081 18be 0860 5e3e 230c 32ba
00000040: 8828 4cbd 74fd 01be d869 ca3d bcdb 813e
00000050: 3597 44be 7809 5ebe dc22 363e a84b 17be
00000060: 9f1b e8bd df0f 3e3e 6d29 64be 08a2 b4bd
00000070: 998e 1ebe ffe6 a2be 65d7 e4bd 78cc 42be
00000080: 589f 23be 2b16 09bd 5db9 8dbe a91a 7c3e
00000090: 9e46 103d ce63 25be 0551 2a3e 3116 fcbd
000000a0: 9abc 8bbd b3da 213e b812 873e ecc2 503e
000000b0: b334 313e 0368 dc3d 116a e23d 5294 383d
000000c0: 6915 24be d1c9 9f3e a673 473d 41dd aa3d
000000d0: 248d 85bd 3ad2 e5bd 1e84 2b3e e4f0 89bd
000000e0: 60a8 163c 0a81 3f3e 0021 26bd d613 ff3c
000000f0: 3cd8 123e 6bfe 7cbe d314 cb3e c58f 903e
00000100: d4af 2c3e ee4e 74be 75b3 253d 6630 23be
00000110: 105f 07bc a298 133e f795 a63c 3d65 863e
00000120: ad60 403d 38f4 713e 64c2 063d cf36 0abe
00000130: 9aab 01be 4a79 4b3e a576 473e a64b cb3c
00000140: 29c9 44bb 053d 44be 9082 eabd 6f6e 6bbe
00000150: f343 9f3c 492f 1fbe 37b0 c93d 00a5 653e
00000160: fffe 673d b6df d23c 3264 8cbe bcdb f1bd
00000170: 8940 28bc c223 bfbc 28aa 323e c7c6 afbe
00000180: 30f2 af3e f4cd 763c 6db4 423c ca83 353c
00000190: c59e ca3c 716a 8fbb 8312 7fbd d715 d03d
000001a0: 763b d73d 06a7 3c3e a0d4 6cbd db47 873e
000001b0: 5719 3e3e 71a1 98bd 7ec2 993e 47c4 c63e
000001c0: 54f0 973e 0937 143e d38c 793e ec2f 893e
000001d0: 6d34 cdbd 2a6f 743d 695e 3ebe 1d89 03be
000001e0: 434c 3fbe f9e7 c3bd fdfa 713d 5baa 33be
000001f0: 5c28 a13d 525c 713d 4a72 cf3e 12ea cf3e
00000200: 97da 603e 4b03 ba3d f935 b7be 4122 49be
00000210: 3554 a83e 2f58 b5be 6801 99be 2c10 043e
00000220: cf6d 1abe bc1b afbd 0f6a cb3c 5ed7 bfbd
00000230: ea04 fcbd db7c b83d 7f0a 813e 6ca6 88be
00000240: c159 91be 6e82 88bd cd24 ffbd af0f f23d
00000250: 5d63 b1be de70 713e 6bad babc 49cd a53d
00000260: fcf6 ea3d 75ca a53e ae8d 6ebe da27 043e
00000270: f344 d33d b382 593e 438b fcbc 6672 89be
00000280: b8fd 20be 89c5 843d 6d52 303e b882 d33d
00000290: 31f2 263e 55f7 54bc 639e 413d 9dc8 b23e
000002a0: 4f42 c1be c6dc 253e 2830 27be 22e4 5d3c
000002b0: 4467 cc3d f236 9f3d 40d1 1c3f 3941 c5bd
000002c0: 0374 a63e 31f0 debe e451 a43e 3cc5 aabe
000002d0: 1cc0 b23e 35d5 063e 9d27 6c3c d5dc 623e
000002e0: 3af5 5bbe ba96 733c 282a 5d3d f58a 8d3e
000002f0: 56b9 63be c60e 33be 8d56 96be 3725 07bd
00000300: 753e 60be 9aec 6ebe 707c 35bc 78f7 893e
00000310: c777 4ebc 0042 193e 9cc6 a7be 8c3b 1b3e
00000320: f63a 08be c14f 1f3e 396b 1e3c 670f c53e
00000330: 04e5 1c3e 585a 203d 4d6d ba3d 583f fb3d
00000340: 3164 ee3d 44ec dcbd f7b2 8f3e be2c 1b3e
00000350: fdcb b03d fd8c 043c bc4e a5ba 7ccd 77be
00000360: 0c32 e5bb b43e 183e b8ce 643c f8d2 d3bd
00000370: 10e5 ab3d df8a 083d 81f0 0fbe fc21 0d3e
00000380: 67da 9fbd ee2b b33d 66b3 a6bd 6fae 393e
00000390: a72b 4c3d 3177 2b3d 8c79 ffbd 8841 26be
000003a0: e89c 333e eae1 03be b988 42be b77a b83d
000003b0: 7925 dd3d 7f27 293e d541 89bd e9f6 aabc
000003c0: 9289 3b3d fac1 79be 650c aa3e 4280 c9bd
000003d0: 6798 67bd 1297 eebd 4296 11be 2c02 4a3e
000003e0: 9031 173e d6f2 8d3d 487c 8cbd ff61 813d
000003f0: 7e18 4f3d d6a4 d83d 0fa8 9fbe 50fe 473c
-0.2484085 -0.15034461 -0.18954177 0.13040392 -0.04455263 -0.005781995 -0.16394556 -0.222614
-0.09893245 0.01748485 -0.18315093 0.09463538 0.08998857 -0.14893126 0.2171632 -0.00067919696
-0.04984334 -0.12694341 0.09883469 0.25362957 -0.19198306 -0.216833 0.17786735 -0.14774954
-0.11333393 0.18560742 -0.22281428 -0.088199675 -0.15484084 -0.3181686 -0.11173896 -0.19023311
-0.15978754 -0.033468407 -0.27680483 0.24619545 0.035223596 -0.16151354 0.16632469 -0.1230892
-0.06823082 0.15806083 0.2638147 0.20386857 0.1730526 0.10762026 0.11055387 0.045063324
-0.16023792 0.3120866 0.048694275 0.08342982 -0.06521061 -0.11221738 0.16749617 -0.06735399
0.009195417 0.18701568 -0.040558815 0.031137388 0.143403 -0.24706428 0.39664325 0.28234687
0.16863948 -0.23858234 0.040454347 -0.15936431 -0.008262411 0.14413694 0.02033518 0.26249114
0.046967197 0.23628318 0.03290023 -0.1349747 -0.12663117 0.19870487 0.19478853 0.024816345
-0.0030027127 -0.19163902 -0.11450684 -0.22991346 0.01944158 -0.15545382 0.098480634 0.22426224
0.056639668 0.02574144 -0.27420193 -0.11809489 -0.010269293 -0.02333248 0.17447722 -0.34331343
0.34364462 0.0150637515 0.011883837 0.011078784 0.02473391 -0.0043767025 -0.062273514 0.101604156
0.10509388 0.1842309 -0.057819963 0.2642201 0.18564354 -0.074526675 0.30031198 0.38821623
0.29675543 0.14474119 0.24370126 0.26794374 -0.10019765 0.059676327 -0.18590702 -0.12845273
-0.18681435 -0.0956573 0.05907725 -0.17545454 0.07869026 0.058925934 0.40516883 0.4060827
0.21958385 0.09082659 -0.35783365 -0.19641973 0.32876745 -0.3541884 -0.29883885 0.12896794
-0.15080951 -0.08550212 0.024830846 -0.0936725 -0.12305625 0.09008189 0.2520332 -0.2668947
-0.2838879 -0.066655025 -0.12458191 0.11819398 -0.3464612 0.23578212 -0.02278777 0.08095796
0.1147289 0.32381025 -0.23296234 0.12905827 0.103158854 0.21241264 -0.030828124 -0.26845092
-0.15721786 0.06482989 0.17218943 0.10327667 0.16303326 -0.012998422 0.04727019 0.3491868
-0.37745902 0.161975 -0.16326964 0.013543161 0.09980634 0.07774152 0.6125679 -0.09631581
0.32510385 -0.43542627 0.32093728 -0.33353603 0.34912193 0.1316727 0.014413741 0.22154553
-0.21480265 0.014867479 0.05399528 0.27645078 -0.22238669 -0.17486104 -0.29362908 -0.032994475
-0.21898825 -0.23332444 -0.0110770315 0.26946616 -0.012601799 0.14966583 -0.32768714 0.15159434
-0.13303742 0.15557767 0.009669119 0.38488314 0.15321738 0.03914866 0.09102879 0.12267941
0.11640204 -0.107872516 0.28066227 0.15153787 0.08632658 0.008090255 -0.0012611966 -0.2419948
-0.0069944914 0.1486767 0.013965301 -0.103429735 0.083932996 0.033335563 -0.14056589 0.13782495
-0.07805329 0.08748613 -0.08139686 0.18132947 0.049846318 0.041861717 -0.12474355 -0.16235936
0.17540324 -0.12879148 -0.18997468 0.09007781 0.10798163 0.16518973 -0.067020096 -0.020869689
0.045785494 -0.24390402 0.3321258 -0.09838916 -0.056541827 -0.11649908 -0.14217475 0.19727391
0.14765 0.06931083 -0.06859642 0.063175194 0.050560467 0.10578315 -0.31182906 0.012206629

generator.0.bias f4 [128]
00000000: 37c5 11be 3d53 a9bf 42d2 b9bd 1787 86bf
00000010: 41eb d9be ae15 99be e884 543f 5d3c 00bf
00000020: 1da9 183f 74aa d03e 1eb5 ba3e 0b76 493e
00000030: 5e3f 72bd 800f 88bc 2d8e 32bf 8810 0bbf
00000040: a2fb 67bd c697 9c3e 6f60 2cbf da53 0dbf
00000050: c5ef 23bf 0516 afbe 42de 17be b27a 4abe
00000060: 2b87 0cbf 699d c83d 0ea3 37bf 45cc 9a3d
00000070: 0f02 ec3e 8046 b0be 3824 8cbe aca0 9dbd
00000080: b67c 8fbf a28e 73be d035 16ba f68e 443a
00000090: 4a1c 6fbe 49bf bdbe b47b 063d 589a 4fbf
000000a0: fb88 9b3d 74d5 51bf 10db 1a3d 8d28 c63e
000000b0: 1195 683e 93f0 78bd d4e4 bb3e 2a1c 42bf
000000c0: e0fc d0bb ead1 71bf c5b9 00bc 6669 67be
000000d0: 21bb 18bf 22e7 8dbe 4c94 a33e 26ef 1abe
000000e0: 880a 3a3d 7afa 2c3e 772f c93d bf5d 84bb
000000f0: 14c3 8fbe 6903 2cbf 1f41 e1be ce1b 09be
00000100: 64ac 44be ca3e a83d 3ac6 2abe c11f f9be
00000110: e51e 17bf 5813 843e c186 10bf 2548 e0be
00000120: ebc3 8ebd bca7 f93d 86b0 33bd 5604 adbe
00000130: a1cc febe 6aee abbe 9bd6 b4be eaf7 91be
00000140: 380e 8fbe a6fd e1be 79e4 fcbd 851a dd3d
00000150: 8386 02bf 75e4 2abf 0c29 14bf 7a8a 2abf
00000160: 22d1 6a3d c39d 21bf 0f58 dabe 3726 03be
00000170: 1a39 c6be e5b0 2abf 7dcc 0ebf fe0e 42bf
00000180: 3798 4d39 c338 bcbe f29a 4abe 844e 42bf
00000190: 3f2d 44be 1373 f3be 7148 63bf 085f 49bf
000001a0: 14ac 29bc 7643 883c 7f82 7e3d bdd8 123d
000001b0: e87f c4be 14d6 fd3e f448 8cbf 2fc3 89be
000001c0: 410e 89bf 4a48 a0bf ed76 30bf 3686 dbbe
000001d0: b2ce ebbe 6b61 54bc 06f1 093d cd98 2fbf
000001e0: 8195 25bf a5f0 bcbe 35d7 2abf c795 7c3e
000001f0: 2537 4bbf 9b3d d9be 5cff bc3e ecec ab3d
-0.14235388 -1.3228527 -0.090733066 -1.0509976 -0.42562297 -0.29899353 0.830153 -0.5009211
0.59633046 0.40755045 0.36466306 0.19673936 -0.059142463 -0.016608953 -0.69748193 -0.543221
-0.05663646 0.30584544 -0.67334646 -0.5520607 -0.64037734 -0.34196487 -0.14830878 -0.19773367
-0.5489375 0.097956486 -0.71733177 0.075584926 0.4609532 -0.34428787 -0.27371383 -0.07696661
-1.1209934 -0.23784879 -0.00057300646 0.00074981095 -0.23350635 -0.37060001 0.032832816 -0.81094885
0.07594486 -0.8196633 0.03780657 0.38702813 0.22713114 -0.060776304 0.3669802 -0.75824225
-0.0063778013 -0.9446093 -0.007856791 -0.225988 -0.59660536 -0.27715403 0.3194908 -0.1513029
0.0454202 0.16892424 0.09823506 -0.0040394957 -0.2807852 -0.67192703 -0.43994996 -0.13389513
-0.19206387 0.08215101 -0.1667718 -0.4865704 -0.59031516 0.25796008 -0.5645562 -0.43805042
-0.06970962 0.12190196 -0.043869518 -0.3379237 -0.49765494 -0.33580333 -0.3531998 -0.28509456
-0.27940536 -0.4413883 -0.12348265 0.10796074 -0.509865 -0.6675485 -0.5787513 -0.6661755
0.05732835 -0.6313135 -0.42645308 -0.12807547 -0.3871544 -0.6667617 -0.55780774 -0.75804126
0.00019607028 -0.36762056 -0.1978567 -0.75901055 -0.19157885 -0.47548732 -0.8878241 -0.7866063
-0.010355968 0.01663373 0.06213617 0.03585123 -0.38378835 0.4957739 -1.0959764 -0.26906726
-1.0707475 -1.2522061 -0.68931466 -0.42875832 -0.46056134 -0.012962679 0.033677123 -0.6859253
-0.6468125 -0.36902347 -0.6673463 0.2466651 -0.7938102 -0.42429814 0.36913574 0.08394799

generator.3.weight f4 [784, 128]
00000000: 7e2d 22be a826 ba3d 764d 8fbd 84df c5bc
00000010: 35b7 5bbd 4d63 96bd 5b13 e0bd 5e3f 8c3c
00000020: e0d7 03be 0885 49bd c0b0 d8bd 9b2e 88bd
00000030: 5175 e8bd 7f5d 99bd 1599 3abc 66a5 e3bc
00000040: c88e ebbd 31c9 9abc b3c1 21bd ff20 a3bc
00000050: c84a bc3b 35d4 98bd facd ccbd 86a1 9f3c
00000060: 8caf 02be 5ec0 133d c1b0 29be 2717 45bb
00000070: aaf5 b8bd c6ce 733a 6225 803d c2c5 903c
00000080: 0b01 babc 0c6c c8bc f708 5cbd d07d 973b
00000090: ddcd 32bd de85 c63c e631 29be b29a a8bd
000000a0: 69af 2fbd 09fa 87bd abe2 5dbd 91a8 cabd
000000b0: 5f61 f0bd d97b abbc cc91 3abd 2f20 0aba
000000c0: 4fcc 22bd 365b 713c e04e 00bd f7fc 2cbd
000000d0: 14d5 0fbe 2101 1bbe 333e c7bb 1bc5 12bd
000000e0: 56a6 49bc 1827 0abe f05b b1bd b18b 9abc
000000f0: e5e8 033d e8e3 80bd 92f1 11be fe71 a4bd
00000100: 1ff9 7ebc b30d 8cbc 8cf0 67be 12b8 ebbd
00000110: f7f0 073c 705a 9cbd bbdb 00bd c810 1d3d
00000120: 4aaa 2cbd 9b92 a3bd 2de2 b4bc 76b0 a4bd
00000130: 48c6 8fb8 0a1c d73c d6f6 0dbd e89f bbbc
00000140: 9081 f2bd b3b4 04be c4cc 8abd 2bd9 85bd
00000150: 0a75 013e 6eb4 4ebd 7f19 ccbd f961 8e3c
00000160: 75f1 b2bd ea5b 563c 4b3e d0bd 8ac1 9dbd
00000170: 7a8e 893d 1574 5ebd 0906 11bd 45b7 aa3d
00000180: 5b2e bcbd 3fb3 c3bd 246c 92bd 52b7 c2bd
00000190: 2e1b 50bd 9aea 2ebd 0869 bdbd cc2b f3bd
000001a0: 2588 6b3c 0ff7 13bd 42ce 32be 2c98 05be
000001b0: 9df2 36bd 7dba c2bd 7f74 52bc ffee eabb
000001c0: d460 9c3d c37a de3d 5128 163d 4a8d acbc
000001d0: bc6a 89bd 1416 d13c 3671 7dbd b952 91bd
000001e0: ae2d c0ba 7455 04bd c4f6 08be d3ec 9fbd
000001f0: c9f9 bb3d f7d4 8bbd 9fa8 febd 95c0 3abd
00000200: 11b0 07be f539 bcbc 6fa0 debd cfcc cbbd
00000210: 581d 34be 2697 e33d 0722 15bd 2d55 d1bd
00000220: d92a 07be 7fce 54bd 2dd7 83bd a28a 003c
00000230: be75 09be 53d6 cdbd 2ee1 94bd 4454 fe3c
00000240: 1812 a5bd 439f 9ebc f776 233d dfd0 96bd
00000250: 116f 893a e728 b8bd 7730 aebd 5865 05be
00000260: c09b acbd fbe3 c2bc f76c 423c 7183 07be
00000270: 69e9 7cbd b5c1 45bd 1bae 263d 3254 973b
00000280: c104 583d fe9f d83b 2cfc a1bd 2108 a1bd
00000290: e0b5 d0bd 6b86 0ebd 6900 76bc 09bd b93c
000002a0: e0b5 c3bc e1d5 703d 3910 d6bd 1f58 f7bd
000002b0: 7c82 5fbc 449d dfbd bab3 b0bd 0204 063d
000002c0: c34e 5abd e95e 8f3d 6ddf 28bc e1f1 a5bd
000002d0: ba78 28be 9a30 803d 397a b3bc 4375 cabc
000002e0: 9782 b23b 334a f9bc 6137 e7bd 4579 b8bc
000002f0: 40fe 8dbd 886e 32be 9f3a 023d c40b 153d
00000300: 09e4 0b3d 134a 01bc bc65 21bd af01 b4bc
00000310: e523 a2bc bd61 ddbc 3757 77bc d1ce 0abe
00000320: 535c 89bd 9425 b7bb bbdf 1b3d 5dda 98bb
00000330: fc40 e03d cef5 3d3c 1634 f8bd 360a 61bc
00000340: 58d9 3cbe 30cf 14be 3ee3 153d b0ae 673b
00000350: 724f 21bc dcb7 e3bc 4f29 8ebd ba44 1bbc
00000360: 4307 45bd 1927 a9bc e790 903b c45e a0bd
00000370: ae38 02bc c729 d0bd 278f 9cbd 39fe a3bd
00000380: a893 5ebd 032c 28bd 1e5e 2dbd 41cb f9bc
00000390: c408 e9bd a394 8dbd 9830 13bd 7826 95bd
000003a0: 9b9d 1fbd 75c4 ffbd 161a 5bbd 3f24 88bd
000003b0: bd06 83bb 0ef7 e4bd de34 2d3d 6a34 65bd
000003c0: 4e88 cbbd 0c32 1cbd 2722 4c3d 092a 983b
000003d0: fa63 893d 47cc 97bd c8c9 53bd 9727 59bd
000003e0: d200 02bd 0c58 91bd 9067 ff3c 6937 673d
000003f0: 9ed2 d2bc c199 d2bd 15b1 0bbe 9a23 5abd
-0.15837666 0.09089404 -0.069971964 -0.024154432 -0.053641517 -0.07343159 -0.10941192 0.01712006
-0.12875319 -0.049199134 -0.105805874 -0.06649514 -0.11350501 -0.07488536 -0.011389037 -0.027788829
-0.11501843 -0.018894764 -0.039491367 -0.019913195 0.0057462193 -0.0746235 -0.100002244 0.0194862
-0.12762278 0.036072128 -0.16571333 -0.0030073614 -0.09031232 0.0009300526 0.0625713 0.017672423
-0.022705575 -0.024465583 -0.053719487 0.0046231523 -0.043653358 0.024233755 -0.16522941 -0.08232631
-0.042891894 -0.06639487 -0.054171246 -0.09895433 -0.11737322 -0.020933079 -0.0455492 -0.0005269078
-0.039745625 0.014731219 -0.03132522 -0.042233434 -0.14046127 -0.1513715 -0.006080413 -0.035832506
-0.012307724 -0.13491476 -0.08660114 -0.018865438 0.032204527 -0.0629347 -0.14252308 -0.08029555
-0.015562325 -0.017096376 -0.22650355 -0.11509718 0.008297197 -0.07634437 -0.03145955 0.038346082
-0.042154588 -0.07986947 -0.022080505 -0.0804147 -6.855704e-05 0.026258487 -0.03465923 -0.022903398
-0.11841118 -0.12959556 -0.06777337 -0.06535562 0.12642303 -0.05046504 -0.099658005 0.017380701
-0.087374605 0.013083437 -0.101681314 -0.0770293 0.067166284 -0.054309923 -0.035406146 0.08335737
-0.09188529 -0.09555673 -0.071495324 -0.09507622 -0.05080717 -0.042704202 -0.09248549 -0.11873588
0.014375721 -0.036124285 -0.17461494 -0.1304633 -0.044664968 -0.09508226 -0.012845158 -0.007169604
0.07635656 0.10863259 0.036659542 -0.021063466 -0.06709811 0.025523223 -0.061875544 -0.07095856
-0.0014662051 -0.032308057 -0.13375384 -0.078088425 0.09178502 -0.06827729 -0.12434506 -0.045593817
-0.13250758 -0.022976855 -0.10870444 -0.099511735 -0.17589319 0.11112814 -0.036409404 -0.10221324
-0.13199939 -0.051954743 -0.06437526 0.007845553 -0.13423821 -0.10050645 -0.07269512 0.03104604
-0.08060092 -0.019363051 0.039908376 -0.07364058 0.0010485371 -0.089921765 -0.08505338 -0.13026941
-0.084281445 -0.02379035 0.0118668 -0.13233735 -0.061746035 -0.048280437 0.040693384 0.004618191
0.05273891 0.0066108694 -0.07909426 -0.078628786 -0.1019094 -0.03479616 -0.015014746 0.022673147
-0.023890436 0.05879772 -0.10452313 -0.12077355 -0.01364195 -0.10918668 -0.0862803 0.032718666
-0.05329777 0.070005246 -0.010307175 -0.08102775 -0.16452304 0.0625927 -0.021908866 -0.024714118
0.0054476964 -0.030430889 -0.112898596 -0.022518763 -0.0693326 -0.17424977 0.031794187 0.036388174
0.03415302 -0.007891196 -0.039403662 -0.021973459 -0.019792506 -0.027024144 -0.015096477 -0.13555457
-0.067070626 -0.0055891965 0.038055163 -0.004664703 0.10949895 0.011594249 -0.121193096 -0.013735345
-0.18442285 -0.14532161 0.03659367 0.0035351925 -0.009845601 -0.027797632 -0.06941473 -0.009476835
-0.04810263 -0.020648526 0.004411805 -0.07830575 -0.007948084 -0.101642184 -0.07644492 -0.080074735
-0.054340035 -0.041057598 -0.042326085 -0.030492427 -0.11378625 -0.06913116 -0.035935014 -0.07282728
-0.038968664 -0.12488643 -0.053491674 -0.066475384 -0.003998606 -0.111799344 0.042286746 -0.05595819
-0.099381074 -0.038133666 0.049837258 0.004643683 0.06708522 -0.0741201 -0.051706105 -0.05301627
-0.031739064 -0.07096872 0.031177312 0.056449328 -0.025735196 -0.102832325 -0.1364177 -0.05325661

generator.3.bias f4 [784]
00000000: ffa7 94be ab4b 9dbe 95dd 9dbe 3e8c 98be
00000010: 2948 9cbe b3c6 9abe eeff 71be 64bd 8fbe
00000020: 1ea1 8bbe 7beb 49be 6808 99be 12bf 93be
00000030: 51c8 7cbe 34a1 85be 3488 a8be a171 b0be
00000040: 06d4 a2be 34b2 70be 4d57 5fbe a84b 87be
00000050: 0a33 b6be 3569 4fbe b719 a3be 9b51 7bbe
00000060: a619 bfbe 0933 b1be 7d93 83be 9df5 9bbd
00000070: 722d 9ebe 790a f5be 67b1 82be f56e c6be
00000080: 0a02 b1be 5faa 95be 3f2d 84be 69aa 89be
00000090: 3241 a9be d027 8ebe 9624 93be 9bad afbe
000000a0: e0ea c3be 319e bbbe 95f0 9abe 0197 b6be
000000b0: 0d3e 94be e98c 9bbe 607e 97be c025 c5be
000000c0: 3b59 9abe 6f88 17be a15d a6be 242c 99be
000000d0: c0a6 8dbe 10e1 90be 15f9 a0be 19fc 9abe
000000e0: 4316 a8be 66b5 a5be c67d 4cbe 5317 abbe
000000f0: 3b7d 97be b281 87be 1340 8abe 391c 8ebe
00000100: 135e b1be 96da 8ebe 986e acbe eaaa 87be
00000110: efc0 b1be a868 8abe 9419 a4be 33bb 8ebe
00000120: 0c63 c4be 7ff4 3bbe 464c d1be 597b aebe
00000130: 4965 c1be d992 71be f57e 54be 63e1 91be
00000140: fbf0 52be f87d 42be cf11 a2be 7244 9ebe
00000150: ceb9 90be 7dfd d8be 642b 73be 9fa9 b7be
00000160: efff 7cbe 53a3 a6be 3f76 8bbe 6fc8 8cbe
00000170: 9c04 3fbe e8af 96be 88d2 f4be 18dc b7be
00000180: 7b69 96be c60c b8be 8851 f2be 4c2d 86be
00000190: 10e8 dbbe 0318 95be 2de0 a2be 3101 b5be
000001a0: 4695 dbbe 5071 d3be 63f1 70be 72de 92be
000001b0: efeb 91be 0bb0 b0be ecc8 8fbe cd16 a3be
000001c0: 475a 6fbe 91bb 55be 7fd8 99be 5038 b8be
000001d0: 0db7 58be a8dd a6be 9101 83be 2be2 b3be
000001e0: 6f46 9cbe 0b5f 93be f7d5 a5be 53b6 47be
000001f0: f14c 8fbe 7a82 29be a7a9 5cbd 70ca 01be
00000200: f697 1ebe c6fd 66be a9dd 59be e7ab c4be
00000210: 986c a9be a979 b3be 7644 a6be 4be4 9ebe
00000220: 8946 cebe e728 a8be cb85 88be cd18 e2be
00000230: 0bde 8abe 7158 afbe a35f acbe 40ab 4fbe
00000240: 07a8 b2be 10ac b2be a9ce 59be 93f0 31be
00000250: 8cb6 1abe 870d e0bd cfd9 42be a016 a0bd
00000260: 1adb 89bd 89d9 9cbd eff0 4b3d fa3a 8a3d
00000270: a25f 8c3b ab1b 4ebd 6a01 e3bc 5672 73be
00000280: f967 57be a6aa 0ebe adde 41be b08f 8cbe
00000290: 9319 babe 95a0 8bbe 26ac 9ebe aeaa c5be
000002a0: c9d5 55be 9124 9ebe c95e 8ebe 1e1c 34be
000002b0: d5f2 a3be d2a7 55be 7e16 8fbe fdc0 62be
000002c0: e868 1dbe ff82 cbbd 478a 8bbd 7453 6f3b
000002d0: deaa 49bd 1c36 15bc 23ea 3e3c d164 b93d
000002e0: de8b 223c 9118 90bd a5a6 01be 2082 c7bd
000002f0: b5f0 13be d40f c7bd 196a 25be a195 9abe
00000300: 37be cdbe dcde c2be d479 a7be 0546 78be
00000310: 541f 52be c49c 9fbe 52c8 c5be a7ad 9ebe
00000320: cb27 26be f52f 8cbe 8331 44be 66ec 00be
00000330: 62b4 48be d08f 35be f69d 5fbd 8636 133d
00000340: 9e10 323c 2813 cebd b5d2 23bc 280c 383d
00000350: 8fda 38bd 6da4 9dbd 06ac 4dbd 04a8 abbd
00000360: 213f 8abd 9551 74bd 135a e6bd 2ae1 48be
00000370: 37b2 8cbe 34af 6abe ae15 8ebe 7525 a2be
00000380: fa8e 90be f0f4 a3be 0fba 97be 600d 8dbe
00000390: cdc2 4bbe 98f3 42be df5d 08be 5733 42be
000003a0: b2ad 02be cc70 8cbd d6c3 94bd f6b5 91bc
000003b0: ad72 d1bd 0be3 5abd ff42 10bc 8dd1 71bd
000003c0: 0c7f 75bd e759 18bd 6d7b dd3c 5217 88bd
000003d0: 53e3 00bd 383c dabd 35c7 f4bc 158a 43be
000003e0: 3471 acbe 451b 99be 7c4a 97be d1a6 9cbe
000003f0: c266 acbe 15e9 4ebe 3313 7cbe 2845 b8be
-0.2903442 -0.30721793 -0.30833116 -0.29794496 -0.30523804 -0.3022972 -0.23632786 -0.2807418
-0.2727136 -0.19718735 -0.29889226 -0.28856713 -0.2468579 -0.2609955 -0.32916415 -0.34461692
-0.31802386 -0.23505479 -0.21810646 -0.2642491 -0.35585815 -0.20254977 -0.31855556 -0.24542849
-0.37324256 -0.3460925 -0.25698462 -0.076152064 -0.30894047 -0.47859553 -0.25525972 -0.38756528
-0.34571868 -0.29231545 -0.2581577 -0.26887825 -0.33057553 -0.2776475 -0.2873885 -0.34312138
-0.38265133 -0.36644128 -0.30261675 -0.35662082 -0.2895359 -0.30380943 -0.29588604 -0.38505363
-0.30146202 -0.14798139 -0.32493308 -0.2991649 -0.27666283 -0.2829671 -0.31440035 -0.3027046
-0.32829484 -0.3236496 -0.19969854 -0.33416232 -0.2958773 -0.26466137 -0.2700201 -0.27755907
-0.34642085 -0.27901143 -0.33678126 -0.26497585 -0.3471751 -0.2703297 -0.32050765 -0.27877197
-0.38356817 -0.18354987 -0.40878505 -0.34078482 -0.37772587 -0.23591174 -0.20751555 -0.2849227
-0.20599739 -0.18993366 -0.31654212 -0.30911595 -0.28266758 -0.42380896 -0.23747021 -0.35871598
-0.24707006 -0.32546481 -0.27238652 -0.2749667 -0.18654102 -0.2943108 -0.47816873 -0.35910106
-0.2937735 -0.35947245 -0.47327828 -0.26206434 -0.42950487 -0.29119882 -0.31811658 -0.3535247
-0.42887324 -0.41297388 -0.23529582 -0.28685337 -0.28500316 -0.3450931 -0.2808298 -0.31853333
-0.23374282 -0.20872332 -0.30047986 -0.35980463 -0.21163578 -0.32590985 -0.25587133 -0.3513349
-0.30522487 -0.2878345 -0.32389805 -0.19503145 -0.2798839 -0.16553679 -0.05387273 -0.1267488
-0.15487656 -0.22557744 -0.21275963 -0.384124 -0.33090663 -0.35053757 -0.32474107 -0.3103355
-0.4028819 -0.32843706 -0.26664576 -0.44159546 -0.2712253 -0.34247163 -0.33666715 -0.2028017
-0.3489382 -0.34896898 -0.21270241 -0.17376928 -0.15108699 -0.1094008 -0.190284 -0.078168154
-0.067312434 -0.07658679 0.04979032 0.0674953 0.0042838613 -0.050319355 -0.027710635 -0.23774084
-0.21035756 -0.13932285 -0.189326 -0.27453375 -0.36347637 -0.27270952 -0.30990714 -0.3860678
-0.20882334 -0.30887273 -0.2780669 -0.17588851 -0.32021204 -0.208648 -0.27946848 -0.22143932
-0.1537205 -0.09937095 -0.06813484 0.0036518248 -0.049235217 -0.009107139 0.011652502 0.09052432
0.009921042 -0.07035936 -0.12661226 -0.09741616 -0.14447291 -0.09719816 -0.16153754 -0.30192283
-0.40184185 -0.38060653 -0.32710135 -0.2424546 -0.20519763 -0.3117429 -0.38629395 -0.3099186
-0.16226117 -0.27380338 -0.19159512 -0.12590179 -0.1960006 -0.17730641 -0.054594003 0.03594067
0.01086822 -0.100622475 -0.009998967 0.044933468 -0.04513031 -0.07697377 -0.050212882 -0.08381656
-0.06750322 -0.059648115 -0.11247649 -0.19617143 -0.27479717 -0.22918397 -0.27750915 -0.31669202
-0.28234082 -0.3202281 -0.2963414 -0.27549267 -0.1989853 -0.19038236 -0.13317059 -0.18964897
-0.12761572 -0.06857452 -0.07263915 -0.017786961 -0.10226951 -0.05343918 -0.008805036 -0.059037734
-0.059935614 -0.037195113 0.027036393 -0.06645073 -0.031466793 -0.10656017 -0.029880146 -0.19095643
-0.33680117 -0.29903618 -0.29549015 -0.3059602 -0.33672148 -0.20206101 -0.24616699 -0.35990262

discriminator.1.weight f4 [128, 784]
00000000: f0d2 653d a5d5 583d d129 af3c 438b ab3b
00000010: 90f7 c73c e403 c8ba 6934 1c3d 845b 293d
00000020: 0175 1f3d f9c2 88ba 2a33 3f3d 3d09 463b
00000030: b85e 063c 3d54 323c 0317 303d 4f4d 483d
00000040: fbc0 5dbc 8d11 683d 0c5c 963d 5fe3 0e3d
00000050: 1532 83bb d027 2c3c 05a6 0c3d 7bdb 313d
00000060: 019c 89bb 39ad 0fba b514 243d f47d 053d
00000070: 1d61 2e3d b393 843d 07f3 af3c e819 633d
00000080: 38dd cdbc 267a 503d d8e2 5a3d 5b70 083a
00000090: 58fe 3f3b 2c04 553d b6ce 6b3c d224 293d
000000a0: 8a3c 713c b6da db3c 134b 8939 451f adbc
000000b0: f971 7b3d cb79 9c3c 87b5 e83c 7e5a 983c
000000c0: 9315 273c 282e c4bb f0db d63c 0849 b8b9
000000d0: 95f6 003d 5014 a4bb bee7 d53c 9a06 9a3c
000000e0: cb25 ab3c aa84 e6bb bb36 833c b756 d33c
000000f0: 493d ec3c 8bad 033d 4ead 103d f750 d63a
00000100: 6b4c 2b3d 6a08 083d 6fc6 273d 7b6c 913d
00000110: da7a ad3c c2b7 18bc 730e 3ebc 751d 4cbd
00000120: 1121 72bd c18e 773a de1f 91bd ee52 76bd
00000130: 4872 963b 66b1 6ebc 98f0 953c a459 063d
00000140: a688 733d b31d 653d 2492 233d db7f f73a
00000150: 1fbe 0b3d fa8e 253d d9ef ac3c fd42 e43c
00000160: 47a9 2f3d e38a 2b3d deec 683d 521a 893d
00000170: 58f8 493d 0a18 6a3d 70f7 433d 76e5 8f3d
00000180: 019f 463d 5e13 323d e25f 713a 32c8 1dbd
00000190: 7549 98bd 7f95 e4bd 33f1 74bd 6546 72bd
000001a0: 994c 333d 5245 603d a580 853d e56d 5e3c
000001b0: 01b8 e33b 323b b43b 0a73 6cb9 f6b2 ba3c
000001c0: ea9e 6f3b 4812 c03c beac 673d f58c 26bc
000001d0: f9de 043c 0030 343c 55ec 143b 6efe 1e3d
000001e0: 8eb5 0d3d 72f3 253d 471e 5c3d 1119 0e3d
000001f0: 434d 743d e3fe 543d 8dff 6a3d 44c1 6c3c
00000200: 6a0c 0fbd 9b93 78bd 911e 50bd 0ed3 a7bc
00000210: b292 06bd 212b 9d3c 75e7 363d 6e55 523d
00000220: 65de 473d 4991 713d 4fe1 e03c a5cd 1d3d
00000230: 4560 5a3d 25ac 663d 5ba3 963c 0e08 ecba
00000240: 9a81 b23c 5d9c 813c 0173 fe3c eab6 933d
00000250: b369 863d 1c2f 3a3d dce4 b13c 1ce8 82bc
00000260: dda4 283d 0f13 a73d 86d6 4b3d 9530 b7bd
00000270: f37e 09be 963e 4cbe 87a9 27be 17a6 d5bd
00000280: 35a4 f9bd f9ae c4bb 7b8f f93c 3a62 903d
00000290: f19a 683d 00bf 8b3b 10b4 d33b e375 643c
000002a0: 96e3 893c b748 4b3d 2bde cbba d53c 04ba
000002b0: 8972 0e3d a590 613d 0a2e 7f3d f492 5d3d
000002c0: 45ac 8c3d 6d06 033d 3c8f 91bc fa18 123d
000002d0: 97a2 d13d 2c47 f8bc 33d7 70be eaee 91be
000002e0: bf23 51be e54d 57be ba6e d4bd 156b a2bd
000002f0: 796b b6bd f991 debc 6895 793a e063 35bc
00000300: 5910 6d3d 765e 063d 7e76 ad3b e6c0 9b3c
00000310: 3938 d73c 9502 193d 19a1 1db6 5aa7 1e3d
00000320: 75ff b43c 4af5 7b3d 3864 db3d 153d ba3d
00000330: 85c3 233b 28ff d13c 2ae3 2b3d 6d1b bf3d
00000340: fcb6 ba3c 015d 5dbe ebde 7abe ff5d d3bd
00000350: 4353 bfbc 5b7f 193e 2ee0 b63d 1350 44bc
00000360: c8bc 13bc 24d3 50bd 654b dcbc afd0 a23b
00000370: c7e8 c83d e55b a03d 6044 893d e2cc dcbb
00000380: 2a32 7d3c 2d16 08bc aab1 d83c c6f1 23bb
00000390: 9a1b 343d 9243 2a3d 8949 863d 61d5 313d
000003a0: bb9e 173d b0be 333d 475d ff3d 0420 423d
000003b0: 76e0 87be d027 a0be f121 6b3b fddc fb3d
000003c0: 3923 c63d 3399 343e c952 133e f146 e03c
000003d0: 46a0 a73c 3e91 86bd 1cda d2bd 2d5b d7bc
000003e0: 0ded 913d 4cee c83d 5967 e43c 1aa4 eb3c
000003f0: 8e80 1b3c 6142 683c 2128 153d 32db 383d
0.05610937 0.052938122 0.021382244 0.005235107 0.02441004 -0.0015259949 0.03813592 0.04134704
0.038929943 -0.0010434083 0.046679653 0.0030217909 0.008201294 0.010884342 0.042990696 0.048901852
-0.01353478 0.056657363 0.07341775 0.034884807 -0.004003773 0.010507539 0.034338016 0.043422204
-0.0041995053 -0.0005480829 0.04005881 0.03259082 0.042573083 0.06473484 0.02147819 0.055444628
-0.0251299 0.05089774 0.05343899 0.00052047306 0.0029295888 0.05200593 0.014392545 0.04129488
0.014723906 0.026837688 0.0002618661 -0.021133075 0.06138799 0.019101044 0.028406871 0.018597838
0.010198015 -0.0059869476 0.026227921 -0.00035149627 0.03148516 -0.0050073043 0.02611148 0.018801976
0.020892045 -0.0070348578 0.016017308 0.025798185 0.028837817 0.032147925 0.035321526 0.0016351034
0.041820925 0.03321115 0.040960725 0.07100769 0.021176744 -0.009321155 -0.011600125 -0.04983278
-0.059113566 0.0009443574 -0.07086156 -0.06013768 0.00459126 -0.014568662 0.0183032 0.03280033
0.05945649 0.055936527 0.039934292 0.0018882708 0.03411686 0.040419556 0.021110462 0.027863974
0.042886045 0.0418805 0.05686652 0.06694473 0.049309105 0.05715183 0.047843397 0.07026188
0.04849148 0.0434755 0.0009207708 -0.038521 -0.07435886 -0.111613266 -0.059800338 -0.059149165
0.04377422 0.05475361 0.065186776 0.013576006 0.006949425 0.0055002207 -0.00022549569 0.022790413
0.0036563226 0.023446217 0.056561224 -0.010165443 0.008109801 0.010997772 0.0022723873 0.03881686
0.034596972 0.04051537 0.053739812 0.034691874 0.059643995 0.05200089 0.05737262 0.014450375
-0.03492395 -0.060687643 -0.0508104 -0.02048638 -0.032854743 0.019185605 0.04465433 0.051351003
0.048796076 0.058976445 0.027451186 0.038526196 0.053314466 0.056316514 0.01838844 -0.0018007772
0.021790314 0.01582163 0.031060698 0.072126225 0.06563129 0.045455083 0.021715574 -0.015979819
0.04117285 0.08157932 0.049765132 -0.08944813 -0.13427334 -0.1994575 -0.16373263 -0.1043207
-0.12189523 -0.0060023037 0.030463925 0.07049985 0.05678839 0.0042647123 0.006460674 0.013944122
0.016832154 0.049629893 -0.0015553882 -0.0005044465 0.034777198 0.055069584 0.062299766 0.054095224
0.06868795 0.03198855 -0.017768495 0.03566835 0.1023609 -0.030307375 -0.23519592 -0.2850259
-0.20423792 -0.21025808 -0.10372682 -0.079305805 -0.089072175 -0.027169215 0.00095208595 -0.011071175
0.05787692 0.03280493 0.0052936664 0.01901288 0.026271926 0.037355978 -2.3488594e-06 0.038733818
0.022094468 0.061513223 0.107124746 0.09093682 0.0024988365 0.025634363 0.041964687 0.09331403
0.022792332 -0.2161751 -0.24499099 -0.10320663 -0.023355132 0.14989989 0.08929478 -0.011981982
-0.009017177 -0.05098261 -0.02689142 0.0049687247 0.09810024 0.078300275 0.067024946 -0.006738291
0.015453855 -0.008306068 0.026451904 -0.0025015934 0.043971635 0.041568346 0.065569945 0.043416385
0.03701661 0.043883026 0.12468963 0.047393814 -0.26538438 -0.31280375 0.0035878385 0.122980095
0.09674687 0.17636566 0.14387049 0.027377577 0.020462167 -0.065706715 -0.10295507 -0.026288593
0.07125292 0.098110765 0.027881311 0.028764773 0.009491099 0.014175982 0.036415223 0.045130916

discriminator.1.bias f4 [128]
00000000: b43c 093f 1b58 443f e012 03bf bb80 23bf
00000010: 8ee5 6d3f 793b 27bf 0a15 17bf f394 e8be
00000020: d77e 13bf 5e7a 29bf 8177 17bf 769b 16bf
00000030: 9455 18bf 1453 8d3f 610f 1fbf e4ac 0b3f
00000040: 78a3 903f d78a 10bf a78f 1bbf ea32 16bf
00000050: ba14 2f3f 2026 423f 5505 3f3f e0a5 3c3f
00000060: f8ea 0a3f 6d11 193f 8214 143f 275d 05bf
00000070: ab3e 34bf 1df3 2c3f d3bc 903f 2334 953f
00000080: e5fc 16bf d7cb 8f3f ea18 8f3f aeae 2cbf
00000090: 95fe 19bf c7c9 093f 3557 313f e680 3b3f
000000a0: ecd7 8d3f f977 15bf f65c 933f 7734 0c3f
000000b0: 10ed 2bbf 4e17 18bf ec57 2f3f 97e6 0cbf
000000c0: 470d 07bf 604a fdbe f059 20bf b74c 2cbf
000000d0: 01c3 1a3f 7862 223f cc33 2ebf d898 1cbf
000000e0: c34b 27bf 7b2e 24bf a67c 31bf b413 7e3f
000000f0: 4c2f 913f 133d 10bf ead5 16bf 5948 673f
00000100: 4099 2fbf 1499 45bf 093c 3fbf 2489 2d3f
00000110: 108c 193f e097 213f 86c8 2bbf 3dd3 423f
00000120: 732f 33bf 4546 31bf f40c 4c3f e568 20bf
00000130: a73e 153f ebc8 383f 31f9 1ebf 1d10 16bf
00000140: a94e 963f 7c58 6cbf 4aa9 2bbf 2b23 0fbf
00000150: d448 2d3f c610 873f 9c1c 943f bb21 07bf
00000160: 3c20 1f3f a4c5 1b3f 694f 243f 900a 17bf
00000170: 3a4e 203f 85a4 1d3f e794 8c3f a490 843f
00000180: e35b 8d3f 5a8f 25bf bb39 2dbf add5 443f
00000190: 21b8 183f e1c9 943f 2880 2f3f 9edc 25bf
000001a0: ce98 2a3f dede 463f 665e 1dbf 839c 1c3f
000001b0: 65cd 23bf 31f4 efbe de1f fabe 1f6e 28bf
000001c0: 1937 333f fbc4 fd3e c899 163f 2b70 843f
000001d0: 3c57 483f 39e2 563f 7c5d 1dbf dd8d 0cbf
000001e0: 79f5 233f 6be3 1cbf 0713 28bf ca6e 25bf
000001f0: 779c 18bf 9fc3 243f 4db8 29bf 546a 27bf
0.5360825 0.7669694 -0.51200676 -0.638683 0.929284 -0.65325123 -0.5901648 -0.4542614
-0.5761542 -0.6620234 -0.59166723 -0.58830965 -0.5950558 1.1040978 -0.6213284 0.54560685
1.1299887 -0.5646185 -0.6076607 -0.5867144 0.68391 0.75839424 0.7461751 0.73690605
0.54264784 0.59792215 0.5784379 -0.52095264 -0.70408124 0.6755846 1.1307625 1.1656536
-0.58979636 1.1234082 1.1179478 -0.6745404 -0.60154086 0.5382351 0.6927369 0.7324356
1.1081519 -0.5838619 1.1512744 0.54767555 -0.67158604 -0.5941056 0.68493533 -0.5503935
-0.52754635 -0.49470806 -0.62637234 -0.6730456 0.604538 0.634315 -0.68047786 -0.6117072
-0.6534998 -0.64133424 -0.69330823 0.99248815 1.1342559 -0.5634319 -0.58920157 0.9034477
-0.68593216 -0.77186704 -0.7470098 0.67787385 0.59979343 0.6312237 -0.6710285 0.76103574
-0.69994277 -0.6924785 0.79707265 -0.62660056 0.58298725 0.72181576 -0.62098986 -0.58618337
1.1742755 -0.92322516 -0.6705519 -0.5591304 0.6768925 1.0551994 1.1571231 -0.52785844
0.6215856 0.6084845 0.6418367 -0.5900049 0.62619364 0.6157916 1.0982941 1.0356641
1.1043667 -0.6467186 -0.67666215 0.76888543 0.5965596 1.1624109 0.68554926 -0.6478976
0.6663941 0.7768382 -0.61472166 0.6117632 -0.6398528 -0.4686599 -0.48852438 -0.6579303
0.7000595 0.49564347 0.588284 1.0346731 0.7825811 0.8393894 -0.6147077 -0.54903966
0.64046437 -0.6128451 -0.65654033 -0.64622176 -0.59613746 0.64360994 -0.66296846 -0.6539662

discriminator.4.weight f4 [1, 128]
00000000: 44e1 27bf 20ef 09bf f441 fa3e b68e db3e
00000010: 5643 d6be 0418 d13e 7c69 c23e 0cf2 f43e
00000020: 479c af3e 2a08 0f3f 1b37 b93e bce6 873e
00000030: 958e c13e 908d 2cbf df77 033f 0683 10bf
00000040: 64fa 4cbf c596 bb3e a2e6 f03e 86c3 ff3e
00000050: d38a 18bf 0620 37bf 0f4e 78bf 8b1a 08bf
00000060: a462 24bf ccdd 87bf 1b2e 38bf a3b5 dc3e
00000070: 74d7 033f 1a68 18bf c082 c8bf 5b5d 41bf
00000080: c7ed e03e 9df9 20bf a080 2bbf 7ca0 c43e
00000090: e50b 003f 4c48 29bf f186 40bf 31e0 1bbf
000000a0: 08a1 d8be c81c ff3e 238c 34bf 37fd 23bf
000000b0: 1fe5 cb3e 900a 4c3e 204e 19bf 229f da3e
000000c0: 7748 ea3e 496d b63e 3b9d fb3e 49de 993e
000000d0: 2ae3 47bf 3056 2dbf 051f be3e bcd8 ff3e
000000e0: 44b2 cb3e e99a fd3e bf6a e23e 5dd3 5ebe
000000f0: 28ed 1cbf 568c dc3e 4aec e43e 952d cbbe
00000100: 923b c03e 9fd3 da3e d30e bc3e e0b1 28bf
00000110: 0a1c 25bf 081a 1ebf ea1b c43e ad79 3fbf
00000120: 7a46 b93e 624e c83e 9d99 12bf 2c20 ce3e
00000130: 69d6 0dbf 48a4 3ebf 0a38 023f db71 a23e
00000140: b613 13bf d9a5 a63e e5a5 f23e b003 f33e
00000150: 0d34 0bbf 035e 3bbe daa5 3fbf 6b37 a93e
00000160: c2c4 28bf 8830 39bf 5795 2abf 8bc9 123f
00000170: 0f81 33bf f3cb 01bf 692e 1fbf 7dd3 a4bf
00000180: 9266 a7bf 1863 ba3e a5b9 f93e 4c2b 03bf
00000190: 886e 1ebf b45b 2ebf d9b7 35bf 6d10 1a3f
000001a0: 52e8 28bf 9202 47bf c699 e93e ab83 18bf
000001b0: dbc0 c33e d019 e03e b82c ba3e 0663 f13e
000001c0: 4df4 2cbf 5fca 2abf ee21 09bf a5ff 57be
000001d0: 690a 13bf 993f 3fbf f579 f03e 8be5 d53e
000001e0: 0a1f 29bf 90e2 103f 2134 db3e 6bfa e43e
000001f0: 3457 c73e e198 22bf e35f b73e 7401 f33e
-0.65578103 -0.538805 0.48878443 0.42882317 -0.41848248 0.40838635 0.37971103 0.47840917
0.34298918 0.5587183 0.36174855 0.26543224 0.37804094 -0.6740351 0.51354784 -0.56449926
-0.80069566 0.36638466 0.4705096 0.4995386 -0.5958683 -0.7153324 -0.9699411 -0.531655
-0.64213014 -1.0614562 -0.7194535 0.43107328 0.5150063 -0.59533846 -1.5664902 -0.75533074
0.4393141 -0.6288088 -0.6699314 0.3840369 0.5001815 -0.6612594 -0.75205904 -0.60888964
-0.42310357 0.49826646 -0.7052633 -0.6405825 0.39823243 0.19925904 -0.59884834 0.42699534
0.4575841 0.35630253 0.49143395 0.30052403 -0.78081 -0.67709637 0.3713304 0.49970043
0.39784443 0.4953225 0.44222066 -0.21760316 -0.6129937 0.43075818 0.44711524 -0.39683214
0.3754545 0.4273958 0.3673006 -0.65896416 -0.6449591 -0.6175847 0.38302547 -0.7479504
0.36186582 0.391223 -0.57265645 0.4025892 -0.5540529 -0.74469423 0.5086676 0.3172749
-0.5745195 0.32548407 0.47392192 0.4746375 -0.543763 -0.18297581 -0.74862444 0.33050093
-0.6592523 -0.7233968 -0.66634125 0.5733878 -0.701188 -0.50701827 -0.6218019 -1.2877041
-1.3078177 0.36403728 0.48774448 -0.5123794 -0.6188741 -0.6810868 -0.70983654 0.60181314
-0.6597949 -0.77738297 0.45625132 -0.5957591 0.38233075 0.43769693 0.36362243 0.4714586
-0.67560273 -0.66715044 -0.535674 -0.21093614 -0.5743776 -0.7470642 0.46968046 0.4177669
-0.66062987 0.56595707 0.4281321 0.44722304 0.38933718 -0.63514525 0.35815343 0.47462046
